trike2/models/trainied against random/DQN_Agent_4000ep.pt/DQN_Agent.pt (torch, 333080 bytes, 8 tensors)

fc1.weight f4 [256, 148]
000000 e8 a7 ee 41 a8 e7 e7 41 92 a3 f8 41 4d 8f cf 41
       29.831985 28.988113 31.079868 25.944971
000010 6d 88 de 41 46 e4 01 42 ab 73 0d 42 ae 65 b0 41
       27.816614 32.472923 35.362957 22.049648
000020 71 41 d0 41 a8 47 cd 41 9c a8 b5 41 ce d8 d2 41
       26.031954 25.659988 22.707329 26.355862
000030 0c e7 ec 41 1a 2f 61 3d 30 b7 de 41 05 b8 ae 41
       29.612816 0.05497656 27.839447 21.839853
000040 8e 2f d7 41 c8 ac cd 41 91 27 b1 41 69 dd 0d bd
       26.89822 25.709366 22.14432 -0.03463498
000050 0f af 8b 3d 2d 79 e4 41 73 36 df 41 18 e1 a2 41
       0.06820499 28.559168 27.901587 20.35991
000060 01 7e e0 41 ca a3 62 3d 50 96 83 3b c7 ce a5 3d
       28.061525 0.055331983 0.0040157214 0.0809608
000070 d8 1f b9 41 ee b5 d9 41 cb ad d0 41 97 f4 2a bd
       23.140549 27.213833 26.08486 -0.041737165
000080 0c 41 18 3d e0 67 f9 3c 1c c5 9b bc 41 b6 f0 41
       0.03717141 0.03044504 -0.019014888 30.088991
000090 68 a8 ed 41 fa dd 05 bd 63 2f 93 3d 62 2e 08 3d
       29.70723 -0.032682396 0.07186773 0.03324736
0000a0 a2 8d 3e 3d 92 d1 43 3d a7 b5 00 42 84 a1 9a 3c
       0.04652179 0.047807284 32.177395 0.018875845
0000b0 2f 96 91 3d d8 7e 4b bc c1 1d 32 bd e9 d7 88 3d
       0.07108723 -0.012420379 -0.043485407 0.066818066
0000c0 ef 57 a2 3d d9 29 0b 42 3a 2e e8 41 18 53 de 41
       0.07926928 34.790867 29.022572 27.790573
0000d0 60 28 cd 41 f1 08 e1 41 52 d4 03 42 6d 31 06 42
       25.644714 28.129366 32.957344 33.548267
0000e0 59 12 b3 41 b7 eb d1 41 5f c3 d3 41 98 f6 bf 41
       22.383959 26.240095 26.470396 23.995407
0000f0 4d 04 d2 41 96 2f e7 41 80 2a 95 3a 39 08 de 41
       26.2521 28.898235 0.0011380464 27.754015
000100 ec 23 ad 41 d9 b3 c2 41 e2 21 e1 41 c4 e4 b1 41
       21.64254 24.337816 28.141544 22.236702
000110 90 ae 96 3c 6a bc 66 3d 78 a4 e1 41 b6 b1 cb 41
       0.018393785 0.05633203 28.205307 25.461773
000120 a3 c0 b7 41 4e d3 df 41 e6 92 79 bd 46 f3 29 3d
       22.96906 27.978176 -0.06093111 0.04149177
000130 ac 39 9a bc b5 27 ca 41 a9 0e db 41 cd 44 d4 41
       -0.018826328 25.269388 27.382158 26.533594
000140 da 38 3c 3d 2a 8d 36 bd cb ca a5 3d 1c b0 06 bd
       0.045952655 -0.04456822 0.0809532 -0.032882795
000150 9b cd e6 41 b4 90 ec 41 60 62 b8 3c c8 fc 44 bd
       28.850393 29.570656 0.022507846 -0.048092633
000160 3a 8d 73 3d 78 17 54 bd ea 25 91 bd 5b ed 00 42
       0.059460856 -0.051780194 -0.0708731 32.231792
000170 48 86 63 bd 20 df 23 bc d8 d8 8d bd 26 c2 33 3d
       -0.055547982 -0.010001928 -0.06926125 0.043886326
000180 93 f3 86 bd 44 1a 89 bc 0c 8c f7 41 2a dd f7 41
       -0.06589427 -0.016736157 30.943382 30.98299
000190 62 8f 00 42 83 ee fe 41 3e ff 08 42 06 30 fa 41
       32.140022 31.86646 34.24926 31.273449
0001a0 a2 5f e7 41 98 88 c7 41 04 ef 00 42 87 bb 04 42
       28.921696 24.941696 32.233414 33.183132
0001b0 d7 44 00 42 6c 12 0f 42 19 67 04 42 7e fc 2e bd
       32.067226 35.76799 33.10068 -0.042721264
0001c0 9c c6 01 42 c1 de ad 41 1d 34 0d 42 5a d7 08 42
       32.443954 21.733767 35.30089 34.210304
0001d0 f7 b2 e1 41 a1 41 a3 bd dc e2 c8 bc fe 34 01 42
       28.212385 -0.07971502 -0.024522237 32.30175
0001e0 71 23 0d 42 db 8f d1 41 e0 1f 09 42 ee 83 30 3d
       35.28461 26.195242 34.281128 0.043094568
0001f0 ac 52 49 bd 50 f1 6c bc 00 53 ff 41 dd bd 05 42
       -0.049151108 -0.01446183 31.915527 33.435413
000200 5f a0 03 42 06 46 77 bd 6e 97 42 3d 50 64 4b bd
       32.906612 -0.060369514 0.047507696 -0.049656212
000210 74 9e e9 3c f7 ef e5 41 37 e6 e8 41 1d ff 33 bd
       0.02851794 28.74217 29.11241 -0.043944467
000220 16 41 52 3d b6 02 c7 bc 97 1d 8f 3d 00 a3 f7 39
       0.051331602 -0.024293285 0.06988066 0.00047232956
000230 fa 3c f1 41 26 4f 62 3d 26 d7 e6 bc 61 d3 93 3d
       30.154774 0.055251263 -0.028178763 0.07218052
000240 88 0b a1 3c aa 44 4c bd ad 44 99 3d 31 bd 74 bd
       0.019658819 -0.04987017 0.07483802 -0.05975074
000250 be 6b f0 41 4b 29 e7 41 14 50 f6 41 2f da ce 41
       30.052608 28.895163 30.7891 25.856535
000260 84 63 df 41 11 03 01 42 b6 7e 0d 42 09 a8 b0 41
       27.923592 32.252995 35.37374 22.082048
000270 36 3f cf 41 4d a6 cd 41 df af b3 41 df e6 d0 41
       25.905865 25.706202 22.460875 26.11273
000280 e4 bb ec 41 a2 90 72 3d a5 c2 dd 41 83 e8 ac 41
       29.591743 0.059219964 27.720041 21.613531
000290 a5 a0 d4 41 7f 4d cb 41 b1 b7 b0 41 25 68 56 bd
       26.57844 25.41284 22.089693 -0.052345414
0002a0 7a 91 35 3d 0b 37 e3 41 8e 10 e0 41 7b a1 a1 41
       0.04432819 28.401876 28.008083 20.203848
0002b0 0c 3f df 41 df 77 82 3d 48 b4 3a bd d8 73 4d 3c
       27.905785 0.0637052 -0.045582086 0.012539826
0002c0 48 6d b5 41 4b a9 d8 41 47 d4 ce 41 5d e9 93 3d
       22.67836 27.082663 25.853651 0.07222245
0002d0 0d d8 49 bd 78 ba 28 bc 52 a2 40 3d 10 38 f0 41
       -0.049278308 -0.010298364 0.0470298 30.027374
0002e0 42 ab e8 41 61 01 9f bd 40 1a a2 3b 11 6e 9c 3d
       29.083622 -0.07763935 0.004946977 0.07638181
0002f0 3e 4b 6c 3d f4 70 80 bd fc ae 00 42 78 4f a0 bc
       0.057688944 -0.06271544 32.170883 -0.019569144
000300 5c ca ae 3c 8b d8 65 bd 42 1c a2 bd 6c c8 69 bd
       0.021336727 -0.056114715 -0.07915546 -0.057075903
000310 27 6d 8f bd 49 87 0b 42 06 9e e7 41 13 19 df 41
       -0.07003241 34.882114 28.95216 27.887243
000320 b9 ba cc 41 e9 46 e0 41 bf d7 02 42 8c 94 05 42
       25.591173 28.034624 32.71069 33.395065
000330 0a dc b0 41 c5 93 ce 41 64 27 d1 41 fe d8 be 41
       22.10744 25.822153 26.144234 23.855953
000340 89 6d d1 41 2a ee e4 41 d4 71 ff bc d7 93 dc 41
       26.178484 28.616291 -0.031182207 27.572187
000350 fa af ad 41 96 dd c3 41 96 96 dd 41 59 f5 b0 41
       21.710926 24.483196 27.698528 22.119799
000360 c0 12 50 bc a3 bc 6b bd 77 03 e1 41 0e 05 c9 41
       -0.012699783 -0.057552945 28.126692 25.127468
000370 6b 66 b7 41 60 c2 df 41 64 af bd 3c 58 a1 5c bd
       22.925009 27.96991 0.023154922 -0.053864807
000380 88 0d 9c 3c e9 60 c8 41 d7 8b d9 41 61 9c d2 41
       0.019049421 25.04732 27.193281 26.326357
000390 4d dd 99 3d 10 68 6e bd 3f 1e a8 bd 40 fb 3b bc
       0.07512913 -0.05820471 -0.08208894 -0.011473477
0003a0 34 7d e7 41 48 be ed 41 ae a8 7b 3d e0 ed 37 bb
       28.936134 29.71791 0.061440162 -0.0028065369
0003b0 e0 79 c8 3c a0 4c 8f 3c ed 37 98 3d b6 84 00 42
       0.024472177 0.017492592 0.07432542 32.1296
0003c0 c8 b6 74 3c d5 a6 a3 3d b1 7d 85 3d 05 8a 92 3d
       0.014936157 0.07990805 0.06518114 0.071552314
0003d0 78 9d 54 bc b0 c8 eb bc 02 1e f9 41 d0 79 f4 41
       -0.012976997 -0.028782219 31.139652 30.559479
0003e0 f2 8f 00 42 c2 0e ff 41 46 dc 08 42 c1 f3 f8 41
       32.14057 31.882206 34.21511 31.11902
0003f0 ce 2f e9 41 24 85 c8 41 a8 ee 00 42 ea 15 04 42
       29.148342 25.06501 32.233063 33.0214

fc1.bias f4 [256]
000000 19 0c 9f 41 82 3d a0 41 92 ff 9f 41 0b 6a a0 41
       19.880907 20.030033 19.99979 20.051779
000010 4a 45 a0 41 70 19 a0 41 5e 54 a0 41 bd e6 9f 41
       20.033833 20.01242 20.041195 19.987665
000020 ca 94 a0 41 ce 83 a0 41 2a 3f a0 41 cf 38 a0 41
       20.07265 20.064358 20.030842 20.027739
000030 b8 91 9f 41 1f 49 a0 41 19 95 a0 41 29 af 9f 41
       19.946152 20.035704 20.072802 19.960527
000040 3f e2 9f 41 f1 54 a0 41 b4 32 9f 41 e4 b7 9e 41
       19.985472 20.041475 19.899757 19.83979
000050 b0 06 a0 41 28 d0 9f 41 be 98 a0 41 63 e1 9f 41
       20.003265 19.976639 20.074581 19.985052
000060 e6 37 9f 41 53 5a a0 41 ae 5d 30 c0 00 f5 9f 41
       19.902294 20.044104 -2.7557178 19.994629
000070 02 db 9f 41 f4 19 a0 41 1b 1f a0 41 57 ad a0 41
       19.981937 20.012672 20.015188 20.084639
000080 2f a8 9f 41 ac 7c a0 41 5c 7d a0 41 5d 79 a0 41
       19.95712 20.060875 20.06121 20.05926
000090 ed 34 a0 41 14 3b a0 41 f8 53 a0 41 7e 15 9f 41
       20.025843 20.028847 20.041 19.885494
0000a0 9f 4b a0 41 d9 52 a0 41 1d 5f a0 41 63 9e 9f 41
       20.036924 20.040453 20.046442 19.952337
0000b0 7b d8 9f 41 16 8e 20 c0 0e d4 9f 41 af a1 a0 41
       19.980703 -2.5086722 19.978542 20.078947
0000c0 2b 57 a0 41 99 7f a0 41 44 78 a0 41 eb 45 a0 41
       20.042562 20.062304 20.058723 20.03414
0000d0 69 2f a0 41 61 34 a0 41 b4 f5 9e 41 88 f4 9f 41
       20.02315 20.025576 19.869972 19.9944
0000e0 ba 9a 9f 41 4f 6e a0 41 48 7d a0 41 aa 9b 9f 41
       19.95055 20.053862 20.061172 19.951008
0000f0 1d e9 9e 41 c7 5a a0 41 61 d5 9f 41 13 d4 9f 41
       19.863825 20.044325 19.979189 19.978552
000100 af df 9f 41 8f 87 9f 41 71 10 a0 41 bf df 9f 41
       19.98422 19.94119 20.008028 19.984251
000110 99 f7 9f 41 40 16 a0 41 0f aa 9e 41 d1 65 a0 41
       19.995897 20.010864 19.833036 20.049715
000120 72 47 9f 41 7c b0 9f 41 bc 25 a0 41 76 4f a0 41
       19.909885 19.961174 20.018425 20.0388
000130 95 4c a0 41 12 70 a0 41 36 02 a0 41 a2 1a a0 41
       20.037394 20.054722 20.00108 20.013004
000140 f8 29 a0 41 57 2c a0 41 e9 e7 9f 41 48 72 a0 41
       20.020493 20.02165 19.988237 20.055801
000150 52 8e a0 41 2f 55 a0 41 7f e8 9f 41 81 40 9e 41
       20.069492 20.041594 19.988523 19.781496
000160 0e 29 a0 41 ba 1e 9f 41 49 95 9f 41 0d 7e a0 41
       20.020046 19.890003 19.947893 20.061548
000170 14 1e a0 41 46 0d a0 41 d5 77 a0 41 52 3c a0 41
       20.014687 20.006481 20.058512 20.029453
000180 40 da 9f 41 ad 5c a0 41 fe 40 a0 41 20 76 34 c0
       19.981567 20.045252 20.031734 -2.8197098
000190 71 1a a0 41 8f e6 9f 41 9e 0e a0 41 69 5b a0 41
       20.01291 19.987577 20.007137 20.044634
0001a0 db 75 a0 41 52 43 a0 41 c8 45 a0 41 f7 6d a0 41
       20.057547 20.032871 20.034073 20.053694
0001b0 33 86 9e 41 f5 0c 9f 41 70 c0 2e c0 d3 1a a0 41
       19.815527 19.881327 -2.7304955 20.013098
0001c0 bd fd 9f 41 42 4f 9f 41 a3 80 a0 41 13 02 a0 41
       19.998896 19.9137 20.06281 20.001013
0001d0 1f e9 9f 41 10 20 a0 41 88 6c 9f 41 b7 0a a0 41
       19.988829 20.015656 19.927994 20.005232
0001e0 8e 5c 9f 41 80 ca 9e 41 e5 c9 9f 41 99 7e a0 41
       19.920193 19.848877 19.973581 20.061815
0001f0 c1 9c a0 41 74 c4 9f 41 71 52 9f 41 b3 65 a0 41
       20.07654 19.970924 19.915255 20.049658
000200 54 82 a0 41 09 0e a0 41 73 ed 9f 41 b9 14 a0 41
       20.063637 20.006853 19.990942 20.010118
000210 0f 54 a0 41 29 ba 9f 41 e9 04 a0 41 63 4e 9f 41
       20.041044 19.965899 20.002398 19.913275
000220 b9 92 9f 41 09 07 a0 41 7a 84 a0 41 c2 05 a0 41
       19.946642 20.003435 20.064686 20.002811
000230 fc a4 a0 41 3f 6c a0 41 ef b8 33 c0 5b df 9f 41
       20.080559 20.052855 -2.8081625 19.98406
000240 ea 56 9f 41 03 29 a0 41 1d ae 9f 41 e3 8e a0 41
       19.917439 20.020025 19.960016 20.069769
000250 1a 1e a0 41 0d 94 a0 41 d9 36 9f 41 25 14 a0 41
       20.014698 20.07229 19.901781 20.009836
000260 87 fb 9f 41 9c f1 9e 41 bc 28 a0 41 a8 f4 9e 41
       19.997816 19.867973 20.01989 19.869461
000270 69 b8 9e 41 f3 f5 9f 41 5d 38 a0 41 ea 52 2e c0
       19.840044 19.995092 20.027521 -2.7238107
000280 8c 9d a0 41 e9 49 a0 41 21 04 a0 41 ab 72 a0 41
       20.076927 20.036089 20.002016 20.05599
000290 7f 74 9f 41 27 6e a0 41 79 81 9f 41 12 20 a0 41
       19.931883 20.053785 19.93822 20.01566
0002a0 90 cf 9f 41 4b 54 a0 41 59 21 a0 41 bc e6 9f 41
       19.976349 20.041159 20.016283 19.987663
0002b0 da a1 9f 41 70 a4 9f 41 2d 88 a0 41 cd 43 9f 41
       19.95403 19.955292 20.066492 19.908106
0002c0 27 e9 9f 41 01 5d a0 41 e5 ed 9f 41 92 fc 9f 41
       19.988844 20.045412 19.99116 19.998325
0002d0 2a 3f a0 41 9e 1e a0 41 d5 cf 9f 41 2d 90 32 c0
       20.030842 20.01495 19.97648 -2.7900498
0002e0 eb 6d a0 41 97 e1 9f 41 01 ec 30 c0 35 ef 9f 41
       20.05367 19.985151 -2.7644045 19.9918
0002f0 7e bb 9f 41 9c da 9f 41 01 f3 9e 41 44 a7 a0 41
       19.966549 19.981743 19.868654 20.081673
000300 80 1c a0 41 0a cf 9f 41 e2 65 a0 41 9d ac 9f 41
       20.013916 19.976093 20.049747 19.959284
000310 d0 35 9f 41 a5 96 a0 41 56 0f a0 41 13 6d 9f 41
       19.901276 20.073557 20.007488 19.928259
000320 c1 2e 9f 41 74 44 a0 41 7e 22 a0 41 56 50 9f 41
       19.89783 20.033424 20.016842 19.914227
000330 13 df 9f 41 35 eb 9f 41 6c 22 a0 41 75 4a a0 41
       19.983923 19.989847 20.016808 20.036356
000340 d6 67 9f 41 ae 54 a0 41 67 86 a0 41 2a 3d a0 41
       19.925701 20.041348 20.065626 20.029865
000350 4f 73 a0 41 16 65 31 c0 1a 07 9f 41 10 57 a0 41
       20.056303 -2.7717948 19.878468 20.042511
000360 16 1e a0 41 cb 85 9f 41 81 75 a0 41 82 8a 9e 41
       20.01469 19.940329 20.057375 19.81763
000370 1d 35 a0 41 d9 8f 9f 41 6e d7 9f 41 43 00 a0 41
       20.025934 19.945238 19.98019 20.000128
000380 65 31 32 c0 4a fb 9f 41 87 1a 30 c0 27 1c a0 41
       -2.7842648 19.9977 -2.751619 20.013746
000390 f3 0d a0 41 55 16 a0 41 8c c6 9f 41 61 45 a0 41
       20.006811 20.010904 19.971947 20.033876
0003a0 53 b1 9f 41 b3 2a a0 41 4e e6 9f 41 26 31 a0 41
       19.961584 20.02085 19.987453 20.023998
0003b0 71 73 9f 41 38 97 9f 41 2f 86 a0 41 e4 a1 a0 41
       19.931368 19.948837 20.06552 20.079048
0003c0 4e 3c a0 41 f3 d0 9f 41 48 16 a0 41 1d 5d a0 41
       20.029446 19.977026 20.01088 20.045465
0003d0 3f 2a 9f 41 15 4c a0 41 5f 95 a0 41 b0 5c a0 41
       19.895628 20.03715 20.072935 20.045258
0003e0 92 e7 9f 41 a6 1e a0 41 34 45 a0 41 4e 7d a0 41
       19.988071 20.014965 20.03379 20.061184
0003f0 47 61 a0 41 db 10 a0 41 76 02 a0 41 2f ac 9f 41
       20.047499 20.00823 20.001202 19.959074

fc2.weight f4 [128, 256]
000000 75 d0 29 42 e6 eb 2a 42 eb 99 2a 42 02 05 2b 42
       42.45357 42.73037 42.65031 42.75489
000010 de a1 2b 42 2b bf 2a 42 8e f7 2a 42 fe 00 2b 42
       42.908073 42.686687 42.741753 42.75097
000020 64 6f 2b 42 9d 17 2b 42 9f 74 2b 42 da 2a 2b 42
       42.85878 42.77306 42.863888 42.791847
000030 e9 1a 2b 42 5d ee 2a 42 8a c6 2a 42 39 99 2a 42
       42.77628 42.732777 42.693886 42.64963
000040 e6 86 2a 42 f3 30 2b 42 96 85 2a 42 7a bb 2a 42
       42.631737 42.797802 42.630455 42.683083
000050 aa 2b 2b 42 05 e9 2a 42 12 58 2b 42 f9 25 2a 42
       42.79264 42.72756 42.836006 42.537083
000060 41 37 2b 42 4d 4d 2b 42 3c 16 1c c1 47 56 2b 42
       42.80396 42.82549 -9.755428 42.834255
000070 79 17 2b 42 5c f6 2a 42 3b b7 2a 42 79 f9 2a 42
       42.772923 42.740585 42.678936 42.743626
000080 ee 27 2b 42 00 59 2b 42 5f 58 2b 42 66 62 2b 42
       42.788994 42.836914 42.8363 42.846092
000090 ee c0 2b 42 fe c2 2a 42 3c d8 2a 42 23 b9 2a 42
       42.938408 42.690422 42.711166 42.680798
0000a0 95 8f 2b 42 62 89 2a 42 a7 e1 2a 42 e1 8c 2a 42
       42.890217 42.634163 42.720364 42.637577
0000b0 58 3e 2b 42 41 4c 02 c1 f8 a0 2a 42 59 05 2b 42
       42.810883 -8.143617 42.657196 42.755222
0000c0 4b e0 2a 42 6b f5 2a 42 12 1d 2b 42 4c c5 2a 42
       42.719036 42.739666 42.77839 42.692673
0000d0 64 f9 2a 42 ca 79 2a 42 b0 7b 2a 42 8a 0d 2a 42
       42.743546 42.618935 42.62079 42.51322
0000e0 93 34 2b 42 38 5e 2b 42 50 00 2b 42 0a 46 2b 42
       42.801342 42.84201 42.750305 42.818398
0000f0 a8 f8 2a 42 8c 80 2b 42 69 41 2a 42 3f f1 2a 42
       42.74283 42.875534 42.563877 42.73559
000100 55 44 2b 42 e5 99 2a 42 53 a0 2b 42 c5 03 2b 42
       42.81673 42.650288 42.906567 42.75368
000110 90 e2 2a 42 b9 32 2b 42 5e 89 2a 42 c2 28 2b 42
       42.721252 42.799534 42.634148 42.789803
000120 97 c8 2a 42 38 f1 2a 42 5f 37 2b 42 dc 4e 2b 42
       42.69589 42.735565 42.804073 42.82701
000130 a4 cb 2a 42 be e6 2a 42 27 07 2b 42 b3 f6 2a 42
       42.698868 42.725334 42.756985 42.740917
000140 68 e7 2a 42 5b 13 2b 42 f9 57 2b 42 d5 23 2b 42
       42.725983 42.7689 42.83591 42.784992
000150 f8 e0 2a 42 28 12 2b 42 48 12 2b 42 bc ad 2a 42
       42.719696 42.76773 42.767853 42.669662
000160 d1 53 2b 42 71 07 2b 42 4e 9b 2a 42 d2 1f 2b 42
       42.831852 42.757267 42.651665 42.781075
000170 5b 46 2b 42 6c c4 2a 42 a8 f3 2a 42 09 36 2b 42
       42.818707 42.69182 42.737946 42.80277
000180 f1 cb 2a 42 60 0f 2b 42 7e 3f 2b 42 ba e0 1c c1
       42.69916 42.765015 42.812004 -9.804865
000190 e1 a7 2a 42 89 17 2b 42 68 6f 2b 42 83 c6 2b 42
       42.663944 42.772984 42.858795 42.94386
0001a0 a8 79 2b 42 50 3e 2b 42 a2 81 2a 42 b3 df 2a 42
       42.868805 42.810852 42.626595 42.718456
0001b0 b0 79 2a 42 e9 68 2a 42 f1 cc 1d c1 27 3b 2b 42
       42.618835 42.60245 -9.8625345 42.807766
0001c0 77 c3 2a 42 d6 5b 2b 42 3e c9 2a 42 2a e9 2a 42
       42.690884 42.839684 42.696526 42.7277
0001d0 e4 70 2a 42 1c 8d 2a 42 8e d2 2a 42 79 14 2b 42
       42.610245 42.637802 42.70562 42.769993
0001e0 4f a6 2a 42 4d 17 2a 42 51 de 2a 42 b5 32 2b 42
       42.66241 42.522755 42.717106 42.79952
0001f0 10 64 2b 42 32 07 2b 42 ef 27 2b 42 4c 35 2b 42
       42.847717 42.757027 42.788998 42.802048
000200 7a 90 2a 42 69 df 2a 42 ba 6a 2b 42 6a 29 2b 42
       42.64109 42.718174 42.854225 42.790443
000210 38 31 2b 42 06 1f 2b 42 0e 1a 2b 42 be 98 2a 42
       42.798065 42.780296 42.775444 42.649162
000220 92 ff 2a 42 61 bc 2a 42 d0 f9 2a 42 4a 8d 2a 42
       42.74958 42.683964 42.743958 42.637978
000230 16 43 2b 42 1d d9 2a 42 9b 25 1d c1 6d e3 2a 42
       42.815514 42.712025 -9.821681 42.722095
000240 72 b0 2a 42 d5 61 2b 42 38 4b 2b 42 b1 42 2b 42
       42.67231 42.84554 42.823456 42.81513
000250 3b dc 2b 42 d1 b7 2b 42 12 19 2b 42 ca 94 2b 42
       42.96507 42.92951 42.774483 42.8953
000260 f8 2b 2b 42 25 bf 2a 42 df 4c 2b 42 a3 78 2a 42
       42.79294 42.686665 42.82507 42.61781
000270 d0 b2 2a 42 20 05 2b 42 9d 23 2b 42 68 84 1d c1
       42.67462 42.755005 42.78478 -9.844826
000280 37 b2 2a 42 17 4f 2a 42 7c 42 2b 42 04 0a 2b 42
       42.674038 42.577236 42.814926 42.75978
000290 56 8d 2a 42 5a 19 2b 42 91 ef 2a 42 50 20 2b 42
       42.638023 42.774757 42.73395 42.781555
0002a0 e8 83 2b 42 2d af 2a 42 09 c3 2a 42 ff 78 2a 42
       42.878815 42.67107 42.690464 42.61816
0002b0 c9 81 2a 42 97 38 2b 42 3e 4e 2b 42 52 05 2a 42
       42.626743 42.805264 42.82641 42.505196
0002c0 67 d8 2a 42 3f 0e 2b 42 92 03 2b 42 95 f4 2a 42
       42.71133 42.763912 42.753487 42.73885
0002d0 07 33 2b 42 4e 6c 2b 42 0d 42 2b 42 b0 a4 1c c1
       42.79983 42.855766 42.814503 -9.790207
0002e0 4d 64 2b 42 23 d7 2a 42 31 e4 1d c1 de 4c 2b 42
       42.84795 42.710094 -9.868211 42.825066
0002f0 29 90 2a 42 75 85 2a 42 46 ad 2a 42 17 82 2b 42
       42.64078 42.63033 42.669212 42.87704
000300 4f f5 2a 42 e9 c8 2a 42 6a 83 2b 42 b8 47 2b 42
       42.73956 42.6962 42.878334 42.820038
000310 ca fb 29 42 d1 db 2a 42 18 f6 2a 42 97 94 2a 42
       42.495888 42.714664 42.740326 42.645107
000320 23 12 2b 42 fc 81 2a 42 34 0e 2b 42 52 ee 2a 42
       42.76771 42.626938 42.76387 42.732735
000330 a5 0f 2b 42 54 80 2a 42 5e 1f 2b 42 7d 5c 2b 42
       42.765278 42.62532 42.780632 42.84032
000340 96 e1 2a 42 b2 f2 2a 42 fe d0 2a 42 50 a3 2a 42
       42.7203 42.737007 42.704094 42.659485
000350 da 12 2b 42 39 78 1d c1 4a 8b 2a 42 dd 13 2b 42
       42.76841 -9.841851 42.636024 42.769398
000360 7e 19 2b 42 83 d8 2a 42 49 23 2b 42 66 ce 29 42
       42.774895 42.711437 42.78446 42.45156
000370 ec da 2a 42 b5 43 2a 42 e4 42 2b 42 08 00 2b 42
       42.71379 42.56612 42.815323 42.75003
000380 c0 c4 1d c1 cb 22 2b 42 0f 5f 20 c1 23 f8 2a 42
       -9.860535 42.783978 -10.023208 42.74232
000390 dd ec 2a 42 2f 49 2a 42 59 e2 2a 42 ef ee 2a 42
       42.73131 42.57147 42.721043 42.733334
0003a0 9e 1e 2b 42 5f 59 2a 42 46 63 2a 42 df e1 2a 42
       42.7799 42.587276 42.596947 42.720577
0003b0 50 d8 2a 42 9c 41 2a 42 2e d7 2a 42 a5 e6 2a 42
       42.711243 42.56407 42.710136 42.72524
0003c0 8b 88 2a 42 e2 6f 2a 42 bc b0 2a 42 9f 70 2b 42
       42.633343 42.60926 42.672592 42.85998
0003d0 63 d7 2a 42 eb 87 2a 42 1f 43 2b 42 e0 62 2b 42
       42.71034 42.632732 42.815548 42.846558
0003e0 0d 27 2a 42 5d f8 2a 42 e5 0d 2b 42 bb fd 2a 42
       42.538136 42.742542 42.76357 42.747784
0003f0 0c 0d 2b 42 70 77 2b 42 6e f6 2a 42 9c 41 2b 42
       42.76274 42.86664 42.740654 42.81407

fc2.bias f4 [128]
000000 7a 67 27 42 7b b5 27 42 22 9e 27 42 53 7a 6d bd
       41.85105 41.927227 41.904427 -0.057977986
000010 20 b0 27 42 cc 8e 27 42 9d d2 27 42 8b a8 27 42
       41.921997 41.88945 41.955677 41.914593
000020 80 7a 27 42 0a 1c 27 42 08 c2 27 42 06 59 27 42
       41.86963 41.77738 41.939484 41.836937
000030 b7 99 27 42 54 b0 27 42 af d6 72 bd 87 7d 27 42
       41.900112 41.922195 -0.05928677 41.872585
000040 6d 98 27 42 44 c4 27 42 20 f9 27 42 c3 b3 27 42
       41.898853 41.941666 41.993286 41.92555
000050 81 c3 27 42 ca d8 27 42 ff 7d 27 42 15 ed 27 42
       41.94092 41.961708 41.873043 41.981525
000060 38 95 27 42 d6 55 27 42 e0 f7 27 42 10 b7 27 42
       41.89572 41.833824 41.992065 41.928772
000070 ec 4d 27 42 33 c4 27 42 b5 ce 27 42 d1 d4 27 42
       41.826096 41.9416 41.951862 41.95783
000080 20 98 27 42 df 37 27 42 9e dc 27 42 19 f7 a4 bd
       41.89856 41.80456 41.965446 -0.08054943
000090 7b a2 27 42 d0 a5 27 42 e8 da 27 42 35 e5 27 42
       41.908672 41.911926 41.963776 41.973835
0000a0 4a e0 27 42 cc bf 27 42 b5 bf 27 42 b3 97 27 42
       41.969032 41.9373 41.937214 41.898144
0000b0 56 78 cb bb 0d a1 27 42 b1 72 27 42 23 9d 27 42
       -0.0062094135 41.907276 41.862003 41.903454
0000c0 09 a0 27 42 61 5e 02 3b ee a7 27 42 8f 14 27 42
       41.906284 0.001989268 41.913994 41.770077
0000d0 83 f1 27 42 58 d8 27 42 18 b0 27 42 13 cd 27 42
       41.98585 41.961273 41.921967 41.950268
0000e0 dd 23 27 42 e5 95 27 42 d4 3e 27 42 3c 8a 27 42
       41.785023 41.89638 41.811356 41.884995
0000f0 21 e1 6d 3c 75 9b 27 42 42 bd 27 42 51 f9 27 42
       0.014519007 41.901814 41.934822 41.993473
000100 5b e3 27 42 e8 b2 27 42 e1 58 27 42 c1 92 d1 bb
       41.972027 41.924713 41.836796 -0.0063956683
000110 32 ae 27 42 59 60 27 42 2e 81 27 42 6b e0 27 42
       41.920113 41.84409 41.876152 41.96916
000120 41 d7 27 42 2d c3 27 42 d1 d8 27 42 b7 7f 27 42
       41.96021 41.9406 41.961735 41.87472
000130 9f ba 27 42 2c c8 27 42 af 5c 27 42 96 f7 ac bc
       41.932247 41.94548 41.84051 -0.021114152
000140 4e a7 27 42 77 be 27 42 4f aa 27 42 04 c3 27 42
       41.913383 41.936 41.916317 41.940445
000150 4c c6 27 42 78 49 27 42 61 cf 27 42 91 bd 27 42
       41.94365 41.821747 41.95252 41.935123
000160 89 b7 27 42 02 d4 27 42 90 b3 27 42 8e 8c 27 42
       41.929234 41.95704 41.925354 41.88726
000170 a3 db 27 42 15 ab 27 42 1c fd c4 bd 9d e2 27 42
       41.96449 41.917072 -0.09618589 41.971302
000180 5a 85 27 42 e5 75 27 42 1e fe 27 42 41 c2 27 42
       41.880226 41.86513 41.99816 41.9397
000190 aa c6 27 42 3e 56 27 42 92 82 27 42 ce a5 27 42
       41.944008 41.83422 41.87751 41.91192
0001a0 f1 96 27 42 d8 cf 27 42 89 e6 27 42 55 c8 41 bd
       41.897404 41.952972 41.975132 -0.047310192
0001b0 6b 67 55 3c a3 c7 27 42 66 a1 27 42 f3 ed 27 42
       0.013025145 41.944958 41.907616 41.982372
0001c0 8b ac 27 42 18 e3 27 42 c5 f2 27 42 c4 7f 27 42
       41.9185 41.97177 41.98708 41.87477
0001d0 09 8f 27 42 e7 b2 27 42 fc 3e 27 42 d9 d9 27 42
       41.889683 41.92471 41.81151 41.96274
0001e0 f6 aa 27 42 94 5a 27 42 33 b5 27 42 a4 8e 27 42
       41.916954 41.838455 41.926952 41.889297
0001f0 42 c0 27 42 8b 5a 4a bc 4e d7 27 42 52 9c 27 42
       41.93775 -0.012350689 41.96026 41.902657

fc3.weight f4 [64, 128]
000000 85 71 b3 41 7d ed b1 41 4f 61 b3 41 4e 38 57 bd
       22.43043 22.240961 22.422514 -0.05254393
000010 7d 5a b3 41 64 90 b2 41 a8 1a b4 41 39 8c b2 41
       22.419184 22.320503 22.513016 22.318468
000020 77 86 b3 41 3f e0 b1 41 77 db b2 41 72 b4 b1 41
       22.440657 22.234495 22.35716 22.213108
000030 a7 31 b3 41 d8 4e b3 41 8d 64 2b bd 75 b6 b3 41
       22.399244 22.413498 -0.04184394 22.46409
000040 09 ec b2 41 c6 c6 b3 41 f6 42 b3 41 46 a3 b2 41
       22.365252 22.472057 22.407696 22.329723
000050 31 56 b2 41 0c 8c b2 41 e3 66 b2 41 d5 84 b2 41
       22.292086 22.318382 22.300238 22.31486
000060 ed 30 b3 41 34 c4 b3 41 1e 4d b3 41 8c 73 b3 41
       22.39889 22.470802 22.412655 22.43142
000070 17 8e b2 41 08 50 b2 41 47 a1 b2 41 d1 f5 b3 41
       22.31938 22.289078 22.328749 22.495028
000080 15 02 b3 41 ed e9 b2 41 8a 11 b3 41 12 79 c7 3d
       22.376017 22.364222 22.383564 0.09739889
000090 ee 7b b2 41 14 87 b3 41 2f bd b3 41 73 9f b2 41
       22.310513 22.440956 22.467375 22.327856
0000a0 c7 d2 b2 41 09 1f b3 41 52 e6 b2 41 c8 dd b3 41
       22.352919 22.390154 22.362461 22.483292
0000b0 98 35 b2 3d d6 76 b3 41 98 53 b3 41 a8 9a b3 41
       0.087016284 22.433025 22.415817 22.450516
0000c0 c4 f7 b2 41 e6 1e 38 3d a8 c6 b2 41 c4 40 b2 41
       22.37098 0.044951342 22.347 22.281624
0000d0 8d d8 b3 41 78 2f b3 41 02 f9 b3 41 b5 46 b3 41
       22.480738 22.398178 22.496586 22.409525
0000e0 a9 db b3 41 9e 38 b3 41 35 8c b3 41 0c 53 b3 41
       22.482256 22.402645 22.44346 22.41555
0000f0 59 f9 a1 3d 6a fa b3 41 c2 a6 b3 41 48 d0 b2 41
       0.079088874 22.497272 22.456425 22.3517
000100 f9 01 b3 41 c5 a5 b3 41 50 d3 b3 41 85 4e 1c be
       22.375963 22.455942 22.47818 -0.15264328
000110 14 ac b3 41 cb 12 b3 41 a5 ad b3 41 da b8 b3 41
       22.459023 22.384176 22.459787 22.46526
000120 bb b8 b3 41 2a ef b2 41 93 04 b3 41 0d e7 b3 41
       22.4652 22.36678 22.377234 22.487818
000130 8f 42 b3 41 90 d2 b3 41 87 64 b2 41 41 13 09 3d
       22.4075 22.477814 22.299086 0.033465628
000140 cf 47 b3 41 f5 fd b3 41 9e 06 b3 41 79 1a b3 41
       22.410063 22.499002 22.378231 22.387926
000150 48 a8 b3 41 92 20 b3 41 1c 0f b4 41 99 6b b3 41
       22.457169 22.390903 22.507378 22.427538
000160 f0 1e b4 41 75 23 b4 41 0f d9 b3 41 ba b1 b2 41
       22.515106 22.517313 22.480986 22.33678
000170 4b 2a b4 41 72 1b b3 41 48 c3 7a bf 2d be b3 41
       22.52065 22.388401 -0.97954226 22.46786
000180 6a 94 b2 41 3d bd b3 41 99 7a b3 41 9e d0 b3 41
       22.322468 22.467402 22.434862 22.476864
000190 63 73 b2 41 71 36 b3 41 19 23 b4 41 f4 11 b4 41
       22.306341 22.401583 22.517138 22.508766
0001a0 0a b7 b3 41 e5 b8 b3 41 f9 90 b2 41 bb f8 9b 3d
       22.464375 22.46528 22.320787 0.07615801
0001b0 b9 bd 80 3d fd 43 b4 41 40 2c b4 41 6f 43 b3 41
       0.06286187 22.533197 22.521606 22.407927
0001c0 14 77 b3 41 8f f5 b2 41 ac 3b b3 41 e4 57 b3 41
       22.433144 22.369902 22.404137 22.417915
0001d0 d8 9e b4 41 b2 c5 b3 41 88 2e b3 41 33 4e b3 41
       22.57756 22.47153 22.39772 22.413183
0001e0 bd 5d b3 41 f7 ec b3 41 8d cc b2 41 d2 9b b2 41
       22.42077 22.490705 22.349878 22.326084
0001f0 a5 54 b2 41 2d d3 b1 3d b1 ec b3 41 7e dd b2 41
       22.29133 0.08682857 22.490572 22.35815
000200 bc 4f 99 3c 0e 4d 63 3b 49 0d 2a 3d 30 ce 4e 3c
       0.018714778 0.003468338 0.041516576 0.012622401
000210 ad 9f 84 3d 4e a1 35 3d b4 f9 aa bd ca d3 1e bd
       0.06475768 0.044343285 -0.08348408 -0.038776197
000220 f2 b4 0c bd 40 5d 44 bc 88 44 91 bd 51 5b 8b 3d
       -0.03435225 -0.011985123 -0.070931494 0.068045266
000230 9b b8 b3 3d 97 82 98 3c fb e0 a2 bd f7 0e a1 bd
       0.08775445 0.018616958 -0.07953068 -0.078641824
000240 6a f8 4a 3c 2e 8c 7a bd 96 ec 83 bd c9 6a 70 bd
       0.012388328 -0.061168842 -0.064416096 -0.05869559
000250 e3 59 23 3c 49 aa 83 3d 0b 30 ab 3c db 2a be 3c
       0.009970161 0.06428964 0.020896932 0.023213794
000260 a2 b8 26 3d 65 df 9f 3d ed d0 2b bc a7 ea 4e bd
       0.040703423 0.07806281 -0.0104868235 -0.05051675
000270 55 85 61 3d 76 79 c1 bd 3a 79 44 3d ae df 60 bd
       0.055058796 -0.09446995 0.047967173 -0.054900818
000280 cf 89 e8 bb 78 f1 20 bc 7b 15 06 bd d5 58 a5 bd
       -0.007096506 -0.009823196 -0.03273533 -0.08073584
000290 f6 b6 3b 3d 1c 56 81 bd 21 78 e1 3c f2 e2 53 bd
       0.045828782 -0.06315252 0.027523102 -0.051730104
0002a0 95 ef 7f 3c 1c d1 5a 3d ae be ab bd 6b 7d e2 bc
       0.015621086 0.05342208 -0.08385979 -0.027647695
0002b0 de 60 9d bd 69 9b 13 bd f2 be 74 bd bc 22 31 bd
       -0.076844916 -0.036036883 -0.059752412 -0.043246016
0002c0 b2 9b 23 3d 73 b1 91 3d a1 fa 61 3d c3 e2 9c 3d
       0.039943404 0.07113924 0.05517066 0.07660439
0002d0 25 dd 35 bd 68 bc 11 3c 02 f6 59 3d 2a 40 24 3c
       -0.044400353 0.008895017 0.053213127 0.0100250635
0002e0 04 61 a3 bc ab e2 95 bd dd ca 8c 3c 83 30 c7 bc
       -0.019943722 -0.07318624 0.017186577 -0.024315124
0002f0 70 23 f2 3b 15 9d 9e bc 22 2a 94 3d 1e 12 83 3d
       0.0073894784 -0.019362012 0.07234599 0.0639994
000300 11 a4 af bd 6e c2 46 bd 1a 4f 72 3d 00 07 ba 3b
       -0.08576215 -0.048525266 0.05915747 0.005677104
000310 c0 42 a0 3c 76 d8 66 3c 28 1b b0 bc 76 f9 8b 3c
       0.019563079 0.014089694 -0.021497324 0.017086726
000320 98 a9 72 bd ce 5e 03 3d 6f 4e a8 3b a0 6d 5c bb
       -0.05924377 0.032072835 0.005136303 -0.0033634678
000330 21 e8 cf bb 99 f7 1e bd 8e f1 30 3d bf 8d 86 3d
       -0.0063448106 -0.038810346 0.043199115 0.06570005
000340 18 3f 6a bd ee 4b 56 bd 36 d7 81 bc d3 71 1f 3b
       -0.057189077 -0.052318506 -0.01584969 0.002432932
000350 5e 05 34 3d c0 5e 98 3a 76 96 6a bd 61 b7 80 bd
       0.04395043 0.0011624917 -0.057272397 -0.06284977
000360 30 d6 cd 3c 8b a1 c5 3c 8b 31 72 bd 99 71 bb 3c
       0.025126547 0.024124881 -0.05912928 0.022881316
000370 6f d6 9e 3d 80 50 48 bb 31 23 95 3d ab 3b 47 3d
       0.07755744 -0.003056556 0.07282103 0.04864089
000380 fd b9 29 bd 0a 2e 16 3d e0 51 16 3d ac a8 b8 bd
       -0.041437138 0.036665 0.036699176 -0.090165466
000390 33 6f 34 bd 6b 1d 90 bd 70 8e 84 3d 14 3f 9c bd
       -0.04405136 -0.07036861 0.0647248 -0.07629219
0003a0 62 0a 4e bd 91 cc 88 3d 8f a0 cb bb e3 de 6f bd
       -0.05030287 0.06679643 -0.0062142084 -0.05856217
0003b0 a7 58 aa 3d f3 d6 ab 3d f6 02 36 3d eb 17 1f bc
       0.0831769 0.08390608 0.044436418 -0.009710292
0003c0 1e 5b 87 3c 3c d6 6a 3d 8f 4a 0d bc 8a ed f7 bc
       0.01652294 0.057333216 -0.008623733 -0.030264635
0003d0 d6 0f 5f 3d d8 da c8 3c 5e e5 b0 bd 4b 9d ae bd
       0.05445846 0.024518415 -0.08637498 -0.08526095
0003e0 2c d7 c2 bd c8 2d 42 bd 23 e5 56 bd fa 3a 9e bd
       -0.09513697 -0.04740694 -0.052464616 -0.07726093
0003f0 74 a4 9a 3d ab e6 44 bd 0d 9f 38 bd e4 16 c3 3c
       0.07550898 -0.048071545 -0.045073558 0.023814626

fc3.bias f4 [64]
000000 7e eb 22 42 58 a8 ab bd 8e a5 22 42 99 19 a9 bc
       40.729973 -0.083817184 40.661674 -0.020642089
000010 ce 01 23 42 32 65 22 42 fe 39 23 42 be 8d 82 bd
       40.751762 40.598824 40.806633 -0.063746914
000020 92 a3 23 42 ff 47 23 42 b0 dd 0c bd 14 7a 87 3d
       40.909737 40.82031 -0.034391105 0.066150814
000030 45 b1 23 42 d6 af 22 42 47 93 22 42 08 d4 22 42
       40.923115 40.671715 40.643826 40.70706
000040 f8 b7 22 42 bb d5 7c 3d f7 d7 22 42 fc 61 23 42
       40.679657 0.061727267 40.710903 40.845688
000050 77 71 23 42 d1 78 c2 bd 45 7b 23 42 af 10 23 42
       40.860806 -0.094957 40.87038 40.766293
000060 54 4a 23 42 1c 0f 23 42 8b fa 22 42 58 e8 22 42
       40.822586 40.764755 40.74467 40.7269
000070 78 9e 23 42 a1 3f 23 42 d5 7f 23 42 8a 1c 23 42
       40.904755 40.812138 40.874836 40.77787
000080 22 1b 23 42 a0 41 23 42 e7 f7 22 42 3b 46 23 42
       40.776497 40.814087 40.742092 40.818584
000090 09 1c 23 42 09 29 23 42 bd 28 23 42 9f 0f 23 42
       40.777378 40.790073 40.789783 40.765255
0000a0 47 6b 23 42 10 10 92 bd f6 df 23 42 8c 9c 22 42
       40.854763 -0.0713197 40.96871 40.652878
0000b0 56 d7 be bd 72 5e 96 bc 18 40 13 bd 8c 81 12 bc
       -0.09318416 -0.018355582 -0.035949796 -0.008942019
0000c0 a3 89 22 42 38 5d 23 42 58 de 22 42 88 30 23 42
       40.63441 40.841034 40.717133 40.797394
0000d0 75 ac 4c bd fe 94 23 42 89 03 91 bd b5 52 23 42
       -0.049969155 40.8955 -0.070807524 40.83077
0000e0 fb 1a 23 42 34 2b 23 42 98 5c 23 42 fb 64 23 42
       40.77635 40.79219 40.840424 40.848614
0000f0 8c 0d 63 bd 7f 61 23 42 d3 a4 e7 bd 9d 94 23 42
       -0.05543284 40.84521 -0.113107346 40.89513

fc4.weight f4 [49, 64]
000000 b2 cf 62 3f 40 3b b1 3b 15 1a 56 3f ae ca ac bc
       0.8859817 0.0054086745 0.8363355 -0.021092739
000010 03 fb 88 3f fb ae 0b 3f 4f 33 8f 3f ec 0c 31 3d
       1.0701603 0.54563874 1.1187533 0.043225214
000020 c5 17 96 3f c3 7c 8e 3f 0a e4 c6 3d d0 16 2d bd
       1.1726004 1.1131824 0.09711464 -0.042258084
000030 5c d0 8b 3f 72 8f 36 3f 86 27 77 3f b4 51 3c 3f
       1.0922961 0.7131263 0.9654468 0.7356217
000040 1e 76 48 3f 6f a0 a7 3c 46 9d 61 3f 65 78 9b 3f
       0.7830523 0.020462243 0.88130605 1.2146116
000050 69 e6 6d 3f e6 b3 fe 3d e0 d9 8f 3f 33 e5 66 3f
       0.92929703 0.12436657 1.1238365 0.9019348
000060 5f 29 85 3f 4d 15 6c 3f 5c 98 4a 3f 91 46 55 3f
       1.040325 0.9222 0.7913873 0.833108
000070 74 24 8b 3f 54 06 42 3f ab 6d 8c 3f f9 6f 98 3f
       1.08705 0.75790906 1.0970968 1.1909171
000080 60 3c 65 3f 28 e8 96 3f c1 af 7f 3f 2a b5 92 3f
       0.8954525 1.1789598 0.99877554 1.1461537
000090 a8 96 7a 3f 7e 19 89 3f e9 bc 88 3f ec cb 86 3f
       0.97886133 1.0710905 1.0682651 1.0530982
0000a0 35 29 94 3f de 24 ad bd 35 47 79 3f e0 32 7d 3f
       1.1575075 -0.084542975 0.9737428 0.98905754
0000b0 00 61 20 bb 5a bf b4 3d 02 09 05 bd f0 29 e1 bd
       -0.002447188 0.0882556 -0.032479294 -0.10994327
0000c0 18 bb 5c 3f 91 62 98 3f 8d f8 4b 3f a0 1a 80 3f
       0.8622298 1.190508 0.79676133 1.0008125
0000d0 30 04 b2 3c 84 6f 95 3f bd 6c 9f 3d 99 8c 4d 3f
       0.021730512 1.1674657 0.07784412 0.8029266
0000e0 e7 30 45 3f a0 ad 27 3f 04 16 6e 3f c7 d5 a1 3f
       0.77027744 0.65499306 0.93002343 1.2643365
0000f0 c8 d8 83 bc 32 cb 8a 3f a2 64 b8 3d 89 da 96 3f
       -0.01609458 1.084326 0.09003569 1.1785442
000100 46 4b 99 40 c0 2d 9d bc d2 5f 9a 40 31 d8 5f 3d
       4.7904387 -0.019186854 4.824197 0.054649536
000110 55 b7 9b 40 5d 69 97 40 c4 b5 9a 40 b4 e1 70 3d
       4.8661294 4.7316117 4.834688 0.058808997
000120 e4 b3 9c 40 c7 d8 9c 40 7f 3b ae bc d3 a9 ca 3d
       4.8969593 4.901462 -0.021268604 0.09895673
000130 47 de 98 40 e0 47 99 40 45 4c 95 40 83 84 98 40
       4.7771335 4.790024 4.6655602 4.7661757
000140 e6 68 96 40 4e 18 aa bd 63 76 9c 40 38 f8 9b 40
       4.700305 -0.08305417 4.8894515 4.87405
000150 95 9c 9d 40 38 34 e0 3c a1 1d 9d 40 d9 a7 9a 40
       4.925364 0.02736865 4.909867 4.832989
000160 4e ec 99 40 58 74 98 40 71 e7 9b 40 74 4a 9a 40
       4.810096 4.764202 4.872002 4.8215885
000170 36 fb 99 40 7a 86 96 40 ce f0 97 40 07 f6 9a 40
       4.8119154 4.7039156 4.748145 4.8425326
000180 6d a2 98 40 0c 82 96 40 88 69 97 40 8d d5 9b 40
       4.7698274 4.703375 4.731632 4.869818
000190 20 af 98 40 c7 48 97 40 e6 6a 99 40 4b 55 99 40
       4.7713776 4.727634 4.794299 4.7916617
0001a0 b9 ca 9c 40 44 09 5e 3d c5 48 99 40 8b df 95 40
       4.8997464 0.054208055 4.790133 4.683538
0001b0 38 ee fb 3d 00 14 a7 bc 3e b3 e1 bd da e7 cd 3d
       0.12301296 -0.020395279 -0.11020516 0.10053988
0001c0 ca a8 96 40 61 c3 9d 40 74 ed 97 40 8b 86 98 40
       4.708104 4.9301 4.747736 4.7664237
0001d0 4c bc 1c 3d 15 d8 98 40 66 49 95 3d be ff 9b 40
       0.03826551 4.776377 0.0728939 4.8749685
0001e0 c1 e4 96 40 45 11 9b 40 3d 48 9a 40 da 70 98 40
       4.715424 4.845858 4.821318 4.763776
0001f0 10 b9 7c bc c7 3e 9d 40 40 5a d1 3c ff 96 99 40
       -0.015424982 4.9139132 0.02555573 4.799682
000200 52 58 06 41 f4 94 9c 3d 99 a1 04 41 cf 45 86 3d
       8.396563 0.07645598 8.289453 0.06556284
000210 dd 36 06 41 3e 89 07 41 e9 ba 04 41 7a bf 85 bd
       8.388394 8.471006 8.295632 -0.06530662
000220 a8 c8 06 41 e5 82 07 41 f0 00 e7 3b 41 20 32 3d
       8.423988 8.469457 0.0070496723 0.04348779
000230 69 12 05 41 e7 94 06 41 c2 16 04 41 70 c9 06 41
       8.316995 8.411353 8.255556 8.424179
000240 a7 d7 07 41 2f 40 f8 3d 86 58 05 41 96 d5 06 41
       8.4901495 0.12121617 8.334112 8.427145
000250 1a 4d 05 41 32 24 a1 3d 88 ba 07 41 af df 06 41
       8.331324 0.07868232 8.48304 8.42961
000260 b9 d4 04 41 dc 87 05 41 d5 1e 06 41 ce 7a 05 41
       8.301934 8.345669 8.382527 8.342482
000270 e7 59 04 41 1a da 06 41 d4 39 07 41 d7 5c 07 41
       8.271949 8.428247 8.451618 8.460166
000280 5a c8 07 41 ad 0f 05 41 a7 4f 06 41 d4 ed 06 41
       8.486414 8.316327 8.394446 8.4330635
000290 37 ae 07 41 45 34 05 41 84 15 05 41 3d 4b 05 41
       8.480033 8.325261 8.317753 8.330869
0002a0 ff ac 05 41 e0 aa 78 bc 85 1f 07 41 a0 70 07 41
       8.354735 -0.0151774585 8.445195 8.464996
0002b0 1e 94 ad bd ae 75 8d bd 72 f0 0a 3e 28 67 c8 bd
       -0.08475517 -0.06907211 0.13568285 -0.097853005
0002c0 6f 6d 05 41 0c b4 05 41 89 1c 04 41 7a a5 05 41
       8.339217 8.356457 8.256967 8.3529
0002d0 d0 a0 03 bd 59 33 06 41 f0 36 3c bc d4 0d 06 41
       -0.032135785 8.387536 -0.0114877075 8.378376
0002e0 72 34 07 41 d0 4b 05 41 fc 5b 07 41 f7 90 06 41
       8.450304 8.331009 8.459957 8.410392
0002f0 7a f7 b9 3d b2 b4 06 41 6b f2 87 bd 99 f4 04 41
       0.090804055 8.419115 -0.066380344 8.309716
000300 2f 9e 38 41 fc 59 05 3d fd 95 37 41 0b 29 6c bc
       11.538619 0.03255652 11.474118 -0.014414082
000310 4c 76 38 41 02 54 37 41 96 8e 39 41 c0 e5 38 3d
       11.528881 11.45801 11.597311 0.04514098
000320 30 c8 38 41 69 c4 36 41 11 fb 3a bd a8 49 d1 bd
       11.548874 11.422952 -0.04564959 -0.10219127
000330 7e e1 34 41 c2 2b 32 41 8d 3c 33 41 dc 52 37 41
       11.305052 11.135683 11.202283 11.457729
000340 88 ca 38 41 5e 39 db bd 81 cd 35 41 b8 65 37 41
       11.549446 -0.10704301 11.362672 11.462334
000350 6b b4 37 41 9c 26 7e bd 4b 5c 37 41 72 92 39 41
       11.481547 -0.06204854 11.460032 11.598253
000360 dd 7e 39 41 7c 47 35 41 7e 99 38 41 7e 9e 35 41
       11.5934725 11.329952 11.537474 11.351194
000370 fc d9 36 41 78 a0 36 41 c1 40 36 41 41 26 36 41
       11.428219 11.414177 11.390809 11.384339
000380 aa 24 39 41 b7 14 35 41 d7 38 35 41 70 30 38 41
       11.571451 11.317557 11.326377 11.511826
000390 dc 19 36 41 24 fd 37 41 df 75 39 41 ed 47 36 41
       11.381313 11.499302 11.591277 11.39256
0003a0 5c d6 35 41 f8 d0 72 3d 0e 80 36 41 d8 0e 39 41
       11.364834 0.05928132 11.406263 11.566124
0003b0 cc ac 9f 3d e0 37 a4 3c a7 2a 77 3d fe d1 c8 bd
       0.0779663 0.020046175 0.06034341 -0.09805678
0003c0 09 9b 36 41 10 9a 37 41 36 09 33 41 9d b2 35 41
       11.41285 11.475113 11.189749 11.356107
0003d0 26 61 bf bd 27 3f 37 41 62 a1 9e bd 1a 78 36 41
       -0.093447015 11.452918 -0.07745625 11.404322
0003e0 70 22 38 41 ee 69 38 41 5e c4 37 41 5f 8e 36 41
       11.508408 11.525862 11.485441 11.409759
0003f0 9c f8 6a bd 17 2e 39 41 80 33 87 bb 54 15 34 41
       -0.057366 11.573752 -0.0041260123 11.255207

fc4.bias f4 [49]
000000 76 c6 d1 3f cc ca 2e 41 25 4a d1 41 8d 54 08 42
       1.638869 10.924511 26.161203 34.08257
000010 d6 9e 91 40 38 25 f1 41 8a 76 90 c0 36 d3 14 42
       4.550639 30.143173 -4.51447 37.20626
000020 ee 37 08 42 77 a8 fb 40 33 27 12 42 23 ab f9 41
       34.05462 7.8643146 36.53828 31.208563
000030 44 d4 5a 41 32 a6 82 3d 1c e6 43 41 c2 6e 15 42
       13.676823 0.063793555 12.243679 37.358162
000040 8b 73 bd 41 2d 81 9b 41 b4 93 15 42 6e 2a db bd
       23.681417 19.438074 37.39424 -0.10701452
000050 f0 d3 de bd 3b 4f 79 41 ae 2b a3 41 75 25 14 42
       -0.108802676 15.581843 20.396328 37.03658
000060 6a 49 3c 41 54 0b 8f 3d 80 ef 9d bd f6 25 ee 3d
       11.767923 0.069845825 -0.077116966 0.11628334
000070 12 f6 0d 42 7a 7b eb 41 6b cc 04 42 ea 0e cd 3d
       35.490303 29.435291 33.199627 0.1001261
000080 88 29 6c 3d 70 be b9 3c 80 7c f3 bd e0 e7 4c 41
       0.057656795 0.022673815 -0.11888981 12.80661
000090 b5 5a ca 41 86 57 ca 3d f6 a7 88 bd 70 eb f2 bc
       25.29429 0.09879975 -0.06672661 -0.029653281
0000a0 8a 2e e1 bd c8 79 af 3d bb 8d 5c c0 38 24 90 3c
       -0.10995205 0.0856815 -3.4461505 0.017595395
0000b0 f4 15 2e bd ec d3 63 bd 40 c4 31 3d 30 4a 9e 3c
       -0.042501405 -0.055622026 0.04340005 0.019322485
0000c0 94 05 44 bd
       -0.047856882
