trike2/models/trainied against random/DQN_Agent_300ep.pt/DQN_Agent.pt (torch, 333080 bytes, 8 tensors)

fc1.weight f4 [256, 148]
0	0x407cd5fb	3.9505603
1	0x40ba8742	5.829011
2	0x40b29abf	5.58139
3	0x40982ad4	4.755228
4	0x40b6441d	5.6958146
5	0x4089f0eb	4.310659
6	0x40b32ba8	5.599079
7	0x405fe5dc	3.4984045
8	0x40ad14e6	5.408801
9	0x406b90e7	3.6807191
10	0x40702281	3.752106
11	0x40a08e4f	5.0173717
12	0x408082f3	4.015985
13	0xb98b5f00	-0.00026582927
14	0x40ae221e	5.4416647
15	0x40b4046a	5.625539
16	0x40996328	4.793354
17	0x40500964	3.2505732
18	0x40ae2396	5.441844
19	0x3c41e8f0	0.011835322
20	0xbced5c8a	-0.02897479
21	0x4096ea7c	4.7161236
22	0x40bd0865	5.9072747
23	0x40c1e143	6.058748
24	0x40b1841f	5.547378
25	0x3c923fb4	0.017852642
26	0x3d7105d2	0.05884344
27	0xbce514bc	-0.027963988
28	0x409d6261	4.918259
29	0x409bb8c7	4.866306
30	0x4093855f	4.6100307
31	0xbd990662	-0.074719205
32	0x3d9fec4d	0.07808743
33	0x3d9c9ab1	0.076466925
34	0x3cc6b678	0.02425693
35	0x409af25b	4.8420844
36	0x40830092	4.0938196
37	0x3d90df47	0.07073837
38	0x3d99db01	0.07512475
39	0xbd3a4421	-0.04547513
40	0xbcd12682	-0.025531057
41	0xbcacb368	-0.021081641
42	0x408f3a11	4.475838
43	0x3ccac308	0.024751201
44	0x3d629e0e	0.055326514
45	0xbc262230	-0.010139987
46	0xbc9eced8	-0.01938574
47	0xbd3a3169	-0.045457277
48	0x3d2b3350	0.041796982
49	0x408fa521	4.4889073
50	0x40b94889	5.7901044
51	0x40bc23cb	5.8793693
52	0x4095c7b4	4.680628
53	0x40a6138a	5.189885
54	0x409f9d13	4.987924
55	0x40b6f54d	5.717444
56	0x408f904c	4.4863644
57	0x40b19195	5.5490212
58	0x40983c97	4.757396
59	0x408ff2d1	4.4983907
60	0x408ba566	4.3639402
61	0x406d723d	3.7100976
62	0x3d941ff7	0.07232659
63	0x409f0793	4.9696746
64	0x4094f259	4.6545835
65	0x40938dc1	4.611054
66	0x407b37fe	3.9252925
67	0x40a66551	5.1998677
68	0xbd1666bf	-0.03671908
69	0xbd707068	-0.05870095
70	0x40a1a38f	5.0512156
71	0x40a9371e	5.287978
72	0x40a1593c	5.042143
73	0x40964635	4.69607
74	0x3d0b89d2	0.034066983
75	0x3d7f0b86	0.06226685
76	0x3d9d737d	0.07688043
77	0x40a4385b	5.1318793
78	0x40926a59	4.575482
79	0x40af4936	5.477687
80	0xbbee8750	-0.007279314
81	0x3d9a693b	0.07539602
82	0x3b9a0230	0.004699968
83	0xbd7534e0	-0.05986488
84	0x40538188	3.304781
85	0x40ad409b	5.4141364
86	0x3d720c5a	0.05909381
87	0xbc905d20	-0.01762253
88	0x3da23a47	0.07921272
89	0x3c5a3eb8	0.013320617
90	0x3c1fdd60	0.00975737
91	0x40790924	3.891183
92	0xbd40cfd4	-0.0470732
93	0xbda600e9	-0.08105642
94	0x3d77a1de	0.060457103
95	0x3d5575aa	0.052114166
96	0x3da41d95	0.08013455
97	0x3b7cc4e0	0.0038569495
98	0x408396dd	4.112166
99	0x40867bf4	4.202631
100	0x408cec07	4.403812
101	0x4080881d	4.0166154
102	0x40923a9c	4.5696545
103	0x4060be1b	3.511603
104	0x407b3c85	3.9255688
105	0x40516950	3.2720528
106	0x409cefc9	4.9042706
107	0x408a5374	4.322687
108	0x407071fc	3.756957
109	0x4096692a	4.7003374
110	0x403c2203	2.939576
111	0xbca9d712	-0.020732436
112	0x409835ab	4.7565513
113	0x40a352b9	5.103848
114	0x409622ce	4.6917486
115	0x40573cc0	3.363083
116	0x40841a73	4.1282287
117	0x3d60107a	0.054703213
118	0xbd453e07	-0.048154857
119	0x409076f1	4.514519
120	0x409511bd	4.6584153
121	0x408f2f1e	4.4745016
122	0x408af4c3	4.342378
123	0x3d55cd22	0.052197583
124	0xbcf9c3e6	-0.03048892
125	0x3d4be0b6	0.049774848
126	0x40539e39	3.3065321
127	0x4087ec06	4.2475615
128	0x4094d79a	4.6513186
129	0x3d5fff9a	0.05468712
130	0xbd9170d0	-0.071015954
131	0xbd3eb6cd	-0.04656105
132	0x3c167910	0.009184137
133	0x40764d6a	3.848475
134	0x40915caf	4.542564
135	0xbc72b038	-0.014812522
136	0x3ba89190	0.0051443055
137	0xbd70ad8e	-0.058759265
138	0xbd61583e	-0.055015795
139	0x3c176498	0.009240292
140	0x409b778a	4.858342
141	0x3d044a90	0.03229767
142	0xbc4cd838	-0.012502722
143	0x3cf54188	0.029938474
144	0xbd2c0fa8	-0.04200712
145	0xbd8e3fb1	-0.06945742
146	0x3d9197c9	0.07109029
147	0xbca545aa	-0.02017482
148	0x4081dda8	4.0583076
149	0x40b85191	5.759957
150	0x40ad2025	5.410174
151	0x40958f1c	4.6737194
152	0x40b8f186	5.779483
153	0x40864b33	4.1966796
154	0x40bc68e9	5.8878064
155	0x405eb252	3.4796338
156	0x40af73b1	5.4828725
157	0x4080bade	4.022811
158	0x4065aa84	3.5885324
159	0x40a20af6	5.063838
160	0x40782c78	3.8777142
161	0x3d4c53a2	0.049884446
162	0x40addfb4	5.4335575
163	0x40b71905	5.721804
164	0x4096b6af	4.7098002
165	0x40534cbd	3.3015587
166	0x40a9681f	5.29396
167	0x3c1d4f40	0.009601414
168	0xbd9d92ea	-0.07694037
169	0x409092ed	4.5179353
170	0x40bca526	5.8951597
171	0x40bf7451	5.982949
172	0x40b04b77	5.509212
173	0x3d537712	0.051627226
174	0xbbb54880	-0.0055323243
175	0xbd8067f0	-0.062698245
176	0x409c17da	4.8779116
177	0x40a32f50	5.0995255
178	0x40a4916e	5.1427526
179	0x3ba4dcd0	0.0050312057
180	0xbd04863f	-0.03235459
181	0x3d38d92a	0.04512898
182	0xbd9c6689	-0.076367445
183	0x40a150ae	5.0410986
184	0x407cbab1	3.9488947
185	0x3d47de72	0.048796125
186	0xbd8d4aff	-0.0689907
187	0x3d13780a	0.03600315
188	0xbc78b558	-0.0151799545
189	0x3badc420	0.005302921
190	0x408ff688	4.498844
191	0x3cefd4f0	0.029276341
192	0x3d984a75	0.074360766
193	0xbd6c52eb	-0.057696264
194	0x3d5563fa	0.0520973
195	0xbcd4f42e	-0.02599534
196	0x3da0a58d	0.07844076
197	0x4097d5e9	4.744862
198	0x40bb6f53	5.8573394
199	0x40bdeef6	5.93542
200	0x409af835	4.8427987
201	0x40a7cdd0	5.2438736
202	0x409a8fb1	4.8300405
203	0x40b5ced6	5.6814985
204	0x40940008	4.625004
205	0x40b50ca0	5.657791
206	0x4094e7cd	4.653296
207	0x4091e353	4.5589995
208	0x4092dd81	4.589539
209	0x40890f70	4.2831345
210	0x3d2cc656	0.042181335
211	0x40a2d3f8	5.088375
212	0x409ad8e0	4.838974
213	0x408d9f34	4.425684
214	0x4073d26c	3.8097181
215	0x40a6b3fc	5.2094707
216	0xbd53f114	-0.051743582
217	0xbd7b8caa	-0.061413445
218	0x40a0ca49	5.024693
219	0x40aae748	5.3407326
220	0x40a8b119	5.2716184
221	0x4099925b	4.7991157
222	0x3d91da11	0.07121671
223	0xbd7265a4	-0.059178963
224	0xbc4d76a0	-0.012540489
225	0x40a18c87	5.048404
226	0x40935379	4.6039395
227	0x40a8eec7	5.2791476
228	0xbd3ef587	-0.046620872
229	0x3d3cfb36	0.04613801
230	0xbd50ec3a	-0.051006533
231	0xbd69efd6	-0.05711349
232	0x403a5441	2.9113925
233	0x40aeabb7	5.4584613
234	0xbc55c470	-0.013047323
235	0xbce0277c	-0.027362578
236	0xbd84ea4d	-0.06490002
237	0xbda08b31	-0.07839049
238	0xbd1cfc71	-0.038326684
239	0x4069bd3d	3.6521752
240	0xbbf39db0	-0.0074345693
241	0xbd9a4cf1	-0.07534207
242	0xbcb3ca6a	-0.021947104
243	0x3c8195f8	0.015818581
244	0xbd81918c	-0.06326589
245	0xbd631d8d	-0.055448104
246	0x409473e2	4.639146
247	0x40858ec3	4.173677
248	0x409080cf	4.5157237
249	0x407859cc	3.8804808
250	0x4098f9c1	4.7804875
251	0x40649659	3.5716765
252	0x4081d087	4.056705
253	0x404b1006	3.172853
254	0x409e1f96	4.9413557
255	0x408f6224	4.48073

fc1.bias f4 [256]
0	0x40caa472	6.332574
1	0x40cfaf68	6.490162
2	0x40ce08f3	6.4385924
3	0x40d03875	6.5068917
4	0x40d0ecf1	6.5289235
5	0x40cf22f0	6.473015
6	0x40d19e84	6.5506
7	0x40cfcb26	6.4935484
8	0x40d05c0b	6.5112357
9	0x40cfd6e6	6.4949827
10	0x40cfa3db	6.488752
11	0x40cec077	6.4609942
12	0xbf885286	-1.0650184
13	0x40cdcfcd	6.4316163
14	0x40d03afa	6.5071993
15	0x40d10630	6.5320053
16	0x40c94ed1	6.290871
17	0x40d1ede8	6.5602913
18	0x40d044a3	6.5083785
19	0x40ced8b5	6.4639535
20	0x40ccff4f	6.4061656
21	0x40cd957a	6.4244967
22	0x40cd04f8	6.4068565
23	0x40cb394e	6.350745
24	0x40cfecf7	6.4976764
25	0x40c9b49d	6.3032975
26	0x40ca93fe	6.3305655
27	0x40cc044b	6.375524
28	0x40d14d7e	6.5407095
29	0x40cfd1bc	6.4943523
30	0x40d0e7f1	6.528313
31	0x40cbde66	6.3708982
32	0x40cf0930	6.4698715
33	0x40cec4af	6.461509
34	0x40cf5188	6.4787025
35	0xbf871a86	-1.0554969
36	0x40cdecb6	6.4351454
37	0x40d0c07b	6.523496
38	0x40cebd07	6.4605746
39	0xbf9d5062	-1.2290156
40	0x40cf85ce	6.4850836
41	0xbf8038b1	-1.0017301
42	0x40cf586d	6.479544
43	0x40d234c0	6.568939
44	0x40d19ba4	6.550249
45	0x40d09ba4	6.518999
46	0x40cea573	6.4576964
47	0x40d1a593	6.5514617
48	0x40cfbd0a	6.491826
49	0xbf81ab96	-1.0130489
50	0x40cfc31c	6.492567
51	0x40cbc652	6.367959
52	0x40cac88d	6.3369813
53	0x40cec362	6.4613504
54	0x40cfbb4d	6.491614
55	0x40cf7b72	6.483819
56	0x40ca42d7	6.320659
57	0x40cf730f	6.4827952
58	0x40d0f326	6.529681
59	0x40d20733	6.563379
60	0x40d0c543	6.52408
61	0x40cf9ce1	6.4879003
62	0x40d03425	6.5063653
63	0x40d03c80	6.5073853
64	0x40d1ae8b	6.5525565
65	0x40cff531	6.4986806
66	0x40ccaf0b	6.3963675
67	0x40d0ce37	6.5251727
68	0x40d06610	6.512459
69	0x40d1cf56	6.5565596
70	0x40cd63b3	6.4184203
71	0x40d03fa0	6.5077667
72	0x40cf6b50	6.4818497
73	0xbf6189f9	-0.88101155
74	0x40cb0dec	6.3454494
75	0x40cf29ed	6.473868
76	0xbf90f9d4	-1.1326241
77	0x40cc0b93	6.376413
78	0xbf7d545a	-0.98956835
79	0xbf95cab8	-1.170249
80	0x40cea11b	6.457166
81	0x40ca7f8b	6.328069
82	0x40d23c04	6.569826
83	0x40ce631a	6.4495974
84	0x40d026ae	6.5047216
85	0x40ccf5e8	6.405018
86	0x40d0e115	6.527476
87	0x40cd873a	6.422757
88	0xbf83cc85	-1.029679
89	0x40cfd90a	6.495244
90	0x40d111ed	6.533438
91	0x40ca4963	6.3214583
92	0x40d1471c	6.5399303
93	0x40cddacc	6.4329586
94	0x40cb0f6e	6.3456335
95	0xbf928803	-1.1447757
96	0x40cf086e	6.469779
97	0x40d0d0cc	6.525488
98	0x40cb3015	6.3496194
99	0x40d127a0	6.536087
100	0x40d1b020	6.5527496
101	0x40d19cad	6.5503755
102	0x40cf866d	6.4851594
103	0x40d0f837	6.5302997
104	0x40d0d311	6.525765
105	0x40d17b98	6.546337
106	0x40cfb07c	6.4902935
107	0x40d286ed	6.5789704
108	0x40cb7ee0	6.3592377
109	0x40c937d4	6.288065
110	0x40cc7149	6.3888288
111	0x40ce57c5	6.448214
112	0x40d0ca7c	6.5247173
113	0x40cf2035	6.4726815
114	0x40cec434	6.4614506
115	0x40cf2520	6.473282
116	0x40d0067b	6.500791
117	0x40cf9fb2	6.488244
118	0x40d231c9	6.5685773
119	0x40d0ed71	6.5289845
120	0xbf727c6b	-0.94721097
121	0x40d0cad4	6.5247593
122	0x40cf7672	6.4832087
123	0xbf87cf9e	-1.0610235
124	0xbf92d955	-1.1472574
125	0xbf8113fc	-1.0084224
126	0x40d1efcd	6.5605226
127	0x40d28e69	6.579884
128	0x40ce6d50	6.450844
129	0x40d0d26e	6.525687
130	0x40cd8e77	6.4236407
131	0x40d1d247	6.5569186
132	0x40c72504	6.2232685
133	0x40d00dfc	6.501707
134	0x40ca9455	6.330607
135	0x40cec666	6.4617186
136	0x40ca9ecc	6.3318844
137	0x40cc4dcb	6.384496
138	0x40cb5f27	6.3553653
139	0x40cdd02e	6.4316626
140	0x40cb1d2b	6.3473105
141	0x40ccc4ee	6.3990393
142	0x40cd291d	6.4112687
143	0x40cf5c37	6.4800067
144	0x40d2d334	6.5882816
145	0x40d097a3	6.5185103
146	0x40d071a6	6.513873
147	0x40cf3f9c	6.476515
148	0x40cfabb6	6.489711
149	0x40d24b05	6.5716577
150	0x40cf995b	6.48747
151	0x40ced75d	6.4637895
152	0x40d05ddb	6.511457
153	0x40d09e2f	6.5193095
154	0x40c8d5f3	6.276117
155	0x40ce07a1	6.4384313
156	0x40d0e90b	6.5284476
157	0x40d149c5	6.540255
158	0x40ce3d46	6.4449797
159	0x40cb7f41	6.359284
160	0x40d1a0ff	6.550903
161	0x40cef634	6.467554
162	0x40d0f498	6.5298576
163	0x40cf02ef	6.469108
164	0x40d05c17	6.5112414
165	0x40cd9e03	6.4255385
166	0x40cb3ef8	6.3514366
167	0x40d07da5	6.5153375
168	0x40d1ac4d	6.552283
169	0x40d080e1	6.5157323
170	0x40cc9ad1	6.3938985
171	0x40d061ae	6.511924
172	0xbf86ad0d	-1.0521561
173	0x40d1d4b3	6.5572143
174	0x40d0a8d8	6.520611
175	0x40d1ebd6	6.5600386
176	0x40ca3c68	6.319874
177	0x40d01a37	6.5032
178	0x40cf99c3	6.4875197
179	0x40ce998e	6.4562445
180	0x40d1912a	6.54897
181	0x40d08b47	6.5170016
182	0x40ce4c7f	6.446838
183	0x40cf2e69	6.4744153
184	0x40cfa6c2	6.489106
185	0x40cf54d0	6.479103
186	0xbf6f24ba	-0.93415415
187	0x40c9d318	6.3070183
188	0x40d1b44a	6.553258
189	0x40d0c8ea	6.5245256
190	0x40d0b3ec	6.521963
191	0xbf88095e	-1.0627859
192	0x40d0a04f	6.519569
193	0x40cf9513	6.4869475
194	0x40d0d9ed	6.5266023
195	0x40d0e2d4	6.527689
196	0x40d1ae89	6.5525556
197	0x40d15962	6.542161
198	0x40d0c761	6.5243382
199	0xbf879134	-1.0591187
200	0x40d12cf6	6.5367384
201	0x40ca81b3	6.3283324
202	0x40cb9a34	6.3625736
203	0xbf974438	-1.1817694
204	0x40c736c6	6.225436
205	0x40cc31c0	6.381073
206	0x40d00651	6.500771
207	0x40d05f36	6.5116224
208	0x40d0f3c2	6.5297556
209	0x40c96118	6.2931023
210	0x40d0f770	6.530205
211	0x40d1b2ae	6.5530615
212	0x40cb49e5	6.3527703
213	0x40ce41de	6.4455404
214	0x40cc0987	6.376163
215	0xbf880b22	-1.0628397
216	0x40d04cae	6.5093603
217	0x40cfc7c1	6.493134
218	0x40d1782f	6.545921
219	0x40cb6ece	6.357276
220	0x40d1f2b0	6.560875
221	0x40cfb954	6.491373
222	0x40d03a3c	6.5071087
223	0x40cd6103	6.4180923
224	0x40cff724	6.4989185
225	0x40cefdd6	6.468486
226	0xbf9b865e	-1.2150381
227	0x40d08e46	6.5173674
228	0x40cc2659	6.379681
229	0xbf850560	-1.0392265
230	0x40cdf6ab	6.436361
231	0x40cf0739	6.4696317
232	0x40d1617a	6.543149
233	0x40ce3185	6.443545
234	0x40d1187f	6.5342402
235	0xbf9cf5ed	-1.226255
236	0x40cd6344	6.4183674
237	0xbf7e812e	-0.9941586
238	0x40cce3ff	6.4028316
239	0x40d0fa46	6.530551
240	0x40ca9c4f	6.3315806
241	0x40cf829f	6.484695
242	0x40ce86cb	6.453954
243	0x40d2820d	6.5783753
244	0x40cedcfb	6.464475
245	0x40d206f0	6.563347
246	0x40d13e33	6.5388427
247	0x40d1814e	6.5470343
248	0x40cf6464	6.4810047
249	0x40cb3d8c	6.351263
250	0x40cef50e	6.467414
251	0x40d0a0be	6.519622
252	0x40d0716c	6.5138454
253	0x40cf10c9	6.470799
254	0x40cb5d29	6.355122
255	0x40cb70ae	6.357505

fc2.weight f4 [128, 256]
0	0x40c89a0c	6.2688046
1	0x40ccf1fe	6.40454
2	0x40c9b58f	6.303413
3	0x40cbb0c4	6.365328
4	0x40cbe295	6.371409
5	0x40c95711	6.291878
6	0x40cad44a	6.338414
7	0x40c8b2c4	6.271822
8	0x40cf3f96	6.476512
9	0x40ca12bf	6.3147883
10	0x40ccc6a7	6.3992496
11	0x40c988ef	6.2979655
12	0xc0218bb1	-2.524151
13	0x40c05f0e	6.0116034
14	0x40c940cd	6.2891603
15	0x40c6c87d	6.2119737
16	0x40cc3ac8	6.3821754
17	0x40d04ec2	6.509614
18	0x40cc8e9b	6.392408
19	0x40ceaf34	6.458887
20	0x40c2ae89	6.0838056
21	0x40c6e08e	6.2149115
22	0x40cbd832	6.370141
23	0x40cb1ad6	6.347026
24	0x40c72ab6	6.2239637
25	0x40bc219f	5.879104
26	0x40cb84a0	6.3599396
27	0x40c61618	6.190197
28	0x40c8a198	6.269726
29	0x40ca503e	6.322295
30	0x40cbfdba	6.3747225
31	0x40c98151	6.2970357
32	0x40c7048d	6.2193055
33	0x40c7af18	6.2401237
34	0x40cc0857	6.376018
35	0xc0299a4c	-2.6500425
36	0x40caf9d9	6.342999
37	0x40c82339	6.2542996
38	0x40ccf3c9	6.404759
39	0xc032b40b	-2.792239
40	0x40cd9641	6.4245915
41	0xc027b76b	-2.62057
42	0x40cdbbb6	6.429164
43	0x40cb25fd	6.3483872
44	0x40cb6bfb	6.356931
45	0x40c9257d	6.285826
46	0x40cab6f5	6.3348336
47	0x40d0a84f	6.5205455
48	0x40c5966d	6.1746125
49	0xc03b3eb5	-2.9257023
50	0x40c98dd9	6.2985654
51	0x40c2d608	6.088627
52	0x40c90089	6.2813153
53	0x40caebeb	6.3412986
54	0x40ce6934	6.450342
55	0x40cbdd76	6.370784
56	0x40cdeb89	6.435002
57	0x40cc478c	6.3837337
58	0x40ccc667	6.399219
59	0x40d0e15d	6.52751
60	0x40cab0d5	6.334086
61	0x40c87e04	6.265383
62	0x40c95584	6.291689
63	0x40ce885e	6.4541464
64	0x40cd6997	6.4191394
65	0x40ca5065	6.322314
66	0x40c682cd	6.203467
67	0x40c9abc0	6.3022156
68	0x40cbca6c	6.3684597
69	0x40cb5168	6.3536873
70	0x40caeeb4	6.3416386
71	0x40cdfd0a	6.4371386
72	0x40c7d327	6.2445254
73	0xc024769e	-2.5697398
74	0x40ca486e	6.3213415
75	0x40c80d8e	6.2516546
76	0xc03413ae	-2.8137012
77	0x40caa422	6.3325357
78	0xc027f2e0	-2.624199
79	0xc02edb4e	-2.7321353
80	0x40c91a1c	6.284437
81	0x40c70601	6.219483
82	0x40cd7880	6.4209595
83	0x40c7ff07	6.2498813
84	0x40cce6b2	6.403161
85	0x40cbb77e	6.366149
86	0x40cf3f16	6.476451
87	0x40cdb7bc	6.4286785
88	0xc02814c5	-2.6262677
89	0x40cd96c9	6.4246564
90	0x40cc46c1	6.383637
91	0x40c39674	6.112116
92	0x40c8d21c	6.275648
93	0x40cc5c40	6.386261
94	0x40cd0086	6.406314
95	0xc0299b4e	-2.650104
96	0x40c9f8fa	6.3116426
97	0x40cea442	6.457551
98	0x40cb7740	6.358307
99	0x40cf887d	6.485411
100	0x40cc490b	6.3839164
101	0x40c9338f	6.287544
102	0x40cde9b8	6.43478
103	0x40ca558e	6.3229437
104	0x40c773ad	6.2328706
105	0x40ce27bb	6.44235
106	0x40ca3a13	6.319589
107	0x40ca57c6	6.3232145
108	0x40ce71cc	6.451391
109	0x40caec30	6.3413315
110	0x40ccf2f3	6.404657
111	0x40cb08dc	6.3448315
112	0x40cc6e7f	6.3884883
113	0x40c33634	6.1003666
114	0x40cc91d5	6.392802
115	0x40ca009e	6.3125753
116	0x40cc13e4	6.377428
117	0x40c70524	6.2193775
118	0x40ca1a1a	6.315686
119	0x40ca9dec	6.3317776
120	0xc024f25c	-2.5772924
121	0x40cbb63f	6.365997
122	0x40c87495	6.264231
123	0xc01edce6	-2.4822326
124	0xc0242d87	-2.5652788
125	0xc028563d	-2.6302636
126	0x40d030eb	6.5059714
127	0x40cd8c4a	6.423375
128	0x40ca52fa	6.322629
129	0x40cc0f98	6.3769035
130	0x40ce52ac	6.447592
131	0x40c89113	6.2677093
132	0x40ca0dc3	6.31418
133	0x40c77f20	6.234268
134	0x40cbb3bf	6.3656917
135	0x40c845cd	6.2585206
136	0x40c72a06	6.22388
137	0x40cb75d6	6.3581343
138	0x40bf88ea	5.985463
139	0x40c591f7	6.174068
140	0x40cb7d1d	6.3590226
141	0x40c66a29	6.200459
142	0x40c6e6ca	6.2156725
143	0x40cc0a4f	6.3762584
144	0x40ce49e0	6.446518
145	0x40cb9587	6.362003
146	0x40c7f378	6.2484703
147	0x40c95329	6.2914014
148	0x40c62001	6.1914067
149	0x40cf9eeb	6.488149
150	0x40ca97d4	6.3310337
151	0x40c92e83	6.2869277
152	0x40c7961a	6.237073
153	0x40ca45ba	6.3210115
154	0x40c2d735	6.0887704
155	0x40c7c6c3	6.243013
156	0x40c8ea0c	6.27857
157	0x40cc7719	6.3895383
158	0x40cb178e	6.3466253
159	0x40ca7262	6.3264627
160	0x40cc809b	6.390699
161	0x40cdd459	6.4321713
162	0x40ccc265	6.39873
163	0x40c63ad1	6.1946797
164	0x40c9c17f	6.30487
165	0x40c9735f	6.2953334
166	0x40c318bc	6.0967693
167	0x40cac5b0	6.336632
168	0x40cc97ac	6.3935146
169	0x40ccc4cc	6.399023
170	0x40c4ca9b	6.149732
171	0x40c91cd0	6.284767
172	0xc028e838	-2.6391735
173	0x40cd3cc7	6.413669
174	0x40cb5c3e	6.35501
175	0x40ccb087	6.3965487
176	0x40cc9205	6.3928246
177	0x40ca56c5	6.323092
178	0x40ca88cf	6.3292003
179	0x40c7ebb7	6.247524
180	0x40cd448c	6.4146175
181	0x40cc7666	6.389453
182	0x40caa3f0	6.332512
183	0x40c89d4d	6.2692018
184	0x40cb35d1	6.3503194
185	0x40c89f9f	6.269485
186	0xc025c322	-2.590035
187	0x40c93fd7	6.289043
188	0x40cfd940	6.49527
189	0x40cd9438	6.424343
190	0x40c961c0	6.2931824
191	0xc033fafb	-2.8121936
192	0x40cd4826	6.415057
193	0x40cf4fb4	6.4784794
194	0x40c859ff	6.260986
195	0x40cb9988	6.3624916
196	0x40cc5123	6.3849044
197	0x40c9ebf5	6.3100533
198	0x40ccfc51	6.4058003
199	0xc02acad3	-2.6686294
200	0x40cc4819	6.383801
201	0x40c1caff	6.05603
202	0x40ca3acc	6.3196774
203	0xc03c59dd	-2.9429848
204	0x40b8df62	5.7772684
205	0x40c3c29a	6.117505
206	0x40cd336f	6.4125285
207	0x40c98571	6.297539
208	0x40cbb228	6.3654976
209	0x40c67bb5	6.202601
210	0x40c8215c	6.254072
211	0x40cfa2cc	6.4886227
212	0x40c971fb	6.2951636
213	0x40cf342c	6.4751186
214	0x40cbcdce	6.3688726
215	0xc02d5059	-2.708029
216	0x40c90a4e	6.282508
217	0x40ca9954	6.331217
218	0x40c8d89f	6.276443
219	0x40c94272	6.289361
220	0x40cb5af7	6.354854
221	0x40c8f3b9	6.2797513
222	0x40c83876	6.256892
223	0x40c86947	6.262851
224	0x40cc1ccd	6.3785157
225	0x40cc2a01	6.3801274
226	0xc0242dda	-2.5652986
227	0x40cbb103	6.365358
228	0x40c60486	6.188052
229	0xc02c8370	-2.6955223
230	0x40cf170b	6.471563
231	0x40cc1c2c	6.378439
232	0x40caf101	6.3419194
233	0x40d12dfc	6.5368633
234	0x40cace47	6.3376803
235	0xc022ff51	-2.5468333
236	0x40cc3098	6.380932
237	0xc0350e12	-2.8289838
238	0x40c9b5db	6.303449
239	0x40d147cd	6.5400147
240	0x40c96f71	6.2948537
241	0x40ca3929	6.3194776
242	0x40cf5f7c	6.480406
243	0x40cf2308	6.4730263
244	0x40c6a96f	6.208183
245	0x40d0be17	6.5232043
246	0x40c942da	6.2894106
247	0x40cc1d67	6.378589
248	0x40cc1507	6.377567
249	0x40c7ced9	6.244
250	0x40d050e3	6.509874
251	0x40ccb6d7	6.3973193
252	0x40ccfb80	6.4057007
253	0x40cad507	6.3385043
254	0x40c43a85	6.1321435
255	0x40c7e835	6.2470956

fc2.bias f4 [128]
0	0x40c37ef0	6.1092453
1	0x40c36fe6	6.1074095
2	0x40c22a93	6.067697
3	0x40c5125a	6.15849
4	0x40c59f86	6.175723
5	0x40c30e0d	6.095465
6	0x40c47749	6.139561
7	0x40c70cac	6.220297
8	0x40c68270	6.2034225
9	0x40c5741c	6.1704235
10	0x40c42d30	6.130516
11	0x40c622d5	6.191752
12	0x40c4666b	6.137502
13	0x40c44460	6.1333466
14	0x40c4d2c9	6.1507306
15	0x40c47da5	6.1403375
16	0x40c29614	6.08082
17	0xbda67622	-0.08128001
18	0x40c6fb83	6.218202
19	0x3b35ffe2	0.0027770926
20	0x40c4e0d1	6.1524434
21	0x40c707f2	6.21972
22	0x40c4297d	6.1300645
23	0x40c4d3a0	6.150833
24	0x40c425b2	6.1296015
25	0xbd766c3e	-0.06016182
26	0x40c6bf61	6.2108617
27	0x40c5a9c1	6.176972
28	0xbd87b5bc	-0.0662646
29	0x40c4d903	6.1514907
30	0x40c4f087	6.1543612
31	0x40c6b735	6.209864
32	0x40bf790e	5.983527
33	0x40c53f99	6.1640134
34	0x40c5a7df	6.176742
35	0x40c69e93	6.206857
36	0x40c62398	6.191845
37	0x40c3e15c	6.1212597
38	0x40c12805	6.036135
39	0x40c42aeb	6.130239
40	0xbd749faa	-0.05972258
41	0x40c60dc4	6.1891804
42	0x40c4ef9f	6.1542506
43	0x40c6f293	6.217111
44	0x40c446a8	6.133625
45	0x40c3e37a	6.121518
46	0x40c4dc03	6.151857
47	0x40c55884	6.167055
48	0x40c55e91	6.1677938
49	0x40c31ac3	6.097017
50	0x40c49ee3	6.1443954
51	0x40c6657d	6.1998887
52	0xbd7065e4	-0.05869092
53	0x40c584f0	6.1724777
54	0x40c468ad	6.137778
55	0x40c64852	6.196328
56	0x40c324a9	6.098225
57	0x40c515b5	6.1589
58	0xbd7738ea	-0.06035701
59	0x40c43c84	6.132387
60	0x40c37538	6.108059
61	0x40c546e2	6.1649027
62	0x40c43490	6.1314163
63	0x40c51f76	6.1600904
64	0x40c61b9f	6.1908717
65	0x40c5f277	6.1858478
66	0x40c22d23	6.06801
67	0xbdd75520	-0.10514283
68	0x40c568fa	6.1690645
69	0xbdaecc09	-0.0853501
70	0x40c31a22	6.09694
71	0x40c2b95c	6.085127
72	0x40c31266	6.095996
73	0x40c5548c	6.1665707
74	0x40c6b135	6.2091317
75	0x40c5eac1	6.1849065
76	0xbd779f52	-0.060454674
77	0x40c5e2a2	6.183915
78	0x40c5004a	6.1562853
79	0x40c4c84b	6.14945
80	0x40c6e75a	6.215741
81	0x40c43de9	6.1325574
82	0x40c79f7f	6.2382197
83	0xbd14a8a6	-0.03629365
84	0x40c656c3	6.198091
85	0x40c2dda1	6.0895543
86	0x40c63f7c	6.1952496
87	0x40c60abb	6.18881
88	0xbd8a5a8d	-0.067555524
89	0x40c6769e	6.2019796
90	0x40c48bc6	6.142062
91	0xbd32decc	-0.043669507
92	0x40c69c92	6.2066126
93	0x40c4cc2b	6.149923
94	0x40c5e111	6.183724
95	0x40c40b26	6.126361
96	0xbc60be86	-0.013717299
97	0x3a259a56	0.00063172483
98	0x40c23532	6.0689936
99	0x40c393e3	6.1118026
100	0x40c6be17	6.2107043
101	0x40c54efb	6.165891
102	0x40c33c55	6.1011147
103	0xbd41c9f7	-0.04731175
104	0x40c6804c	6.2031612
105	0x40c37e83	6.1091933
106	0x40c65d5b	6.198896
107	0xbddf04e4	-0.10889605
108	0x40c6d360	6.2133026
109	0x40c34700	6.102417
110	0x40c61830	6.1904526
111	0x40c37e96	6.1092024
112	0x40c5d047	6.1816745
113	0x40c49c38	6.1440697
114	0x40c600ce	6.187598
115	0x40c72595	6.2233377
116	0x40c585ed	6.1725984
117	0xbd563325	-0.05229487
118	0x40c670d6	6.201274
119	0x40c40e73	6.126764
120	0x40c3ce98	6.118969
121	0x40c371cc	6.107641
122	0xbcfd2dcc	-0.030905627
123	0x40c37585	6.1080956
124	0x40c3d7ef	6.120109
125	0xbc8d132d	-0.017221058
126	0x40c56722	6.1688395
127	0xbb5dd742	-0.0033850227

fc3.weight f4 [64, 128]
0	0x3bae5a51	0.005320825
1	0x3d1d2315	0.038363535
2	0xbd42cd3e	-0.047559015
3	0xbdcda1e5	-0.100406446
4	0xbd5550bb	-0.052078944
5	0x3d1d6129	0.038422737
6	0xbdb5897b	-0.08864113
7	0xbd366739	-0.044532035
8	0xbcd24591	-0.025667937
9	0xbd9790db	-0.07400676
10	0x3d4e3a7e	0.05034875
11	0xbd65e4e2	-0.056126483
12	0xbc500265	-0.012695883
13	0xbd9492d2	-0.07254566
14	0xbd61133a	-0.054949977
15	0xbceb6106	-0.028732788
16	0xbd84e88e	-0.06489669
17	0xbd65241d	-0.055942643
18	0xbb0a2d61	-0.0021084177
19	0x3bbec57e	0.0058218827
20	0xbc510300	-0.012757063
21	0xbd009359	-0.03139052
22	0x3d6310fd	0.055436123
23	0x3d00cf4f	0.031447705
24	0xbcf3140a	-0.029672641
25	0xbc978887	-0.018497718
26	0xbd4d97b3	-0.0501935
27	0xbd2a1202	-0.04152108
28	0x3d54cd3a	0.05195353
29	0xbdeee23a	-0.11664243
30	0x3d8124f7	0.063058786
31	0x3d53a588	0.051671535
32	0x3c203c02	0.009779932
33	0x3d4199a3	0.04726566
34	0xbd18b0bd	-0.037277926
35	0x3c82056a	0.015871722
36	0xbce60277	-0.028077347
37	0xbb9d383f	-0.004797965
38	0x3c5aa4c6	0.013344949
39	0x3c9c6e35	0.01909552
40	0xbd87783b	-0.06614729
41	0x3cec6346	0.028855931
42	0x3ca4b21a	0.020104457
43	0xbd9cdd3f	-0.07659387
44	0x3d6c9daa	0.057767548
45	0xbd815684	-0.0631533
46	0xbac48341	-0.001499273
47	0xbd95cb0d	-0.073141195
48	0x3cc41b0b	0.023938676
49	0xbd9a55d2	-0.075359
50	0x3d843561	0.06455494
51	0x3cb058d7	0.021526737
52	0xbd475e27	-0.048673775
53	0x3c77e9f4	0.015131462
54	0xbdf443af	-0.11926972
55	0xbc88aca0	-0.016683877
56	0x3cf88f1f	0.030341683
57	0x3d09aaec	0.03361027
58	0xbbe3c040	-0.006950408
59	0xbdf8f402	-0.12155916
60	0x3d98ac9f	0.074548
61	0xbdc052c8	-0.09390789
62	0xbd4b2686	-0.049597286
63	0xbd97febb	-0.07421633
64	0xbcd022fe	-0.02540731
65	0x3b96c024	0.0046005417
66	0x3d68ac58	0.056804985
67	0x3d0a764c	0.033804223
68	0xbb8bbfc9	-0.004264806
69	0x3c0b70da	0.008510793
70	0x3d300ab3	0.042978954
71	0x3d58a73a	0.052893855
72	0xbdfb9f68	-0.12286264
73	0xbdfa1b3e	-0.12212227
74	0xbdbe333a	-0.092871144
75	0xbd877c94	-0.06615558
76	0x3b478715	0.0030445505
77	0x3d1de693	0.03854997
78	0x3d9255b0	0.0714525
79	0xbd9e12ee	-0.07718454
80	0xbdbc118c	-0.09183034
81	0x3dc44b02	0.09584619
82	0xbde8480d	-0.113418676
83	0x3db29fef	0.08721911
84	0x3d8c0a1d	0.068378665
85	0xbd937283	-0.07199576
86	0xbcd706f2	-0.026248429
87	0xbdffbb95	-0.1248695
88	0x3d89a512	0.06720938
89	0x3cdf369d	0.027247721
90	0xbd34db8a	-0.04415468
91	0xbd0127f5	-0.031532247
92	0xbdc9aa75	-0.09846965
93	0xbd1c5935	-0.038171012
94	0xbcc80ea8	-0.024421051
95	0xbc8f73c7	-0.017511262
96	0xbdafd454	-0.0858542
97	0xbde1a53e	-0.110178456
98	0xbd9058f0	-0.070482135
99	0xbd149d72	-0.036282964
100	0x3cc51430	0.024057478
101	0xbddf0784	-0.10890105
102	0xbd69b5b9	-0.05705807
103	0xbd65707f	-0.056015488
104	0x3c967b73	0.018369412
105	0xbe05a76a	-0.13052145
106	0xbd1525d5	-0.036413033
107	0xbd320c77	-0.04346892
108	0xbb2e6304	-0.002660931
109	0xbdd7ce7f	-0.10537433
110	0xbcc654e0	-0.024210393
111	0xbdd1f024	-0.10250881
112	0x3d01dd58	0.03170523
113	0x3b933feb	0.0044937036
114	0x3c1585b3	0.009126115
115	0xbc1b05cc	-0.009461831
116	0xbcbc6279	-0.022996174
117	0x3d01c864	0.031685248
118	0xbdbc7165	-0.09201316
119	0x3d5f9fc1	0.054595713
120	0x3cb9e526	0.022692274
121	0xbdd2ebd1	-0.10298885
122	0x3d7048e5	0.058663268
123	0xbc903ba4	-0.017606564
124	0xbd5cb785	-0.053885955
125	0x3c389f87	0.011268503
126	0x3d53223e	0.051546328
127	0xbca308c3	-0.019901639
128	0xbd09a075	-0.03360029
129	0x3c20fe28	0.009826221
130	0xbd93f17e	-0.07223795
131	0x3c8a9138	0.016914949
132	0xb9c561ca	-0.00037647627
133	0xbd9c8ef7	-0.07644456
134	0x3cf91309	0.030404584
135	0xbd1e5a9e	-0.038660638
136	0xbd94fd50	-0.07274878
137	0x3c5a7fae	0.013336105
138	0x3ca25a04	0.019818313
139	0xbdaf9fc2	-0.08575393
140	0xbca3c98c	-0.019993566
141	0xbcf75f47	-0.030196799
142	0xbda67b7c	-0.081290215
143	0xbd263c32	-0.04058475
144	0x3cc24c84	0.023718126
145	0xbd5b8a6e	-0.053598814
146	0x3d946307	0.072454505
147	0x3d6dc1f5	0.0580463
148	0x3bc7b943	0.006095083
149	0xbced0b38	-0.028936014
150	0x3d10cf44	0.035353914
151	0x3b82cc40	0.0039916337
152	0x3d430cbe	0.047619574
153	0xbd1986eb	-0.037482183
154	0xbd3c42cc	-0.04596214
155	0xbc9a7699	-0.01885538
156	0x3d8f7a2b	0.070057236
157	0xbdb4c0ef	-0.08825862
158	0x3d8e5989	0.06950671
159	0x3ca6f8a0	0.020382226
160	0xbdd25d40	-0.10271692
161	0x3d182aa2	0.037150033
162	0x3d634c3a	0.055492617
163	0xbd9a7477	-0.07541745
164	0x3d60d0b2	0.054886527
165	0xbd926f4b	-0.07150134
166	0x3b106a83	0.0022036142
167	0x3d84621f	0.064640276
168	0xbdaf1f6e	-0.085509166
169	0xbd1acd78	-0.037793607
170	0xbd0db8d2	-0.034600087
171	0xbd86b951	-0.06578315
172	0x3d197f4b	0.03747491
173	0x3aa2a9c0	0.0012410209
174	0xbd958e7d	-0.07302568
175	0x3cf67b1c	0.030088
176	0xbc520b48	-0.0128200725
177	0xbc330333	-0.010926056
178	0x3cd299fd	0.025708193
179	0x3ce38ba0	0.02777654
180	0xbd2b3cd2	-0.04180605
181	0x3c1ab47b	0.009442444
182	0xbdaae457	-0.083443336
183	0x3db4684d	0.08808956
184	0xbd1c3ba3	-0.03814281
185	0xbd0b7ad8	-0.0340527
186	0xbd041a00	-0.032251358
187	0xbdad78c9	-0.084703036
188	0x3bb224c0	0.00543651
189	0xbd6c23e2	-0.057651408
190	0x3d389f26	0.04507365
191	0x3b514560	0.003193222
192	0x3c201d00	0.009772539
193	0xbda6a06d	-0.081360675
194	0xbd073587	-0.033010032
195	0xbc88206c	-0.016617022
196	0x3d340c16	0.04395684
197	0x3cc270e8	0.023735479
198	0xbc0e0df0	-0.008670315
199	0xbcebd07b	-0.028785935
200	0x3dafb127	0.08578711
201	0xbd3668cd	-0.04453354
202	0xbdab1385	-0.083533324
203	0x3d664fc6	0.05622842
204	0xbbc815f7	-0.006106134
205	0xbd342403	-0.043979656
206	0x3d1c2a22	0.03812612
207	0x3d9b631b	0.07587262
208	0x3d05a34c	0.032626435
209	0x3d046b78	0.032329053
210	0xbc9144f4	-0.017733075
211	0x3bd58ed0	0.0065172687
212	0xbd3f94f8	-0.046772927
213	0x3d0f89a7	0.035043385
214	0xbccc79c8	-0.024960414
215	0x3b3c8a00	0.0028768778
216	0x3c12ccd0	0.008959964
217	0x3d702566	0.058629416
218	0xbd9dc95d	-0.077044226
219	0xbc1a5320	-0.009419233
220	0x3cc62074	0.024185397
221	0xbd453f8e	-0.048156314
222	0x3d07011a	0.032960035
223	0xbdbd3745	-0.092390575
224	0xba847927	-0.0010106907
225	0x3d31def5	0.04342552
226	0xbd853040	-0.065033436
227	0xbd3a9c1d	-0.045559037
228	0xbd79ef8a	-0.061019458
229	0x3ca8f230	0.020623296
230	0x3d62bd3a	0.05535624
231	0xbdaeb621	-0.08530832
232	0x3d969f49	0.073546
233	0xba1e8e00	-0.00060483813
234	0x3ca7fe54	0.020507015
235	0x3ab7ad63	0.0014013465
236	0xbd11dc47	-0.035610463
237	0x3d00f8f6	0.031487428
238	0x3d587b76	0.052852117
239	0x3b5c7360	0.0033638105
240	0xbda0db00	-0.07854271
241	0xbd296ab9	-0.041361544
242	0x3c87c1dc	0.016571932
243	0xbd09d40e	-0.033649497
244	0xbda44dc0	-0.08022642
245	0xbd88f609	-0.066875525
246	0xbd4f6145	-0.050629873
247	0x3cbf0319	0.023316907
248	0xbcab25f6	-0.020892125
249	0xbda00e15	-0.07815186
250	0x3d4d6fe0	0.05015552
251	0xbc07bca8	-0.008284725
252	0xbda7d111	-0.08194173
253	0x3d43117e	0.047624104
254	0x3d676aca	0.056498326
255	0x3d4b999e	0.049707048

fc3.bias f4 [64]
0	0xbcf73ffe	-0.030181881
1	0xbdbdd32f	-0.09268796
2	0xbd7e3eb3	-0.062071513
3	0x40ba6741	5.825104
4	0x40b92eb6	5.786952
5	0xbdc3281c	-0.09529135
6	0x40bc3915	5.881968
7	0xbd1a166b	-0.037619036
8	0x40b106d8	5.5320854
9	0x3de64e86	0.11245446
10	0x40baa813	5.833017
11	0x40bd1d2e	5.909812
12	0x40b8d0f2	5.775506
13	0xbdcb7afb	-0.09935566
14	0xbd76cbfb	-0.060253125
15	0x40badc3b	5.8393836
16	0x40b9ecf9	5.8101773
17	0x40bd6955	5.919108
18	0x40b8cba0	5.7748566
19	0x40b86834	5.76272
20	0xbdd1f161	-0.102511175
21	0xbdceac88	-0.100915015
22	0x3d9fb930	0.077989936
23	0x40b9189a	5.784253
24	0x40b7915f	5.7364955
25	0xbdba0865	-0.090836324
26	0x40bbfe55	5.8747964
27	0x40b672ce	5.7015142
28	0x40b8f285	5.7796044
29	0xbdd27f18	-0.102781475
30	0x40bac427	5.8364444
31	0x40b7287a	5.723691
32	0x40bbfdc6	5.874728
33	0x40baac9e	5.8335714
34	0x40bcc3ab	5.8988853
35	0x40ba2e4e	5.8181524
36	0xbd3a535c	-0.045489654
37	0xbdaba4dc	-0.08381054
38	0x40b9b3d2	5.8032007
39	0x40b4b705	5.6473413
40	0x40b9b5e0	5.8034515
41	0x40bad01f	5.8379054
42	0x40bbeb08	5.8724403
43	0x40bd87ba	5.922818
44	0x40b978b3	5.795984
45	0x40ba1543	5.8150954
46	0x40b9f30b	5.8109183
47	0x40bbd197	5.8693347
48	0x40bb746a	5.8579607
49	0xbd60d7c0	-0.054893255
50	0x40baeb59	5.841229
51	0x40b37df3	5.6091247
52	0x40b98fc0	5.7987976
53	0x40bbe5cd	5.871802
54	0x40b90749	5.7821393
55	0x40b667b2	5.700158
56	0x40bb0b97	5.845165
57	0x40bb20c1	5.8477483
58	0x40b97d6d	5.796561
59	0xbdf34cca	-0.11879881
60	0xbcf87178	-0.030327544
61	0x40bb81e3	5.8596053
62	0xbd878485	-0.06617073
63	0x40ba682d	5.825217

fc4.weight f4 [49, 64]
0	0x3e115e42	0.14196113
1	0x3deb52e4	0.114904195
2	0x3d8d7d00	0.069086075
3	0x3fccaf45	1.5990988
4	0x3fe2082d	1.7658745
5	0xbdb23148	-0.08700806
6	0x3fd34416	1.6505153
7	0xbdee17bc	-0.11625621
8	0x3fc9b6bf	1.5758895
9	0xbe1f60e6	-0.15564308
10	0x3f98d418	1.1939726
11	0x3fd2d74a	1.6471951
12	0x3fe32218	1.774478
13	0xbdec1b19	-0.11528606
14	0xbbabe720	-0.005246058
15	0x3fd9beac	1.7011313
16	0x3fc9b4e2	1.5758326
17	0x3fd8d25b	1.6939195
18	0x3fda5c07	1.7059335
19	0x3fdee097	1.7412289
20	0x3da1a0f2	0.07892026
21	0xbc436560	-0.011926025
22	0x3e064a3d	0.13114257
23	0x3fca2a5d	1.5794178
24	0x3fb07c6a	1.3787968
25	0xbd9135a2	-0.07090308
26	0x3fe13c54	1.7596536
27	0x3fdee859	1.7414657
28	0x3fa87859	1.3161727
29	0xbcd7adb8	-0.026327953
30	0x3fe0342a	1.7515919
31	0x3fdf9e27	1.7470139
32	0x3fe0aae5	1.7552153
33	0x3f9ed359	1.2408248
34	0x3fdc0e74	1.7191911
35	0x3fab4f47	1.3383569
36	0x3d8c88c4	0.068620235
37	0x3d942ff9	0.072357126
38	0x3fdc005b	1.7187608
39	0x3fc71341	1.5552751
40	0x3fc8ea9e	1.56966
41	0x3fc62617	1.5480374
42	0x3fcd3238	1.603095
43	0x3fca0ca1	1.5785104
44	0x3fd4e153	1.6631263
45	0x3fde8824	1.7385297
46	0x3fc7481d	1.5568882
47	0x3fd8e85d	1.6945912
48	0x3fcbec25	1.593144
49	0xbd0cefe6	-0.034408472
50	0x3fc2e429	1.5225879
51	0x3fdaffa0	1.710926
52	0x3fd51e8f	1.6649951
53	0x3fd04756	1.627177
54	0x3fdd20ae	1.7275598
55	0x3fcf33ba	1.6187661
56	0x3fc8cf91	1.5688344
57	0x3fd2a0b3	1.6455292
58	0x3fe18e4a	1.7621548
59	0x3d363900	0.044487953
60	0x3be46840	0.0069704354
61	0x3fcf4ba7	1.6194962
62	0xbd9cdc16	-0.076591656
63	0x3fcf0eb0	1.6176357
64	0xba0e14f1	-0.00054199906
65	0x3d94e9fa	0.0727119
66	0xbd1afcb4	-0.037838653
67	0x40b58de1	5.673569
68	0x40b3d4b4	5.6197147
69	0xbb31010c	-0.002700868
70	0x40b76430	5.73098
71	0xbd48f230	-0.049059093
72	0x40b10dea	5.5329485
73	0x3e1b3672	0.15157488
74	0x40b28e0a	5.5798388
75	0x40b4970f	5.64344
76	0x40b914d8	5.7837944
77	0x3d9397f7	0.07206719
78	0x3d93cb8e	0.07216559
79	0x40baccc1	5.8374944
80	0x40b3f22d	5.6233125
81	0x40b6ebf3	5.7163024
82	0x40b764a1	5.731034
83	0x40b73fd9	5.726544
84	0x3b541840	0.0032363087
85	0x3d491384	0.049090877
86	0xbd11b415	-0.03557213
87	0x40ba9934	5.8312016
88	0x40b2c14a	5.586095
89	0x3d3b8ffe	0.04579162
90	0x40b9683f	5.7939754
91	0x40b7af7e	5.7401724
92	0x40ae77d4	5.4521275
93	0xbdf08b16	-0.117452785
94	0x40bab806	5.834964
95	0x40b350b5	5.603602
96	0x40b3e734	5.621973
97	0x40b0f10c	5.5294247
98	0x40b88598	5.766308
99	0x40b2f720	5.5926666
100	0x3dd7883a	0.1052403
101	0xbac24b6a	-0.00148235
102	0x40b840dd	5.757918
103	0x40b26192	5.5744104
104	0x40ba05ba	5.813199
105	0x40b4cba4	5.6498585
106	0x40b5b9a4	5.678911
107	0x40ba5f6a	5.824147
108	0x40b46214	5.6369724
109	0x40b7459a	5.7272463
110	0x40b612c1	5.6897893
111	0x40b7a617	5.7390246
112	0x40b4a5c0	5.645233
113	0xbd7ad1e4	-0.061235324
114	0x40b67cfc	5.702757
115	0x40b76f4b	5.7323356
116	0x40b7e984	5.7472553
117	0x40b69d0b	5.7066703
118	0x40b8ee85	5.779116
119	0x40b93a12	5.7883387
120	0x40b368d2	5.6065454
121	0x40b698ea	5.7061663
122	0x40b5090d	5.657355
123	0x3d9fbffe	0.078002915
124	0x3d3ce428	0.046116024
125	0x40b7fb92	5.7494593
126	0x3d3ebc2c	0.046566173
127	0x40b31d6a	5.5973406
128	0x3d8f62b5	0.07001249
129	0xbd845626	-0.06461744
130	0xbd2faf58	-0.04289183
131	0x4093b0b6	4.615321
132	0x409448d0	4.6338882
133	0xbd97a25c	-0.074040145
134	0x4094e29d	4.6526628
135	0xbdf88e16	-0.12136476
136	0x408c203d	4.3789353
137	0xbd639a35	-0.055566985
138	0x408ec3ac	4.4613857
139	0x4094e8e8	4.653431
140	0x40981563	4.7526107
141	0xbde5c324	-0.11218861
142	0x3c7daed0	0.015483573
143	0x4096e698	4.7156487
144	0x409607e4	4.688463
145	0x4098024d	4.750281
146	0x409855e0	4.760483
147	0x409318ea	4.5967913
148	0xbded9e1e	-0.11602424
149	0xbd83deba	-0.06438966
150	0x3da8ab28	0.082357705
151	0x4097c698	4.7429924
152	0x40911243	4.533479
153	0x3c466b60	0.012110561
154	0x40969589	4.705754
155	0x40924c4b	4.571813
156	0x40930e57	4.5955005
157	0x3db0e05c	0.08636543
158	0x4094389b	4.63191
159	0x408ee6c3	4.465669
160	0x40982825	4.7549005
161	0x408e7b8f	4.452583
162	0x4094c4b1	4.64901
163	0x408cd1bd	4.400603
164	0xbd1703c0	-0.03686881
165	0x3dcbb311	0.099462636
166	0x409651cb	4.6974845
167	0x408cea79	4.403622
168	0x40993412	4.7876062
169	0x4094e49f	4.652908
170	0x409292c8	4.5804176
171	0x40994ded	4.7907624
172	0x40978c9b	4.7359138
173	0x40963443	4.6938796
174	0x4098a470	4.770073
175	0x4096e532	4.715478
176	0x4095281b	4.6611457
177	0xbcacef90	-0.021110326
178	0x4095f9d8	4.6867485
179	0x4092cb37	4.5873065
180	0x408e42bb	4.445646
181	0x4099ec6b	4.8101096
182	0x409431eb	4.6310935
183	0x4093411d	4.6016984
184	0x40978183	4.7345595
185	0x4097c5ce	4.742896
186	0x4093b152	4.6153955
187	0x3d85eba4	0.065390855
188	0xbd602e6c	-0.05473177
189	0x409931b9	4.7873197
190	0x3d615298	0.05501041
191	0x409725b7	4.723354
192	0x3d28ef6d	0.04124396
193	0xbd0a9638	-0.033834666
194	0xbca8f5c8	-0.02062501
195	0x4082e540	4.0904846
196	0x4087ac9f	4.239822
197	0x3bc1c7be	0.0059137037
198	0x40815ff3	4.0429626
199	0xbddd8962	-0.10817219
200	0x407fef2b	3.9989727
201	0x3d6a2259	0.057161663
202	0x40842fae	4.1308203
203	0x4085bdb6	4.179408
204	0x408684ac	4.2036953
205	0xbdb422c1	-0.08795691
206	0xbd8b7a56	-0.06810443
207	0x4081e12d	4.0587373
208	0x4083d466	4.1196775
209	0x408803e8	4.250477
210	0x4084b1c0	4.146698
211	0x40856640	4.1687317
212	0x3da3f0ca	0.08004911
213	0x3da59a8a	0.080861166
214	0xbc9564f1	-0.01823661
215	0x40841cbb	4.128507
216	0x4088393b	4.256986
217	0x3c6431ba	0.013927871
218	0x4081b8dd	4.0538163
219	0x40866e12	4.2009363
220	0x4083f4c4	4.1236286
221	0xbd57d040	-0.052688837
222	0x40843f5d	4.132735
223	0x40848b64	4.1420155
224	0x4087472e	4.227439
225	0x408511dc	4.15843
226	0x40848f73	4.142511
227	0x40837173	4.107599
228	0xbd587894	-0.052849367
229	0x3ddb849d	0.10718653
230	0x4082a39d	4.0824723
231	0x40858738	4.172756
232	0x4086ec66	4.216357
233	0x4084e881	4.153382
234	0x4088353e	4.2564993
235	0x40812e7e	4.0369253
236	0x40814c93	4.0405974
237	0x40870dbe	4.2204275
238	0x40857e15	4.171641
239	0x40883591	4.256539
240	0x4083a9fd	4.1145005
241	0x3cc26b90	0.02373293
242	0x4085605b	4.168012
243	0x4083dce8	4.120716
244	0x408777ec	4.233389
245	0x4087b010	4.240242
246	0x4087d6a9	4.2449536
247	0x40856384	4.168398
248	0x4084c158	4.1486015
249	0x4084e18d	4.152533
250	0x40816ad7	4.044292
251	0xbd3df8c0	-0.046379805
252	0x3d94b3f0	0.07260883
253	0x4086fa52	4.2180567
254	0xbdc85c88	-0.09783274
255	0x40878107	4.2345004

fc4.bias f4 [49]
0	0x3f87f430	1.0621395
1	0x409de972	4.9347467
2	0x409ab70b	4.834844
3	0x40785156	3.8799644
4	0x407b6b90	3.92844
5	0x3ff83c35	1.9393374
6	0x4088b49f	4.2720485
7	0x3fd0d1f9	1.6314079
8	0x409d6870	4.9189987
9	0x4020d364	2.5129023
10	0x405f879f	3.4926527
11	0x40902faa	4.5058184
12	0x40072515	2.1116383
13	0xbdd53408	-0.10410315
14	0x409bbf3f	4.8670955
15	0x40735526	3.802072
16	0x4028bf0d	2.6366608
17	0x40100efe	2.250915
18	0x40893071	4.2871633
19	0xbde7d49e	-0.113198504
20	0x3db70a76	0.08937542
21	0x403b6db9	2.928572
22	0x40994c8a	4.790593
23	0x40a2e16b	5.090017
24	0x405d7c6b	3.4607189
25	0x38a87800	8.033216e-05
26	0xbdad0ada	-0.084493354
27	0x3d6045ec	0.054754183
28	0x4032deae	2.7948413
29	0x4027a49f	2.6194227
30	0x4095b37e	4.6781607
31	0x3d9a5dfa	0.07537456
32	0x3c959160	0.018257797
33	0x3c1397a0	0.009008318
34	0xbce387f8	-0.027774796
35	0x40680442	3.6252599
36	0x4010ff5d	2.2655861
37	0xbd252098	-0.040314287
38	0xbc0904f0	-0.008362994
39	0xbcaf05b0	-0.021365017
40	0x3cc59288	0.024117723
41	0xbda89fc6	-0.08233599
42	0x3fc59409	1.5435802
43	0x3db87134	0.09005967
44	0x3cd53538	0.026026353
45	0xbd6a8208	-0.057252914
46	0x3d37d5a4	0.044881478
47	0x3de2fa0a	0.110828474
48	0x3d86de30	0.06585348
