trike2/models/DQN_SelfPlay_Final_1000ep.pt/DQN_Main.pt (torch, 333068 bytes, 8 tensors)

fc1.weight f4 [256, 148]
00000000: a64a 5841 2aa8 2941 5360 5341 a2c7 5341
00000010: a3b6 5a41 f1f0 7041 e4e3 3141 ba2d 3741
00000020: d2c2 3c41 0117 6a41 f0f4 3c41 23ac 8041
00000030: c7d6 2e41 ee47 24bd 1d58 4441 6fcf 7641
00000040: 715a 2f41 1726 7041 c35e 3e41 d538 9a3d
00000050: a4b0 9d3c 9988 6e41 49b0 4941 b524 6c41
00000060: ebbc 5941 3178 0ebd 983e 9b3c 3215 4bbd
00000070: b28a 5041 0545 6141 9d5f 0a41 a26e 763d
00000080: 8e40 14bd dc88 bb3c 1454 2c3d eef6 6341
00000090: 9139 1e41 b416 21bd 40ea 66bd 80c5 2fbb
000000a0: 9b77 11bd e13b a43d 9b8c 5c41 281c f33c
000000b0: 96df 673d b084 dfbb 25ed 4fbd 527a 0bbd
000000c0: 3431 97bd 04fc 5f41 22d3 4441 6d2c 4241
000000d0: b216 4f41 b4d7 5d41 b172 6641 6a15 3741
000000e0: d1a5 5141 1259 1741 8ec8 7741 0470 4041
000000f0: cfec 6c41 e76d 4b41 3c59 9abc f74e 3541
00000100: d18c 6f41 3319 3541 c91d 6e41 a9b2 3541
00000110: ea18 4dbd 2212 f8bc 5364 7941 3182 2a41
00000120: 0a93 4e41 10ab 3d41 33ba 4fbd 00fe 94bc
00000130: 7612 a0bd d4a4 3e41 2a5d 5141 5f5e 3a41
00000140: 2227 0dbd be9b 0abd d8c4 273d 7235 09bd
00000150: 5f7a 1841 a845 4041 c006 0bbc 662b 193d
00000160: 8031 df3c ad81 41bd 5eea 653d a699 4a41
00000170: 9839 053d cecc 1bbd 7794 8dbd 0070 cdb9
00000180: 0815 89bc ecc9 063d 7a59 6341 3ae1 e640
00000190: dd09 4341 a886 3341 a062 4b41 3ff6 5041
000001a0: 3922 f940 e968 e140 12d3 a1bf 0982 6941
000001b0: cdf9 8c40 59d2 6641 50ab 9840 a7e7 933d
000001c0: 56fc 0941 1608 5a41 57d7 1840 1df5 6541
000001d0: 93fb cd40 4c40 a53c 10bd 88bb a46d 6741
000001e0: 71ac db40 85c1 3d41 09ae 3141 9aec 8abd
000001f0: dac0 633d ab5c 24bd 8378 1841 c28d 4d41
00000200: cc9a 0641 a8c1 0b3d 407c 373c 8019 0fbb
00000210: c390 903d 1ffe 1541 6dea 9f40 0ffb 86bd
00000220: c07b 1d3d 9cfd 923c ce80 6bbd 6ebb 3e3d
00000230: 3b97 3c41 1809 00bc 0b33 803d 22f6 eebc
00000240: ec38 59bd f02f 3dbc 893b 8fbd c80d 5b3c
00000250: 8c83 5741 de43 2a41 b7fb 5241 8e13 5241
00000260: 7e32 5b41 8c48 7041 c57f 3041 43b0 3741
00000270: 7fc8 3c41 66a5 6a41 0547 3c41 06af 8041
00000280: ab90 2d41 b27f 79bd 4d6f 4541 fb78 7741
00000290: afbb 2e41 c3e0 6f41 31e8 4041 40ad cb3b
000002a0: 28b5 66bc 8bfc 6f41 7081 4841 514b 6a41
000002b0: 1ac2 5941 f98f 963d 3cd9 85bc c65f 65bd
000002c0: e9da 5041 b029 6241 9ab1 0741 6a42 bdbc
000002d0: a7b3 913d c8d7 883c 9c66 ca3c 8a5d 6441
000002e0: 93c9 1d41 2cd0 93bd b614 9cbd 2eb5 563d
000002f0: 0966 9c3d b038 6bbc 64cd 5941 9eba 643d
00000300: 7c31 a4bd 5074 e63b 824e 53bd 705b cb3c
00000310: 790e 15bd ef3f 6041 c8ec 4341 6dac 4241
00000320: 801b 5141 58f0 5f41 f452 6641 0bf8 3741
00000330: 686e 5241 842b 1941 c91e 7541 e244 3f41
00000340: a21b 6d41 c057 4a41 3040 b0bc 8f00 3641
00000350: 96f8 6d41 5802 3441 2d45 6e41 9ba8 3641
00000360: b3d8 9fbd ee91 1ebd a68f 7841 dfb9 2941
00000370: 6d3e 4d41 9068 3c41 4048 bdbc f672 0cbd
00000380: 5855 083c ba7f 3e41 502e 5141 9736 3941
00000390: 5e4a 733d fe07 173d 56ea 5e3d 9831 f93c
000003a0: 7321 1a41 5a62 4041 f461 803c e258 86bd
000003b0: 30ba b6bc a24f 69bd 3991 10bd 9fce 4b41
000003c0: e17f 1fbd e01d 19bd 1267 653d 2805 86bc
000003d0: 21b5 8d3d c229 283d f26e 6141 666d e840
000003e0: cfc4 4141 08bd 3241 6790 4a41 ca64 5041
000003f0: 5190 fe40 d34d e340 d56e a4bf 388d 6941
13.518225 10.603556 13.211017 13.2362385 13.669589 15.058824 11.118137 11.448664
11.797564 14.630616 11.809799 16.084051 10.927436 -0.04010766 12.271512 15.425643
10.95958 15.009299 11.898135 0.07530371 0.019249268 14.908349 12.605538 14.758962
13.608623 -0.034782592 0.018950745 -0.04958076 13.033861 14.07935 8.648343 0.0601641
-0.036194377 0.022892408 0.04207237 14.247786 9.889054 -0.039328292 -0.056375742 -0.00268206
-0.035514455 0.080192335 13.7843275 0.029676512 0.056609713 -0.0068212375 -0.050763268 -0.0340522
-0.073824316 13.999027 12.301546 12.135846 12.943041 13.865162 14.403001 11.442728
13.1029825 9.459246 15.486464 12.027348 14.807815 12.714332 -0.018841378 11.331779
14.971879 11.318652 14.882272 11.356118 -0.050072588 -0.030282084 15.586993 10.656785
12.910898 11.854263 -0.050714683 -0.018187523 -0.07816021 11.915241 13.085245 11.64804
-0.034461148 -0.033839934 0.04095921 -0.033498235 9.529876 12.017006 -0.008485496 0.037394904
0.027245283 -0.04724281 0.056131713 12.662512 0.03252563 -0.038037114 -0.06913083 -0.00039184093
-0.016733661 0.03290741 14.209345 7.2149935 12.189908 11.220375 12.711578 13.060119
7.7854276 7.0440564 -1.2642539 14.594247 4.4054933 14.426354 4.770912 0.072219186
8.624105 13.626974 2.3881433 14.372342 6.4369597 0.02017226 -0.0041729286 14.464268
6.8648 11.859746 11.104989 -0.067834094 0.05560384 -0.040127438 9.529422 12.847109
8.412792 0.034120232 0.011199057 -0.0021835268 0.07058861 9.374541 4.9973664 -0.065908544
0.038448095 0.017943196 -0.057495885 0.046565466 11.7869215 -0.007814668 0.06259736 -0.0291701
-0.0530328 -0.011547074 -0.06993777 0.013369985 13.469616 10.641569 13.186454 13.129774
13.699827 15.017712 11.031194 11.480533 11.798949 14.6653805 11.767339 16.08546
10.847819 -0.060912795 12.339673 15.467036 10.920821 14.992373 12.056687 0.0062157214
-0.014081277 14.999156 12.531601 14.643388 13.609888 0.07351679 -0.016338937 -0.05599954
13.053445 14.135178 8.48086 -0.023102958 0.07114344 0.016704455 0.024707131 14.272837
9.861712 -0.0721744 -0.07621138 0.05241888 0.07636649 -0.014356777 13.612644 0.055842035
-0.08017251 0.0070329085 -0.051588543 0.024823874 -0.036390755 14.015609 12.245308 12.167096
13.069214 13.996178 14.395252 11.498057 13.151955 9.573124 15.320016 11.954317
14.819246 12.646423 -0.021514982 11.375136 14.87319 11.250572 14.891889 11.416163
-0.07805004 -0.03871339 15.53507 10.607879 12.827741 11.775528 -0.02310574 -0.034289323
0.008321129 11.906183 13.073807 11.575828 0.059397094 0.036872856 0.0544227 0.030419156
9.633166 12.024012 0.015671708 -0.06559922 -0.022305578 -0.05696071 -0.035294745 12.737945
-0.038940314 -0.037382007 0.0560065 -0.01635988 0.06919313 0.04105545 14.089586 7.2633543
12.110549 11.17115 12.6602545 13.024607 7.9551167 7.10325 -1.2846323 14.596977

fc1.bias f4 [256]
00000000: 94fc 8441 6f8b 8541 804e 8541 4108 8641
00000010: 87f4 8541 5c31 8641 aaec 8541 1bca 8541
00000020: 2b17 8641 dced 8541 6c10 8641 381c 8641
00000030: 4edf 8541 85ba 8541 fe7c 8541 2b12 8641
00000040: feed 8441 8f7b 8541 054c 8541 4e1d 8641
00000050: db16 8641 abe0 8441 3232 8541 72cd 8541
00000060: f5dd 8541 3bbb 8441 2208 8541 b409 8541
00000070: bbec 8541 66f7 8441 094d 8541 ea32 8641
00000080: a142 8541 28e3 8441 69cb 8441 03aa 8541
00000090: c493 8541 69f8 8541 26d9 8541 f669 8541
000000a0: 42b2 8441 03b8 8541 6e64 8541 a94a 8541
000000b0: 08ca 8441 74ce 8541 651b 8641 7861 8541
000000c0: 841e 8641 3d14 8541 a5f9 8441 05ef 8441
000000d0: f7a6 8541 c318 8641 1bf5 8441 91fd 8541
000000e0: da06 8641 e5b5 8541 cb11 8641 bce6 8441
000000f0: 4e22 8641 1ed1 8541 59b5 8541 4ae0 8541
00000100: e52d 8541 1f18 8641 d72b 8541 f4fc 8541
00000110: e6d5 8541 cdd1 8541 4f4b 8541 10dc 8541
00000120: 6dec 8541 1b54 8541 b8c9 8541 f329 8541
00000130: 06cf 8541 7320 8641 21d8 8441 5def 8541
00000140: 4fd7 8541 ff88 8541 ba68 8541 4c41 8541
00000150: 75fe 8541 dff1 8441 fb60 8541 f814 8641
00000160: 53fa 8441 1223 8541 1f0f 8641 7d52 8541
00000170: 8517 8641 a401 8541 f4c8 8541 45d3 8441
00000180: 2ace 8441 9b62 8541 5bee 8541 ca3a 8541
00000190: de58 8541 d448 8541 40bc 8541 e562 8541
000001a0: 9ec0 8441 ad69 8541 d8c9 8541 d8c3 8541
000001b0: da0b 8641 eb0d 8641 b285 8541 0f28 8641
000001c0: 3240 8541 482d 8641 797a 8541 a28e 8541
000001d0: 7f16 8541 f9fd 8441 01dc 8441 2561 8541
000001e0: 15e3 8541 b40e 8541 3513 8641 8609 8641
000001f0: af8c 8541 07bb 8541 777e 8541 8d17 8641
00000200: 0d1a 8641 8752 8541 c20b 8541 b143 8541
00000210: 1fc3 8441 62ef 8541 8983 8541 95c4 8541
00000220: 4578 8541 ce6a 8541 d32c 8541 00a1 8541
00000230: 966c 8541 1e5f 8541 816f 8541 8168 8541
00000240: ffee 8441 05a6 8441 b97b 8541 2e91 8541
00000250: 1003 8641 de31 8641 79cc 8541 3c6e 8541
00000260: b128 8541 091d 8641 eaed 8541 7115 8641
00000270: 63cc 8541 e86b 8541 4a90 8541 f9b4 8441
00000280: 7ada 8441 85f3 8541 46f1 8541 2f2d 8641
00000290: 8ec6 8541 2fd8 8441 f032 8541 8bba 39c0
000002a0: f3aa 8441 83ba 8541 877e 8541 bc43 8541
000002b0: 149d 8541 a55c 8541 69fa 8541 936b 8541
000002c0: 3626 8641 cbbc 8441 35dd 8441 b5d0 8441
000002d0: 405d 8541 5c01 8641 529f 8441 f9fa 8441
000002e0: 913a 8541 fba3 8541 8dc3 8541 e211 8641
000002f0: a6a7 8541 fcea 8541 da21 8641 4830 8541
00000300: 23d9 8441 68c7 8541 a061 8541 0a06 8541
00000310: 4e3c 8541 4aee 8541 4fe2 8541 539a 8541
00000320: fbac 8541 6a75 8441 3bd3 8541 7b8d 8541
00000330: 7106 8641 565c 8541 c9b2 8541 1e72 8541
00000340: b9ad 8541 1da6 8541 7d03 8641 2f68 8541
00000350: 7eaa 8441 4f19 8641 e1e8 8541 90f6 8541
00000360: 29ec 8441 eed4 8441 9ede 8541 739f 8541
00000370: 7a97 8541 3b69 8541 6518 8641 0671 8541
00000380: b932 8541 176a 8541 6163 8541 42d0 8541
00000390: 4e0f 8541 54b5 8541 2e32 8541 3e06 8641
000003a0: ff29 8641 6d96 8441 d113 8541 b620 8641
000003b0: a31f 8641 049a 8541 03a5 8541 320b 8641
000003c0: 4fe1 8541 a514 8641 0bd4 8441 d8a1 8541
000003d0: 5e10 8541 6725 8641 8f09 8541 20b9 8441
000003e0: 4b04 8541 e6af 8541 93ed 8441 a941 8541
000003f0: 6b55 8541 42cb 8441 ec0a 8541 aa9c 8541
16.62333 16.693083 16.66333 16.75403 16.744398 16.774101 16.740559 16.723684
16.761312 16.741142 16.758018 16.763779 16.734035 16.716074 16.686031 16.758871
16.616207 16.685331 16.662119 16.764309 16.76116 16.609701 16.64951 16.725315
16.733377 16.591421 16.628971 16.629738 16.740591 16.6208 16.662615 16.77486
16.657534 16.610916 16.599321 16.708014 16.697151 16.746294 16.73103 16.676739
16.58704 16.71485 16.674038 16.661455 16.598648 16.725807 16.763376 16.672592
16.7649 16.634882 16.621897 16.616709 16.706526 16.76209 16.61968 16.748812
16.753345 16.713816 16.758688 16.612663 16.76675 16.727108 16.713549 16.734516
16.64741 16.761778 16.646406 16.748512 16.729443 16.727442 16.661772 16.732452
16.740442 16.666067 16.723495 16.645483 16.726086 16.765844 16.605532 16.741877
16.730131 16.691893 16.676136 16.656883 16.749247 16.618101 16.672354 16.760239
16.622229 16.642124 16.757383 16.665277 16.761484 16.625801 16.723122 16.603159
16.600666 16.673147 16.741385 16.653706 16.668392 16.66056 16.716919 16.673288
16.594051 16.6766 16.723557 16.720627 16.755787 16.756796 16.69028 16.76956
16.656345 16.77211 16.684801 16.694645 16.635984 16.62401 16.607424 16.672434
16.73588 16.63218 16.759378 16.75465 16.693693 16.716322 16.68675 16.7615
16.76272 16.665297 16.630741 16.658052 16.595274 16.741886 16.689226 16.720987
16.683725 16.67715 16.646887 16.703613 16.67802 16.671444 16.679445 16.676027
16.616697 16.581064 16.685411 16.695889 16.751495 16.77435 16.72484 16.678825
16.644869 16.764177 16.741169 16.76047 16.724798 16.677689 16.695454 16.588366
16.606678 16.743906 16.74281 16.772062 16.72195 16.605558 16.649872 -2.9020107
16.583471 16.71607 16.68678 16.658073 16.701698 16.670237 16.74727 16.677526
16.768658 16.592184 16.608011 16.601908 16.670532 16.750664 16.577793 16.622545
16.653597 16.705069 16.720484 16.758732 16.70686 16.739738 16.76653 16.648575
16.606024 16.722366 16.672668 16.627949 16.654446 16.741352 16.735502 16.700354
16.709463 16.557331 16.72814 16.694082 16.753145 16.670086 16.712297 16.680721
16.709826 16.70611 16.751703 16.67587 16.583248 16.762358 16.73871 16.745392
16.615313 16.60397 16.7337 16.702856 16.698963 16.676382 16.761911 16.680187
16.649767 16.676802 16.673525 16.726688 16.632473 16.71354 16.649502 16.753048
16.770506 16.57345 16.634676 16.765972 16.765448 16.700203 16.705572 16.755466
16.735014 16.76008 16.603537 16.704025 16.632992 16.768263 16.629667 16.590393
16.627096 16.710888 16.616003 16.65706 16.666708 16.599247 16.630333 16.701496

fc2.weight f4 [128, 256]
00000000: 0e0d 073b a807 2ebc 805f 6eba f177 63bd
00000010: 9cf5 33bd 5ebe 63bd c4fb 22bd c10d 03bd
00000020: e776 e1bb a2c6 5dbd ff2f 46bc 15da 543d
00000030: 2a48 87bc 7541 313d 2d4f d63c 811e 5c3d
00000040: a82b 203d e12a 84bd b943 b7bb 1422 85bd
00000050: d4f8 5bbd a49d 12bd aa58 733d 234c 82bd
00000060: e61f 2f3d 72b7 3dbd 0070 373c c1f2 223d
00000070: 7af1 f43c 11b5 dabc f17b 783c 1fc1 0dbd
00000080: b028 83bd 4dbc 6fbc 470c 563d 9c17 71bd
00000090: a1c4 3f3d 6f78 273c f526 d03c 6363 80bb
000000a0: b07d ffbc fc2a 84bd ff9d 403d 3e47 093d
000000b0: f0e9 d2bb 0181 c53c 9951 d8bc a2ab 8137
000000c0: eced b13c 20e2 8bbc 0cc4 c53c 5c59 833c
000000d0: 9bc3 8dbd 368c 82bd 6c48 f8bb 1dbb 4f3c
000000e0: cb35 81bd f29f 81bd e1bb c83b f415 36bd
000000f0: dfc3 133b 3f8b be3c 7637 4b3c 9f9f f73c
00000100: 790e f53c 8eee 6537 7f17 463d e824 2a3d
00000110: aed6 a6bc a49e 4fbd 7021 8ebd 6c9e 8abd
00000120: 8d11 2a3d 50d5 88bc ccfc a7bc e783 47bd
00000130: e9fe 4fbc 838f 28bd bd65 5dbd dfaf 6dbd
00000140: 33f4 81bd 1075 5abc 7a9d 7dbd 3b58 7cbb
00000150: 3935 003c fb22 64bd e807 41bc d3de 0ebd
00000160: f4d8 0dbd f3f4 86bc ff9e d13c df18 09bd
00000170: 3f6d 503d f87c 143d 5a56 533a f015 babc
00000180: 3c64 c2bc 60f3 453c 7249 2f3d e36a 543d
00000190: 9de9 6cbd 094e 67bd 664d 60bd 3e0c 2abd
000001a0: e851 d43c fdd4 14bd f055 46bd c18f 7bbd
000001b0: 7a87 44bd 9173 5b3d f4d6 b83a 949f 443c
000001c0: 00be 033c a635 35bd 7e38 403d 00e5 57ba
000001d0: a162 37bd 5c32 d9bc 6c24 093d 9d2e 8b3c
000001e0: 92fb c2bb b8cd 723c 99b3 0dbb cf97 46bd
000001f0: 1fdb 89bd 16d5 403d d764 523d 4382 55bd
00000200: 1cfb 3bbc 66f2 6bbd 1f6f ab3c 3205 40bd
00000210: 71bf 563d 12c0 83bd 004b 6dbd d0b7 65bd
00000220: 0400 013d bd9d 433c daa0 523d 6f19 0c3d
00000230: 1e05 24bd e0eb bfbc ed23 9a3c 40d4 cf3a
00000240: e437 4d3d 70b8 96bc fd8a cd3c b392 8ebd
00000250: b01b 77bc 47d8 4d3d c07c 9aba beb0 89bc
00000260: 042e a53c 7705 2ebd cef7 5cbd 301e abbc
00000270: fa7e 2d3d 1adb 7dbd 03ba 793b 7c5d 753d
00000280: 78ab 06bd 941e 42bd 53c5 303c 3205 d2bc
00000290: 2080 8dbd 399b 343d 2616 623d 2ef6 473d
000002a0: a814 613d 9d00 1cbd fd03 64bd ed0e 213d
000002b0: 3c4f 543d 8581 38bd 4c8b 91bd 0bb7 c8bc
000002c0: f15c 23bc 9a50 003d 03b9 e43c 0031 9abc
000002d0: 3b54 03bd 6a81 4a3d d868 d6bc def3 50bd
000002e0: 241c 80bc 0bd9 9cbb ae98 29bd 604c 91bd
000002f0: 935e 24bd c597 dc3c 2ef9 333c fa69 54bd
00000300: 5a26 56bd 7dd2 6abd 83a6 e2bc 4a34 34bd
00000310: 6de2 adbc eef3 513c f842 183d af56 1d3d
00000320: 4f5a 423d b21f 7b3d 9be5 5bbd 7ccb 263d
00000330: 4c25 79bd 6350 c23c 59ee 113c cdee fbbc
00000340: 0077 473a b4b5 ff3c bb9a 473d 4130 8ebd
00000350: 88cd e9bc 0b45 05bc aaf5 9f3c fba2 283b
00000360: 3f14 4d3c c87c d8bc 71d0 21bd 13b0 1ebd
00000370: 66ac f8bc 5624 89bd d28b 0e3d 25c6 69bd
00000380: 5cfb 8abd b071 bfbc 0344 ff3c e72c b13c
00000390: 4ccb e53c 47ed 32bd 2024 65bd 568d 253d
000003a0: d945 78bd f44a d7bc 935f 85bc 00be e1b9
000003b0: 80aa 87bd 3fc6 483d 3bfd 4c3d 1066 933c
000003c0: 5206 9cbc e17e 423d f361 73bd 5ab5 3fbb
000003d0: 5e74 17bd 7eed bebc 0447 84bd 0a34 ef3c
000003e0: 0757 b73c 98d6 0e3c 5b4f e93c 1411 75bd
000003f0: 3435 b73c 04b8 303d 0b36 0fbc 7234 183a
0.0020607146 -0.010621943 -0.000909321 -0.055534307 -0.043935403 -0.05560147 -0.039790884 -0.03199554
-0.0068806293 -0.05414451 -0.012096404 0.05196579 -0.016513903 0.043275315 0.0261608 0.05374003
0.039104134 -0.06453491 -0.00559279 -0.065006405 -0.053704098 -0.03579487 0.05941073 -0.06362178
0.04275503 -0.046317525 0.0111961365 0.03978229 0.029900301 -0.026697667 0.015166269 -0.034608003
-0.06404245 -0.014632297 0.052257802 -0.058860406 0.04681838 0.010221585 0.025409201 -0.003918098
-0.031187862 -0.06453511 0.047025677 0.033515207 -0.006436579 0.024109365 -0.026406096 1.5457921e-05
0.021719895 -0.017075598 0.024141334 0.01603382 -0.069220744 -0.06374399 -0.0075769927 0.012678889
-0.06309088 -0.06329335 0.0061259125 -0.04445453 0.0022547168 0.023259757 0.01240336 0.03022748
0.029914128 1.37050065e-05 0.04836225 0.041539103 -0.02036604 -0.0506884 -0.069399714 -0.06768498
0.041520644 -0.016703278 -0.020506285 -0.048709776 -0.012695053 -0.04115249 -0.054052103 -0.058029052
-0.063454054 -0.013333574 -0.06191776 -0.0038504738 0.007825189 -0.055697422 -0.01178167 -0.03488047
-0.03463073 -0.016474223 0.02558851 -0.033470985 0.050885435 0.036251992 0.00080618786 -0.022715539
-0.023729436 0.012081951 0.042794652 0.051859748 -0.05783998 -0.056470904 -0.054761313 -0.04151558
0.025917962 -0.036335934 -0.0484218 -0.06141639 -0.047980763 0.05357701 0.0014102147 0.012000937
0.008040905 -0.044240616 0.046928875 -0.0008235723 -0.044771794 -0.026513271 0.033482 0.01699
-0.0059503997 0.014819555 -0.002162194 -0.04848462 -0.06731247 0.047078215 0.0513657 -0.05212618
-0.011473443 -0.057604216 0.02092701 -0.046879955 0.052428667 -0.06433119 -0.057932854 -0.0560835
0.031494156 0.011939463 0.05142293 0.034203943 -0.040043943 -0.023427904 0.018815959 0.0015856102
0.05010213 -0.018398494 0.025090689 -0.069615744 -0.015082285 0.050255086 -0.0011786446 -0.01680791
0.020163544 -0.04248568 -0.053947262 -0.020888418 0.042357422 -0.06197653 0.0038105256 0.059903607
-0.03287837 -0.047392443 0.010789233 -0.025637243 -0.069092035 0.044093344 0.055196904 0.04881876
0.05495134 -0.038086522 -0.055667866 0.039320875 0.051833376 -0.045045394 -0.07106647 -0.024501344
-0.009970889 0.031326868 0.027920252 -0.018822193 -0.03206275 0.049439825 -0.02617304 -0.05101382
-0.015638418 -0.0047866157 -0.041405372 -0.070946455 -0.040129256 0.026927838 0.010984702 -0.05185888
-0.05228267 -0.057329644 -0.02766729 -0.04399518 -0.021226132 0.012814505 0.03717324 0.038412746
0.047449406 0.061309524 -0.053685766 0.0407214 -0.060826585 0.023719972 0.008906924 -0.030753518
0.000760898 0.031214572 0.048731547 -0.069427975 -0.028540388 -0.008134137 0.019526321 0.002573191
0.012517034 -0.026426688 -0.039505426 -0.038742136 -0.030355643 -0.06696384 0.03480131 -0.05707373
-0.06786224 -0.02336964 0.03116036 0.021627856 0.028051041 -0.043683317 -0.055942655 0.04041799
-0.060613487 -0.026280858 -0.016280925 -0.00043056905 -0.06624317 0.049017187 0.050046187 0.017993003
-0.019045983 0.047484282 -0.059419584 -0.002925238 -0.03697621 -0.023306604 -0.06458858 0.029199619
0.022380365 0.008718155 0.028480222 -0.05983074 0.022364236 0.04314424 -0.008740912 0.0005806155

fc2.bias f4 [128]
00000000: d7b0 88bd 61f1 7d41 2144 7e41 72fa 7d41
00000010: d630 7f41 4067 7d41 9dd3 7e41 5fad 23bd
00000020: 9c32 7e41 ba49 7e41 db38 7f41 b992 7d41
00000030: fda5 0ebc 2c5e 7d41 1b41 edbc 72d2 7d41
00000040: 5db5 313d bce6 7e41 b9f9 7e41 130d 7e41
00000050: 07d7 7e41 63d0 7d41 2f0f 7f41 db16 7e41
00000060: d676 7e41 f54a fb3c 5725 7e41 5279 8fbd
00000070: f599 7e41 7e19 7e41 7248 7e41 135e 7d41
00000080: 5e78 22bd e620 bdbc 2188 cabc a897 7e41
00000090: 87ee 7d41 867f 7e41 c43b 7f41 84b1 7d41
000000a0: 38c7 7d41 666d 113a 55f6 7e41 f568 7d41
000000b0: 52a8 7d41 6645 7e41 0f86 7d41 5356 82bc
000000c0: 545b 7e41 84bf 7e41 10ac 7e41 00a8 84bc
000000d0: 29ff 7d41 f2fe 7e41 a43c 7d41 af7a 7e41
000000e0: e78c 7d41 4503 7f41 ae53 08bd 7c46 7e41
000000f0: 7131 90bb 143d 7f41 3909 7e41 ef88 7e41
00000100: a503 113c a30f 7e41 818a 7d41 02fc 7d41
00000110: e0a1 10bd 9dc7 7e41 5e04 7f41 3e89 7e41
00000120: 1840 7e41 7d2a 7f41 2d87 7e41 d4ec 91bd
00000130: 63c0 7d41 7340 7e41 64a4 7d41 ef40 58bd
00000140: 3b1b 7d41 f0b9 7e41 5458 7d41 a802 7e41
00000150: 0067 7d41 f367 7d41 61e3 7d41 3d4d 7e41
00000160: 2445 7d41 9b0c 7e41 2eb7 7e41 0f6a 70bd
00000170: 3857 7d41 e5b3 7e41 c45a 7f41 bf8f 7e41
00000180: 6d1d 7f41 f878 7d41 c0ad d0bc a36e 11bd
00000190: d046 7e41 53b1 7d41 c0d2 7d41 efe7 7d41
000001a0: e7c7 7d41 c7c8 7e41 fe22 7e41 78e5 4fbd
000001b0: 6303 68bd 9bec 89bd 9ec1 4d3d efd3 7d41
000001c0: 23ea 7d41 ea6e 7d41 4ef8 7e41 e266 7bbd
000001d0: 09d2 7d41 606f 7e41 98cf 7d41 c95e 7e41
000001e0: 1341 7d41 745a 7e41 095a 7e41 8656 7f41
000001f0: 27c9 7e41 56f3 7d41 25fb 7e41 bea9 7d41
-0.066743545 15.87143 15.891633 15.873644 15.949423 15.8377075 15.926663 -0.03996026
15.887356 15.893 15.951381 15.848321 -0.008706567 15.835491 -0.028961709 15.863878
0.043385852 15.931332 15.935967 15.878192 15.927497 15.863376 15.941207 15.88058
15.904013 0.03067539 15.884116 -0.07005562 15.912587 15.881224 15.892687 15.835467
-0.039665572 -0.023086976 -0.024723114 15.912025 15.870734 15.906134 15.952091 15.855839
15.861137 0.00055476127 15.93514 15.838124 15.853594 15.891943 15.845229 -0.015910303
15.897297 15.921757 15.917007 -0.01619339 15.874795 15.9372425 15.827305 15.904952
15.8469 15.938298 -0.03328293 15.892208 -0.004400425 15.952412 15.877252 15.908431
0.008850967 15.878818 15.846314 15.874025 -0.035310626 15.923734 15.938566 15.908506
15.890648 15.947873 15.908002 -0.071252495 15.859469 15.890735 15.852634 -0.0527963
15.819148 15.920395 15.8340645 15.8756485 15.8376465 15.837878 15.868012 15.893857
15.82938 15.8780775 15.919722 -0.058694895 15.833794 15.91892 15.95966 15.910094
15.944684 15.842033 -0.025473475 -0.035505902 15.892288 15.855792 15.863953 15.869124
15.861304 15.924018 15.883543 -0.050755948 -0.056643855 -0.06734582 0.050233476 15.864242
15.869662 15.839579 15.935621 -0.061377414 15.863778 15.902191 15.863182 15.898141
15.828387 15.897083 15.896981 15.958624 15.924109 15.871908 15.936315 15.853941

fc3.weight f4 [64, 128]
00000000: d398 94bd f100 8141 6964 8141 b3ea 8141
00000010: 69fd 8141 bddf 8141 d0e7 8141 36d3 833d
00000020: f2c8 8041 7ff3 8041 74ea 8041 7712 8141
00000030: 98f8 3d3d df4f 8141 022f 11bd 5e8f 8141
00000040: b041 7fbc 8354 8141 0ee3 8141 adb6 8141
00000050: 7399 8141 110d 8141 689f 8141 53f5 8141
00000060: ec07 8141 4755 87bd 8352 8141 e1c0 3bbd
00000070: d8bc 8141 45ed 8141 f2e6 8141 6de6 8141
00000080: 84b0 8e3c 37fa cbbc d1ec 123c 2266 8141
00000090: ad1a 8241 a9da 8141 c24e 8141 1b70 8141
000000a0: 4005 8241 aac3 1e3d 419d 8141 11b0 8041
000000b0: cd27 8241 d4fe 8141 0d16 8141 3b05 9abd
000000c0: e025 8241 fe18 8241 07f8 8141 854e 7dbd
000000d0: 7bbc 8041 3964 8141 603f 8141 7bc8 8041
000000e0: 30af 8041 246f 8141 9ef2 263d 2b40 8141
000000f0: 60ac aa3d 8aa6 8041 ea01 8141 d2c7 8141
00000100: 46db 38bd db3e 8141 f7f6 8041 f8a4 8141
00000110: 07ee 983d 4455 8141 6579 8141 c0f6 8141
00000120: 59db 8041 f63c 8141 9b0c 8241 9c55 4bbd
00000130: fd4c 8141 8ef8 8041 ab29 8241 7a89 3bbd
00000140: 398a 8141 a131 8141 35e3 8141 54fb 8141
00000150: c751 8141 3ded 8141 5e47 8141 df28 8141
00000160: e799 8041 a707 8141 cbf8 8041 49b2 0dbc
00000170: 069a 8041 ca1d 8241 3735 8141 4372 8141
00000180: 4344 8141 5b06 8141 90bf d53c 1adf 903d
00000190: 3ee7 8041 be8a 8141 45bc 8041 6096 8041
000001a0: e019 8241 c030 8141 e77e 8141 558c 99bd
000001b0: b94a ac3c 8eeb 89bd 1458 06bd 19e5 8041
000001c0: 2302 8141 a311 8241 5334 8141 d935 a53d
000001d0: b0b1 8041 37c9 8141 f8c3 8041 5820 8141
000001e0: 84df 8041 5c04 8241 71b5 8141 40a0 8141
000001f0: d0fa 8141 bd50 8141 3e9f 8141 4f76 8141
00000200: 6462 81bd 7654 f93c 8442 02be 10d7 68bd
00000210: 99a7 38bd 079a a2bc 64b8 923d 31e5 9dbd
00000220: 7dad 133d 13ea 90bd 5a70 15bc 18ef c7bd
00000230: 3221 b83d c2d1 0a3d ccac b1bc bfa0 23bc
00000240: d1e8 c73d 686e b33c 1ec3 3cbc dd1f 44bd
00000250: 32e2 903d b487 fe3c a1e6 b3bd 687e 323d
00000260: 1309 80bd c32c c03d 7774 de3c bddb 96bc
00000270: ae60 39bd 5828 a0bd 7a77 743d 1ed8 793c
00000280: e41c fe3c a717 0dbd 30b2 2abd 424e 87bd
00000290: d307 413c 0cf8 77bd dd37 e9bc d965 6e3d
000002a0: 41a6 9cbd 612b debb ab7a 83bc 6505 f83a
000002b0: 5675 6e3d b7c7 903d 31e8 f93c 179f 3bbc
000002c0: f4a8 00bd 1842 4bbc da72 2a3d f688 12bd
000002d0: f557 8fbb bcdf 403d ee9f 6dba 5304 7e3c
000002e0: d1a3 4fbd e7d3 3e3d 31bb abbc 9d7b 283d
000002f0: ddee b9bb e92e 83bb 9a50 54bd 7875 9a3c
00000300: 85f7 86bb eebd 083c 8b90 81bd 2146 f4bd
00000310: b083 c03c 2a42 e73c 18c2 00bc 4a47 96bd
00000320: 3461 bfbc f8aa ddbb 7028 783c db4e 8ebc
00000330: 1cbb c1bd 1962 233c b517 9c3c d61d 233d
00000340: 78b2 52bd c62b f1bc 5980 673d 6dcc 6fbc
00000350: 2a7e 343d a96e 0cbd 2313 363c 3c73 40bd
00000360: 251e 8b3d f5b2 4dbd 8826 7a3c 0e59 3c3d
00000370: 5018 33bb f7cf 213c f767 c4bd 265c c7bd
00000380: 7500 d43c 3635 39bc ffbf 7d3d 4c71 8cbd
00000390: 2d3d 8b3d d986 2b3c 085d 6fbd eea9 c0bd
000003a0: f355 553d 6390 fabd 03d4 923d 2a69 34bd
000003b0: c04e 52bc 5e12 1abd eca1 a33c e58c 633d
000003c0: 50f8 e63c d639 573d 3b74 513d aade 4dbd
000003d0: 5edf 173c 0b35 8cbd 4408 023d d133 0d3d
000003e0: dfdf 5c3d 2c30 f13b 8758 25bd 0bd9 a5bd
000003f0: 10a6 3dbd ea44 2a3d 954e 88bc 01ea 953d
-0.072557114 16.12546 16.174028 16.2396 16.248735 16.234247 16.23819 0.0643677
16.098118 16.118895 16.11448 16.134016 0.046379656 16.164 -0.03544522 16.195004
-0.015579626 16.166265 16.235867 16.214197 16.199926 16.13138 16.202835 16.244787
16.128868 -0.06608062 16.165289 -0.04583824 16.217209 16.240854 16.237766 16.237513
0.017418154 -0.024899585 0.008967594 16.17487 16.263025 16.231768 16.163456 16.179739
16.252563 0.03876082 16.201784 16.08597 16.269434 16.249428 16.135767 -0.07520529
16.268494 16.262203 16.246107 -0.06184246 16.092031 16.173937 16.155945 16.09789
16.08554 16.179268 0.04075872 16.156332 0.08333659 16.081318 16.125935 16.222569
-0.04513099 16.155691 16.120588 16.205551 0.07467275 16.166634 16.184275 16.245483
16.107103 16.154766 16.256155 -0.04964219 16.162592 16.121365 16.270346 -0.045785405
16.192492 16.149233 16.23594 16.247719 16.16493 16.240839 16.159847 16.144957
16.075148 16.128736 16.12148 -0.0086484635 16.075207 16.264545 16.150984 16.180792
16.15833 16.128103 0.02609232 0.07073803 16.112911 16.192745 16.091928 16.073425
16.262634 16.148804 16.186964 -0.07497469 0.021031724 -0.067343816 -0.03279884 16.111864
16.126043 16.258612 16.150549 0.08066911 16.086761 16.22325 16.095688 16.140793
16.109138 16.252129 16.213594 16.203247 16.247467 16.164423 16.202755 16.182768
-0.06317595 0.030435782 -0.12720686 -0.056845725 -0.04508171 -0.019848837 0.07164076 -0.077097304
0.036054123 -0.07075896 -0.009121025 -0.097624004 0.089907065 0.033891447 -0.021688841 -0.009987055
0.09761203 0.021903232 -0.011521129 -0.04788195 0.07074393 0.031070568 -0.08784223 0.04357758
-0.06251731 0.093835376 0.027155144 -0.018415326 -0.045258217 -0.07820195 0.059684254 0.01524928
0.031019635 -0.034446385 -0.04167384 -0.06606723 0.011781651 -0.06053929 -0.02846902 0.0582026
-0.07648898 -0.0067800735 -0.016049704 0.0018922506 0.05821737 0.070693426 0.030506225 -0.011451504
-0.031411126 -0.012405895 0.041613437 -0.035775147 -0.004374499 0.04708837 -0.0009064664 0.015503961
-0.050693337 0.046588805 -0.020963283 0.04113351 -0.0056742267 -0.004003395 -0.05183468 0.018854842
-0.004118862 0.008346064 -0.063263975 -0.119274385 0.023500293 0.028229792 -0.007858776 -0.07337816
-0.02336178 -0.006764766 0.01514636 -0.017371586 -0.094595164 0.009972119 0.019054273 0.039823376
-0.051439732 -0.029439818 0.056518886 -0.014636141 0.044065632 -0.03428522 0.011112961 -0.046984896
0.06792859 -0.050219495 0.015267976 0.045983367 -0.0027327724 0.009876243 -0.09590142 -0.09734373
0.025879124 -0.01130419 0.06195068 -0.06857547 0.06798778 0.010469162 -0.05843833 -0.094074115
0.05208392 -0.12234571 0.07169344 -0.044045605 -0.012836158 -0.037615173 0.019974671 0.05555429
0.028194577 0.05254539 0.051136237 -0.050261177 0.0092695635 -0.06846055 0.031746164 0.034473244
0.053924438 0.007360479 -0.04036763 -0.08098038 -0.046300948 0.041569628 -0.016639033 0.07320023

fc3.bias f4 [64]
00000000: 8776 7041 0b7c d53c c927 7141 15a0 8cbd
00000010: 3d7e 7041 3c70 103d 5556 7041 3cbc 6f41
00000020: c5f5 84bd 5909 b8bd 4abd 6e41 1096 7141
00000030: e8e0 6f41 98a1 7041 df27 7041 8742 7141
00000040: 5597 7041 00e9 7041 2acb 7041 26bb 7041
00000050: ac0f 6f41 3a52 6f41 ddc8 6f41 13ac 023c
00000060: 9ed6 7041 7611 7141 fe18 7041 1606 7041
00000070: a09e 633c 1311 7141 53d6 6e41 5b50 abbd
00000080: 6a35 6f41 e7c1 edbc 9b19 a7bd ec8e 7041
00000090: 7a10 6f41 18d9 6f41 90b4 6f41 7348 7141
000000a0: 9790 c93d cd36 b13d 3ac0 95bd e466 6f41
000000b0: 1e97 6f41 ab08 82bd 2a66 f23c 788d 8abd
000000c0: 1642 b43c b6a9 6e41 5691 7041 718f 7141
000000d0: ca66 7141 0f5c 7141 09a4 7141 a239 7141
000000e0: 4c05 7041 4695 d5bd 577a 6e41 d36f 7041
000000f0: 7909 6e41 7536 7041 c47a 7041 e24d 90bd
15.028937 0.026060125 15.072213 -0.06866471 15.03082 0.035263285 15.021077 14.983456
-0.06492189 -0.08986158 14.921213 15.099136 14.992409 15.039452 15.009734 15.078742
15.036946 15.056885 15.049601 15.045691 14.941326 14.957575 14.986539 0.007975596
15.052397 15.066763 15.006102 15.001486 0.0138928 15.0666685 14.927325 -0.08364936
14.950541 -0.029023124 -0.08159181 15.034893 14.941523 14.990501 14.981583 15.080188
0.098420314 0.086530305 -0.07312055 14.96262 14.974394 -0.063493095 0.029589731 -0.06765264
0.022004168 14.916433 15.035482 15.09752 15.087595 15.084975 15.102548 15.0765705
15.001293 -0.10428862 14.904868 15.027301 14.877313 15.013295 15.029972 -0.07046105

fc4.weight f4 [49, 64]
00000000: 88cb 3f41 7a62 093e 35b4 3f41 0eaf 3a3d
00000010: a31d 3f41 77a9 053c a075 3f41 8427 4041
00000020: c146 ccba 50a0 073d 7d7d 3c41 a62a 3e41
00000030: 9a37 3f41 5102 3d41 4d9f 3e41 f013 3d41
00000040: d52d 3e41 103d 3f41 369c 3e41 e7c2 3e41
00000050: c074 3c41 46cb 3e41 fe4b 3e41 9175 b83c
00000060: 1d85 3f41 8954 3f41 2725 4041 29f8 3f41
00000070: 9e02 be3d d59e 3c41 8fb3 3d41 9cc7 503d
00000080: b68a 3e41 4a04 7f3d 58a9 333d 638d 3e41
00000090: 3c9c 3d41 83ba 3f41 72b0 3d41 37c3 3e41
000000a0: d680 193d 4f32 d93d 74da ba3d b161 4041
000000b0: 2e15 4041 36f5 c83d a896 d83c a03b 6d3d
000000c0: 17ef d93d d61c 3d41 5f74 3e41 e1d0 3e41
000000d0: 975d 3f41 e86d 3e41 10b1 3d41 f27e 3d41
000000e0: f761 4041 b05c 6a3c 400a 3d41 aa4f 3e41
000000f0: 79d7 3d41 eccf 3d41 2cd7 3d41 8477 7e3c
00000100: 0596 1f41 9d1f 8abd d276 1f41 041b d0bd
00000110: b4ce 1f41 b6ec d93d d9fc 1d41 b8db 1c41
00000120: a2f9 193e fa66 c23d 9709 1e41 03cd 1d41
00000130: 76d2 1c41 a3af 1e41 5d88 1c41 1979 1d41
00000140: 623d 1f41 1a88 1e41 e761 1e41 b8f7 1e41
00000150: 7471 1d41 4a2c 1b41 bb18 1f41 500a a6bd
00000160: d1c2 1b41 fb2f 1e41 def7 1c41 8a78 1f41
00000170: 2888 883d 9bf1 1e41 76d3 1e41 9cc1 ae3d
00000180: b0f6 1c41 347d 10bd bc11 533d 114f 1d41
00000190: f9e5 1d41 f4ac 1f41 b5b3 1c41 f970 1f41
000001a0: 7495 0f3e 023b 6c3d 940a 8dbd dfc7 1e41
000001b0: 0d53 1d41 801f 883a c83c 8fbd b460 d0bd
000001c0: 71af 4c3d e48d 1d41 8f14 1f41 9a74 1f41
000001d0: c605 1e41 a7b2 1c41 e5d6 1c41 e958 1e41
000001e0: 668c 1f41 ac5d 463d 60ad 1c41 15a1 1e41
000001f0: 7629 1f41 04ac 1c41 c3fa 1d41 60d5 983c
00000200: a1a1 3741 76d3 843d 8a9a 3441 000e 46bb
00000210: b033 3541 93dc b0bc 0580 3641 ed99 3541
00000220: 92c2 d5bd 04a8 0b3d d8f2 3641 00e6 3541
00000230: 87fa 3641 3117 3541 d6c1 3741 21d0 3441
00000240: 4834 3741 4adc 3341 5b71 3641 dcbc 3541
00000250: 592b 3441 38e8 3541 32ba 3541 ad9f 7cbc
00000260: f078 3541 e4a0 3441 c1fc 3641 9da3 3741
00000270: 3060 c1bc efb1 3741 480e 3741 9057 d23d
00000280: 95bf 3641 0aad 70bc c60f 83bd c3d0 3741
00000290: 8493 3741 c337 3641 dc86 3441 bc57 3741
000002a0: 6c4a c3bd 84a7 6abd 2084 d0bc c8e3 3741
000002b0: a31b 3641 9ac3 bf3d 348e ef3d 9003 84bc
000002c0: a351 65bd eb4b 3541 564f 3641 9430 3441
000002d0: 5de9 3541 64dc 3441 26ec 3541 cb03 3641
000002e0: e9a6 3541 4401 2a3d 5b80 3541 11fe 3641
000002f0: 5ab6 3641 f873 3741 3d01 3641 a0e8 043d
00000300: f124 2b41 035b f43d b47c 2941 4a41 8abd
00000310: b842 2a41 2e45 9bbd e449 2c41 fceb 2a41
00000320: 692e 9ebd 380d 64bd 4117 2c41 9382 2a41
00000330: dc9c 2841 5aed 2841 b997 2941 dea8 2a41
00000340: 3b6a 2841 93aa 2b41 5e51 2c41 0d62 2b41
00000350: acae 2b41 e68d 2841 3d18 2941 edb0 2fbd
00000360: 6e0e 2941 822c 2a41 58ab 2a41 e74f 2841
00000370: ac38 bebd 0b83 2b41 76ca 2b41 b405 403d
00000380: 2aab 2a41 3fcd 93bd 90d0 e93c b92d 2c41
00000390: ef5b 2a41 8eeb 2941 e589 2b41 3870 2941
000003a0: a735 e93d 1abd c1bc 2033 41bc 6cf7 2a41
000003b0: 2149 2a41 2849 e4bd 1da7 ddbc 6aec a43d
000003c0: c8e4 c7bc 4dbf 2941 7efd 2a41 84d6 2941
000003d0: cdb1 2a41 48c2 2841 93f8 2a41 8b64 2a41
000003e0: 11ac 2941 d266 c1bd 4f15 2c41 f423 2941
000003f0: 7c8d 2941 79ad 2a41 043a 2c41 d01b 843c
11.98719 0.13416472 11.981496 0.0455771 11.944736 0.008158079 11.966217 12.009647
-0.0015585051 0.03311187 11.780637 11.885412 11.951075 11.813066 11.913892 11.817368
11.886189 11.952408 11.913137 11.922584 11.778503 11.924627 11.893553 0.022516998
11.969998 11.958138 12.00907 11.998086 0.09277843 11.788777 11.856338 0.050971612
11.908865 0.06225995 0.04386267 11.909518 11.850643 11.983035 11.855577 11.92266
0.037476383 0.10605299 0.09123698 12.02385 12.005171 0.09812395 0.026439026 0.05791819
0.10641306 11.81954 11.903411 11.925996 11.960349 11.901833 11.855728 11.8434925
12.023917 0.014304325 11.815002 11.894449 11.865106 11.863262 11.865032 0.015531424
9.974126 -0.06744311 9.966509 -0.10161403 9.987965 0.10640852 9.87423 9.803642
0.15036634 0.094922975 9.877341 9.862552 9.801382 9.91788 9.783292 9.842065
9.952486 9.908228 9.898902 9.935478 9.8401985 9.698313 9.943538 -0.08107436
9.735063 9.886714 9.810514 9.9669285 0.06666595 9.933986 9.926626 0.08533022
9.810226 -0.035275653 0.051530585 9.831803 9.868646 9.979725 9.793874 9.965081
0.14021856 0.05767346 -0.06886783 9.923797 9.832776 0.0010385364 -0.06994015 -0.10174695
0.049972 9.847141 9.942519 9.965967 9.87641 9.793616 9.8024645 9.896707
9.971777 0.048429176 9.792328 9.914327 9.947622 9.791996 9.873721 0.018656433
11.47696 0.064856455 11.287729 -0.0030220747 11.325119 -0.021589553 11.406255 11.35008
-0.10437502 0.03409578 11.434288 11.368652 11.436164 11.318162 11.484823 11.300813
11.450264 11.2412815 11.402675 11.358608 11.260583 11.369194 11.357958 -0.015418929
11.342026 11.28928 11.4367075 11.477445 -0.023605436 11.480941 11.440987 0.102706075
11.421773 -0.014689693 -0.06399493 11.488467 11.473515 11.388614 11.282925 11.45892
-0.09535679 -0.05728866 -0.025453627 11.493111 11.381747 0.0936348 0.11697045 -0.01611498
-0.055986058 11.331035 11.394369 11.26186 11.369473 11.303806 11.370153 11.375926
11.35325 0.041505113 11.343837 11.437028 11.419519 11.465813 11.375302 0.03244841
10.696519 0.119314216 10.592945 -0.06750734 10.641289 -0.07581554 10.76804 10.682613
-0.07723696 -0.05567667 10.755677 10.656878 10.538296 10.557947 10.599542 10.666227
10.525935 10.729144 10.769865 10.711438 10.7301445 10.534643 10.568418 -0.04289334
10.566023 10.635866 10.666832 10.519507 -0.09288153 10.719493 10.736929 0.04688044
10.666788 -0.07216882 0.028541833 10.761163 10.647445 10.620008 10.721166 10.589897
0.113871865 -0.023649741 -0.011791974 10.685406 10.642854 -0.11146766 -0.027057225 0.08052905
-0.024401084 10.609204 10.686888 10.614872 10.668408 10.547432 10.685687 10.649547
10.604508 -0.094434395 10.755202 10.571278 10.597042 10.667352 10.764164 0.016126543

fc4.bias f4 [49]
00000000: c708 3041 b0a9 1641 d9b3 2541 7076 2b41
00000010: e6e4 0d41 7ad0 3a41 0cc8 0641 2d1e 0b41
00000020: 24cd f840 3ce7 4441 5ff6 0441 5137 4741
00000030: 7a3b fc40 debe dc3d b681 0841 1591 4241
00000040: cd73 1141 3445 4041 c16c 0941 08ca 6dbd
00000050: 9cf3 3abd 2f17 4241 8105 0a41 a56e 3941
00000060: c456 2241 6015 b83c 8044 1f3d 8441 19bd
00000070: c48b 1a41 ad27 2d41 3bcc ed40 a041 5b3d
00000080: c802 4c3d 2417 3f3d 5c05 94bd 2b07 2941
00000090: 605f 1141 a094 95bc c0fd 6abc 2a4e bdbd
000000a0: b001 273d 8c62 193d 0765 f640 04cc f3bd
000000b0: 800b 15bc 5cb9 493d b89a d7bd d08c 4b3c
000000c0: 8837 4e3d
11.002143 9.416428 10.356408 10.716415 8.868383 11.675898 8.42384 8.694867
7.7750416 12.306454 8.310149 12.451005 7.8822603 0.107785925 8.531668 12.16042
9.090772 12.016895 8.589051 -0.058054 -0.04564248 12.13066 8.626344 11.589513
10.146183 0.02247113 0.038883686 -0.037415996 9.659122 10.822186 7.4311805 0.05352938
0.04980734 0.046652928 -0.07227585 10.56425 9.085785 -0.018259346 -0.014342725 -0.09243424
0.040773094 0.037447497 7.6998324 -0.11904147 -0.00909698 0.049249038 -0.10527557 0.012423709
0.050345927
