trike2/models/DQN_Advanced_Final_2000ep.pt/DQN_Main.pt (torch, 333068 bytes, 8 tensors)

fc1.weight f4 [256, 148]
00000000: 6ae2 4341 65b0 8941 6f1d a241 bea4 9b41
00000010: c400 7c41 9b36 9941 6ba9 9141 7b60 8741
00000020: 334c 9c41 2b27 8641 0ce1 9241 9fee 9241
00000030: 133a ab41 4691 06bd 1d76 a241 0bae 9041
00000040: dc5e a741 6453 a641 9a40 7b41 8228 6c3d
00000050: 3a02 6d3d 0470 a741 6fa0 7541 18ca a441
00000060: 7a4f 8441 f138 38bd 236f 943d bedd a6bc
00000070: 5d00 a941 ab9a 6c41 eea6 9641 2c1f 93bd
00000080: a0a5 043b 6dbd 8e3d 32bc 493d 71cd 6d41
00000090: 22de a241 305b 5d3c 0032 41bb 3d47 9cbd
000000a0: fb46 a1bd 0034 113a 7855 7241 0033 4fbb
000000b0: 1310 8cbd e80a f93c f816 203d 40b5 79bb
000000c0: 60af 16bb 7f25 6441 776d 4a41 510e a141
000000d0: 928a a541 e0d8 6841 6e07 9841 7bdb 9541
000000e0: e87b 6c41 4217 9e41 ea8c 8541 a02c 8841
000000f0: b879 9541 3b4e a241 2603 85bd 420f a841
00000100: dbea 8541 5c0b a541 4dff 9a41 5568 8441
00000110: 25f1 a73d 349a 8d3c 9cc5 a941 0a21 8041
00000120: 333d 9a41 ef08 6541 347e 21bd d0b8 8f3b
00000130: 6e03 afbc bcd2 9b41 8c92 9641 03bf 9b41
00000140: 9a01 d9bc c902 9c3d 72de 253d e6f1 763d
00000150: 94e5 7241 7a88 a541 7a33 bdbc 0e21 6c3d
00000160: 856d 68bd c754 823d f484 833c bae1 7b41
00000170: 60dc 643c 1552 9bbd e2f3 7f3d 378c a23d
00000180: 4817 453c 92aa 16bd 0ea7 2c41 f7f0 4a41
00000190: bcb7 9a41 0552 8f41 c21c 5541 01ea 7841
000001a0: ab98 7a41 1e40 3141 99f7 9241 dfc9 6941
000001b0: 3bb0 6d41 c0dc 8741 2c96 9441 c833 98bd
000001c0: 24ee 9341 d2f3 7741 650f 9041 e53c 9741
000001d0: a3a5 6441 ce10 1d3d 8acf 673d 180f 9e41
000001e0: 8eb5 4a41 9a18 9a41 f515 3b41 244e 97bd
000001f0: c08c 2abc 781f 02bd 6d4c 9141 245e 8e41
00000200: bd14 9241 e079 2b3d 714b 97bd 5eae 403d
00000210: 001c 223a 0697 0a41 28ed 9341 cda2 00bd
00000220: e0ac df3b a86b 91bc 0054 88bc 16d0 3c3d
00000230: 57cd 4941 e04f 223c e0c5 16bb 1f40 8fbd
00000240: ec7b 193d 201e 2c3c dc77 a0bd d333 a23d
00000250: 18bf 4341 d031 8a41 f6e6 a141 781d 9b41
00000260: fc1b 7c41 02f6 9841 97b3 9141 9fe3 8641
00000270: 5543 9d41 95df 8541 7bcd 9341 f1bf 9241
00000280: cc21 ab41 263e 9bbd 4bad a141 1bb9 9141
00000290: 9f1d a741 6c90 a641 7d6a 7c41 2d9e a23d
000002a0: 1994 26bd 77f9 a741 aef7 7341 34ec a341
000002b0: 70f0 8341 eb8f a3bd c09d 57bd 4002 1ebc
000002c0: 444d a841 21a4 6e41 1b84 9641 a852 b33c
000002d0: af56 823d 9027 8cbc e557 943d f621 6d41
000002e0: edbe a341 d4db b6bc 9c82 df3c 1091 123c
000002f0: 1b40 a03d 002a c03a e679 7241 28c5 983c
00000300: 1782 3bbd 4a38 393d 50c2 e33b 0b23 88bd
00000310: 3065 dd3b 5703 6541 bb20 4a41 0dd7 a141
00000320: 1402 a641 8e99 6741 52e1 9641 25d6 9541
00000330: 3f68 6a41 bd88 9e41 d057 8641 c51a 8841
00000340: 6a53 9441 17ab a241 208e cdbc 74fa a741
00000350: 94dc 8541 4fe7 a441 cc18 9b41 2207 8441
00000360: b07f a6bd abc2 a63d b37a a941 57c3 7f41
00000370: ec7f 9b41 d7b8 6441 3b0f 973d 84bb e5bc
00000380: f839 6fbd 4da5 9b41 c73b 9741 5ce6 9c41
00000390: e5ff 803d 10ed 90bb d8c9 a7bd 684d de3c
000003a0: 15bc 7441 9640 a641 8000 9bbb bcdc 27bd
000003b0: 59c3 94bd 0018 78bc def9 6bbd 719a 7b41
000003c0: fd3a 9cbd 25f6 4cbd 7bf7 39bd 2618 5b3d
000003d0: 0840 183d ca50 003d 44f4 2f41 5d05 4b41
000003e0: 170d 9a41 d421 9041 9a08 5441 c029 7741
000003f0: 6484 7a41 23b2 3041 9d6d 9241 6af0 6841
12.242777 17.21113 20.264372 19.45544 15.750187 19.151663 18.207724 16.92211
19.537207 16.769125 18.359886 18.366514 21.403357 -0.032853387 20.307673 18.084982
20.921318 20.790718 15.703272 0.05765582 0.05786345 20.929695 15.351668 20.598679
16.538807 -0.04497618 0.0724776 -0.020369407 21.125177 14.787761 18.831509 -0.0718368
0.0020240322 0.06969724 0.049251743 14.862657 20.358463 0.01351051 -0.0029479265 -0.07630775
-0.078748666 0.00055390596 15.145866 -0.0031616092 -0.068390034 0.030400708 0.039084405 -0.0038102418
-0.0022992715 14.259154 12.651725 20.13199 20.692661 14.552948 19.003628 18.732168
14.780251 19.761356 16.693806 17.02179 18.684433 20.288198 -0.06494741 21.00745
16.739676 20.630547 19.374659 16.550943 0.082002915 0.017285444 21.221489 16.016132
19.279882 14.314681 -0.039426997 0.004386045 -0.02136394 19.477898 18.821556 19.468267
-0.026490021 0.07617719 0.040495344 0.060289286 15.181049 20.691639 -0.023095835 0.05764871
-0.05674507 0.06363826 0.016054608 15.742609 0.013968557 -0.07584015 0.062488444 0.079369
0.012029476 -0.036783762 10.790785 12.683829 19.339714 17.915049 13.319521 15.55713
15.662272 11.078154 18.370897 14.611785 14.855525 16.982788 18.573326 -0.074317515
18.49128 15.497026 18.007517 18.904734 14.290439 0.038346104 0.05659441 19.75737
12.669325 19.262012 11.692861 -0.07387951 -0.010409534 -0.031768292 18.162317 17.795967
18.260126 0.041864276 -0.07387436 0.04704129 0.0006183982 8.661871 18.490799 -0.03140526
0.006826028 -0.01775153 -0.016641617 0.046096884 12.612632 0.009906739 -0.0023006126 -0.06994652
0.037471697 0.010505229 -0.07835361 0.07920041 12.234154 17.274323 20.237774 19.389389
15.756832 19.120121 18.21269 16.861143 19.657877 16.73417 18.475332 18.343721
21.391502 -0.07580213 20.209616 18.215384 20.889463 20.820518 15.775998 0.07940326
-0.04066858 20.996809 15.247969 20.490334 16.492401 -0.079864345 -0.052640676 -0.009644091
21.037727 14.915071 18.814505 0.02189 0.0636419 -0.017108709 0.07243327 14.820791
20.468225 -0.02232162 0.02728396 0.008945718 0.07824727 0.0014660954 15.15476 0.018648699
-0.04577836 0.045219697 0.006950654 -0.06647309 0.0067564473 14.313315 12.632991 20.230005
20.751015 14.474989 18.86002 18.729563 14.650451 19.816767 16.792877 17.013071
18.54073 20.33354 -0.025092185 20.997292 16.732704 20.612944 19.387108 16.503483
-0.08129823 0.08142599 21.184912 15.98519 19.437462 14.295127 0.07375952 -0.028043516
-0.058404893 19.455713 18.904188 19.61248 0.06298808 -0.0044227913 -0.081927955 0.02713652
15.295918 20.781536 -0.004730284 -0.040981993 -0.07263822 -0.015142441 -0.05761134 15.725205
-0.076284386 -0.05003943 -0.04540203 0.053489827 0.03717044 0.031327046 10.997135 12.688809
19.256392 18.016518 13.2521 15.447693 15.657322 11.04349 18.303522 14.558695

fc1.bias f4 [256]
00000000: f488 a141 7581 a041 54a3 a041 1516 a141
00000010: e2ca a041 f12d a041 a289 a141 22b2 a041
00000020: bc7e a141 672b a141 e345 a041 9820 a141
00000030: 8745 a141 b94d a141 d774 a141 70d3 a041
00000040: d692 a041 b54b a141 8a64 a141 a32b a041
00000050: 8478 a041 c2f4 a041 6138 a141 681e a141
00000060: 7220 a041 5b5f a141 4573 a141 b6ad a041
00000070: 9d0e a141 4fb6 a041 0859 a141 df97 a041
00000080: 5747 a141 d512 a141 115b a041 d29d a041
00000090: a83d a141 b212 a141 21d9 a041 fa2c a141
000000a0: f267 a141 9648 a041 61e5 a041 b8f0 a041
000000b0: 3167 a141 7e82 a041 be1d a141 da42 a041
000000c0: e156 a041 8906 a141 e600 a141 d823 a141
000000d0: 274a a141 e279 a141 f144 a041 0b8a a041
000000e0: 5b4a a141 7149 a141 167b a141 5986 a041
000000f0: 0849 a041 ca5f a041 a02c a141 275d a041
00000100: 2734 a041 a43b a141 1e25 a141 41b4 a041
00000110: 7cdc a041 dc72 a041 df4e a141 2774 a041
00000120: bda2 a041 b9d0 a041 9b42 a141 f7b7 a041
00000130: ac02 a141 b40f a141 18cb 9f41 069e a041
00000140: 008c a141 c464 a141 badf a041 4041 a141
00000150: 8fc5 a041 f657 a141 7308 a141 8084 a141
00000160: 033e a141 5826 a141 4ddb a041 8afa a041
00000170: b75d a041 8cc3 a041 6380 a041 882a a141
00000180: 3636 a041 9cf0 a041 2fb5 a041 29b3 a041
00000190: 642d a141 17ca 9f41 5c3c a041 0217 a141
000001a0: 80a2 a041 eb18 a141 ca98 a041 0b3d a141
000001b0: 711d a141 0744 a041 aec6 a041 d532 a141
000001c0: affe a041 1eca a041 bffa a041 3646 a141
000001d0: b96e a041 b5bb a041 51ac a041 0cdf a041
000001e0: 5e68 a041 c5f4 9f41 eb71 a141 951f a141
000001f0: e3e1 a041 55a7 a041 0e48 a041 015a a141
00000200: 758b a041 25d7 a041 6f71 a041 d371 a141
00000210: c925 a041 ca72 a141 9302 a141 5e82 a141
00000220: e178 a141 7a6a a041 d5ba a041 204e a141
00000230: 26e3 a041 5824 a041 e529 a041 d690 a041
00000240: 74f7 9f41 5837 a041 8d20 a141 daec a041
00000250: 113b a141 f89b a041 cd28 a141 a9bd a041
00000260: 5262 a041 6f11 a141 22ca a041 6a6a a041
00000270: 65c3 a041 88cb a041 f706 a141 2d51 a041
00000280: 6fb9 a041 6e0a a041 707a a041 b21f a141
00000290: 84d8 a041 50b1 a041 2647 a141 0587 a141
000002a0: eab8 a041 076d a141 1af3 a041 3655 a141
000002b0: cb08 a141 e85b a141 dac5 a041 382d a041
000002c0: 5d7d a141 d9b0 a041 507a a141 984e a041
000002d0: ed98 a041 1784 a041 946c a141 84d3 a041
000002e0: 15df a041 f407 a141 c4d5 a041 c867 a041
000002f0: dc37 a041 e5a1 a041 d368 a141 0260 a141
00000300: 5680 a141 1362 a041 8d15 a141 7fa7 a041
00000310: 669e a041 53e5 a041 09e6 a041 33d6 a041
00000320: 5172 a141 6a86 a041 ede6 a041 54ec 9f41
00000330: e6c6 a041 4432 a141 1b1b a141 9d80 a141
00000340: deeb a041 c29a a041 ac96 a041 bb5b a041
00000350: df98 a141 388c a141 e84b a041 5937 a141
00000360: 712c a141 4339 a141 695c a041 41ac a041
00000370: 3e08 a141 909c a041 95aa a141 9f90 a041
00000380: 9c94 a041 2cf4 9f41 e6eb a041 2582 a141
00000390: 916d a141 02eb a041 a0c9 a041 6750 a041
000003a0: 773c a041 2268 a141 5b68 a141 0edb a041
000003b0: a1d9 a041 020f a141 cf7c a141 bd61 a141
000003c0: 9bee a041 596a a041 9a31 a141 f4e4 a041
000003d0: 2643 a141 0d32 a041 2dbb a041 2c85 a041
000003e0: 35b0 a041 a45c a041 135a a141 bb52 a141
000003f0: 0d2e a141 7974 a041 441e a141 61fd a041
20.191872 20.063211 20.07975 20.135782 20.099064 20.022432 20.192204 20.086979
20.186882 20.146193 20.034124 20.140915 20.158949 20.16295 20.18205 20.103241
20.071697 20.161966 20.174091 20.021307 20.058846 20.11951 20.152529 20.139847
20.015842 20.17156 20.181284 20.08482 20.132135 20.089018 20.168472 20.074156
20.159834 20.134195 20.044466 20.07706 20.155106 20.134129 20.10602 20.146961
20.175755 20.035442 20.112001 20.117538 20.175386 20.063717 20.139523 20.032642
20.042421 20.128191 20.125439 20.142502 20.161207 20.184513 20.033663 20.067404
20.161306 20.16086 20.1851 20.0656 20.03566 20.046772 20.14679 20.045485
20.025465 20.154121 20.143124 20.088015 20.107658 20.056084 20.163511 20.056715
20.079462 20.101915 20.157522 20.089827 20.126305 20.132668 19.974167 20.07716
20.19336 20.174202 20.109241 20.15686 20.096464 20.16795 20.129126 20.189697
20.15528 20.143723 20.10708 20.122334 20.04576 20.095482 20.062689 20.145767
20.02647 20.117485 20.088469 20.08748 20.147163 19.973677 20.029472 20.136234
20.079346 20.137167 20.074604 20.154806 20.139376 20.033216 20.097012 20.14982
20.124357 20.09869 20.122435 20.159283 20.054064 20.091654 20.084139 20.10891
20.05096 19.994516 20.180624 20.14042 20.110296 20.081705 20.035183 20.168947
20.068094 20.105051 20.055387 20.180578 20.01845 20.18105 20.126257 20.188656
20.184023 20.05199 20.091227 20.163147 20.110912 20.017746 20.020456 20.07072
19.995827 20.027023 20.140894 20.11565 20.153841 20.076157 20.144922 20.092607
20.048008 20.133512 20.098698 20.05196 20.095407 20.09938 20.1284 20.039637
20.090544 20.005093 20.059784 20.140476 20.10572 20.086578 20.15974 20.190928
20.09029 20.178236 20.118702 20.166607 20.129293 20.169876 20.096607 20.02208
20.186213 20.086351 20.184723 20.038376 20.07467 20.064497 20.178017 20.10328
20.108927 20.128883 20.104378 20.050674 20.027275 20.07905 20.176184 20.171879
20.187664 20.047888 20.135523 20.081785 20.077343 20.111975 20.112322 20.10459
20.180819 20.065632 20.112757 19.990395 20.097118 20.149544 20.138235 20.1878
20.11517 20.075565 20.07357 20.04479 20.199644 20.193466 20.037064 20.152025
20.1467 20.15296 20.045122 20.084108 20.129025 20.076447 20.208292 20.070616
20.072563 19.994225 20.115185 20.188547 20.1785 20.11475 20.09845 20.039259
20.029524 20.175846 20.175955 20.10696 20.106264 20.132328 20.185942 20.172724
20.116507 20.051928 20.14922 20.111794 20.157787 20.024439 20.091394 20.065025
20.086039 20.045235 20.168982 20.165396 20.147486 20.056871 20.139778 20.12372

fc2.weight f4 [128, 256]
00000000: c5e5 b341 8c23 b341 56e0 b341 432f b441
00000010: 9089 b341 a74e b441 e978 b441 7e50 b441
00000020: c08a b341 4c88 b441 0327 b341 c8e2 b341
00000030: 5837 b441 41ab b341 0844 b441 3ff5 b341
00000040: b2eb b341 f5c2 b341 e38d b341 803e b241
00000050: 45df b341 5529 b441 a2c7 b341 eaf5 b241
00000060: a5e4 b341 4e26 b441 f027 b441 1332 b441
00000070: c3c6 b341 5387 b341 ef43 b341 0fbd b441
00000080: 64ca b341 e7f5 b341 16a2 b341 8797 b541
00000090: a76a b441 b2a1 b441 0181 b341 48aa b441
000000a0: 750c b441 eb81 b341 6a0a b441 cd01 b441
000000b0: 898a b441 d82a b441 209d b341 bd0b b341
000000c0: 148d b241 c105 b441 ed60 b141 1102 b441
000000d0: 16e8 b341 c503 b441 f49a b441 7485 b341
000000e0: aa96 b341 70af b341 2258 b441 5522 b341
000000f0: b01b b441 40d4 b341 3173 b441 60f8 b341
00000100: c453 b341 e8f1 b341 04e7 b341 4034 b341
00000110: fbf8 b341 b5e9 b441 bc96 b341 bbbc b341
00000120: cd88 b341 de42 b441 22f0 b341 7e30 b341
00000130: ec4b b441 4912 b441 0dc6 b341 cbf3 b341
00000140: e70e b441 d0cd b341 9b0a b541 5bd0 b341
00000150: 6233 b341 b0a6 b341 68a4 b341 114f b341
00000160: cdba b341 a4b8 b441 2677 b341 a64f b441
00000170: c49a b341 dbee b441 6f35 b441 abdb b341
00000180: 13b7 b341 8056 b341 c4a7 b341 ed0a b441
00000190: dcde b341 5d7d b541 5a4f b341 c8ff b341
000001a0: 72dd b341 0902 b441 8205 b441 998e b441
000001b0: d935 b341 8522 b441 98e2 b341 b522 b441
000001c0: 8dc9 b341 ad9c b441 2e65 b341 5c4a b441
000001d0: 5f6a b341 54f2 b341 77c8 b341 9594 b341
000001e0: 9c05 b441 42a1 b441 2d0b b441 7fe5 b341
000001f0: e66f b341 8f7d b241 e54d b441 5026 b341
00000200: 7292 b341 2673 b441 43ee b441 457d b441
00000210: 4315 b441 ff09 b441 43a6 b341 6acf b341
00000220: 581c b441 2f2f b441 c908 b441 5036 b341
00000230: c431 b341 7736 b341 f5c6 b341 9594 b441
00000240: 9e0a b441 9270 b441 c403 b441 affa b341
00000250: 9e4e b441 de8b b341 0079 b441 824e b441
00000260: 4b7c b441 3366 b341 f5f4 b341 4415 b341
00000270: faeb b341 4556 b341 b3d1 b341 d4d9 b341
00000280: a051 b441 64cf b441 8811 b441 388a b441
00000290: 0037 b441 99d6 b441 6b20 b441 b0dc b341
000002a0: ded5 b341 256c b341 e5ad b341 5bfe b341
000002b0: 5246 b441 ec39 b341 45f8 b241 b9b2 b241
000002c0: 3845 b341 e4f6 b341 dc5c b341 b2b7 b241
000002d0: 27b6 b341 6ef3 b341 ebc8 b341 a6c3 b241
000002e0: 5f4d b341 da5d b341 72fc b341 a8e0 b441
000002f0: 5912 b441 58d9 b341 6c0a b441 2a31 b441
00000300: b888 b341 11a0 b241 1ead b341 a3ee b341
00000310: 162a b441 24b7 b441 9942 b341 9bad b441
00000320: d251 b441 ae84 b341 fdc0 b341 1378 b441
00000330: c50c b441 2a41 b441 51cc b341 c065 b341
00000340: ed53 b441 af70 b341 9781 b341 29c3 b341
00000350: 697e b341 05b5 b341 db60 b341 d3df b341
00000360: 3445 b441 3a61 b341 8cea b341 6e33 b441
00000370: 2575 b441 f12c b441 faae b341 0f17 b441
00000380: 18d9 b341 8086 b441 1463 b441 eb45 b341
00000390: 13da b341 d951 b341 932f b441 cf0c b441
000003a0: e9a2 b441 245c b441 109b b341 a0d2 b341
000003b0: 9c9f b341 d78a b341 21e0 b341 e9cc b341
000003c0: 6de4 b341 765d b341 3195 b341 e430 b441
000003d0: 2eef b241 8783 b341 de70 b341 ae38 b341
000003e0: 2f5a b541 b170 b341 4842 b441 7a23 b441
000003f0: 1afd b341 ec04 b441 0e0c b441 717f b441
22.487192 22.392357 22.484539 22.523077 22.44217 22.538404 22.559038 22.539303
22.442749 22.566551 22.394049 22.485733 22.527023 22.45862 22.533218 22.49475
22.490086 22.470194 22.44428 22.280518 22.484018 22.520182 22.472477 22.370075
22.486643 22.518703 22.5195 22.52445 22.472052 22.441076 22.40817 22.592314
22.473824 22.49507 22.454144 22.698988 22.552076 22.578953 22.43799 22.583145
22.506083 22.438437 22.505085 22.50088 22.567644 22.52092 22.451721 22.380732
22.318886 22.50281 22.172327 22.501009 22.488323 22.50184 22.57566 22.440163
22.448566 22.460663 22.543034 22.391764 22.51352 22.478638 22.556246 22.496277
22.415901 22.493118 22.4878 22.400513 22.496572 22.614115 22.4486 22.467154
22.441797 22.53265 22.492252 22.398678 22.537071 22.508928 22.471704 22.49404
22.507277 22.475494 22.630178 22.476736 22.40009 22.45639 22.455276 22.413607
22.466211 22.590157 22.433178 22.53889 22.45057 22.616629 22.52609 22.48226
22.464392 22.417236 22.456917 22.505335 22.483818 22.686213 22.413746 22.499893
22.483128 22.500994 22.50269 22.569628 22.401293 22.516855 22.485641 22.516947
22.473413 22.576502 22.424404 22.536308 22.426939 22.493324 22.472883 22.44755
22.502739 22.57874 22.505457 22.487059 22.429638 22.311308 22.538034 22.393707
22.446507 22.556225 22.616339 22.561167 22.510382 22.50488 22.456182 22.476276
22.51384 22.523039 22.50429 22.40152 22.3993 22.401594 22.472147 22.57255
22.505184 22.554966 22.501839 22.497404 22.538387 22.443295 22.559082 22.538334
22.56069 22.424902 22.494608 22.385384 22.490223 22.417124 22.477392 22.481361
22.539856 22.601265 22.50856 22.56749 22.526855 22.604784 22.51583 22.482758
22.479427 22.427805 22.45991 22.499197 22.534336 22.403282 22.371225 22.337267
22.408798 22.495552 22.420341 22.339695 22.463942 22.493862 22.473104 22.345531
22.412779 22.420826 22.498264 22.609695 22.508959 22.481125 22.505089 22.524006
22.441757 22.328157 22.45953 22.491522 22.52055 22.589424 22.407518 22.584768
22.539951 22.439785 22.469233 22.55863 22.506235 22.531818 22.474764 22.424683
22.54098 22.430021 22.438276 22.470293 22.436724 22.463388 22.422293 22.48429
22.53379 22.422474 22.489525 22.525112 22.5572 22.521944 22.460438 22.51126
22.481003 22.565674 22.548378 22.40914 22.481482 22.414965 22.52323 22.506254
22.579546 22.54499 22.450714 22.477844 22.452934 22.442793 22.484438 22.475054
22.486536 22.420635 22.447847 22.523872 22.366787 22.439222 22.43011 22.402676
22.669035 22.430025 22.532364 22.517323 22.498585 22.502403 22.505886 22.562227

fc2.bias f4 [128]
00000000: f585 af41 65a3 ae41 3743 af41 4aa9 ae41
00000010: 78ff ae41 6d45 af41 bdf5 ae41 d4fb ae41
00000020: 0e22 af41 a75d af41 9cc1 ae41 693d af41
00000030: 2f5f af41 86e8 ae41 71db ae41 182f a5bc
00000040: 050c af41 ee49 af41 b38a af41 344c af41
00000050: 6271 af41 37e1 ae41 b5c4 91bc 4b8f 853d
00000060: 83ea ae41 49e5 ae41 2a64 af41 3456 78bd
00000070: 2e1f e6bc f14a af41 dfa9 89bd 782b af41
00000080: 7ea1 ae41 1d35 af41 3dad ae41 124d ae41
00000090: 2cc9 ae41 1dc3 ae41 dfd5 953c 6cde 233c
000000a0: 2900 af41 76c3 38bd f0c9 ad41 acac ae41
000000b0: 4150 af41 7263 61bd 66fe ae41 3803 a4bc
000000c0: 69f7 ae41 06db ae41 7db4 64bd 9992 823c
000000d0: 334d af41 25eb ae41 25fd ae41 57ca ae41
000000e0: c76c af41 0ab9 ae41 d752 ae41 b240 af41
000000f0: da0d 35bd 40fb ae41 3b55 af41 d0ef a6bc
00000100: 93a6 ae41 2c18 af41 92fc ae41 9a81 ae41
00000110: 2c56 af41 2b20 ae41 c4ce ae41 faff ae41
00000120: f6ef ad41 a364 af41 07fb ae41 4bfb ae41
00000130: bcbc ae41 3911 af41 cdfa 9fbc b061 ae41
00000140: 7b2f af41 9f3e af41 db9c ae41 974f af41
00000150: 11c5 9abd 92fa ae41 df68 ae41 3362 ae41
00000160: a966 af41 a563 ae41 f934 af41 84ef ae41
00000170: 9f03 cd3c 7a1a ae41 cc9e ae41 0388 ae41
00000180: 8998 ae41 32d0 ae41 b637 af41 4d25 ae41
00000190: ecc5 ae41 9a92 ae41 61d9 ae41 4631 af41
000001a0: ad5c ae41 98d9 ae41 851e af41 db2d af41
000001b0: e24b af41 2a97 ae41 e48a ae41 0f3a af41
000001c0: 9856 af41 bcd7 ae41 f4f0 ae41 efeb ae41
000001d0: a4a7 61bd 40f0 ae41 eb37 af41 7b58 af41
000001e0: 6c72 ae41 3ab8 ae41 bdb7 ae41 4d40 af41
000001f0: 0462 af41 7ece ae41 40f3 ae41 0df7 ae41
21.940409 21.829782 21.90782 21.83266 21.87474 21.9089 21.86999 21.872963
21.891628 21.920729 21.844536 21.904985 21.921476 21.863537 21.85715 -0.020164058
21.880869 21.911098 21.942724 21.912209 21.930363 21.859968 -0.017793993 0.065214716
21.864508 21.861956 21.923908 -0.060629085 -0.02809104 21.911592 -0.067218535 21.896225
21.828854 21.900934 21.834589 21.787632 21.848228 21.84527 0.018290458 0.01000176
21.875078 -0.04510828 21.723602 21.834312 21.914186 -0.05502648 21.874218 -0.020021066
21.870806 21.856945 -0.05583619 0.015939044 21.912695 21.864817 21.873606 21.848799
21.928114 21.840351 21.79045 21.90659 -0.044202663 21.87268 21.916616 -0.020378023
21.831335 21.886803 21.873325 21.813282 21.917076 21.765707 21.85096 21.874989
21.742168 21.924139 21.872572 21.872702 21.842155 21.88341 -0.01952877 21.797699
21.898184 21.905577 21.82659 21.913862 -0.07557119 21.872349 21.801207 21.797949
21.925127 21.798655 21.900866 21.866951 0.02502614 21.762928 21.827538 21.816412
21.82448 21.851658 21.902203 21.768213 21.846642 21.821583 21.856142 21.89906
21.795252 21.856247 21.889902 21.89739 21.912052 21.82381 21.817818 21.903349
21.917282 21.85534 21.867653 21.865202 -0.055091515 21.86731 21.902304 21.918203
21.80587 21.839954 21.839716 21.906397 21.92286 21.850826 21.868774 21.87063

fc3.weight f4 [64, 128]
00000000: a0b2 af41 40bf b041 9a4f b041 621d b041
00000010: 80c1 af41 00ca b041 436d af41 c2e5 b041
00000020: 0872 af41 8ded af41 3aab b041 cb47 b041
00000030: b17f af41 d51c b041 8ddc b041 6aa8 8abd
00000040: bd95 b041 8acf af41 cabe af41 1cd1 af41
00000050: 25d6 b041 f55b b041 ac6a 343d cfff b5bd
00000060: 7e5b b041 7fe3 b041 a2f2 af41 dc82 cebc
00000070: a496 f63c 6beb af41 a763 9abd 94f1 af41
00000080: 2a68 af41 3d34 b041 b1cd af41 7b56 b041
00000090: e818 b041 3281 af41 23d8 8fbd 08c6 3dbd
000000a0: c414 b041 0469 8b3d 19fc af41 7cc3 b041
000000b0: b343 b041 37e4 6c3d 7064 b041 09d8 97bd
000000c0: f425 b041 96c2 b041 25c6 48bd 33eb e13c
000000d0: b9a9 af41 0720 b041 e6ff af41 327d b041
000000e0: 0c94 af41 1805 b041 d6aa af41 95c6 af41
000000f0: 064e 04bb 0f44 b041 f288 b041 0024 78bc
00000100: 7306 b041 b3c2 b041 0d34 b041 1973 af41
00000110: d28d b041 ac17 af41 86a8 b041 5ad1 af41
00000120: 1150 af41 9694 af41 c062 af41 ccba af41
00000130: 5144 b041 617e af41 8f04 9e3d 6f13 b041
00000140: 8d99 b041 3f75 b041 8f99 b041 b9c2 b041
00000150: a58d ae3b 88d6 af41 c4d7 b041 5ea6 b041
00000160: 8671 af41 566e b041 eabf af41 55a6 b041
00000170: fe72 91bd f20f b041 e660 b041 9285 b041
00000180: cd37 af41 7425 b041 e875 b041 b4a3 af41
00000190: fef9 ae41 501f b041 d0d6 af41 d492 af41
000001a0: 6de8 b041 0899 af41 5e9b b041 86bb af41
000001b0: 3683 af41 bc68 b041 b833 b041 8a29 b041
000001c0: 15b7 af41 fe7b b041 a735 b041 7ac8 b041
000001d0: e37c a93d 114f b041 18c9 af41 808c b041
000001e0: a6dc af41 7c2a b041 14c8 af41 2b3b b041
000001f0: e676 af41 9ab2 af41 599d b041 06c3 af41
00000200: 0786 9dbd 1688 423d e987 da3c 2841 223d
00000210: 30d8 6cbc fb94 8fbd 9004 e6bc 9817 40bd
00000220: 599b a2bd 7659 ecbc 3528 8ebd c8f5 8eba
00000230: 744d 9cbc 880c e53c de9a 9cbd c53f 7838
00000240: 6022 cc3c 9606 77bd dd21 5bbd 75bd 88bd
00000250: 3732 b8bd 0924 433c 2f24 963d bb26 62bd
00000260: d778 8fbd a4d6 99bd fa0c 5d3d d82d df3c
00000270: 6ea3 aabd a80a dd3c d8f7 853b baef 503d
00000280: 1ea5 4ebc 6432 01bd d13a 943d 1132 7ebc
00000290: a58a 8d3d e2fb 85bd a979 0ebd 7d9b 683c
000002a0: 6e17 6ebd a187 2d3d 1dc8 9b3d 674b 21bd
000002b0: 30f0 f7bc fad7 ea3c 912f e5bb 2e2d 6a3d
000002c0: 6dbd 463d 7f1f 00bd 8179 b4bd 006f b93c
000002d0: fe03 8c3d 7af9 2a3d 5735 35bd 85fc 00bd
000002e0: f2c9 08bd efed 1f3d 1fd0 13bd a2f3 9fbd
000002f0: 7ca8 c73c 0a3a 8f3d 92a9 743d 46d2 5c3d
00000300: 86d5 e63c 9af7 c1bc 4997 f13b 36db fdbc
00000310: ce13 a7bd f454 b8bd b531 9a3c c782 c3bd
00000320: facd 4a3d 821f ba3c 3084 1fbb 64a0 f5bc
00000330: 77de 7abc d08f 85bd 62ed 963d 252e 6d3c
00000340: 818c 8e3d b5b8 803d e0ad 60bc c341 733d
00000350: 7e8f c13b ae9c ecbc f244 503c 75d2 87bd
00000360: 3ecc c2bd 9244 8fbb 5120 613d 3ae5 86bd
00000370: 9fb5 243c 978b b93d 182d a1bc 7955 32bd
00000380: 7fb6 403d 17f3 6f3d d72d 883d 96ed 363d
00000390: 5692 c0bd 75d5 c5bd d544 c2bd 12de 613d
000003a0: 3e0b 073d a982 853c 1fe4 a7bd b77a 60ba
000003b0: 0271 44bd 5cd3 acbc 0045 35bc 3442 91bd
000003c0: 6335 a7bd 3743 763c ef9e 5abd c840 b83d
000003d0: 3130 aabd 8477 8d3a 7622 23bd c116 a4bd
000003e0: 295a a2bd e09f 703d d6f2 693d a0cb 09bd
000003f0: 29e7 8a3d 8fd0 4c3d 9862 31bd cfa8 7a3c
21.96222 22.093384 22.038868 22.014347 21.969482 22.098633 21.92835 22.112186
21.93068 21.990992 22.083607 22.035055 21.93735 22.014078 22.10769 -0.06770404
22.073114 21.976337 21.968159 21.977104 22.104563 22.0449 0.044047043 -0.08886682
22.044674 22.111082 21.993473 -0.025208883 0.030101128 21.98995 -0.075385384 21.992958
21.925861 22.025507 21.975435 22.042227 22.012161 21.938084 -0.07023647 -0.046331435
22.01014 0.068071395 21.998095 22.095451 22.033056 0.05783483 22.049042 -0.07414252
22.018532 22.095013 -0.04901709 0.027577972 21.957872 22.015638 21.99995 22.06113
21.947289 22.002487 21.958416 21.971964 -0.0020188107 22.033232 22.066868 -0.015145302
22.003149 22.095068 22.025415 21.9312 22.069248 21.886559 22.082287 21.977222
21.914095 21.947552 21.923218 21.96621 22.033358 21.936708 0.07715713 22.00949
22.074976 22.05725 22.07498 22.09508 0.005326944 21.979752 22.105354 22.081234
21.930431 22.053875 21.968708 22.081217 -0.07102011 22.007786 22.047314 22.06522
21.902246 22.018288 22.057571 21.954933 21.872066 22.01529 21.979889 21.946693
22.11349 21.949722 22.075863 21.966564 21.939068 22.05114 22.025253 22.020283
21.964396 22.060543 22.026197 22.097889 0.082757734 22.038607 21.97319 22.068604
21.982738 22.020744 21.972694 22.02889 21.933056 21.962208 22.07683 21.970226
-0.07691579 0.047493063 0.026676135 0.03961292 -0.01445584 -0.07010838 -0.028078347 -0.0468975
-0.079397865 -0.028851252 -0.06941263 -0.0010906989 -0.019079901 0.027960077 -0.07646726 5.9187198e-05
0.024918735 -0.060309015 -0.05349909 -0.06676761 -0.08993953 0.011910447 0.0733112 -0.055212718
-0.0700547 -0.075116426 0.053967454 0.02724354 -0.08331953 0.02698262 0.004088383 0.05100987
-0.012612609 -0.031542197 0.07237781 -0.015514866 0.0691121 -0.065421835 -0.034783993 0.014197228
-0.058127813 0.042365674 0.07606528 -0.03937855 -0.030265898 0.028667439 -0.0069941957 0.057171993
0.048520494 -0.031280037 -0.088122375 0.022635937 0.06836699 0.041741826 -0.044240322 -0.03149082
-0.033395715 0.03904527 -0.03608715 -0.07810141 0.024372332 0.06993492 0.059732027 0.05391147
0.028177988 -0.023677636 0.007372771 -0.030988317 -0.08158074 -0.090005785 0.01882253 -0.09546428
0.04951284 0.022720102 -0.0024340264 -0.029983707 -0.015311829 -0.06521571 0.07369496 0.014476334
0.06960393 0.0628523 -0.01371333 0.059388887 0.005906998 -0.028883304 0.01271175 -0.06631938
-0.09511612 -0.004372188 0.05496246 -0.0658669 0.0100530675 0.09059828 -0.019674823 -0.043538544
0.04704904 0.058581438 0.06649368 0.044660173 -0.09402911 -0.09659854 -0.09485785 0.055143423
0.032969706 0.016297655 -0.081978075 -0.0008563208 -0.047959335 -0.021096878 -0.011063814 -0.07092705
-0.081644796 0.015030674 -0.053374227 0.08996731 -0.08309973 0.0010793065 -0.039827786 -0.080121525
-0.07927353 0.05874622 0.057116352 -0.033641458 0.067823716 0.050003584 -0.043306917 0.015299036

fc3.bias f4 [64]
00000000: 471c a741 04ef 353d df7a a641 da28 a641
00000010: 2307 a641 2bec a641 5052 a741 7724 a641
00000020: 8aef a641 8c45 a741 8f28 a641 9e84 a641
00000030: 0821 96bd b7fd a641 a1bc 2e3d 7b1d d0bd
00000040: 59ee a541 0f3a a541 b837 a741 de62 a741
00000050: 4e9e c2bd 25f5 a641 b0c7 a541 4a74 41bd
00000060: c093 a741 e73c a841 0fc7 a641 2a06 fbbc
00000070: 6509 a741 aabc a641 2c61 a641 bf79 a541
00000080: f02f aebd 0cc0 a741 c9b0 acbd e6f4 b63b
00000090: 5e2a a741 84ef a641 c8d6 a741 92c4 a641
000000a0: 1200 a741 4ffb aebd 6a25 a741 8050 ee3c
000000b0: 7b89 a741 c031 a641 fb87 c43c ebe4 a641
000000c0: 203d a641 f494 a741 4a64 a641 5d8a a741
000000d0: 857f a641 3f18 b1bd ca32 55bd 988e a641
000000e0: ec8a a541 bc44 a741 9b22 92bd 1ddb a641
000000f0: 87c8 a741 83a7 b4bd c5a8 1b3d 3069 823d
20.888807 0.044417396 20.809996 20.769947 20.753485 20.865316 20.915192 20.767805
20.866962 20.908958 20.769804 20.814754 -0.07330519 20.873884 0.04266036 -0.10161873
20.74138 20.653349 20.902206 20.923275 -0.095028505 20.8697 20.722504 -0.047230043
20.947144 21.029737 20.847197 -0.030642588 20.879587 20.842121 20.797447 20.684446
-0.08505237 20.968773 -0.084321566 0.0055833934 20.895687 20.866951 20.979874 20.845982
20.875034 -0.08544027 20.893269 0.02909112 20.94213 20.774292 0.023990622 20.861776
20.779846 20.947731 20.79897 20.94256 20.812265 -0.08647203 -0.05205039 20.819626
20.692833 20.908562 -0.07135507 20.856989 20.972914 -0.08821013 0.038002748 0.06367719

fc4.weight f4 [49, 64]
00000000: 7792 f83f 1adc 073d df46 d93f 8021 e03f
00000010: 0bd7 e53f b2c0 ec3f 4a0a f63f 80fa f23f
00000020: b276 f43f c25d e33f c880 e93f 71ea f53f
00000030: 9a6f ad3d 660e ea3f dcfa f53d 5b8d c23c
00000040: 1b22 f03f a1b7 f03f 3b1f e13f b902 dc3f
00000050: 5ce2 9dbd cc96 f93f 38e5 e13f 9495 f5bd
00000060: 87cd d83f 3a0e da3f d087 ec3f d64d ed3d
00000070: 2703 f43f 2d97 ef3f e986 e53f c7c7 e33f
00000080: cf14 4d3d 9e16 e43f e4fd b5bd 8bc5 5bbd
00000090: 5232 de3f 476a f13f 6597 df3f 6449 ef3f
000000a0: 075c f63f 808e 083b abbb f53f 761e e6bd
000000b0: 4d66 ea3f e591 fa3f bc4b 103d 7599 f43f
000000c0: 57b8 f23f 3635 f33f bd02 d93f 58b3 ea3f
000000d0: 304b f63f 00ab babd 0c8b 49bd 467c f03f
000000e0: 2963 e03f b0b9 f03f 2de1 9dbd bb94 d93f
000000f0: 69b6 ea3f 28d4 ab3c 3c47 ebbc 6ef6 c8bd
00000100: 3147 c040 fe23 07bd 5669 bb40 57f9 bd40
00000110: 8082 bc40 9202 c040 7607 bc40 2627 c140
00000120: 8456 c040 d66a bf40 3923 bc40 9a5d bb40
00000130: 14ee e83d 69db b940 bc6e f03d 2e73 a43d
00000140: 0d84 ba40 fcdc bc40 f190 bb40 7623 c340
00000150: b698 8bbd c36f bd40 68d3 bf40 58d9 933c
00000160: 721a c440 8f8a c040 d7a5 bf40 e8b6 5a3d
00000170: 4f54 b940 15cf bb40 4a66 be40 51c1 b440
00000180: 488b f73d 7c90 c140 b064 ef3c f8f7 9e3d
00000190: 81db c140 b175 b940 7a36 bb40 2603 c040
000001a0: 30cb bf40 6cb2 3cbd 43d2 c040 ea03 edbc
000001b0: 65c4 ba40 fea4 b940 2c26 e0bd 04d3 bd40
000001c0: 27e6 bf40 dbf4 c240 8285 c040 7927 bd40
000001d0: 10d0 bc40 160b f6bd 8833 163d 1fa0 bc40
000001e0: f8f0 bd40 919a be40 5bfc 7bbc ce1d bf40
000001f0: 51d9 b940 b82d bb3d 1d27 b13c 66ab d23d
00000200: d9c5 8b41 d65f 1dbd 1b23 8b41 680d 8b41
00000210: 0bca 8b41 e808 8c41 ded8 8a41 21d2 8a41
00000220: 4949 8b41 6abc 8b41 d77c 8b41 1534 8b41
00000230: c08e 62bb 3799 8a41 ee4e fd3d 346b 6e3d
00000240: 8a06 8b41 68fb 8a41 2a9c 8b41 9bc4 8b41
00000250: e41a 823d 77bf 8a41 24b0 8a41 d850 dbbd
00000260: f33c 8b41 f43b 8c41 7d08 8c41 bc2f 64bd
00000270: 8f2b 8b41 cfe3 8a41 bb16 8c41 2025 8c41
00000280: ebb0 77bd 5002 8c41 c08e 6cbd b584 853c
00000290: 9c20 8b41 9bb8 8a41 6678 8b41 4859 8b41
000002a0: e96b 8a41 708f 603c 8917 8c41 cdb8 2d3d
000002b0: eaad 8a41 d467 8b41 97d2 ed3d f3bf 8a41
000002c0: aaaf 8b41 094f 8b41 6061 8a41 6786 8b41
000002d0: 8ae2 8941 901e b63d 9684 dd3d d19a 8b41
000002e0: e55f 8a41 5c14 8c41 05b9 1a3d 9832 8c41
000002f0: eb65 8c41 2c64 9c3d ad37 c33d bf1b 943d
00000300: 079d 3d41 d28e 843d 82e9 3c41 17f6 3c41
00000310: ce9b 3c41 20f4 3b41 e87d 3d41 5b63 3a41
00000320: 9a11 3b41 ef5c 3c41 d14b 3d41 2bb2 3b41
00000330: f473 6d3d 1f47 3d41 176e b2bd 0e0f 6ebd
00000340: a114 3b41 e817 3a41 47c9 3c41 591c 3a41
00000350: 70fd 46bd 7975 3a41 ae32 3c41 2019 80bb
00000360: e831 3a41 04a6 3d41 6bf3 3b41 708d b0bc
00000370: 9f18 3d41 0163 3c41 e414 3a41 0591 3941
00000380: 50ed 7b3d a1e5 3c41 285a 8d3d bee2 46bd
00000390: 2dee 3b41 0e1b 3a41 c9cb 3d41 bd4a 3b41
000003a0: 87c0 3c41 c6c9 e33d 8c3b 3d41 7df3 dabd
000003b0: ae86 3d41 7519 3c41 dfa2 e43d 9d48 3b41
000003c0: 0f1c 3a41 ad01 3d41 428e 3d41 3707 3d41
000003d0: bd20 3b41 1caa fdbd e869 aabc 5555 3d41
000003e0: 1747 3c41 388a 3b41 a9a9 11bd f6ea 3d41
000003f0: 7bd5 3d41 cc27 c93d 5db6 263c 3056 dd3c
1.9419698 0.03316889 1.6974753 1.7510223 1.7956251 1.8496306 1.922189 1.8982697
1.9098723 1.7762988 1.8242426 1.9212171 0.08468552 1.8285644 0.12010738 0.023749044
1.8760408 1.8806039 1.7587656 1.7188331 -0.0770919 1.9499145 1.7648077 -0.119914204
1.6937722 1.7035592 1.8478947 0.11587112 1.9063462 1.871801 1.7931796 1.7795342
0.050068673 1.7819402 -0.088863164 -0.05365519 1.7359107 1.8860558 1.7468077 1.8694272
1.9246835 0.002083689 1.9197897 -0.11236279 1.831247 1.9575773 0.035228476 1.9109331
1.8962506 1.9000614 1.6953961 1.8335981 1.9241695 -0.09114647 -0.04920487 1.8787925
1.7530261 1.8806667 -0.077089645 1.6998514 1.8336917 0.020975187 -0.02872049 -0.09812628
6.0086904 -0.03299331 5.8566084 5.936687 5.89093 6.0003138 5.8759108 6.036029
6.010561 5.9817915 5.8792996 5.855176 0.11373535 5.8080335 0.11739871 0.08029781
5.8286195 5.9019756 5.861443 6.0980787 -0.06816237 5.919893 5.9945564 0.018047974
6.128228 6.016914 5.988994 0.05339709 5.7915416 5.8690286 5.9499865 5.648598
0.12087113 6.0488873 0.029222816 0.0776214 6.058045 5.7956166 5.8504 6.0003843
5.993553 -0.046068594 6.0256667 -0.02893253 5.836474 5.8013906 -0.10944781 5.9320087
5.996845 6.0923896 6.0162973 5.9110684 5.9003983 -0.12013833 0.036670238 5.894546
5.935665 5.956368 -0.01537999 5.9723883 5.807778 0.091395795 0.021625096 0.10286598
17.471605 -0.038421474 17.392141 17.381546 17.473654 17.504349 17.355892 17.352602
17.410784 17.467 17.435957 17.40043 -0.003456995 17.324812 0.1236857 0.058207706
17.378193 17.372757 17.451252 17.470999 0.06352785 17.343489 17.336006 -0.10708779
17.40476 17.529274 17.504145 -0.055709586 17.396269 17.361235 17.511099 17.518127
-0.060471456 17.50113 -0.057753325 0.016298631 17.390923 17.34014 17.433788 17.418594
17.30269 0.013706073 17.511492 0.042412568 17.334919 17.425697 0.116124325 17.343725
17.460773 17.413591 17.297546 17.440626 17.235615 0.08892548 0.108163044 17.450594
17.296824 17.509941 0.037774105 17.524704 17.549765 0.07636294 0.09532104 0.07231855
11.850837 0.06472553 11.807009 11.810081 11.788038 11.747101 11.843239 11.649257
11.691797 11.772689 11.83101 11.730998 0.05797191 11.829864 -0.08712404 -0.058119826
11.692536 11.6308365 11.79914 11.631921 -0.04858154 11.65368 11.762373 -0.003909245
11.637184 11.853031 11.746928 -0.021551818 11.818511 11.774171 11.6301 11.597905
0.061505616 11.806062 0.069019616 -0.048556082 11.745648 11.631605 11.862252 11.705747
11.797004 0.111224696 11.827038 -0.10690973 11.845381 11.756215 0.11163878 11.705228
11.63185 11.812909 11.847231 11.814261 11.695493 -0.123859614 -0.020802453 11.833333
11.767356 11.721245 -0.03556219 11.8698635 11.864619 0.09822044 0.010175315 0.027018636

fc4.bias f4 [49]
00000000: b6ca 5b40 ca5c 3441 c1a0 8d41 4987 8041
00000010: a525 d940 1a81 7841 e444 dc40 44fe 3f41
00000020: 5cfa 8341 b606 2641 b924 5f41 bea6 7241
00000030: 152e 8e41 bc9e b33d e116 7e41 c862 7541
00000040: 8f6b 8441 b5b3 8c41 f9a2 2841 bca1 2ebd
00000050: d600 a83d 1096 8941 ad0f f440 6715 9041
00000060: 6b1a a440 e84e 0e3d fcab 1ebd 70b8 7cbd
00000070: 18a4 8341 40fb 5f41 00af 7241 404f dc3d
00000080: 5adc 82bd e622 9abd c074 f03c 9cfb 3941
00000090: 79d4 8641 f090 b13c 605f 86bc a0e5 4ebc
000000a0: 5063 d83d 146d 9c3d cd89 6640 3884 803d
000000b0: 5067 f93d d0ca 2cbc 10be 51bd ecbb 0dbd
000000c0: 84ff f7bd
3.4342475 11.272654 17.703493 16.066057 6.7858453 15.531519 6.8834095 11.999577
16.497246 10.376638 13.9464655 15.165709 17.772501 0.087705106 15.880586 15.3366165
16.552519 17.587748 10.539788 -0.04263471 0.082032844 17.198273 7.6269135 18.01045
5.128225 0.03474322 -0.038738236 -0.06169933 16.455124 13.99884 15.167725 0.10757303
-0.06389685 -0.075261876 0.029352546 11.623928 16.853746 0.021675557 -0.0164029 -0.012627989
0.10565817 0.076379925 3.6021607 0.06275219 0.121779084 -0.010546401 -0.05120665 -0.034603044
-0.121092826
