trike2/models/DQN_Advanced_1500ep.pt/DQN_Main.pt (torch, 333068 bytes, 8 tensors)

fc1.weight f4 [256, 148]
10.621682 15.564187 18.206217 16.961622 14.025024 16.941452 16.635635 15.090576
18.357512 14.824959 16.245293 16.389957 19.210447 -0.032853387 18.282295 15.834494
18.581184 18.578846 13.8948965 0.05765582 0.05786345 18.736837 13.656433 20.096891
14.508545 -0.04497618 0.0724776 -0.020369407 18.604063 12.909372 16.825716 -0.0718368
0.0020240322 0.06969724 0.049251743 13.3718195 17.782309 0.01351051 -0.0029479265 -0.07630775
-0.078748666 0.00055390596 13.556969 -0.0031616092 -0.068390034 0.030400708 0.039084405 -0.0038102418
-0.0022992715 13.065617 11.166533 19.404696 18.475058 13.048595 16.868933 17.358637
12.888632 17.676027 14.598616 15.166168 16.536549 18.018833 -0.06494741 18.84
14.591395 18.340267 16.974308 14.822245 0.082002915 0.017285444 18.732824 14.128491
17.296295 12.869 -0.039426997 0.004386045 -0.02136394 17.290943 16.777233 16.887339
-0.026490021 0.07617719 0.040495344 0.060289286 13.393781 18.499823 -0.023095835 0.05764871
-0.05674507 0.06363826 0.016054608 14.128101 0.013968557 -0.07584015 0.062488444 0.079369
0.012029476 -0.036783762 9.650748 11.535648 17.191744 15.888308 12.116438 13.754367
14.550574 9.158833 16.335255 12.887523 13.118977 15.167391 16.342463 -0.074317515
16.379385 13.322696 15.789101 16.67147 12.796198 0.038346104 0.05659441 17.541729
11.073518 17.145403 10.52127 -0.07387951 -0.010409534 -0.031768292 16.06253 15.819755
16.154327 0.041864276 -0.07387436 0.04704129 0.0006183982 7.51425 16.429916 -0.03140526
0.006826028 -0.01775153 -0.016641617 0.046096884 11.462184 0.009906739 -0.0023006126 -0.06994652
0.037471697 0.010505229 -0.07835361 0.07920041 10.612968 15.627288 18.179483 16.895435
14.0315485 16.909786 16.640476 15.029489 18.473005 14.789885 16.360615 16.36705
19.19845 -0.07580213 18.184095 15.964798 18.549194 18.608461 13.967519 0.07940326
-0.04066858 18.803802 13.55264 19.977293 14.462023 -0.079864345 -0.052640676 -0.009644091
18.516487 13.036578 16.808546 0.02189 0.0636419 -0.017108709 0.07243327 13.329852
17.891895 -0.02232162 0.02728396 0.008945718 0.07824727 0.0014660954 13.565774 0.018648699
-0.04577836 0.045219697 0.006950654 -0.06647309 0.0067564473 13.119714 11.147712 19.49757
18.533274 12.970543 16.725164 17.355932 12.758723 17.73129 14.6975765 15.157324
16.39271 18.05406 -0.025092185 18.829672 14.584298 18.322517 16.986622 14.774696
-0.08129823 0.08142599 18.696106 14.097424 17.45373 12.849357 0.07375952 -0.028043516
-0.058404893 17.26861 16.859766 17.031412 0.06298808 -0.0044227913 -0.081927955 0.02713652
13.508554 18.589571 -0.004730284 -0.040981993 -0.07263822 -0.015142441 -0.05761134 14.110602
-0.076284386 -0.05003943 -0.04540203 0.053489827 0.03717044 0.031327046 9.857042 11.540553
17.108303 15.98964 12.048941 13.644828 14.5455475 9.124046 16.267748 12.834332
00000000: 69f2 2941 e906 7941 55a6 9141 67b1 8741
00000010: 8066 6041 1888 8741 c815 8541 0073 7141
00000020: 2fdc 9241 0833 6d41 5cf6 8141 a21e 8341
00000030: ffae 9941 4691 06bd 2442 9241 165a 7d41
00000040: 44a6 9441 7aa1 9441 7f51 5e41 8228 6c3d
00000050: 3a02 6d3d 0be5 9541 c080 5a41 6fc6 a041
00000060: 0023 6841 f138 38bd 236f 943d bedd a6bc
00000070: 1fd5 9441 ca8c 4e41 119b 8641 2c1f 93bd
00000080: a0a5 043b 6dbd 8e3d 32bc 493d f9f2 5541
00000090: 2b42 8e41 305b 5d3c 0032 41bb 3d47 9cbd
000000a0: fb46 a1bd 0034 113a 58e9 5841 0033 4fbb
000000b0: 1310 8cbd e80a f93c f816 203d 40b5 79bb
000000c0: 60af 16bb c40c 5141 1faa 3241 d13c 9b41
000000d0: ebcc 9341 0cc7 5041 93f3 8641 7dde 8a41
000000e0: d637 4e41 8168 8d41 ee93 6941 a0a8 7241
000000f0: da4a 8441 9226 9041 2603 85bd 52b8 9641
00000100: 5b76 6941 deb8 9241 62cb 8741 ea27 6d41
00000110: 25f1 a73d 349a 8d3c d3dc 9541 4d0e 6241
00000120: d05e 8a41 6de7 4d41 347e 21bd d0b8 8f3b
00000130: 6e03 afbc da53 8a41 c637 8641 4519 8741
00000140: 9a01 d9bc c902 9c3d 72de 253d e6f1 763d
00000150: ed4c 5641 a3ff 9341 7a33 bdbc 0e21 6c3d
00000160: 856d 68bd c754 823d f484 833c b40c 6241
00000170: 60dc 643c 1552 9bbd e2f3 7f3d 378c a23d
00000180: 4817 453c 92aa 16bd 7769 1a41 0492 3841
00000190: b188 8941 8236 7e41 eedc 4141 e311 5c41
000001a0: 27cf 6841 948a 1241 9aae 8241 4b33 4e41
000001b0: 54e7 5141 a2ad 7241 5dbd 8241 c833 98bd
000001c0: fb08 8341 c329 5541 28a0 7c41 2c5f 8541
000001d0: 3abd 4c41 ce10 1d3d 8acf 673d 7655 8c41
000001e0: 212d 3141 c929 8941 1f57 2841 244e 97bd
000001f0: c08c 2abc 781f 02bd 1080 8041 b71d 7d41
00000200: 103c 8141 e079 2b3d 714b 97bd 5eae 403d
00000210: 001c 223a bc74 f040 7870 8341 cda2 00bd
00000220: e0ac df3b a86b 91bc 0054 88bc 16d0 3c3d
00000230: 1b65 3741 e04f 223c e0c5 16bb 1f40 8fbd
00000240: ec7b 193d 201e 2c3c dc77 a0bd d333 a23d
00000250: b8ce 2941 5f09 7a41 956f 9141 da29 8741
00000260: 3981 6041 3e47 8741 b21f 8541 c978 7041
00000270: b7c8 9341 5ea3 6c41 8ae2 8241 b8ef 8241
00000280: 6d96 9941 263e 9bbd 0779 9141 d06f 7f41
00000290: c064 9441 21de 9441 f57a 5f41 2d9e a23d
000002a0: 1994 26bd 306e 9641 9dd7 5841 7fd1 9f41
000002b0: 7264 6741 eb8f a3bd c09d 57bd 4002 1ebc
000002c0: c421 9441 d395 5041 e777 8641 a852 b33c
000002d0: af56 823d 9027 8cbc e557 943d 1347 5541
000002e0: 9a22 8f41 d4db b6bc 9c82 df3c 1091 123c
000002f0: 1b40 a03d 002a c03a 690d 5941 28c5 983c
00000300: 1782 3bbd 4a38 393d 50c2 e33b 0b23 88bd
00000310: 3065 dd3b 59ea 5141 075d 3241 06fb 9b41
00000320: 2544 9441 5887 4f41 23cd 8541 f3d8 8a41
00000330: bb23 4c41 afd9 8d41 4629 6b41 6684 7241
00000340: 4524 8341 b76e 9041 208e cdbc 2ba3 9641
00000350: 4959 6941 8494 9241 9ae4 8741 2865 6c41
00000360: b07f a6bd abc2 a63d a091 9541 0c8f 6141
00000370: 3da1 8b41 f796 4d41 3b0f 973d 84bb e5bc
00000380: f839 6fbd 1d26 8a41 cde0 8641 5540 8841
00000390: e5ff 803d 10ed 90bb d8c9 a7bd 684d de3c
000003a0: 0a23 5841 71b7 9441 8000 9bbb bcdc 27bd
000003b0: 59c3 94bd 0018 78bc def9 6bbd 07c5 6141
000003c0: fd3a 9cbd 25f6 4cbd 7bf7 39bd 2618 5b3d
000003d0: 0840 183d ca50 003d 72b6 1d41 1ba6 3841
000003e0: cedd 8841 91d5 7f41 76c8 4041 3751 5a41
000003f0: 90ba 6841 18fc 1141 5924 8241 6d59 4d41

fc1.bias f4 [256]
20.191872 20.063211 20.07975 20.135782 20.099064 20.022432 20.192204 20.086979
20.186882 20.146193 20.034124 20.140915 20.158949 20.16295 20.18205 20.103241
20.071697 20.161966 20.174091 20.021307 20.058846 20.11951 20.152529 20.139847
20.015842 20.17156 20.181284 20.08482 20.132135 20.089018 20.168472 20.074156
20.159834 20.134195 20.044466 20.07706 20.155106 20.134129 20.10602 20.146961
20.175755 20.035442 20.112001 20.117538 20.175386 20.063717 20.139523 20.032642
20.042421 20.128191 20.125439 20.142502 20.161207 20.184513 20.033663 20.067404
20.161306 20.16086 20.1851 20.0656 20.03566 20.046772 20.14679 20.045485
20.025465 20.154121 20.143124 20.088015 20.107658 20.056084 20.163511 20.056715
20.079462 20.101915 20.157522 20.089827 20.126305 20.132668 19.974167 20.07716
20.19336 20.174202 20.109241 20.15686 20.096464 20.16795 20.129126 20.189697
20.15528 20.143723 20.10708 20.122334 20.04576 20.095482 20.062689 20.145767
20.02647 20.117485 20.088469 20.08748 20.147163 19.973677 20.029472 20.136234
20.079346 20.137167 20.074604 20.154806 20.139376 20.033216 20.097012 20.14982
20.124357 20.09869 20.122435 20.159283 20.054064 20.091654 20.084139 20.10891
20.05096 19.994516 20.180624 20.14042 20.110296 20.081705 20.035183 20.168947
20.068094 20.105051 20.055387 20.180578 20.01845 20.18105 20.126257 20.188656
20.184023 20.05199 20.091227 20.163147 20.110912 20.017746 20.020456 20.07072
19.995827 20.027023 20.140894 20.11565 20.153841 20.076157 20.144922 20.092607
20.048008 20.133512 20.098698 20.05196 20.095407 20.09938 20.1284 20.039637
20.090544 20.005093 20.059784 20.140476 20.10572 20.086578 20.15974 20.190928
20.09029 20.178236 20.118702 20.166607 20.129293 20.169876 20.096607 20.02208
20.186213 20.086351 20.184723 20.038376 20.07467 20.064497 20.178017 20.10328
20.108927 20.128883 20.104378 20.050674 20.027275 20.07905 20.176184 20.171879
20.187664 20.047888 20.135523 20.081785 20.077343 20.111975 20.112322 20.10459
20.180819 20.065632 20.112757 19.990395 20.097118 20.149544 20.138235 20.1878
20.11517 20.075565 20.07357 20.04479 20.199644 20.193466 20.037064 20.152025
20.1467 20.15296 20.045122 20.084108 20.129025 20.076447 20.208292 20.070616
20.072563 19.994225 20.115185 20.188547 20.1785 20.11475 20.09845 20.039259
20.029524 20.175846 20.175955 20.10696 20.106264 20.132328 20.185942 20.172724
20.116507 20.051928 20.14922 20.111794 20.157787 20.024439 20.091394 20.065025
20.086039 20.045235 20.168982 20.165396 20.147486 20.056871 20.139778 20.12372
00000000: f488 a141 7581 a041 54a3 a041 1516 a141
00000010: e2ca a041 f12d a041 a289 a141 22b2 a041
00000020: bc7e a141 672b a141 e345 a041 9820 a141
00000030: 8745 a141 b94d a141 d774 a141 70d3 a041
00000040: d692 a041 b54b a141 8a64 a141 a32b a041
00000050: 8478 a041 c2f4 a041 6138 a141 681e a141
00000060: 7220 a041 5b5f a141 4573 a141 b6ad a041
00000070: 9d0e a141 4fb6 a041 0859 a141 df97 a041
00000080: 5747 a141 d512 a141 115b a041 d29d a041
00000090: a83d a141 b212 a141 21d9 a041 fa2c a141
000000a0: f267 a141 9648 a041 61e5 a041 b8f0 a041
000000b0: 3167 a141 7e82 a041 be1d a141 da42 a041
000000c0: e156 a041 8906 a141 e600 a141 d823 a141
000000d0: 274a a141 e279 a141 f144 a041 0b8a a041
000000e0: 5b4a a141 7149 a141 167b a141 5986 a041
000000f0: 0849 a041 ca5f a041 a02c a141 275d a041
00000100: 2734 a041 a43b a141 1e25 a141 41b4 a041
00000110: 7cdc a041 dc72 a041 df4e a141 2774 a041
00000120: bda2 a041 b9d0 a041 9b42 a141 f7b7 a041
00000130: ac02 a141 b40f a141 18cb 9f41 069e a041
00000140: 008c a141 c464 a141 badf a041 4041 a141
00000150: 8fc5 a041 f657 a141 7308 a141 8084 a141
00000160: 033e a141 5826 a141 4ddb a041 8afa a041
00000170: b75d a041 8cc3 a041 6380 a041 882a a141
00000180: 3636 a041 9cf0 a041 2fb5 a041 29b3 a041
00000190: 642d a141 17ca 9f41 5c3c a041 0217 a141
000001a0: 80a2 a041 eb18 a141 ca98 a041 0b3d a141
000001b0: 711d a141 0744 a041 aec6 a041 d532 a141
000001c0: affe a041 1eca a041 bffa a041 3646 a141
000001d0: b96e a041 b5bb a041 51ac a041 0cdf a041
000001e0: 5e68 a041 c5f4 9f41 eb71 a141 951f a141
000001f0: e3e1 a041 55a7 a041 0e48 a041 015a a141
00000200: 758b a041 25d7 a041 6f71 a041 d371 a141
00000210: c925 a041 ca72 a141 9302 a141 5e82 a141
00000220: e178 a141 7a6a a041 d5ba a041 204e a141
00000230: 26e3 a041 5824 a041 e529 a041 d690 a041
00000240: 74f7 9f41 5837 a041 8d20 a141 daec a041
00000250: 113b a141 f89b a041 cd28 a141 a9bd a041
00000260: 5262 a041 6f11 a141 22ca a041 6a6a a041
00000270: 65c3 a041 88cb a041 f706 a141 2d51 a041
00000280: 6fb9 a041 6e0a a041 707a a041 b21f a141
00000290: 84d8 a041 50b1 a041 2647 a141 0587 a141
000002a0: eab8 a041 076d a141 1af3 a041 3655 a141
000002b0: cb08 a141 e85b a141 dac5 a041 382d a041
000002c0: 5d7d a141 d9b0 a041 507a a141 984e a041
000002d0: ed98 a041 1784 a041 946c a141 84d3 a041
000002e0: 15df a041 f407 a141 c4d5 a041 c867 a041
000002f0: dc37 a041 e5a1 a041 d368 a141 0260 a141
00000300: 5680 a141 1362 a041 8d15 a141 7fa7 a041
00000310: 669e a041 53e5 a041 09e6 a041 33d6 a041
00000320: 5172 a141 6a86 a041 ede6 a041 54ec 9f41
00000330: e6c6 a041 4432 a141 1b1b a141 9d80 a141
00000340: deeb a041 c29a a041 ac96 a041 bb5b a041
00000350: df98 a141 388c a141 e84b a041 5937 a141
00000360: 712c a141 4339 a141 695c a041 41ac a041
00000370: 3e08 a141 909c a041 95aa a141 9f90 a041
00000380: 9c94 a041 2cf4 9f41 e6eb a041 2582 a141
00000390: 916d a141 02eb a041 a0c9 a041 6750 a041
000003a0: 773c a041 2268 a141 5b68 a141 0edb a041
000003b0: a1d9 a041 020f a141 cf7c a141 bd61 a141
000003c0: 9bee a041 596a a041 9a31 a141 f4e4 a041
000003d0: 2643 a141 0d32 a041 2dbb a041 2c85 a041
000003e0: 35b0 a041 a45c a041 135a a141 bb52 a141
000003f0: 0d2e a141 7974 a041 441e a141 61fd a041

fc2.weight f4 [128, 256]
20.05653 19.961605 20.053818 20.092394 20.011421 20.107632 20.128384 20.108488
20.011885 20.135813 19.963223 20.05497 20.096315 20.027876 20.102507 20.063906
20.059319 20.039606 20.013456 19.849768 20.05313 20.089495 20.041895 19.939266
20.055882 20.087927 20.088755 20.093807 20.041357 20.010368 19.977407 20.1617
20.043005 20.064388 20.023396 20.268276 20.121237 20.148224 20.007269 20.1525
20.075361 20.007666 20.074392 20.070099 20.136944 20.090101 20.02101 19.950079
19.888086 20.072079 19.741655 20.070177 20.0576 20.071129 20.145023 20.009325
20.017893 20.029934 20.112318 19.961136 20.082846 20.04793 20.125458 20.065496
19.9851 20.062294 20.057018 19.969526 20.065693 20.183397 20.017864 20.036308
20.011023 20.101955 20.061573 19.967926 20.106337 20.078142 20.040888 20.063168
20.076553 20.044855 20.19954 20.045918 19.969263 20.0256 20.024567 19.982807
20.035353 20.159458 20.002409 20.108181 20.019758 20.185936 20.095276 20.051517
20.033728 19.986565 20.0262 20.07455 20.053095 20.255575 19.982967 20.069178
20.052404 20.070154 20.071774 20.138979 19.97056 20.086128 20.054893 20.086216
20.042717 20.145784 19.993628 20.105495 19.996122 20.062449 20.04214 20.01695
20.072006 20.148014 20.074686 20.05619 19.998793 19.880707 20.107208 19.96295
20.01582 20.12541 20.18566 20.13045 20.079699 20.074224 20.025436 20.045496
20.083128 20.092205 20.073538 19.970985 19.968555 19.970755 20.041346 20.141722
20.074713 20.124311 20.071096 20.066797 20.10766 20.012466 20.128378 20.10747
20.129896 19.994177 20.06388 19.954443 20.059599 19.986374 20.046722 20.050407
20.109264 20.170563 20.077717 20.136827 20.09608 20.174128 20.085127 20.051994
20.048794 19.997013 20.029127 20.068521 20.103567 19.97254 19.940441 19.906492
19.978062 20.064802 19.989624 19.908955 20.033203 20.06302 20.04231 19.914944
19.982073 19.990044 20.06735 20.17912 20.078098 20.05032 20.074295 20.093262
20.011045 19.897402 20.02865 20.060844 20.089788 20.158773 19.97669 20.153877
20.109142 20.009106 20.038462 20.127975 20.075497 20.101173 20.044079 19.994007
20.110237 19.99937 20.007494 20.039555 20.005884 20.03262 19.991556 20.053553
20.103062 19.99163 20.058664 20.094368 20.126345 20.091242 20.02984 20.080704
20.050224 20.135073 20.117702 19.978413 20.05082 19.984104 20.092527 20.075462
20.14883 20.114265 20.019947 20.04701 20.022114 20.012108 20.053865 20.04432
20.055647 19.989836 20.01698 20.092985 19.936014 20.008425 19.999327 19.971777
20.238405 19.99932 20.101616 20.08665 20.067894 20.071606 20.075224 20.131592
00000000: c673 a041 5eb1 9f41 386e a041 39bd a041
00000010: 6417 a041 6edc a041 ee06 a141 2fde a041
00000020: 5718 a041 2516 a141 aeb4 9f41 9470 a041
00000030: 41c5 a041 1739 a041 efd1 a041 e182 a041
00000040: 7c79 a041 1d51 a041 8f1b a041 53cc 9e41
00000050: cf6c a041 49b7 a041 cd55 a041 9e83 9f41
00000060: 7272 a041 13b4 a041 c5b5 a041 1ec0 a041
00000070: b354 a041 3c15 a041 bbd1 9f41 294b a141
00000080: 1358 a041 de83 a041 ea2f a041 6e25 a241
00000090: 4bf8 a041 902f a141 e30e a041 5238 a141
000000a0: 579a a041 b30f a041 5b98 a041 908f a041
000000b0: 7618 a141 87b8 a041 072b a041 c399 9f41
000000c0: cd1a 9f41 9e93 a041 e9ee 9d41 b98f a041
000000d0: f775 a041 ac91 a041 0229 a141 1913 a041
000000e0: a524 a041 4e3d a041 07e6 a041 68b0 9f41
000000f0: aba9 a041 2962 a041 f000 a141 2386 a041
00000100: 7ce1 9f41 947f a041 c674 a041 97c1 9f41
00000110: 8a86 a041 9977 a141 9624 a041 5c4a a041
00000120: 9316 a041 ced0 a041 1a7e a041 50be 9f41
00000130: c7d9 a041 09a0 a041 bd53 a041 5e81 a041
00000140: c89c a041 dd5b a041 a898 a141 0a5e a041
00000150: 0dc1 9f41 6e34 a041 5032 a041 cadc 9f41
00000160: 6748 a041 9246 a141 ef04 a041 8edd a041
00000170: 7728 a041 cc7c a141 20c3 a041 8269 a041
00000180: 1345 a041 7ce4 9f41 a835 a041 ae98 a041
00000190: bd6c a041 6b0b a241 1edd 9f41 ad8d a041
000001a0: 536b a041 ad8f a041 fe92 a041 a11c a141
000001b0: b5c3 9f41 64b0 a041 6c70 a041 92b0 a041
000001c0: 7c57 a041 912a a141 f3f2 9f41 0ed8 a041
000001d0: 0ff8 9f41 e57f a041 4d56 a041 b722 a041
000001e0: 7893 a041 222f a141 f598 a041 1473 a041
000001f0: 87fd 9f41 b00b 9f41 90db a041 1fb4 9f41
00000200: 6620 a041 d700 a141 3b7c a141 290b a141
00000210: 39a3 a041 0398 a041 1834 a041 2d5d a041
00000220: 3faa a041 d6bc a041 9b96 a041 94c4 9f41
00000230: 9abf 9f41 1bc4 9f41 ad54 a041 3f22 a141
00000240: 0399 a041 97fe a041 9b91 a041 cd88 a041
00000250: 7ddc a041 8819 a041 eb06 a141 19dc a041
00000260: 070a a141 13f4 9f41 d482 a041 b3a2 9f41
00000270: 0f7a a041 18e4 9f41 b05f a041 3c67 a041
00000280: c6df a041 505d a141 2a9f a041 3918 a141
00000290: c6c4 a041 9d64 a141 57ae a041 7c6a a041
000002a0: ee63 a041 e2f9 9f41 a73b a041 558c a041
000002b0: 1bd4 a041 c3c7 9f41 0686 9f41 7f40 9f41
000002c0: 12d3 9f41 b784 a041 c0ea 9f41 8a45 9f41
000002d0: 0044 a041 1181 a041 a756 a041 ce51 9f41
000002e0: 49db 9f41 9ceb 9f41 ef89 a041 d66e a141
000002f0: f29f a041 0e67 a041 2898 a041 00bf a041
00000300: 9f16 a041 e12d 9f41 ad3a a041 9c7c a041
00000310: e3b7 a041 2b45 a141 43d0 9f41 243b a141
00000320: 86df a041 a612 a041 c54e a041 1806 a141
00000330: 9e9a a041 34cf a041 465a a041 baf3 9f41
00000340: c4e1 a041 b6fe 9f41 590f a041 0251 a041
00000350: 0d0c a041 ce42 a041 b5ee 9f41 ad6d a041
00000360: 12d3 a041 dcee 9f41 2578 a041 44c1 a041
00000370: c102 a141 ddba a041 1d3d a041 48a5 a041
00000380: dc66 a041 a114 a141 0ef1 a041 cad3 9f41
00000390: 1468 a041 72df 9f41 7fbd a041 8c9a a041
000003a0: ce30 a141 04ea a041 da28 a041 4760 a041
000003b0: 4a2d a041 cc18 a041 516e a041 c45a a041
000003c0: f771 a041 2feb 9f41 c622 a041 6fbe a041
000003d0: f57c 9f41 4111 a041 9ffe 9f41 33c6 9f41
000003e0: 41e8 a141 9bfe 9f41 1cd0 a041 76b1 a041
000003f0: 0c8b a041 a692 a041 0f9a a041 800d a141

fc2.bias f4 [128]
19.530329 19.419641 19.497665 19.42255 19.464518 19.49881 19.45978 19.462856
19.481462 19.510586 19.43442 19.49482 19.51138 19.4534 19.447037 -0.020164058
19.470764 19.501009 19.532602 19.501982 19.520266 19.449854 -0.017793993 0.065214716
19.454365 19.451765 19.513845 -0.060629085 -0.02809104 19.501524 -0.067218535 19.486126
19.418713 19.49086 19.424488 19.37736 19.43815 19.435104 0.018290458 0.01000176
19.464914 -0.04510828 19.313278 19.424276 19.504091 -0.05502648 19.46405 -0.020021066
19.460583 19.44684 -0.05583619 0.015939044 19.50258 19.454552 19.463358 19.43859
19.51801 19.430195 19.380241 19.496397 -0.044202663 19.462479 19.50651 -0.020378023
19.421122 19.476717 19.463121 19.40311 19.506855 19.355423 19.440807 19.464762
19.33185 19.513863 19.462446 19.462526 19.432083 19.473282 -0.01952877 19.387453
19.48809 19.495419 19.41638 19.503708 -0.07557119 19.462116 19.391104 19.387724
19.515038 19.388365 19.49072 19.456877 0.02502614 19.352583 19.417355 19.40625
19.414248 19.441572 19.492096 19.357946 19.436344 19.411486 19.445818 19.488846
19.385033 19.446125 19.479748 19.487324 19.501936 19.41368 19.407724 19.4932
19.50714 19.445131 19.457474 19.455093 -0.055091515 19.457123 19.49212 19.50812
19.395634 19.429775 19.429544 19.49631 19.512758 19.440605 19.45871 19.460447
00000000: 1d3e 9c41 6d5b 9b41 38fb 9b41 6261 9b41
00000010: 55b7 9b41 90fd 9b41 a1ad 9b41 eeb3 9b41
00000020: 09da 9b41 ae15 9c41 b179 9b41 64f5 9b41
00000030: 4e17 9c41 90a0 9b41 8893 9b41 182f a5bc
00000040: 20c4 9b41 1102 9c41 c542 9c41 0f04 9c41
00000050: 8129 9c41 4d99 9b41 b5c4 91bc 4b8f 853d
00000060: 8aa2 9b41 379d 9b41 5b1c 9c41 3456 78bd
00000070: 2e1f e6bc 1f03 9c41 dfa9 89bd 96e3 9b41
00000080: 8659 9b41 48ed 9b41 5a65 9b41 d504 9b41
00000090: 5581 9b41 187b 9b41 dfd5 953c 6cde 233c
000000a0: 25b8 9b41 76c3 38bd 9881 9a41 eb64 9b41
000000b0: 6108 9c41 7263 61bd 60b6 9b41 3803 a4bc
000000c0: 46af 9b41 2193 9b41 7db4 64bd 9992 823c
000000d0: 4905 9c41 eca2 9b41 f5b4 9b41 3b82 9b41
000000e0: e224 9c41 0a71 9b41 bc0a 9b41 9ff8 9b41
000000f0: da0d 35bd 28b3 9b41 550d 9c41 d0ef a6bc
00000100: 755e 9b41 51d0 9b41 79b4 9b41 9239 9b41
00000110: 0a0e 9c41 e8d7 9a41 c686 9b41 d5b7 9b41
00000120: a1a7 9a41 641c 9c41 17b3 9b41 41b3 9b41
00000130: e874 9b41 48c9 9b41 cdfa 9fbc 8119 9b41
00000140: 9ce7 9b41 9ef6 9b41 bf54 9b41 9807 9c41
00000150: 11c5 9abd 6ab2 9b41 fb20 9b41 0f1a 9b41
00000160: cc1e 9c41 5f1b 9b41 ffec 9b41 afa7 9b41
00000170: 9f03 cd3c 17d2 9a41 be56 9b41 0040 9b41
00000180: 6150 9b41 5788 9b41 d0ef 9b41 13dd 9a41
00000190: a27d 9b41 b94a 9b41 0991 9b41 28e9 9b41
000001a0: 8c14 9b41 aa91 9b41 86d6 9b41 0ae6 9b41
000001b0: f703 9c41 374f 9b41 0543 9b41 13f2 9b41
000001c0: 9f0e 9c41 a18f 9b41 e8a8 9b41 08a4 9b41
000001d0: a4a7 61bd 30a8 9b41 ddef 9b41 a110 9c41
000001e0: 422a 9b41 2e70 9b41 b56f 9b41 71f8 9b41
000001f0: 211a 9c41 5c86 9b41 70ab 9b41 ffae 9b41

fc3.weight f4 [64, 128]
19.990503 20.11707 20.063068 20.042112 19.992104 20.126917 19.949911 20.136919
19.953846 20.014164 20.107815 20.057692 19.965117 20.03725 20.132423 -0.06770404
20.097326 20.004622 19.992365 19.998663 20.128778 20.069113 0.044047043 -0.08886682
20.068874 20.134243 20.02124 -0.025208883 0.030101128 20.017715 -0.075385384 20.017687
19.949547 20.04972 20.003208 20.063227 20.039927 19.961245 -0.07023647 -0.046331435
20.0333 0.068071395 20.01695 20.123741 20.06082 0.05783483 20.071678 -0.07414252
20.040087 20.119217 -0.04901709 0.027577972 19.982607 20.0372 20.020952 20.082695
19.975056 20.025648 19.981037 19.994598 -0.0020188107 20.055853 20.094639 -0.015145302
20.024702 20.1198 20.04804 19.953836 20.091871 19.907017 20.105448 19.998785
19.932951 19.969107 19.947424 19.988846 20.061121 19.961445 0.07715713 20.031042
20.099188 20.080412 20.097616 20.11824 0.005326944 20.002378 20.129568 20.103855
19.958717 20.072737 19.992912 20.108986 -0.07102011 20.025013 20.069948 20.087856
19.9238 20.046051 20.081783 19.976488 19.890924 20.039501 20.001436 19.969328
20.13505 19.974453 20.099024 19.994848 19.96328 20.074312 20.053019 20.043453
19.988596 20.083174 20.048834 20.122618 0.082757734 20.061237 19.995827 20.096369
20.005365 20.043905 19.995867 20.057173 19.957794 19.984842 20.104595 19.99286
-0.07691579 0.047493063 0.026676135 0.03961292 -0.01445584 -0.07010838 -0.028078347 -0.0468975
-0.079397865 -0.028851252 -0.06941263 -0.0010906989 -0.019079901 0.027960077 -0.07646726 5.9187198e-05
0.024918735 -0.060309015 -0.05349909 -0.06676761 -0.08993953 0.011910447 0.0733112 -0.055212718
-0.0700547 -0.075116426 0.053967454 0.02724354 -0.08331953 0.02698262 0.004088383 0.05100987
-0.012612609 -0.031542197 0.07237781 -0.015514866 0.0691121 -0.065421835 -0.034783993 0.014197228
-0.058127813 0.042365674 0.07606528 -0.03937855 -0.030265898 0.028667439 -0.0069941957 0.057171993
0.048520494 -0.031280037 -0.088122375 0.022635937 0.06836699 0.041741826 -0.044240322 -0.03149082
-0.033395715 0.03904527 -0.03608715 -0.07810141 0.024372332 0.06993492 0.059732027 0.05391147
0.028177988 -0.023677636 0.007372771 -0.030988317 -0.08158074 -0.090005785 0.01882253 -0.09546428
0.04951284 0.022720102 -0.0024340264 -0.029983707 -0.015311829 -0.06521571 0.07369496 0.014476334
0.06960393 0.0628523 -0.01371333 0.059388887 0.005906998 -0.028883304 0.01271175 -0.06631938
-0.09511612 -0.004372188 0.05496246 -0.0658669 0.0100530675 0.09059828 -0.019674823 -0.043538544
0.04704904 0.058581438 0.06649368 0.044660173 -0.09402911 -0.09659854 -0.09485785 0.055143423
0.032969706 0.016297655 -0.081978075 -0.0008563208 -0.047959335 -0.021096878 -0.011063814 -0.07092705
-0.081644796 0.015030674 -0.053374227 0.08996731 -0.08309973 0.0010793065 -0.039827786 -0.080121525
-0.07927353 0.05874622 0.057116352 -0.033641458 0.067823716 0.050003584 -0.043306917 0.015299036
00000000: 8dec 9f41 c2ef a041 2a81 a041 3f56 a041
00000010: d4ef 9f41 ed03 a141 6b99 9f41 6918 a141
00000020: 7aa1 9f41 021d a041 cedc a041 2776 a041
00000030: 8fb8 9f41 4a4c a041 340f a141 6aa8 8abd
00000040: 53c7 a041 7709 a041 5df0 9f41 43fd 9f41
00000050: bd07 a141 8b8d a041 ac6a 343d cfff b5bd
00000060: 0e8d a041 ee12 a141 802b a041 dc82 cebc
00000070: a496 f63c 4824 a041 a763 9abd 3924 a041
00000080: ac98 9f41 d465 a041 9206 a041 7d81 a041
00000090: c551 a041 a1b0 9f41 23d8 8fbd 08c6 3dbd
000000a0: 3344 a041 0469 8b3d b722 a041 6cfd a041
000000b0: 8f7c a041 37e4 6c3d cc92 a041 09d8 97bd
000000c0: 1952 a041 28f4 a041 25c6 48bd 33eb e13c
000000d0: 61dc 9f41 304c a041 e92a a041 5ca9 a041
000000e0: eacc 9f41 8734 a041 2ad9 9f41 f0f4 9f41
000000f0: 064e 04bb 6372 a041 d2c1 a041 0024 78bc
00000100: 9732 a041 5af5 a041 6362 a041 75a1 9f41
00000110: 27bc a041 9241 9f41 f5d7 a041 83fd 9f41
00000120: af76 9f41 bbc0 9f41 5394 9f41 28e9 9f41
00000130: 2d7d a041 0ab1 9f41 8f04 9e3d 933f a041
00000140: 23cb a041 afa4 a041 ebc7 a041 28f2 a041
00000150: a58d ae3b df04 a041 5b09 a141 b2d4 a041
00000160: 74ab 9f41 f794 a041 7cf1 9f41 34df a041
00000170: fe72 91bd 3a33 a041 418f a041 eeb3 a041
00000180: f163 9f41 505e a041 7ea7 a041 d9cf 9f41
00000190: 9d20 9f41 e650 a041 f102 a041 2fc1 9f41
000001a0: 9514 a141 aecb 9f41 cdca a041 73f5 9f41
000001b0: ccb4 9f41 3198 a041 956c a041 fe58 a041
000001c0: a5e8 9f41 57aa a041 0364 a041 1ffb a041
000001d0: e37c a93d 6a7d a041 74f7 9f41 5dc5 a041
000001e0: fd0a a041 eb59 a041 89f7 9f41 1775 a041
000001f0: 90a9 9f41 f5e0 9f41 36d6 a041 61f1 9f41
00000200: 0786 9dbd 1688 423d e987 da3c 2841 223d
00000210: 30d8 6cbc fb94 8fbd 9004 e6bc 9817 40bd
00000220: 599b a2bd 7659 ecbc 3528 8ebd c8f5 8eba
00000230: 744d 9cbc 880c e53c de9a 9cbd c53f 7838
00000240: 6022 cc3c 9606 77bd dd21 5bbd 75bd 88bd
00000250: 3732 b8bd 0924 433c 2f24 963d bb26 62bd
00000260: d778 8fbd a4d6 99bd fa0c 5d3d d82d df3c
00000270: 6ea3 aabd a80a dd3c d8f7 853b baef 503d
00000280: 1ea5 4ebc 6432 01bd d13a 943d 1132 7ebc
00000290: a58a 8d3d e2fb 85bd a979 0ebd 7d9b 683c
000002a0: 6e17 6ebd a187 2d3d 1dc8 9b3d 674b 21bd
000002b0: 30f0 f7bc fad7 ea3c 912f e5bb 2e2d 6a3d
000002c0: 6dbd 463d 7f1f 00bd 8179 b4bd 006f b93c
000002d0: fe03 8c3d 7af9 2a3d 5735 35bd 85fc 00bd
000002e0: f2c9 08bd efed 1f3d 1fd0 13bd a2f3 9fbd
000002f0: 7ca8 c73c 0a3a 8f3d 92a9 743d 46d2 5c3d
00000300: 86d5 e63c 9af7 c1bc 4997 f13b 36db fdbc
00000310: ce13 a7bd f454 b8bd b531 9a3c c782 c3bd
00000320: facd 4a3d 821f ba3c 3084 1fbb 64a0 f5bc
00000330: 77de 7abc d08f 85bd 62ed 963d 252e 6d3c
00000340: 818c 8e3d b5b8 803d e0ad 60bc c341 733d
00000350: 7e8f c13b ae9c ecbc f244 503c 75d2 87bd
00000360: 3ecc c2bd 9244 8fbb 5120 613d 3ae5 86bd
00000370: 9fb5 243c 978b b93d 182d a1bc 7955 32bd
00000380: 7fb6 403d 17f3 6f3d d72d 883d 96ed 363d
00000390: 5692 c0bd 75d5 c5bd d544 c2bd 12de 613d
000003a0: 3e0b 073d a982 853c 1fe4 a7bd b77a 60ba
000003b0: 0271 44bd 5cd3 acbc 0045 35bc 3442 91bd
000003c0: 6335 a7bd 3743 763c ef9e 5abd c840 b83d
000003d0: 3130 aabd 8477 8d3a 7622 23bd c116 a4bd
000003e0: 295a a2bd e09f 703d d6f2 693d a0cb 09bd
000003f0: 29e7 8a3d 8fd0 4c3d 9862 31bd cfa8 7a3c

fc3.bias f4 [64]
18.530756 0.044417396 18.45205 18.41215 18.395395 18.50732 18.557367 18.410105
18.508947 18.551218 18.411707 18.456844 -0.07330519 18.51543 0.04266036 -0.10161873
18.383514 18.295403 18.54415 18.565357 -0.095028505 18.511904 18.364702 -0.047230043
18.589457 18.671766 18.489279 -0.030642588 18.521523 18.484118 18.439522 18.326015
-0.08505237 18.610756 -0.084321566 0.0055833934 18.5378 18.508764 18.621765 18.488012
18.517242 -0.08544027 18.53522 0.02909112 18.584015 18.41622 0.023990622 18.503792
18.422117 18.58969 18.441053 18.58456 18.45425 -0.08647203 -0.05205039 18.461748
18.33504 18.550743 -0.07135507 18.49891 18.614862 -0.08821013 0.038002748 0.06367719
00000000: fd3e 9441 04ef 353d cc9d 9341 154c 9341
00000010: c529 9341 fe0e 9441 7d75 9441 e547 9341
00000020: 5312 9441 e568 9441 2d4b 9341 9ea7 9341
00000030: 0821 96bd 9a1f 9441 a1bc 2e3d 7b1d d0bd
00000040: 7011 9341 fc5c 9241 6b5a 9441 da85 9441
00000050: 4e9e c2bd 6118 9441 e9ea 9241 4a74 41bd
00000060: 35b7 9441 c75f 9541 0bea 9341 2a06 fbbc
00000070: 142c 9441 79df 9341 2484 9341 ae9b 9241
00000080: f02f aebd d4e2 9441 c9b0 acbd e6f4 b63b
00000090: 6a4d 9441 f311 9441 60f9 9441 73e7 9341
000000a0: 5023 9441 4ffb aebd 2148 9441 8050 ee3c
000000b0: 10ac 9441 6b54 9341 fb87 c43c c407 9441
000000c0: 7f60 9341 afb7 9441 4787 9341 2ead 9441
000000d0: 4ea2 9341 3f18 b1bd ca32 55bd a9b1 9341
000000e0: 29ae 9241 ec67 9441 9b22 92bd c5fd 9341
000000f0: 3deb 9441 83a7 b4bd c5a8 1b3d 3069 823d

fc4.weight f4 [49, 64]
1.9419698 0.03316889 1.6974753 1.7510223 1.7956251 1.8496306 1.922189 1.8982697
1.9098723 1.7762988 1.8242426 1.9212171 0.08468552 1.8285644 0.12010738 0.023749044
1.8760408 1.8806039 1.7587656 1.7188331 -0.0770919 1.9499145 1.7648077 -0.119914204
1.6937722 1.7035592 1.8478947 0.11587112 1.9063462 1.871801 1.7931796 1.7795342
0.050068673 1.7819402 -0.088863164 -0.05365519 1.7359107 1.8860558 1.7468077 1.8694272
1.9246835 0.002083689 1.9197897 -0.11236279 1.831247 1.9575773 0.035228476 1.9109331
1.8962506 1.9000614 1.6953961 1.8335981 1.9241695 -0.09114647 -0.04920487 1.8787925
1.7530261 1.8806667 -0.077089645 1.6998514 1.8336917 0.020975187 -0.02872049 -0.09812628
6.0086904 -0.03299331 5.8566084 5.936687 5.89093 6.0003138 5.8759108 6.036029
6.010561 5.9817915 5.8792996 5.855176 0.11373535 5.8080335 0.11739871 0.08029781
5.8286195 5.9019756 5.861443 6.0980787 -0.06816237 5.919893 5.9945564 0.018047974
6.128228 6.016914 5.988994 0.05339709 5.7915416 5.8690286 5.9499865 5.648598
0.12087113 6.0488873 0.029222816 0.0776214 6.058045 5.7956166 5.8504 6.0003843
5.993553 -0.046068594 6.0256667 -0.02893253 5.836474 5.8013906 -0.10944781 5.9320087
5.996845 6.0923896 6.0162973 5.9110684 5.9003983 -0.12013833 0.036670238 5.894546
5.935665 5.956368 -0.01537999 5.9723883 5.807778 0.091395795 0.021625096 0.10286598
17.471605 -0.038421474 17.392141 17.381546 17.473654 17.504349 17.355892 17.352602
17.410784 17.467 17.435957 17.40043 -0.003456995 17.324812 0.1236857 0.058207706
17.378193 17.372757 17.451252 17.470999 0.06352785 17.343489 17.336006 -0.10708779
17.40476 17.529274 17.504145 -0.055709586 17.396269 17.361235 17.511099 17.518127
-0.060471456 17.50113 -0.057753325 0.016298631 17.390923 17.34014 17.433788 17.418594
17.30269 0.013706073 17.511492 0.042412568 17.334919 17.425697 0.116124325 17.343725
17.460773 17.413591 17.297546 17.440626 17.235615 0.08892548 0.108163044 17.450594
17.296824 17.509941 0.037774105 17.524704 17.549765 0.07636294 0.09532104 0.07231855
11.850837 0.06472553 11.807009 11.810081 11.788038 11.747101 11.843239 11.649257
11.691797 11.772689 11.83101 11.730998 0.05797191 11.829864 -0.08712404 -0.058119826
11.692536 11.6308365 11.79914 11.631921 -0.04858154 11.65368 11.762373 -0.003909245
11.637184 11.853031 11.746928 -0.021551818 11.818511 11.774171 11.6301 11.597905
0.061505616 11.806062 0.069019616 -0.048556082 11.745648 11.631605 11.862252 11.705747
11.797004 0.111224696 11.827038 -0.10690973 11.845381 11.756215 0.11163878 11.705228
11.63185 11.812909 11.847231 11.814261 11.695493 -0.123859614 -0.020802453 11.833333
11.767356 11.721245 -0.03556219 11.8698635 11.864619 0.09822044 0.010175315 0.027018636
00000000: 7792 f83f 1adc 073d df46 d93f 8021 e03f
00000010: 0bd7 e53f b2c0 ec3f 4a0a f63f 80fa f23f
00000020: b276 f43f c25d e33f c880 e93f 71ea f53f
00000030: 9a6f ad3d 660e ea3f dcfa f53d 5b8d c23c
00000040: 1b22 f03f a1b7 f03f 3b1f e13f b902 dc3f
00000050: 5ce2 9dbd cc96 f93f 38e5 e13f 9495 f5bd
00000060: 87cd d83f 3a0e da3f d087 ec3f d64d ed3d
00000070: 2703 f43f 2d97 ef3f e986 e53f c7c7 e33f
00000080: cf14 4d3d 9e16 e43f e4fd b5bd 8bc5 5bbd
00000090: 5232 de3f 476a f13f 6597 df3f 6449 ef3f
000000a0: 075c f63f 808e 083b abbb f53f 761e e6bd
000000b0: 4d66 ea3f e591 fa3f bc4b 103d 7599 f43f
000000c0: 57b8 f23f 3635 f33f bd02 d93f 58b3 ea3f
000000d0: 304b f63f 00ab babd 0c8b 49bd 467c f03f
000000e0: 2963 e03f b0b9 f03f 2de1 9dbd bb94 d93f
000000f0: 69b6 ea3f 28d4 ab3c 3c47 ebbc 6ef6 c8bd
00000100: 3147 c040 fe23 07bd 5669 bb40 57f9 bd40
00000110: 8082 bc40 9202 c040 7607 bc40 2627 c140
00000120: 8456 c040 d66a bf40 3923 bc40 9a5d bb40
00000130: 14ee e83d 69db b940 bc6e f03d 2e73 a43d
00000140: 0d84 ba40 fcdc bc40 f190 bb40 7623 c340
00000150: b698 8bbd c36f bd40 68d3 bf40 58d9 933c
00000160: 721a c440 8f8a c040 d7a5 bf40 e8b6 5a3d
00000170: 4f54 b940 15cf bb40 4a66 be40 51c1 b440
00000180: 488b f73d 7c90 c140 b064 ef3c f8f7 9e3d
00000190: 81db c140 b175 b940 7a36 bb40 2603 c040
000001a0: 30cb bf40 6cb2 3cbd 43d2 c040 ea03 edbc
000001b0: 65c4 ba40 fea4 b940 2c26 e0bd 04d3 bd40
000001c0: 27e6 bf40 dbf4 c240 8285 c040 7927 bd40
000001d0: 10d0 bc40 160b f6bd 8833 163d 1fa0 bc40
000001e0: f8f0 bd40 919a be40 5bfc 7bbc ce1d bf40
000001f0: 51d9 b940 b82d bb3d 1d27 b13c 66ab d23d
00000200: d9c5 8b41 d65f 1dbd 1b23 8b41 680d 8b41
00000210: 0bca 8b41 e808 8c41 ded8 8a41 21d2 8a41
00000220: 4949 8b41 6abc 8b41 d77c 8b41 1534 8b41
00000230: c08e 62bb 3799 8a41 ee4e fd3d 346b 6e3d
00000240: 8a06 8b41 68fb 8a41 2a9c 8b41 9bc4 8b41
00000250: e41a 823d 77bf 8a41 24b0 8a41 d850 dbbd
00000260: f33c 8b41 f43b 8c41 7d08 8c41 bc2f 64bd
00000270: 8f2b 8b41 cfe3 8a41 bb16 8c41 2025 8c41
00000280: ebb0 77bd 5002 8c41 c08e 6cbd b584 853c
00000290: 9c20 8b41 9bb8 8a41 6678 8b41 4859 8b41
000002a0: e96b 8a41 708f 603c 8917 8c41 cdb8 2d3d
000002b0: eaad 8a41 d467 8b41 97d2 ed3d f3bf 8a41
000002c0: aaaf 8b41 094f 8b41 6061 8a41 6786 8b41
000002d0: 8ae2 8941 901e b63d 9684 dd3d d19a 8b41
000002e0: e55f 8a41 5c14 8c41 05b9 1a3d 9832 8c41
000002f0: eb65 8c41 2c64 9c3d ad37 c33d bf1b 943d
00000300: 079d 3d41 d28e 843d 82e9 3c41 17f6 3c41
00000310: ce9b 3c41 20f4 3b41 e87d 3d41 5b63 3a41
00000320: 9a11 3b41 ef5c 3c41 d14b 3d41 2bb2 3b41
00000330: f473 6d3d 1f47 3d41 176e b2bd 0e0f 6ebd
00000340: a114 3b41 e817 3a41 47c9 3c41 591c 3a41
00000350: 70fd 46bd 7975 3a41 ae32 3c41 2019 80bb
00000360: e831 3a41 04a6 3d41 6bf3 3b41 708d b0bc
00000370: 9f18 3d41 0163 3c41 e414 3a41 0591 3941
00000380: 50ed 7b3d a1e5 3c41 285a 8d3d bee2 46bd
00000390: 2dee 3b41 0e1b 3a41 c9cb 3d41 bd4a 3b41
000003a0: 87c0 3c41 c6c9 e33d 8c3b 3d41 7df3 dabd
000003b0: ae86 3d41 7519 3c41 dfa2 e43d 9d48 3b41
000003c0: 0f1c 3a41 ad01 3d41 428e 3d41 3707 3d41
000003d0: bd20 3b41 1caa fdbd e869 aabc 5555 3d41
000003e0: 1747 3c41 388a 3b41 a9a9 11bd f6ea 3d41
000003f0: 7bd5 3d41 cc27 c93d 5db6 263c 3056 dd3c

fc4.bias f4 [49]
3.3233438 9.557084 15.573664 13.97231 6.473123 13.796644 7.811755 10.345891
14.455308 8.9533415 12.358927 13.349299 15.747465 0.087705106 13.823085 13.364892
14.433391 15.398382 9.452751 -0.04263471 0.082032844 15.068985 6.9193625 15.818195
4.547726 0.03474322 -0.038738236 -0.06169933 14.313016 12.108715 13.329435 0.10757303
-0.06389685 -0.075261876 0.029352546 9.802944 14.669533 0.021675557 -0.0164029 -0.012627989
0.10565817 0.076379925 4.47098 0.06275219 0.121779084 -0.010546401 -0.05120665 -0.034603044
-0.121092826
00000000: aab1 5440 d1e9 1841 ba2d 7941 958e 5f41
00000010: d323 cf40 0ebf 5c41 e6f9 f940 c588 2541
00000020: f148 6741 e340 0f41 2abe 4541 bb96 5541
00000030: 9ef5 7b41 bc9e b33d 5b2b 5d41 99d6 5541
00000040: 2bef 6641 c65f 7641 783e 1741 bca1 2ebd
00000050: d600 a83d 901a 7141 6b6b dd40 5417 7d41
00000060: f986 9140 e84e 0e3d fcab 1ebd 70b8 7cbd
00000070: 1d02 6541 4cbd 4141 5e45 5541 404f dc3d
00000080: 5adc 82bd e622 9abd c074 f03c dcd8 1c41
00000090: 68b6 6a41 f090 b13c 605f 86bc a0e5 4ebc
000000a0: 5063 d83d 146d 9c3d 4512 8f40 3884 803d
000000b0: 5067 f93d d0ca 2cbc 10be 51bd ecbb 0dbd
000000c0: 84ff f7bd
