trike2/models/DQN_Agent_1000ep.pt/DQN_Agent.pt (torch, 333080 bytes, 8 tensors)

fc1.weight f4 [256, 148]
13.593695 14.965678 14.890226 14.67381 15.59359 14.158818 13.693055 16.208757
14.502571 15.354178 13.821999 14.880779 14.156118 0.041034825 14.410411 16.595299
14.763649 15.626061 16.42891 0.057084925 -0.066097744 13.938736 13.486586 14.09116
14.356011 0.080584 -0.02709394 -0.06208626 14.058471 14.421679 14.468182 0.0004208088
0.03778988 -0.038427465 0.07882515 11.798529 14.275651 0.0412933 -0.053673856 -0.022784777
-0.05049266 -0.027543057 14.04029 -0.070031695 -0.023143977 0.0041798055 -0.05803821 0.08129766
-0.058654375 13.491017 13.569803 14.466388 13.016102 15.496937 13.230814 14.463393
14.582459 15.328114 13.653658 14.17937 15.58243 11.997313 0.069819294 15.339298
15.695002 15.219387 10.733226 16.091883 0.074096985 -0.044482663 13.066584 15.747228
11.612144 13.959212 -0.028262299 -0.07169286 0.003260754 12.784077 13.635321 14.019047
0.050319977 -0.04608335 -0.0626085 0.042624027 11.823455 13.853008 -0.023471583 0.025902353
-0.0115871355 -0.07023129 0.066062786 13.675512 0.048135735 0.046548016 0.03172212 -0.045169305
-0.061654128 0.05779072 10.994877 10.268835 12.876012 11.471597 12.063291 8.483883
10.725521 11.745304 11.891923 13.512498 13.201425 13.830661 11.450622 0.07837687
13.580254 12.614703 15.007421 13.77345 13.951301 -0.042670466 0.07142154 11.343599
11.343384 10.499204 12.431108 0.06935895 -0.03853688 0.07907798 12.815129 12.157858
12.222491 -0.0017860159 -0.07028952 0.0658359 0.059395276 8.488819 11.079118 -0.029273834
-0.032743454 0.063053004 0.058482178 0.06394585 12.65351 -0.025699258 -0.061150208 0.007354155
0.003266871 0.06515179 0.05847376 0.08142535 13.598981 14.842329 14.814204 14.663798
15.75399 14.177827 13.624426 16.11653 14.646995 15.1792145 13.896059 14.737487
14.270456 0.0726041 14.251298 16.72008 14.530528 15.601162 16.463055 -0.045710787
-0.008847192 14.042651 13.586553 13.993956 14.310479 0.014827833 0.0064499676 0.030548207
14.059141 14.186177 14.491811 0.06218431 -0.005649999 0.023825094 0.033743 11.873522
14.061038 -0.07937889 0.050994106 0.032649755 -0.029964287 -0.06848108 13.974071 -0.0433731
0.06078907 0.079484545 -0.010993198 -0.055782434 0.061897255 13.548917 13.355089 14.445064
13.025429 15.395667 13.013142 14.58512 14.739539 15.141368 13.690517 14.163452
15.687367 11.907832 -0.026296023 15.282231 15.872253 15.335336 10.428086 15.952874
-0.016479567 -0.013466969 12.953214 15.663974 11.495402 13.869795 0.061190806 -0.03986927
0.010330826 12.738712 13.568184 13.954727 -0.061201297 0.026962824 0.0041333884 -0.054623403
11.605826 13.86339 -0.08006362 -0.04673901 0.07013593 0.05455897 0.08054563 13.643986
-0.038007848 -0.007639274 -0.08174896 -0.051968157 0.047302835 0.08022597 10.814684 10.142711
12.661758 11.497581 11.994373 8.510557 10.667406 11.879595 11.804199 13.577626
00000000: c67f 5941 6b73 6f41 5e3e 6e41 edc7 6a41
00000010: 587f 7941 858a 6241 c116 5b41 89ab 8141
00000020: 880a 6841 b7aa 7541 e826 5d41 ac17 6e41
00000030: 767f 6241 2214 283d 0b91 6641 2cc3 8441
00000040: e837 6c41 5904 7a41 686e 8341 e2d1 693d
00000050: 415e 87bd 1005 5f41 0ec9 5741 6475 6141
00000060: 39b2 6541 3909 a53d 1cf4 ddbc 2a4e 7ebd
00000070: 7fef 6041 32bf 6641 ac7d 6741 00a0 dc39
00000080: 90c9 1a3d 1e66 1dbd 156f a13d c6c6 3c41
00000090: 1169 6441 2a23 293d 1ed9 5bbd 24a7 babc
000000a0: 64d1 4ebd faa1 e1bc 07a5 6041 c76c 8fbd
000000b0: 7098 bdbc c0f6 883b 79b9 6dbd 637f a63d
000000c0: 923f 70bd 35db 5741 ea1d 5941 5376 6741
000000d0: f441 5041 74f3 7741 6ab1 5341 0f6a 6741
000000e0: c151 6941 f43f 7541 6275 5a41 b3de 6241
000000f0: a251 7941 fef4 3f41 6bfd 8e3d c46d 7541
00000100: ba1e 7b41 9c82 7341 4bbb 2b41 2dbc 8041
00000110: 29c0 973d 7433 36bd ba10 5141 a5f4 7b41
00000120: 58cb 3941 ef58 5f41 5686 e7bc b5d3 92bd
00000130: 60b2 553b 948b 4c41 462a 5a41 044e 6041
00000140: 521c 4e3d e5c1 3cbd e338 80bd 8896 2e3d
00000150: df2c 3d41 eca5 5d41 7a47 c0bc 2c31 d43c
00000160: f8d7 3dbc 6cd5 8fbd ed4b 873d e6ce 5a41
00000170: fa29 453d 22a9 3e3d 0eef 013d 7303 39bd
00000180: 0a89 7cbd f6b5 6c3d 04eb 2f41 264d 2441
00000190: 2504 4e41 a98b 3741 3d03 4141 fcbd 0741
000001a0: bc9b 2b41 c4ec 3b41 5145 3e41 3133 5841
000001b0: 0939 5341 634a 5d41 bf35 3741 0d84 a03d
000001c0: b848 5941 d3d5 4941 651e 7041 0d60 5c41
000001d0: 8738 5f41 3ac7 2ebd 7545 923d 627f 3541
000001e0: 807e 3541 bdfc 2741 d2e5 4641 110c 8e3d
000001f0: d9d8 1dbd a3f3 a13d c50a 4d41 9686 4241
00000200: 538f 4341 c018 eaba f4f3 8fbd f9d4 863d
00000210: 7648 733d 34d2 0741 1144 3141 aecf efbc
00000220: 001e 06bd ef21 813d 028b 6f3d 0bf6 823d
00000230: c774 4a41 4087 d2bc a478 7abd 20fb f03b
00000240: 0019 563b 4d6e 853d 2e82 6f3d 55c2 a63d
00000250: 6d95 5941 2e7a 6d41 fb06 6d41 eb9e 6a41
00000260: 5810 7c41 61d8 6241 a6fd 5941 a7ee 8041
00000270: 175a 6a41 10de 7241 4256 5e41 bfcc 6b41
00000280: ca53 6441 75b1 943d 5105 6441 b9c2 8541
00000290: 0b7d 6841 5c9e 7941 56b4 8341 3c3b 3bbd
000002a0: d0f3 10bc b3ae 6041 8562 5941 3ee7 5f41
000002b0: b9f7 6441 70f0 723c 405a d33b 3c40 fa3c
000002c0: 3ef2 6041 95fa 6241 75de 6741 fab4 7e3d
000002d0: a023 b9bb d82c c33c 1a36 0a3d f2f9 3d41
000002e0: 03fa 6041 6691 a2bd 32df 503d c0bb 053d
000002f0: aa77 f5bc cf3f 8cbd cb95 5f41 fea7 31bd
00000300: f6fd 783d cbc8 a23d d01c 34bc 1f7c 64bd
00000310: fa87 7d3d 5dc8 5841 72ae 5541 fb1e 6741
00000320: 2868 5041 a754 7641 d435 5041 a75c 6941
00000330: 27d5 6b41 0b43 7241 5c0c 5b41 809d 6241
00000340: 75ff 7a41 7b86 3e41 c26a d7bc 0584 7441
00000350: c0f4 7d41 895d 7541 71d9 2641 f93e 7f41
00000360: 2800 87bc 90a4 5cbc 5d40 4f41 a39f 7a41
00000370: 2bed 3741 aeea 5d41 36a3 7a3d f64d 23bd
00000380: a042 293c c4d1 4b41 4817 5941 9046 5f41
00000390: 36ae 7abd 24e1 dc3c 6071 873b cabc 5fbd
000003a0: 77b1 3941 72d0 5d41 65f8 a3bd 6771 3fbd
000003b0: 6da3 8f3d 3a79 5f3d 1bf5 a43d c44d 5a41
000003c0: 1eae 1bbd e052 fabb 006c a7bd 90dc 54bd
000003d0: 9ec0 413d 834d a43d f208 2d41 8b48 2241
000003e0: 9096 4a41 17f6 3741 f4e8 3f41 3e2b 0841
000003f0: b2ad 2a41 d212 3e41 00de 3c41 f53d 5941

fc1.bias f4 [256]
17.924843 17.952883 17.965752 17.944252 17.990416 17.905664 17.911226 17.890127
17.90697 17.975513 17.95036 17.900501 17.936047 17.995321 18.00141 17.972784
17.874466 17.923904 18.008032 17.97891 17.901514 17.915586 17.957079 17.982794
17.906675 17.892437 17.964119 18.006254 17.907286 17.990303 17.907162 17.961208
17.913742 17.95707 17.92467 17.9955 17.892094 17.981537 17.93314 17.917868
17.939056 17.862505 -3.1994748 17.887196 18.013956 17.864058 17.94645 17.969656
17.917273 17.922112 17.920776 17.95366 17.937908 17.902807 17.964005 17.970432
17.995115 17.93411 17.913954 18.002123 17.939863 17.868294 17.924307 17.86847
17.946047 17.934616 17.903824 17.921898 17.920124 18.00416 17.872347 17.942066
17.959337 17.928907 -3.2923605 17.97889 17.844076 -3.2619116 -3.3189464 17.837437
17.901281 17.957556 17.936646 17.992159 17.831612 17.908972 17.97869 17.90451
17.991608 17.898436 17.94601 17.956387 18.006012 17.951252 17.973875 17.958769
17.85715 17.922602 17.978159 -3.2669158 17.987364 17.955908 18.012548 17.762856
17.979134 17.900858 17.992548 17.897018 17.962065 17.890125 17.965689 17.972164
17.919853 17.790035 17.933561 17.862358 17.951244 17.956924 17.88136 17.949045
17.993874 17.84601 17.930313 17.807085 18.016994 17.959272 17.854961 17.926994
17.939774 17.863728 17.943783 -3.3331583 17.86575 17.991358 18.009212 17.98128
17.970991 -3.2678854 17.865454 17.881294 18.018913 17.931707 -3.3179452 17.992573
18.014006 17.861769 18.005905 17.978296 17.91497 17.92993 17.93498 17.824135
17.970814 17.987967 17.905289 17.974112 17.897629 18.010384 17.877363 17.957027
17.98818 17.917435 17.864182 17.954689 17.89688 17.842667 17.90575 17.917425
18.000673 17.874525 17.873373 17.960331 17.99829 17.903042 17.996862 17.961908
-3.291346 -3.2870057 17.818607 17.876896 -3.3327985 17.998854 17.830633 17.864668
17.937315 18.001404 17.910046 17.951054 17.96835 17.913116 17.92921 17.989883
18.001804 17.87405 17.944668 17.970766 17.901802 17.939129 17.922499 17.903728
17.96234 17.982903 17.957413 17.896053 -3.26956 17.979908 17.956373 17.893053
17.842209 17.950891 17.87477 17.952925 17.944304 17.991869 17.920933 17.978357
17.947077 18.004099 17.927147 17.968618 17.807234 17.97155 17.868671 -3.2646425
17.895155 18.00794 17.895151 17.951094 17.837706 17.90217 17.84776 -3.311399
17.97398 17.92056 17.949205 17.883032 17.850521 17.955185 17.86968 17.993895
18.003788 17.91964 17.880133 17.90925 17.860994 17.91688 17.97264 17.912796
17.977886 17.969107 17.784573 17.929287 17.982992 -3.2344508 17.967249 18.002966
00000000: 1466 8f41 819f 8f41 dcb9 8f41 d48d 8f41
00000010: 5fec 8f41 cd3e 8f41 314a 8f41 fb1e 8f41
00000020: 7941 8f41 dacd 8f41 569a 8f41 3a34 8f41
00000030: 067d 8f41 6bf6 8f41 e302 9041 43c8 8f41
00000040: e8fe 8e41 2864 8f41 7310 9041 cfd4 8f41
00000050: 4d36 8f41 1f53 8f41 19a8 8f41 c3dc 8f41
00000060: df40 8f41 b623 8f41 84b6 8f41 cf0c 9041
00000070: 1f42 8f41 24ec 8f41 de41 8f41 8eb0 8f41
00000080: 584f 8f41 14a8 8f41 b965 8f41 c9f6 8f41
00000090: 0223 8f41 30da 8f41 1277 8f41 cb57 8f41
000000a0: 3083 8f41 69e6 8e41 32c4 4cc0 fa18 8f41
000000b0: 951c 9041 97e9 8e41 5492 8f41 dbc1 8f41
000000c0: 9356 8f41 7c60 8f41 c05d 8f41 18a1 8f41
000000d0: d680 8f41 f338 8f41 48b6 8f41 72c3 8f41
000000e0: fff5 8f41 0f79 8f41 c74f 8f41 5904 9041
000000f0: d784 8f41 44f2 8e41 fb64 8f41 a0f2 8e41
00000100: 8191 8f41 187a 8f41 083b 8f41 0c60 8f41
00000110: 6a5c 8f41 8508 9041 91fa 8e41 5a89 8f41
00000120: b9ac 8f41 676e 8f41 09b6 52c0 c4d4 8f41
00000130: abc0 8e41 29c3 50c0 9e69 54c0 12b3 8e41
00000140: d335 8f41 13a9 8f41 407e 8f41 f1ef 8f41
00000150: 24a7 8e41 9345 8f41 5bd4 8f41 703c 8f41
00000160: d0ee 8f41 ff2f 8f41 6e91 8f41 aea6 8f41
00000170: 500c 9041 2a9c 8f41 7fca 8f41 8fab 8f41
00000180: 71db 8e41 7d61 8f41 45d3 8f41 2615 51c0
00000190: 1fe6 8f41 b3a5 8f41 b319 9041 541a 8e41
000001a0: 44d5 8f41 f534 8f41 bdf0 8f41 182d 8f41
000001b0: 4fb2 8f41 fa1e 8f41 bbb9 8f41 fec6 8f41
000001c0: dc5b 8f41 fe51 8e41 ef77 8f41 1ce6 8e41
000001d0: 269c 8f41 c8a7 8f41 060d 8f41 a597 8f41
000001e0: 74f3 8f41 a1c4 8e41 4871 8f41 e974 8e41
000001f0: ce22 9041 97ac 8f41 f6d6 8e41 7c6a 8f41
00000200: a884 8f41 eae8 8e41 de8c 8f41 7752 55c0
00000210: 0eed 8e41 4dee 8f41 de12 9041 a9d9 8f41
00000220: 97c4 8f41 0925 51c0 73ec 8e41 e40c 8f41
00000230: bc26 9041 2374 8f41 3759 54c0 caf0 8f41
00000240: af1c 9041 e7e4 8e41 180c 9041 8dd3 8f41
00000250: dc51 8f41 7f70 8f41 d77a 8f41 d497 8e41
00000260: 3ac4 8f41 5be7 8f41 083e 8f41 fbca 8f41
00000270: 582e 8f41 4415 9041 d704 8f41 fea7 8f41
00000280: cbe7 8f41 e856 8f41 d8e9 8e41 34a3 8f41
00000290: cf2c 8f41 c8bd 8e41 fa3e 8f41 e356 8f41
000002a0: 6101 9041 07ff 8e41 abfc 8e41 c2ae 8f41
000002b0: 7ffc 8f41 6e39 8f41 93f9 8f41 fdb1 8f41
000002c0: 6aa5 52c0 4d5e 52c0 828c 8e41 e203 8f41
000002d0: 924c 55c0 a7fd 8f41 23a5 8e41 d7ea 8e41
000002e0: 9f7f 8f41 e002 9041 c647 8f41 c29b 8f41
000002f0: 2ebf 8f41 104e 8f41 066f 8f41 48eb 8f41
00000300: b203 9041 0efe 8e41 ae8e 8f41 21c4 8f41
00000310: e436 8f41 5683 8f41 4761 8f41 d63a 8f41
00000320: dfb2 8f41 fcdc 8f41 c8a8 8f41 1e2b 8f41
00000330: 7940 51c0 dad6 8f41 a7a6 8f41 f924 8f41
00000340: d8bc 8e41 6d9b 8f41 87ff 8e41 979f 8f41
00000350: ef8d 8f41 59ef 8f41 125e 8f41 add3 8f41
00000360: 9d93 8f41 6508 9041 cc6a 8f41 bbbf 8f41
00000370: 3775 8e41 bcc5 8f41 0af3 8e41 e7ef 50c0
00000380: 4729 8f41 4310 9041 4529 8f41 d79b 8f41
00000390: 9fb3 8e41 a537 8f41 36c8 8e41 f6ed 53c0
000003a0: b6ca 8f41 4f5d 8f41 f997 8f41 7310 8f41
000003b0: decd 8e41 38a4 8f41 1bf5 8e41 7ff3 8f41
000003c0: c207 9041 6c5b 8f41 830a 8f41 2546 8f41
000003d0: 51e3 8e41 c555 8f41 f7c7 8f41 684d 8f41
000003e0: b6d2 8f41 bbc0 8f41 ce46 8e41 2e6f 8f41
000003f0: 2bdd 8f41 3e01 4fc0 edbc 8f41 1306 9041

fc2.weight f4 [128, 256]
17.566141 17.58676 17.584711 17.590841 17.621803 17.648615 17.692951 17.704489
17.55874 17.619165 17.495502 17.682459 17.53392 17.58012 17.645863 17.707151
17.603973 17.613037 17.548922 17.593794 17.522665 17.562988 17.57311 17.48014
17.63317 17.57614 17.487196 17.636417 17.453815 17.697634 17.56003 17.567015
17.629314 17.543552 17.574852 17.612352 17.625412 17.621243 17.579885 17.60651
17.609818 17.580742 -7.3811374 17.693598 17.496864 17.560225 17.669348 17.653482
17.567822 17.612402 17.710093 17.610455 17.730366 17.600115 17.705286 17.519363
17.68026 17.554426 17.619425 17.681704 17.601494 17.38605 17.65634 17.72853
17.50942 17.442387 17.622297 17.580256 17.435795 17.566177 17.631002 17.606754
17.582794 17.592495 -7.2488165 17.682535 17.54502 -7.3689995 -7.3834686 17.692226
17.507687 17.656637 17.515345 17.676626 17.540487 17.661411 17.497374 17.55994
17.628162 17.48049 17.57364 17.588982 17.677755 17.385923 17.573067 17.558794
17.578539 17.45897 17.558025 -7.301848 17.705961 17.69708 17.616003 17.188658
17.674658 17.640913 17.543207 17.678743 17.606855 17.552452 17.516655 17.617968
17.621773 17.631277 17.605032 17.646507 17.552763 17.65063 17.392488 17.571188
17.52615 17.549437 17.584911 17.656124 17.561228 17.615072 17.470966 17.671162
17.651608 17.62471 17.598318 -7.290859 17.599716 17.534092 17.685146 17.694454
17.607546 -7.2318234 17.673805 17.500862 17.551256 17.685505 -7.253195 17.706366
17.491814 17.707767 17.689102 17.575788 17.70016 17.620882 17.625765 17.377739
17.598967 17.655222 17.485027 17.714329 17.558506 17.586279 17.629965 17.529991
17.503132 17.491085 17.593653 17.643467 17.52051 17.483236 17.605099 17.627016
17.668867 17.4252 17.596273 17.597582 17.64101 17.59136 17.547165 17.503643
-7.338399 -7.3741555 17.688477 17.615437 -7.2109547 17.506384 17.66437 17.512093
17.46979 17.576502 17.342571 17.601175 17.459217 17.50372 17.616882 17.726704
17.59172 17.52248 17.559015 17.645468 17.553024 17.710365 17.450281 17.636822
17.560492 17.62822 17.621609 17.652618 -7.3260174 17.558798 17.526606 17.58679
17.535307 17.694687 17.602118 17.620123 17.736841 17.656359 17.538082 17.7078
17.544268 17.668308 17.567514 17.566635 17.452953 17.537008 17.564972 -7.3765125
17.625765 17.601284 17.571747 17.600203 17.686007 17.618835 17.657034 -7.3104334
17.591927 17.60781 17.603228 17.579996 17.458185 17.61178 17.463179 17.753155
17.592161 17.637442 17.328047 17.549091 17.594427 17.624712 17.701857 17.604279
17.695635 17.59669 17.654558 17.662926 17.636171 -7.234249 17.5988 17.591352
00000000: 7587 8c41 afb1 8c41 7dad 8c41 0bba 8c41
00000010: 74f9 8c41 5d30 8d41 2a8b 8d41 cba2 8d41
00000020: 4d78 8c41 0df4 8c41 caf6 8b41 ad75 8d41
00000030: 7845 8c41 16a4 8c41 ba2a 8d41 3fa8 8d41
00000040: f0d4 8c41 80e7 8c41 3164 8c41 17c0 8c41
00000050: 6b2e 8c41 0081 8c41 bb95 8c41 54d7 8b41
00000060: bb10 8d41 ef9b 8c41 c7e5 8b41 6217 8d41
00000070: 6aa1 8b41 c194 8d41 f17a 8c41 3f89 8c41
00000080: d608 8d41 3259 8c41 4c99 8c41 19e6 8c41
00000090: d800 8d41 4ef8 8c41 9ba3 8c41 22da 8c41
000000a0: e8e0 8c41 5ca5 8c41 4732 ecc0 7d8c 8d41
000000b0: 94f9 8b41 577b 8c41 d35a 8d41 553a 8d41
000000c0: e68a 8c41 33e6 8c41 45ae 8d41 36e2 8c41
000000d0: cad7 8d41 09cd 8c41 6da4 8d41 a827 8c41
000000e0: 2c71 8d41 776f 8c41 95f4 8c41 2174 8d41
000000f0: dccf 8c41 a116 8b41 2f40 8d41 08d4 8d41
00000100: 4b13 8c41 028a 8b41 77fa 8c41 5da4 8c41
00000110: 827c 8b41 8887 8c41 4b0c 8d41 a2da 8c41
00000120: 90a9 8c41 6ebd 8c41 4ef6 e7c0 d575 8d41
00000130: 335c 8c41 d8ce ebc0 6045 ecc0 ae89 8d41
00000140: be0f 8c41 cb40 8d41 6d1f 8c41 bb69 8d41
00000150: eb52 8c41 924a 8d41 9ffa 8b41 c27a 8c41
00000160: 7a06 8d41 0bd8 8b41 d196 8c41 3cb6 8c41
00000170: 0b6c 8d41 5f16 8b41 a495 8c41 6978 8c41
00000180: d9a0 8c41 f8ab 8b41 d676 8c41 bda8 e9c0
00000190: cfa5 8d41 9f93 8d41 93ed 8c41 5f82 8941
000001a0: b365 8d41 9720 8d41 7d58 8c41 116e 8d41
000001b0: d7da 8c41 6c6b 8c41 1c22 8c41 99f1 8c41
000001c0: 64f9 8c41 db0c 8d41 1bd7 8c41 0c2c 8d41
000001d0: 0f6c 8c41 7e34 8d41 d123 8b41 cb91 8c41
000001e0: 8e35 8c41 3f65 8c41 e6ad 8c41 be3f 8d41
000001f0: 657d 8c41 abeb 8c41 8ac4 8b41 8a5e 8d41
00000200: 7e36 8d41 68ff 8c41 5bc9 8c41 b84e e9c0
00000210: 38cc 8c41 d245 8c41 2e7b 8d41 3e8e 8d41
00000220: 41dc 8c41 196b e7c0 f463 8d41 c401 8c41
00000230: f968 8c41 ea7b 8d41 2c1a e8c0 a3a6 8d41
00000240: 3cef 8b41 82a9 8d41 4883 8d41 379b 8c41
00000250: ed99 8d41 91f7 8c41 9101 8d41 9c05 8b41
00000260: afca 8c41 e53d 8d41 56e1 8b41 f2b6 8d41
00000270: d277 8c41 b3b0 8c41 2b0a 8d41 6c3d 8c41
00000280: 6a06 8c41 beed 8b41 cdbf 8c41 d225 8d41
00000290: 012a 8c41 abdd 8b41 3ed7 8c41 2104 8d41
000002a0: d759 8d41 cf66 8b41 2bc5 8c41 d9c7 8c41
000002b0: ca20 8d41 1bbb 8c41 9860 8c41 7607 8c41
000002c0: 2ad4 eac0 15f9 ebc0 0082 8d41 6aec 8c41
000002d0: 24c0 e6c0 130d 8c41 a150 8d41 c418 8c41
000002e0: 21c2 8b41 ad9c 8c41 96bd 8a41 35cf 8c41
000002f0: 7aac 8b41 9e07 8c41 60ef 8c41 4ad0 8d41
00000300: d8bb 8c41 0a2e 8c41 dd78 8c41 eb29 8d41
00000310: 986c 8c41 d4ae 8d41 2d9a 8b41 3618 8d41
00000320: e37b 8c41 9806 8d41 0ef9 8c41 9038 8d41
00000330: bc6e eac0 6b78 8c41 7d36 8c41 bfb1 8c41
00000340: 4f48 8c41 b88e 8d41 23d1 8c41 03f6 8c41
00000350: 0de5 8d41 3940 8d41 fe4d 8c41 93a9 8d41
00000360: a95a 8c41 b258 8d41 458a 8c41 7888 8c41
00000370: a69f 8b41 cb4b 8c41 1085 8c41 640c ecc0
00000380: 9101 8d41 6ecf 8c41 f092 8c41 37cd 8c41
00000390: f17c 8d41 60f3 8c41 9b41 8d41 12ef e9c0
000003a0: 44bc 8c41 cbdc 8c41 69d3 8c41 d5a3 8c41
000003b0: 5daa 8b41 ede4 8c41 97b4 8b41 7606 8e41
000003c0: bfbc 8c41 7b19 8d41 d79f 8a41 8a64 8c41
000003d0: 63c1 8c41 69ff 8c41 679d 8d41 90d5 8c41
000003e0: a990 8d41 05c6 8c41 893c 8d41 ac4d 8d41
000003f0: e116 8d41 f87e e7c0 58ca 8c41 17bb 8c41

fc2.bias f4 [128]
17.089628 17.05172 17.111252 16.952559 17.132992 17.15548 17.147503 16.99916
17.16424 -1.0779332 17.100653 17.105038 17.037502 17.103615 17.116337 17.088188
17.077183 17.078772 16.983746 17.044296 17.18114 17.104618 17.136839 17.142002
17.128595 16.856668 17.095766 17.064121 17.047411 17.103365 17.08245 17.128082
17.135798 17.01221 -0.01455587 17.133642 -0.05681115 17.116371 17.113953 17.022009
17.156792 17.065931 17.049074 17.058092 17.08243 17.042414 17.026037 17.113853
17.100199 17.144894 17.118105 17.047852 17.05175 16.88474 17.049564 17.060755
17.075373 -0.04446196 17.1148 17.152504 17.051104 17.103653 17.161863 -1.1431402
17.113235 17.114634 17.117016 16.912334 17.124954 17.117428 17.08909 17.041674
16.963373 17.039564 17.163715 17.137676 16.98545 17.139174 -0.05848292 -0.06576774
17.030573 17.045702 -0.053634062 17.014097 -0.06521965 17.086931 -0.007904786 16.736927
17.045792 17.086716 -0.036658112 16.87741 17.03842 16.923311 17.15202 17.058407
-1.0726874 17.082964 17.080221 16.906654 17.05437 -0.9891717 17.156582 17.140278
17.005957 17.110617 17.12917 17.041332 17.056402 17.13882 17.137474 17.06896
16.949945 17.081964 17.121819 17.135483 17.075365 17.166847 16.938139 17.061789
17.127077 17.124157 17.088598 16.770931 17.085375 17.125265 17.030949 17.044495
00000000: 8fb7 8841 ec69 8841 d8e3 8841 d79e 8741
00000010: 5e10 8941 6c3e 8941 162e 8941 48fe 8741
00000020: 5d50 8941 b7f9 89bf 23ce 8841 1ed7 8841
00000030: ce4c 8841 34d4 8841 42ee 8841 9cb4 8841
00000040: 129e 8841 53a1 8841 b6de 8741 b85a 8841
00000050: fa72 8941 42d6 8841 3f18 8941 d222 8941
00000060: 5d07 8941 75da 8641 21c4 8841 5283 8841
00000070: 1961 8841 b1d3 8841 dca8 8841 5006 8941
00000080: 1d16 8941 0219 8841 be7b 6ebc b311 8941
00000090: cfb2 68bd 54ee 8841 60e9 8841 132d 8841
000000a0: 1c41 8941 0787 8841 8164 8841 f976 8841
000000b0: d1a8 8841 dd56 8841 5335 8841 2ce9 8841
000000c0: 35cd 8841 be28 8941 e1f1 8841 0062 8841
000000d0: fc69 8841 f313 8741 8265 8841 6d7c 8841
000000e0: 5d9a 8841 bf1d 36bd 1ceb 8841 5438 8941
000000f0: a968 8841 48d4 8841 7f4b 8941 6b52 92bf
00000100: e8e7 8841 c5ea 8841 a6ef 8841 764c 8741
00000110: e8ff 8841 7ef0 8841 75b6 8841 5955 8841
00000120: fdb4 8741 0751 8841 4a4f 8941 f619 8941
00000130: 34e2 8741 071d 8941 c98b 6fbd 3db1 86bd
00000140: 9d3e 8841 995d 8841 64af 5bbd df1c 8841
00000150: e191 85bd 09b2 8841 1383 01bc 3ae5 8541
00000160: c85d 8841 98b1 8841 d126 16bd f004 8741
00000170: af4e 8841 f162 8741 5637 8941 9e77 8841
00000180: d24d 89bf e9a9 8841 4ba4 8841 d440 8741
00000190: 5a6f 8841 5b3a 7dbf ae40 8941 4a1f 8941
000001a0: 330c 8841 8be2 8841 8a08 8941 a654 8841
000001b0: 8373 8841 4e1c 8941 8c19 8941 3b8d 8841
000001c0: 7d99 8741 dda7 8841 7cf9 8841 7815 8941
000001d0: 599a 8841 b455 8941 4f81 8741 8b7e 8841
000001e0: 4104 8941 46fe 8841 73b5 8841 de2a 8641
000001f0: d9ae 8841 8b00 8941 623f 8841 205b 8841

fc3.weight f4 [64, 128]
17.551754 17.48741 17.567083 17.489086 17.590847 17.74367 17.60822 17.583067
17.759623 -4.312255 17.529737 17.68762 17.364449 17.606152 17.667597 17.474077
17.653788 17.655973 17.63215 17.433939 17.760153 17.649044 17.58576 17.627306
17.694641 17.256935 17.52966 17.338057 17.55893 17.620161 17.678936 17.506922
17.773596 17.528816 -0.01571336 17.609228 -0.003852761 17.718214 17.561537 17.597591
17.692953 17.739868 17.602324 17.533216 17.657846 17.625427 17.41075 17.633686
17.704325 17.56739 17.394363 17.685736 17.439163 17.228542 17.67133 17.651333
17.711308 0.06097617 17.500977 17.562424 17.632261 17.639784 17.729713 -4.8703165
17.519827 17.665186 17.565418 17.49917 17.708372 17.688286 17.598797 17.622053
17.42885 17.571623 17.750988 17.696537 17.408676 17.63222 -0.06838857 0.052712508
17.64718 17.588066 -0.09255136 17.45633 -0.018109791 17.317698 -0.05653423 17.308184
17.633959 17.548548 -0.0690337 17.192451 17.495134 17.512646 17.668827 17.61486
-4.151125 17.550497 17.585733 17.165451 17.518034 -4.0105114 17.634918 17.60723
17.472937 17.679495 17.639847 17.558495 17.562836 17.633324 17.686768 17.3934
17.289207 17.517063 17.58249 17.661474 17.655298 17.679634 17.18259 17.583174
17.535793 17.605835 17.705198 17.191793 17.644182 17.444574 17.513132 17.591516
17.546314 17.6387 17.582502 17.702253 17.608528 17.578886 17.572197 17.575739
17.497606 -4.22368 17.505663 17.490767 17.670313 17.617071 17.485563 17.619097
17.542229 17.723372 17.59803 17.691795 17.509132 17.540165 17.593752 17.50866
17.59453 17.623867 17.5363 17.481388 17.646664 17.582064 17.59342 17.537733
17.55418 17.644579 -0.07644877 17.644127 -0.074518606 17.51307 17.490967 17.567041
17.587526 17.49265 17.522802 17.682985 17.636036 17.586374 17.601538 17.575392
17.491005 17.648663 17.59271 17.576704 17.637793 17.613173 17.650415 17.64172
17.493155 0.046797898 17.504534 17.552395 17.580767 17.634907 17.522274 -4.446967
17.580858 17.528875 17.599062 17.429346 17.484722 17.676266 17.6487 17.52221
17.670406 17.66496 17.434877 17.508024 17.694895 17.57783 0.025991231 0.012214153
17.492538 17.704372 -0.0020603032 17.687857 -0.065237075 17.543226 -0.056321308 17.417953
17.692814 17.590902 0.05829693 17.574806 17.568712 17.441795 17.544659 17.495266
-3.9994411 17.651201 17.568457 17.563139 17.67636 -3.8168592 17.563007 17.549057
17.51675 17.673145 17.49075 17.507393 17.618158 17.590544 17.546675 17.579607
17.686497 17.631313 17.592215 17.598043 17.54871 17.612148 17.54067 17.478752
17.598127 17.499126 17.640701 17.5061 17.551968 17.683529 17.599102 17.464777
00000000: fe69 8c41 37e6 8b41 6389 8c41 a6e9 8b41
00000010: 0eba 8c41 09f3 8d41 a2dd 8c41 1faa 8c41
00000020: b513 8e41 fefd 89c0 e73c 8c41 3f80 8d41
00000030: 64ea 8a41 66d9 8c41 3d57 8d41 e9ca 8b41
00000040: f53a 8d41 6f3f 8d41 a50e 8d41 b578 8b41
00000050: cb14 8e41 3e31 8d41 a3af 8c41 b904 8d41
00000060: a08e 8d41 340e 8a41 be3c 8c41 57b4 8a41
00000070: b078 8c41 17f6 8c41 766e 8d41 2d0e 8c41
00000080: 5330 8e41 043b 8c41 4eb9 80bc b3df 8c41
00000090: 9a7e 7cbb e7be 8d41 077e 8c41 dec7 8c41
000000a0: 2b8b 8d41 40eb 8d41 8fd1 8c41 0744 8c41
000000b0: 4543 8d41 e000 8d41 3749 8b41 ca11 8d41
000000c0: 75a2 8d41 048a 8c41 a827 8b41 637c 8d41
000000d0: 6883 8b41 0ed4 8941 e25e 8d41 ee35 8d41
000000e0: c2b0 8d41 26c2 793d 0002 8c41 d87f 8c41
000000f0: df0e 8d41 471e 8d41 74d6 8d41 a2d9 9bc0
00000100: 9b28 8c41 4d52 8d41 fa85 8c41 4dfe 8b41
00000110: bfaa 8d41 9c81 8d41 56ca 8c41 f7f9 8c41
00000120: 496e 8b41 af92 8c41 0602 8e41 8292 8d41
00000130: f844 8b41 c90e 8d41 4e0f 8cbd 12e9 573d
00000140: 6d2d 8d41 5cb4 8c41 918b bdbd 90a6 8b41
00000150: fc5a 94bc a58a 8a41 7090 67bd 2977 8a41
00000160: 5912 8d41 6d63 8c41 8a61 8dbd 248a 8941
00000170: 09f6 8b41 e619 8c41 c259 8d41 3ceb 8c41
00000180: 04d6 84c0 6b67 8c41 95af 8c41 d852 8941
00000190: ef24 8c41 1c56 80c0 5014 8d41 9bdb 8c41
000001a0: 93c8 8b41 9b6f 8d41 681e 8d41 cc77 8c41
000001b0: b080 8c41 0c11 8d41 807e 8d41 af25 8b41
000001c0: 4c50 8a41 f222 8c41 f1a8 8c41 b34a 8d41
000001d0: 0d3e 8d41 e46f 8d41 f275 8941 57aa 8c41
000001e0: 4e49 8c41 c0d8 8c41 3fa4 8d41 cb88 8941
000001f0: 4927 8d41 7d8e 8b41 e51a 8c41 6dbb 8c41
00000200: da5e 8c41 0f1c 8d41 f7a8 8c41 379e 8d41
00000210: 44de 8c41 8fa1 8c41 dc93 8c41 1d9b 8c41
00000220: 19fb 8b41 6328 87c0 990b 8c41 17ed 8b41
00000230: cd5c 8d41 c3ef 8c41 6fe2 8b41 e9f3 8c41
00000240: 7c56 8c41 77c9 8d41 c4c8 8c41 cc88 8d41
00000250: b412 8c41 4252 8c41 01c0 8c41 bc11 8c41
00000260: 99c1 8c41 aefd 8c41 584a 8c41 e2d9 8b41
00000270: 5e2c 8d41 11a8 8c41 53bf 8c41 474d 8c41
00000280: f66e 8c41 1928 8d41 2c91 9cbd 2c27 8d41
00000290: 369d 98bd c41a 8c41 80ed 8b41 4d89 8c41
000002a0: 41b3 8c41 f2f0 8b41 b32e 8c41 c176 8d41
000002b0: 9a16 8d41 e5b0 8c41 f3cf 8c41 679a 8c41
000002c0: 94ed 8b41 7630 8d41 dfbd 8c41 179d 8c41
000002d0: 331a 8d41 c7e7 8c41 0d34 8d41 3e22 8d41
000002e0: fbf1 8b41 27af 3f3d 4909 8c41 4e6b 8c41
000002f0: 69a5 8c41 4a14 8d41 9e2d 8c41 8e4d 8ec0
00000300: 99a5 8c41 233b 8c41 e1ca 8c41 4d6f 8b41
00000310: b6e0 8b41 fe68 8d41 8a30 8d41 7c2d 8c41
00000320: fe5c 8d41 d751 8d41 a17a 8b41 6f10 8c41
00000330: 258f 8d41 659f 8c41 90eb d43c df1d 483c
00000340: b8f0 8b41 8ea2 8d41 2706 07bb bb80 8d41
00000350: 049b 85bd 8758 8c41 2cb1 66bd f857 8b41
00000360: e28a 8d41 2bba 8c41 c3c8 6e3d 3499 8c41
00000370: b98c 8c41 cc88 8b41 765b 8c41 4ef6 8b41
00000380: d8f6 7fc0 a935 8d41 338c 8c41 4f81 8c41
00000390: 2f69 8d41 6c47 74c0 0a81 8c41 7864 8c41
000003a0: 4e22 8c41 9a62 8d41 0eed 8b41 240f 8c41
000003b0: fdf1 8c41 6fb9 8c41 975f 8c41 09a3 8c41
000003c0: f27d 8d41 ee0c 8d41 dbbc 8c41 cbc8 8c41
000003d0: c263 8c41 aee5 8c41 4b53 8c41 7cd4 8b41
000003e0: f7c8 8c41 36fe 8b41 2820 8d41 7e0c 8c41
000003f0: 6e6a 8c41 de77 8d41 f6ca 8c41 ddb7 8b41

fc3.bias f4 [64]
16.273205 16.171122 16.176529 -0.060781807 -0.060540862 16.17158 16.190739 16.279617
-0.09746209 16.167557 16.168962 16.058577 0.026288526 -0.09687602 -0.050173655 16.045954
-0.07153296 -0.07693523 16.079617 16.237455 -0.10504136 0.036261834 16.191544 16.284304
16.208895 16.109335 16.21853 16.040989 16.147827 -0.08968183 -0.049697284 16.273691
16.067846 16.248613 -0.106789716 16.280104 16.136835 -0.03432358 16.228476 16.271843
16.231821 -0.064339556 -0.06645841 -0.0454425 16.247276 16.069962 16.185843 15.997974
16.214518 16.168705 -0.023073418 16.175425 16.131641 16.164911 16.04889 15.952697
16.215675 16.149988 16.210901 16.16993 -0.073327154 0.050722077 16.13139 16.179039
00000000: 862f 8241 755e 8141 8869 8141 58f6 78bd
00000010: b2f9 77bd 655f 8141 a286 8141 a83c 8241
00000020: 349a c7bd 2857 8141 095a 8141 f777 8041
00000030: 095b d73c ef66 c6bd e482 4dbd 1d5e 8041
00000040: df7f 92bd 3890 9dbd 0ea3 8041 4fe6 8141
00000050: ed1f d7bd 4a87 143d 4888 8141 4146 8241
00000060: d1ab 8141 ebdf 8041 8dbf 8141 f253 8041
00000070: c02e 8141 1bab b7bd 618f 4bbd 8530 8241
00000080: f38a 8041 29fd 8141 91b4 dabd a73d 8241
00000090: 3d18 8141 e296 0cbd ebd3 8141 bc2c 8241
000000a0: c5da 8141 75c4 83bd 591b 88bd ea21 3abd
000000b0: 6cfa 8141 488f 8041 9b7c 8141 b4f7 7f41
000000c0: 55b7 8141 8259 8141 7704 bdbc 4567 8141
000000d0: 9a0d 8141 bd51 8141 2064 8041 3f3e 7f41
000000e0: b4b9 8141 2d33 8141 edaf 8141 045c 8141
000000f0: 8c2c 96bd f4c1 4f3d 160d 8141 ac6e 8141

fc4.weight f4 [49, 64]
4.4510436 4.277825 4.515979 -0.038337868 0.09525429 4.35659 4.508188 4.4550824
0.007033929 4.6165423 4.541445 4.353463 -0.08826107 0.0789883 0.028433546 4.1669526
-0.045901984 -0.007329136 4.176416 4.4165497 -0.06859437 0.020919263 4.370783 4.4137325
4.525183 4.3784237 4.365623 4.3822827 4.373241 0.01722622 0.017487558 4.266406
4.4989367 4.3139043 0.09499724 4.398174 4.4405403 0.10886638 4.4844513 4.3955026
4.30269 -0.039810896 0.067511946 -0.04549642 4.519145 4.42895 4.267203 4.6143765
4.404951 4.582559 -0.0069433553 4.320001 4.587208 4.30567 4.07643 4.290341
4.4179893 4.3685703 4.4503784 4.2693076 -0.07814655 -0.11224897 4.425548 4.547654
6.325586 6.4703712 6.4413347 -0.053999662 -0.06808929 6.48796 6.5223684 6.325372
0.0030641556 6.4073424 6.3508043 6.418009 0.08850093 -0.10288563 0.12369126 6.376291
0.05736205 -0.039118677 6.383965 6.4970574 0.039225504 0.04364118 6.466575 6.3366313
6.507032 6.335211 6.420454 6.4254613 6.495426 -0.008372396 -0.025634795 6.332815
6.317425 6.3671455 -0.055071548 6.366989 6.371238 -0.03902906 6.425384 6.4224997
6.3296876 -0.019639352 -0.11046609 0.074800044 6.5238624 6.332037 6.274817 6.3681345
6.398589 6.2963643 0.08006452 6.2966104 6.3529 6.4260154 6.402876 6.30011
6.31686 6.5010433 6.3439717 6.434877 -0.0040587485 -0.10180277 6.322514 6.333111
8.365949 8.379426 8.422928 -0.04285434 -0.087643445 8.397104 8.330036 8.413386
-0.054876387 8.436874 8.361574 8.411569 0.09929268 -0.091346435 -0.11047056 8.325635
-0.08609645 0.048346505 8.277494 8.402703 0.07016176 0.042082068 8.32314 8.3050375
8.443572 8.414129 8.497188 8.239869 8.390233 -0.07282531 0.08316166 8.338125
8.250537 8.313101 0.020363674 8.265914 8.38499 0.07068212 8.303961 8.479722
8.284038 -0.06154532 0.04276 -0.0010614246 8.28557 8.327316 8.379548 8.38033
8.43693 8.42121 -0.0786774 8.422829 8.433344 8.223501 8.092365 8.116468
8.473204 8.22906 8.265426 8.190507 0.0021984875 -0.022200739 8.3253145 8.441043
6.352101 6.5197587 6.36735 -0.011018157 -0.04467058 6.422046 6.417096 6.340309
0.047087226 6.259661 6.2901106 6.4781857 -0.0075819157 -0.04372275 -0.095498696 6.365491
0.01190798 -0.07223305 6.520458 6.3682876 -0.09639314 -0.09793214 6.470588 6.489315
6.2894554 6.3051677 6.2743216 6.399836 6.486243 -0.11489235 -0.06866835 6.3275323
6.297208 6.393017 -0.08596882 6.3867116 6.384868 0.058461323 6.280217 6.470582
6.392073 -0.05556951 0.016650662 0.07746339 6.2674723 6.384867 6.495851 6.3595524
6.425322 6.2272243 -0.10882911 6.2740374 6.291285 6.2926292 6.310622 6.3314176
6.422888 6.3683224 6.334261 6.45986 0.08591221 0.11005011 6.340179 6.2839365
00000000: f36e 8e40 f1e3 8840 e682 9040 2b08 1dbd
00000010: ae14 c33d 2f69 8b40 1343 9040 0990 8e40
00000020: e07c e63b b7ba 9340 8453 9140 924f 8b40
00000030: 38c2 b4bd 9ec4 a13d 78ed e83c ad57 8540
00000040: b803 3cbd 4029 f0bb 33a5 8540 6054 8d40
00000050: 347b 8cbd e05e ab3c 74dd 8b40 4c3d 8d40
00000060: 4dce 9040 0c1c 8c40 2fb3 8b40 a93b 8c40
00000070: 97f1 8b40 001e 8d3c 1142 8f3c 6686 8840
00000080: 4af7 8f40 810b 8a40 ea8d c23d d7bd 8c40
00000090: e818 8e40 56f5 de3d a080 8f40 f5a7 8c40
000000a0: a3af 8940 c010 23bd b443 8a3d 745a 3abd
000000b0: d69c 9040 f5b9 8d40 ed8c 8840 f9a8 9340
000000c0: 5cf5 8c40 53a4 9240 1685 e3bb 733d 8a40
000000d0: 68ca 9240 0cc8 8940 1d72 8240 794a 8940
000000e0: 2b60 8d40 54cb 8b40 8069 8e40 2b9e 8840
000000f0: 4c0b a0bd cae2 e5bd 179e 8d40 6286 9140
00000100: 336b ca40 480d cf40 6a1f ce40 c02e 5dbd
00000110: 6672 8bbd 5e9d cf40 3eb7 d040 7369 ca40
00000120: 00d0 483b f308 cd40 ca39 cb40 5460 cd40
00000130: fa3f b53d b4b5 d2bd d851 fd3d 930a cc40
00000140: 78f4 6a3d e83a 20bd 7149 cc40 e5e7 cf40
00000150: ecaa 203d 18c1 323d 2fee ce40 afc5 ca40
00000160: 9b39 d040 0cba ca40 5c74 cd40 619d cd40
00000170: 88da cf40 602c 09bc 1000 d2bc 6ca6 ca40
00000180: 5828 ca40 a8bf cb40 b492 61bd 60be cb40
00000190: 2fe1 cb40 f0dc 1fbd bf9c cd40 1e85 cd40
000001a0: cd8c ca40 b5e2 a0bc 0c3c e2bd c430 993d
000001b0: 7bc3 d040 0ca0 ca40 4dcb c840 c2c7 cb40
000001c0: 3ec1 cc40 d17b c940 def8 a33d d57d c940
000001d0: f54a cb40 eba1 cd40 5ce4 cc40 809a c940
000001e0: b823 ca40 8c08 d040 d101 cb40 83ea cd40
000001f0: 40ff 84bb f87d d0bd 0952 ca40 d8a8 ca40
00000200: edda 0541 2112 0641 50c4 0641 0888 2fbd
00000210: 687e b3bd 8a5a 0641 d447 0541 3b9d 0641
00000220: 10c6 60bd 70fd 0641 02c9 0541 c995 0641
00000230: f659 cb3d d713 bbbd 643e e2bd cd35 0541
00000240: 5653 b0bd fc06 463d 9e70 0441 7971 0641
00000250: f8b0 8f3d 3f5e 2c3d 952b 0541 6fe1 0441
00000260: df18 0741 46a0 0641 7bf4 0741 81d6 0341
00000270: 653e 0641 7025 95bd a950 aa3d f668 0541
00000280: 3302 0441 7602 0541 b8d1 a63c 2f41 0441
00000290: eb28 0641 cac1 903d 06dd 0441 f1ac 0741
000002a0: 6b8b 0441 f216 7cbd 1c25 2f3d 801f 8bba
000002b0: b291 0441 b03c 0541 a112 0641 d515 0641
000002c0: aafd 0641 47bd 0641 9e21 a1bd e8c3 0641
000002d0: faee 0641 7693 0341 547a 0141 0edd 0141
000002e0: 3e92 0741 3baa 0341 2f3f 0441 510c 0341
000002f0: 8014 103b 53de b5bc 7d34 0541 830e 0741
00000300: 6944 cb40 dda1 d040 55c1 cb40 8085 34bc
00000310: 80f8 36bd 6781 cd40 da58 cd40 d0e3 ca40
00000320: 89de 403d 254f c840 9648 c940 4c4d cf40
00000330: b871 f8bb a016 33bd d294 c3bd 1ab2 cb40
00000340: b019 433c ecee 93bd 98a7 d040 03c9 cb40
00000350: c469 c5bd a590 c8bd 0f0f cf40 78a8 cf40
00000360: 3843 c940 efc3 c940 3ec7 c840 75cb cc40
00000370: 4d8f cf40 ae4c ebbd fea1 8cbd 257b ca40
00000380: ba82 c940 9893 cc40 6c10 b0bd f15f cc40
00000390: d750 cc40 2475 6f3d 8af7 c840 020f cf40
000003a0: dd8b cc40 db9c 63bd f866 883c 20a5 9e3d
000003b0: 228f c840 d550 cc40 03de cf40 7481 cb40
000003c0: 3d9c cd40 6c45 c740 cce1 debd eac4 c840
000003d0: 3552 c940 385d c940 9ef0 c940 f99a ca40
000003e0: 4c88 cd40 4cc9 cb40 44b2 ca40 2cb7 ce40
000003f0: bef2 af3d f461 e13d bfe2 ca40 0216 c940

fc4.bias f4 [49]
6.1353583 7.5673895 10.088624 8.081418 13.061109 9.9395895 8.254381 13.608321
11.815437 11.131537 8.743702 13.073628 7.507021 -0.052199945 7.3119745 14.259683
10.762504 10.367615 13.261146 -0.11042 -0.08233373 8.1926365 12.481478 8.037042
10.465229 -0.05182083 0.11209102 -0.08225028 9.886051 11.27847 8.552973 0.089149535
0.027382225 0.07855119 -0.08212891 7.668181 10.686086 0.00068576634 -0.085506335 0.100143984
0.07928923 -0.046749443 7.8967443 0.017697856 -0.08635084 -0.012127578 0.10719694 0.10042259
0.07361026
00000000: db54 c440 0e28 f240 016b 2141 7d4d 0141
00000010: 4dfa 5041 8f08 1f41 f211 0441 afbb 5941
00000020: 080c 3d41 c71a 3241 34e6 0b41 952d 5141
00000030: 8439 f040 9ccf 55bd b2fb e940 a927 6441
00000040: 3733 2c41 c0e1 2541 a72d 5441 e223 e2bd
00000050: 969e a8bd 0a15 0341 22b4 4741 b997 0041
00000060: 9471 2741 1442 54bd fa8f e53d d672 a8bd
00000070: 442d 1e41 9d74 3441 fad8 0841 0894 b63d
00000080: b050 e03c 72df a03d 3433 a8bd bd61 f540
00000090: 35fa 2a41 00c5 333a f21d afbd 4a18 cd3d
000000a0: 6462 a23d 587c 3fbd 21b2 fc40 18fb 903c
000000b0: b6d8 b0bd c0b2 46bc 128a db3d 5caa cd3d
000000c0: fac0 963d
