trike2/models/DQN_Agent_3000ep.pt/DQN_Agent.pt (torch, 333080 bytes, 8 tensors)

fc1.weight f4 [256, 148]
000000 bc 20 fe 41 cd a8 fe 41 29 ec 05 42 17 fd fa 41
       31.765984 31.832422 33.480625 31.373579
000010 4b f1 b4 41 3d bf 03 42 e2 e2 ff 41 b4 d5 b6 41
       22.617819 32.936756 31.985783 22.854347
000020 2d de c4 41 b4 cd ce 41 59 9b 00 42 9d 7f b5 41
       24.608484 25.850441 32.151707 22.687311
000030 c3 fe df 41 22 14 28 3d 22 17 e6 41 25 81 b0 41
       27.999395 0.041034825 28.761295 22.063059
000040 74 a8 c4 41 70 f6 d3 41 e5 46 c2 41 e2 d1 69 3d
       24.582253 26.49533 24.284616 0.057084925
000050 41 5e 87 bd 29 85 d0 41 9c 54 cb 41 db 83 00 42
       -0.066097744 26.06502 25.416313 32.128765
000060 12 2a dd 41 39 09 a5 3d 1c f4 dd bc 2a 4e 7e bd
       27.645542 0.080584 -0.02709394 -0.06208626
000070 df 60 01 42 53 72 c7 41 55 bd 03 42 00 a0 dc 39
       32.3446 24.930822 32.934895 0.0004208088
000080 90 c9 1a 3d 1e 66 1d bd 15 6f a1 3d b4 cf eb 41
       0.03778988 -0.038427465 0.07882515 29.476418
000090 dc 2f fe 41 2a 23 29 3d 1e d9 5b bd 24 a7 ba bc
       31.773369 0.0412933 -0.053673856 -0.022784777
0000a0 64 d1 4e bd fa a1 e1 bc b6 24 fb 41 c7 6c 8f bd
       -0.05049266 -0.027543057 31.392925 -0.070031695
0000b0 70 98 bd bc c0 f6 88 3b 79 b9 6d bd 63 7f a6 3d
       -0.023143977 0.0041798055 -0.05803821 0.08129766
0000c0 92 3f 70 bd 7b a1 fc 41 7b 46 02 42 3e d4 f5 41
       -0.058654375 31.578848 32.56883 30.728634
0000d0 77 b4 c0 41 7c 00 ba 41 e6 e5 d9 41 3b 58 00 42
       24.088118 23.250237 27.237255 32.086163
0000e0 5e ca ac 41 3c 47 0a 42 bd 3e d3 41 83 9c f7 41
       21.598812 34.569565 26.405634 30.951422
0000f0 01 2d ba 41 7c 36 c5 41 6b fd 8e 3d 08 d6 ea 41
       23.271975 24.651604 0.069819294 29.354507
000100 0a e3 ac 41 cb 80 e3 41 36 34 be 41 ff da be 41
       21.610859 28.437887 23.775494 23.856932
000110 29 c0 97 3d 74 33 36 bd b4 c4 fa 41 71 15 cc 41
       0.074096985 -0.044482663 31.346046 25.51047
000120 11 23 c2 41 96 0c 00 42 56 86 e7 bc b5 d3 92 bd
       24.267122 32.01229 -0.028262299 -0.07169286
000130 60 b2 55 3b eb d5 bd 41 f8 13 f3 41 86 47 d7 41
       0.003260754 23.729452 30.38475 26.909924
000140 52 1c 4e 3d e5 c1 3c bd e3 38 80 bd 88 96 2e 3d
       0.050319977 -0.04608335 -0.0626085 0.042624027
000150 25 4b f0 41 55 af f4 41 7a 47 c0 bc 2c 31 d4 3c
       30.036692 30.585611 -0.023471583 0.025902353
000160 f8 d7 3d bc 6c d5 8f bd ed 4b 87 3d 2d 9d f3 41
       -0.0115871355 -0.07023129 0.066062786 30.451746
000170 fa 29 45 3d 22 a9 3e 3d 0e ef 01 3d 73 03 39 bd
       0.048135735 0.046548016 0.03172212 -0.045169305
000180 0a 89 7c bd f6 b5 6c 3d be 79 be 41 e7 f9 cd 41
       -0.061654128 0.05779072 23.809444 25.747023
000190 39 17 ed 41 af 3c ef 41 95 2c e7 41 89 d2 b8 41
       29.63634 29.90463 28.896769 23.1028
0001a0 f5 d8 c9 41 b7 d9 cb 41 bb 92 ea 41 bb 36 ed 41
       25.230936 25.481306 29.321646 29.651724
0001b0 78 22 f2 41 1c 07 00 42 e8 17 eb 41 0d 84 a0 3d
       30.26683 32.006943 29.386673 0.07837687
0001c0 6b 67 f4 41 57 73 ae 41 c6 6e 08 42 98 39 03 42
       30.550497 21.806318 34.108177 32.806244
0001d0 7f 4f e9 41 3a c7 2e bd 75 45 92 3d 4f 13 dc 41
       29.163816 -0.042670466 0.07142154 27.509428
0001e0 91 92 df 41 1e 58 da 41 64 af f7 41 11 0c 8e 3d
       27.946566 27.293026 30.96064 0.06935895
0001f0 d9 d8 1d bd a3 f3 a1 3d 6a a4 fb 41 c9 5d f2 41
       -0.03853688 0.07907798 31.45528 30.295794
000200 a4 2e f0 41 c0 18 ea ba f4 f3 8f bd f9 d4 86 3d
       30.022774 -0.0017860159 -0.07028952 0.0658359
000210 76 48 73 3d bc 8f bd 41 00 44 e3 41 ae cf ef bc
       0.059395276 23.695183 28.408203 -0.029273834
000220 00 1e 06 bd ef 21 81 3d 02 8b 6f 3d 0b f6 82 3d
       -0.032743454 0.063053004 0.058482178 0.06394585
000230 34 88 e4 41 40 87 d2 bc a4 78 7a bd 20 fb f0 3b
       28.566505 -0.025699258 -0.061150208 0.007354155
000240 00 19 56 3b 4d 6e 85 3d 2e 82 6f 3d 55 c2 a6 3d
       0.003266871 0.06515179 0.05847376 0.08142535
000250 c8 27 fe 41 83 7b fd 41 3c 9c 05 42 f1 87 f8 41
       31.769424 31.685308 33.402573 31.066378
000260 ee ea b5 41 cc d0 03 42 4f 52 ff 41 1c ee b5 41
       22.739712 32.953903 31.91519 22.741264
000270 fd ef c5 41 30 47 cd 41 89 84 00 42 4f 1c b4 41
       24.742182 25.65976 32.12943 22.513823
000280 13 e1 e0 41 75 b1 94 3d a9 cf e1 41 26 55 b1 41
       28.1099 0.0726041 28.226397 22.166576
000290 d7 b4 c2 41 46 af d3 41 c5 6a c2 41 3c 3b 3b bd
       24.3383 26.460583 24.302134 -0.045710787
0002a0 d0 f3 10 bc bc 3c d1 41 b8 5e cb 41 56 1e 00 42
       -0.008847192 26.154655 25.42125 32.029625
0002b0 ce ac dc 41 70 f0 72 3c 40 5a d3 3b 3c 40 fa 3c
       27.584377 0.014827833 0.0064499676 0.030548207
0002c0 66 34 01 42 86 4f c5 41 90 d3 03 42 fa b4 7e 3d
       32.30117 24.66383 32.956604 0.06218431
0002d0 a0 23 b9 bb d8 2c c3 3c 1a 36 0a 3d 8c 65 ec 41
       -0.005649999 0.023825094 0.033743 29.549583
0002e0 a8 4b fc 41 66 91 a2 bd 32 df 50 3d c0 bb 05 3d
       31.536942 -0.07937889 0.050994106 0.032649755
0002f0 aa 77 f5 bc cf 3f 8c bd c2 7b fa 41 fe a7 31 bd
       -0.029964287 -0.06848108 31.310429 -0.0433731
000300 f6 fd 78 3d cb c8 a2 3d d0 1c 34 bc 1f 7c 64 bd
       0.06078907 0.079484545 -0.010993198 -0.055782434
000310 fa 87 7d 3d 3a 14 fd 41 9c 68 01 42 41 8e f5 41
       0.061897255 31.634876 32.352158 30.69446
000320 80 9e c0 41 50 f3 b8 41 6a 12 d8 41 fd d2 00 42
       24.077393 23.118805 27.008991 32.206043
000330 be f5 ad 41 d9 85 09 42 94 67 d3 41 bc 4c f7 41
       21.744991 34.38071 26.425575 30.912468
000340 a9 ca ba 41 2c 2a c4 41 c2 6a d7 bc 2b b1 e9 41
       23.348955 24.520592 -0.026296023 29.211508
000350 ec 25 ae 41 d1 b7 e3 41 64 5d bb 41 81 68 bd 41
       21.768517 28.464754 23.4206 23.676027
000360 28 00 87 bc 90 a4 5c bc 93 d8 f9 41 58 25 cb 41
       -0.016479567 -0.013466969 31.23075 25.393234
000370 39 d8 c0 41 08 5e ff 41 36 a3 7a 3d f6 4d 23 bd
       24.105577 31.920914 0.061190806 -0.03986927
000380 a0 42 29 3c cf 50 bd 41 4b 5a f2 41 00 ab d6 41
       0.010330826 23.664457 30.294088 26.833496
000390 36 ae 7a bd 24 e1 dc 3c 60 71 87 3b ca bc 5f bd
       -0.061201297 0.026962824 0.0041333884 -0.054623403
0003a0 ce 89 ee 41 d6 8b f4 41 65 f8 a3 bd 67 71 3f bd
       29.817287 30.56828 -0.08006362 -0.04673901
0003b0 6d a3 8f 3d 3a 79 5f 3d 1b f5 a4 3d f8 58 f3 41
       0.07013593 0.05455897 0.08054563 30.418442
0003c0 1e ae 1b bd e0 52 fa bb 00 6c a7 bd 90 dc 54 bd
       -0.038007848 -0.007639274 -0.08174896 -0.051968157
0003d0 9e c0 41 3d 83 4d a4 3d d3 05 bd 41 61 f4 cc 41
       0.047302835 0.08022597 23.627844 25.619326
0003e0 fc 5c eb 41 58 6e ef 41 2e 9c e6 41 ef 05 b9 41
       29.420403 29.928879 28.82626 23.127897
0003f0 f0 5e c9 41 c5 e9 cc 41 92 db e9 41 c2 b8 ed 41
       25.171356 25.614145 29.232212 29.715214

fc1.bias f4 [256]
000000 37 1c a5 41 e7 3a a5 41 e1 72 a5 41 0e 3e a5 41
       20.638777 20.65376 20.681093 20.6553
000010 98 9f a5 41 15 e6 a4 41 7e f4 a4 41 a3 ab a4 41
       20.702927 20.612345 20.61938 20.583807
000020 35 03 a5 41 14 7e a5 41 43 56 a5 41 65 e7 a4 41
       20.626566 20.686562 20.66712 20.612986
000030 99 44 a5 41 c1 a3 a5 41 24 aa a5 41 a2 60 a5 41
       20.658495 20.704958 20.708076 20.672184
000040 ec b7 a4 41 9a fc a4 41 60 cc a5 41 a1 93 a5 41
       20.589806 20.62334 20.724792 20.697084
000050 65 06 a5 41 42 09 a5 41 f7 66 a5 41 80 9e a5 41
       20.628122 20.62952 20.675276 20.702393
000060 27 f1 a4 41 df d6 a4 41 56 75 a5 41 fa bf a5 41
       20.61775 20.604918 20.682293 20.718739
000070 ef 17 a5 41 ba 7b a5 41 d8 fa a4 41 39 75 a5 41
       20.636686 20.685413 20.622482 20.682238
000080 b0 f6 a4 41 85 72 a5 41 01 16 a5 41 05 a7 a5 41
       20.620453 20.680918 20.635744 20.706553
000090 5a c4 a4 41 68 8d a5 41 6a 18 a5 41 28 ff a4 41
       20.595875 20.694046 20.63692 20.624588
0000a0 83 30 a5 41 94 99 a4 41 45 01 81 c0 46 c9 a4 41
       20.648687 20.57499 -4.031405 20.598278
0000b0 57 de a5 41 e4 99 a4 41 b8 39 a5 41 22 72 a5 41
       20.733564 20.575142 20.653183 20.680729
0000c0 8d 0f a5 41 b3 13 a5 41 1d f3 a4 41 58 45 a5 41
       20.632593 20.634619 20.618708 20.65886
0000d0 39 19 a5 41 d5 f4 a4 41 a8 54 a5 41 ba 73 a5 41
       20.637316 20.619547 20.666336 20.681507
0000e0 54 9a a5 41 27 2f a5 41 00 f4 a4 41 af a2 a5 41
       20.700356 20.648024 20.61914 20.704435
0000f0 fa 3a a5 41 7b df a4 41 67 03 a5 41 43 7f a4 41
       20.653797 20.609121 20.626661 20.56214
000100 d9 3e a5 41 ec 4f a5 41 0c f4 a4 41 65 0d a5 41
       20.655687 20.664024 20.619164 20.63154
000110 1f 38 a5 41 74 c4 a5 41 eb 9e a4 41 a6 30 a5 41
       20.652403 20.720924 20.577597 20.648754
000120 f0 5f a5 41 ca 15 a5 41 51 32 82 c0 15 73 a5 41
       20.671844 20.63564 -4.068642 20.681192
000130 3f 88 a4 41 7c b1 81 c0 6d bd 84 c0 6b 5a a4 41
       20.566526 -4.0529156 -4.1481233 20.54415
000140 8b f7 a4 41 59 59 a5 41 70 31 a5 41 47 91 a5 41
       20.62087 20.668627 20.64914 20.695936
000150 5e 5a a4 41 c3 f8 a4 41 38 93 a5 41 7d f5 a4 41
       20.544125 20.621466 20.696884 20.619867
000160 c8 a7 a5 41 35 e3 a4 41 ca 38 a5 41 0e 4e a5 41
       20.706924 20.61094 20.652729 20.663113
000170 aa b0 a5 41 f8 74 a5 41 e2 74 a5 41 2a 73 a5 41
       20.711262 20.682114 20.682072 20.681232
000180 bd 82 a4 41 32 40 a5 41 69 89 a5 41 f1 8f 82 c0
       20.563837 20.656345 20.692095 -4.080071
000190 7d 8d a5 41 0a 50 a5 41 0b b8 a5 41 9d 2a a4 41
       20.694086 20.664082 20.714865 20.520807
0001a0 7d 79 a5 41 f5 ed a4 41 f3 a3 a5 41 12 e6 a4 41
       20.68432 20.61619 20.705053 20.612339
0001b0 70 68 a5 41 b3 e3 a4 41 f4 69 a5 41 44 6b a5 41
       20.675995 20.611181 20.676735 20.677376
0001c0 f3 11 a5 41 46 02 a4 41 19 2b a5 41 3c 9c a4 41
       20.633764 20.50111 20.646044 20.576286
0001d0 27 55 a5 41 28 4f a5 41 84 f1 a4 41 bf 4d a5 41
       20.666578 20.66365 20.617928 20.662962
0001e0 45 b2 a5 41 bf 7a a4 41 a4 0f a5 41 30 1c a4 41
       20.712046 20.559935 20.632637 20.513763
0001f0 c8 db a5 41 cb 5f a5 41 b9 98 a4 41 e9 05 a5 41
       20.732315 20.671774 20.574572 20.627886
000200 d7 28 a5 41 20 8d a4 41 fd 42 a5 41 46 ea 85 c0
       20.644941 20.568909 20.65771 -4.184848
000210 63 94 a4 41 51 a7 a5 41 3b ae a5 41 06 72 a5 41
       20.572454 20.706697 20.710073 20.680676
000220 ee 6b a5 41 34 02 82 c0 c8 90 a4 41 aa ce a4 41
       20.6777 -4.062769 20.570694 20.60091
000230 19 ce a5 41 6a 24 a5 41 da 9b 84 c0 22 8f a5 41
       20.725634 20.64278 -4.144025 20.69489
000240 c7 d2 a5 41 2f 95 a4 41 75 a7 a5 41 39 98 a5 41
       20.727919 20.572844 20.706766 20.699327
000250 38 fc a4 41 e1 1a a5 41 13 1f a5 41 0d 65 a4 41
       20.623154 20.638124 20.640173 20.549341
000260 8b 6e a5 41 b5 8b a5 41 2b f4 a4 41 6a 63 a5 41
       20.678976 20.693216 20.619223 20.673542
000270 52 e7 a4 41 9c c2 a5 41 bb c0 a4 41 02 61 a5 41
       20.61295 20.720024 20.594107 20.672367
000280 98 a6 a5 41 9a 1b a5 41 c6 a5 a4 41 7c 4a a5 41
       20.706345 20.638477 20.580944 20.66137
000290 d3 e5 a4 41 b6 93 a4 41 4f e9 a4 41 07 0d a5 41
       20.612219 20.572124 20.61392 20.631361
0002a0 af ab a5 41 00 d2 a4 41 d6 af a4 41 01 5f a5 41
       20.70883 20.60254 20.585857 20.671389
0002b0 d0 9d a5 41 50 f5 a4 41 be ac a5 41 55 5f a5 41
       20.702057 20.619781 20.709347 20.671549
0002c0 27 70 83 c0 02 84 85 c0 f3 27 a4 41 fb b9 a4 41
       -4.1074405 -4.172364 20.519506 20.59081
0002d0 2c c3 83 c0 6d bf a5 41 a0 3d a4 41 fb a0 a4 41
       -4.1175747 20.71847 20.53009 20.578604
0002e0 a8 38 a5 41 42 ad a5 41 b4 1d a5 41 c6 54 a5 41
       20.652664 20.709599 20.639503 20.666393
0002f0 1c 7b a5 41 12 07 a5 41 4c 1f a5 41 a8 83 a5 41
       20.685112 20.628452 20.640282 20.689285
000300 c8 b9 a5 41 a5 c5 a4 41 96 4a a5 41 3b 7a a5 41
       20.715714 20.596506 20.661419 20.684683
000310 c0 f2 a4 41 b3 27 a5 41 3e 34 a5 41 0f ee a4 41
       20.61853 20.644384 20.650509 20.61624
000320 9b 74 a5 41 2f 90 a5 41 1f 56 a5 41 61 db a4 41
       20.681936 20.695402 20.667051 20.607119
000330 8d 83 82 c0 36 81 a5 41 d0 59 a5 41 e9 f7 a4 41
       -4.0785584 20.688091 20.668854 20.62105
000340 c5 78 a4 41 d7 39 a5 41 df ac a4 41 ea 49 a5 41
       20.55897 20.653242 20.58441 20.66109
000350 31 32 a5 41 bb 96 a5 41 36 14 a5 41 df 77 a5 41
       20.649508 20.698599 20.634869 20.68353
000360 7a 52 a5 41 ba ac a5 41 13 12 a5 41 06 67 a5 41
       20.665272 20.70934 20.633825 20.675304
000370 11 4b a4 41 70 87 a5 41 c4 b4 a4 41 0d 0b 84 c0
       20.536654 20.691132 20.588264 -4.126349
000380 a3 cd a4 41 34 cc a5 41 91 d9 a4 41 1b 4c a5 41
       20.600409 20.724709 20.606234 20.66216
000390 ea 63 a4 41 ac f0 a4 41 8b 6f a4 41 f2 0c 85 c0
       20.548786 20.617516 20.554464 -4.15783
0003a0 e2 7d a5 41 af 04 a5 41 15 4e a5 41 9e c3 a4 41
       20.686466 20.627287 20.663126 20.595516
0003b0 65 b2 a4 41 7d 54 a5 41 f7 ca a4 41 dc 88 a5 41
       20.587107 20.666254 20.599104 20.691826
0003c0 df bd a5 41 a9 0b a5 41 08 ef a4 41 d9 07 a5 41
       20.71771 20.630693 20.616714 20.628832
0003d0 2f a2 a4 41 21 00 a5 41 39 6f a5 41 cb f7 a4 41
       20.579191 20.625063 20.679308 20.620993
0003e0 0a 74 a5 41 a9 7c a5 41 2e f1 a3 41 72 13 a5 41
       20.68166 20.68587 20.492764 20.634495
0003f0 88 87 a5 41 95 12 80 c0 ba 7b a5 41 ca c7 a5 41
       20.691177 -4.0022683 20.685413 20.722553

fc2.weight f4 [128, 256]
000000 82 6b 1e 42 a4 80 1e 42 50 7e 1e 42 7b 84 1e 42
       39.60499 39.625626 39.623352 39.629375
000010 46 a4 1e 42 b8 bf 1e 42 96 ec 1e 42 65 f9 1e 42
       39.660423 39.687225 39.73104 39.74355
000020 1f 64 1e 42 a8 a1 1e 42 4a 23 1e 42 a2 e2 1e 42
       39.597775 39.657867 39.534462 39.72132
000030 7d 4a 1e 42 2d 79 1e 42 e7 bc 1e 42 2e fb 1e 42
       39.572742 39.618336 39.684475 39.745293
000040 34 92 1e 42 0a 9b 1e 42 62 59 1e 42 9a 87 1e 42
       39.642776 39.651405 39.587288 39.632423
000050 1f 3f 1e 42 29 68 1e 42 87 72 1e 42 7f 13 1e 42
       39.56164 39.60172 39.611843 39.51904
000060 37 b0 1e 42 ae 75 1e 42 9d 1a 1e 42 09 b3 1e 42
       39.672085 39.61492 39.52599 39.67484
000070 31 f9 1d 42 97 f1 1e 42 1b 65 1e 42 6d 6c 1e 42
       39.49335 39.735928 39.598736 39.605885
000080 e7 ab 1e 42 4d 54 1e 42 33 74 1e 42 29 9a 1e 42
       39.667873 39.582325 39.613476 39.650547
000090 43 a8 1e 42 a3 a3 1e 42 0b 79 1e 42 86 94 1e 42
       39.664318 39.6598 39.618206 39.645042
0000a0 f4 97 1e 42 25 7a 1e 42 25 e1 3c c1 55 ed 1e 42
       39.64839 39.61928 -11.804967 39.73177
0000b0 6c 24 1e 42 5e 65 1e 42 0b d5 1e 42 a6 c4 1e 42
       39.53557 39.59899 39.70805 39.69204
0000c0 7e 6d 1e 42 b1 9a 1e 42 41 fe 1e 42 1c 98 1e 42
       39.606926 39.651066 39.748295 39.648544
0000d0 42 13 1f 42 34 8e 1e 42 a3 f9 1e 42 44 3b 1e 42
       39.768806 39.63887 39.743786 39.557877
0000e0 fd df 1e 42 7f 5f 1e 42 7c a1 1e 42 5f e1 1e 42
       39.71874 39.593258 39.6577 39.72009
0000f0 c6 8f 1e 42 52 b4 1d 42 89 c7 1e 42 5c 11 1f 42
       39.640404 39.426094 39.69486 39.766953
000100 7b 31 1e 42 fe ec 1d 42 0e a5 1e 42 cd 79 1e 42
       39.54832 39.481438 39.661186 39.618946
000110 cd e6 1d 42 5f 6b 1e 42 ae ad 1e 42 c3 94 1e 42
       39.47539 39.604855 39.66961 39.645275
000120 48 7c 1e 42 22 86 1e 42 13 51 33 c1 5d e2 1e 42
       39.62137 39.63099 -11.2072935 39.721058
000130 22 56 1e 42 59 c2 38 c1 13 5c 38 c1 d4 ec 1e 42
       39.584114 -11.547448 -11.522479 39.731277
000140 66 2f 1e 42 f5 c7 1e 42 28 37 1e 42 f5 db 1e 42
       39.546288 39.69527 39.553864 39.7148
000150 35 51 1e 42 ca cc 1e 42 a4 24 1e 42 63 65 1e 42
       39.579304 39.69999 39.53578 39.59901
000160 c9 aa 1e 42 f2 13 1e 42 bd 72 1e 42 9f 82 1e 42
       39.666782 39.519478 39.61205 39.62756
000170 fd dc 1e 42 97 b3 1d 42 96 72 1e 42 2b 64 1e 42
       39.71581 39.42538 39.6119 39.59782
000180 43 78 1e 42 a0 fe 1d 42 33 63 1e 42 09 3f 38 c1
       39.617443 39.498657 39.596874 -11.515389
000190 1d fa 1e 42 24 f1 1e 42 1e 9e 1e 42 5a ea 1c 42
       39.74425 39.73549 39.65441 39.22886
0001a0 07 da 1e 42 24 b8 1e 42 b2 53 1e 42 9c de 1e 42
       39.712917 39.679825 39.581734 39.717392
0001b0 3b 95 1e 42 47 5e 1e 42 c7 38 1e 42 18 a0 1e 42
       39.645733 39.592068 39.555447 39.65634
0001c0 54 a4 1e 42 d3 ae 1e 42 e6 92 1e 42 0f be 1e 42
       39.660477 39.670727 39.643456 39.685604
0001d0 a9 5d 1e 42 ae c1 1e 42 c9 ba 1d 42 78 70 1e 42
       39.591465 39.68914 39.432407 39.609833
0001e0 65 42 1e 42 84 5a 1e 42 ee 7d 1e 42 76 c7 1e 42
       39.56484 39.588394 39.62298 39.694786
0001f0 3e 66 1e 42 80 9d 1e 42 44 0a 1e 42 48 d7 1e 42
       39.599846 39.65381 39.510025 39.710236
000200 b5 c2 1e 42 4a a7 1e 42 a4 8c 1e 42 1b bc 34 c1
       39.690144 39.66337 39.637344 -11.295924
000210 67 8d 1e 42 8f 4a 1e 42 f0 e4 1e 42 71 ee 1e 42
       39.63809 39.57281 39.72357 39.732853
000220 7a 95 1e 42 9f d2 35 c1 15 da 1e 42 92 28 1e 42
       39.645973 -11.363921 39.71297 39.53962
000230 81 5b 1e 42 c1 e5 1e 42 0c df 35 c1 82 fa 1e 42
       39.58936 39.72437 -11.366955 39.744637
000240 6d 1f 1e 42 28 fc 1e 42 c4 e8 1e 42 60 75 1e 42
       39.53069 39.746246 39.72731 39.614624
000250 9b f4 1e 42 aa a3 1e 42 c3 a7 1e 42 02 ab 1d 42
       39.738873 39.65983 39.66383 39.417
000260 8e 8c 1e 42 19 c6 1e 42 a6 18 1e 42 71 02 1f 42
       39.63726 39.693455 39.52407 39.752384
000270 70 63 1e 42 7c 7f 1e 42 59 ad 1e 42 3a 46 1e 42
       39.597107 39.624496 39.669285 39.56858
000280 cf 2a 1e 42 ac 1e 1e 42 b0 87 1e 42 5c ba 1e 42
       39.541805 39.529953 39.632507 39.68199
000290 1c 3d 1e 42 70 17 1e 42 0f 93 1e 42 9f a9 1e 42
       39.559677 39.52289 39.643612 39.665646
0002a0 0e d4 1e 42 cb db 1d 42 dc 8a 1e 42 b1 8b 1e 42
       39.707085 39.46464 39.635605 39.636417
0002b0 7f b7 1e 42 5f 85 1e 42 d0 57 1e 42 70 2b 1e 42
       39.679195 39.630245 39.585754 39.54242
0002c0 ce f9 38 c1 be 84 36 c1 2b e8 1e 42 37 9e 1e 42
       -11.560987 -11.407408 39.726727 39.654507
0002d0 9c db 35 c1 44 2e 1e 42 d3 d0 1e 42 3a 34 1e 42
       -11.366116 39.54518 39.70393 39.551003
0002e0 17 09 1e 42 8d 75 1e 42 50 87 1d 42 3c 8f 1e 42
       39.508877 39.614796 39.38214 39.639877
0002f0 22 fe 1d 42 dc 2b 1e 42 56 9f 1e 42 25 0f 1f 42
       39.498177 39.54283 39.6556 39.76479
000300 85 85 1e 42 1d 3f 1e 42 fa 63 1e 42 c2 bc 1e 42
       39.63039 39.561634 39.597633 39.684334
000310 d5 5d 1e 42 c3 fe 1e 42 b4 f4 1d 42 be b3 1e 42
       39.591633 39.74879 39.488968 39.67553
000320 c6 65 1e 42 cd aa 1e 42 e5 a3 1e 42 25 c4 1e 42
       39.59939 39.666798 39.660053 39.691547
000330 3a 09 3a c1 7e 63 1e 42 01 43 1e 42 ae 80 1e 42
       -11.627253 39.59716 39.565434 39.625664
000340 18 4c 1e 42 6d ee 1e 42 27 90 1e 42 46 a2 1e 42
       39.57431 39.732838 39.640774 39.65847
000350 de 19 1f 42 40 c7 1e 42 cc 4e 1e 42 ae fb 1e 42
       39.77526 39.69458 39.57695 39.74578
000360 3a 55 1e 42 07 d4 1e 42 57 6c 1e 42 05 6b 1e 42
       39.58323 39.707058 39.6058 39.60451
000370 2a f8 1d 42 64 4d 1e 42 a1 6a 1e 42 d8 a3 37 c1
       39.492348 39.575577 39.60413 -11.477501
000380 94 a8 1e 42 4c 8f 1e 42 6d 71 1e 42 48 8e 1e 42
       39.664627 39.63994 39.610767 39.638947
000390 3d e6 1e 42 5f a1 1e 42 c6 c8 1e 42 05 89 36 c1
       39.724842 39.65759 39.696068 -11.408452
0003a0 ac 85 1e 42 c2 95 1e 42 58 91 1e 42 bd 79 1e 42
       39.63054 39.646248 39.641937 39.618885
0003b0 7e fd 1d 42 f7 99 1e 42 6f 02 1e 42 08 2a 1f 42
       39.49755 39.650356 39.502377 39.791046
0003c0 f8 85 1e 42 59 b4 1e 42 46 78 1d 42 ee 59 1e 42
       39.63083 39.67612 39.367455 39.587822
0003d0 77 88 1e 42 18 a7 1e 42 04 f6 1e 42 85 92 1e 42
       39.633266 39.663177 39.74025 39.643085
0003e0 73 ef 1e 42 56 8a 1e 42 6e c6 1e 42 24 ce 1e 42
       39.733837 39.635094 39.69378 39.70131
0003f0 a0 b2 1e 42 d5 aa 36 c1 d7 8c 1e 42 01 85 1e 42
       39.67444 -11.416707 39.63754 39.629887

fc2.bias f4 [128]
000000 39 2e 1b 42 a9 07 1b 42 7f 44 1b 42 69 a2 1a 42
       38.79514 38.75748 38.81689 38.658604
000010 44 5a 1b 42 6f 71 1b 42 1e 69 1b 42 c1 d1 1a 42
       38.83815 38.860775 38.852654 38.704838
000020 4c 7a 1b 42 b7 f9 89 bf 88 39 1b 42 cf 3d 1b 42
       38.86943 -1.0779332 38.806183 38.81036
000030 3c f9 1a 42 52 3c 1b 42 5d 49 1b 42 ed 2c 1b 42
       38.743393 38.808907 38.821644 38.793873
000040 77 21 1b 42 40 23 1b 42 62 c2 1a 42 ee ff 1a 42
       38.78268 38.784424 38.689827 38.74993
000050 e1 8b 1b 42 39 3d 1b 42 3e 5e 1b 42 9f 63 1b 42
       38.8866 38.809788 38.842033 38.847286
000060 d1 55 1b 42 27 41 1a 42 ba 34 1b 42 5a 15 1b 42
       38.833805 38.563625 38.80149 38.77085
000070 30 03 1b 42 fa 3b 1b 42 98 26 1b 42 aa 55 1b 42
       38.753113 38.80857 38.78769 38.833656
000080 54 5d 1b 42 0f df 1a 42 be 7b 6e bc da 5a 1b 42
       38.84114 38.71783 -0.01455587 38.838722
000090 cf b2 68 bd 57 49 1b 42 e8 46 1b 42 b2 e8 1a 42
       -0.05681115 38.82162 38.819244 38.72724
0000a0 8a 72 1b 42 f3 15 1b 42 41 04 1b 42 c5 0d 1b 42
       38.861855 38.771435 38.754154 38.763447
0000b0 21 27 1b 42 ed fd 1a 42 43 ed 1a 42 d2 46 1b 42
       38.78821 38.747974 38.7317 38.81916
0000c0 15 39 1b 42 c9 66 1b 42 9a 4b 1b 42 fc 02 1b 42
       38.805744 38.850376 38.82383 38.752914
0000d0 e4 07 1b 42 4c 5f 1a 42 0d 05 1b 42 b4 10 1b 42
       38.757706 38.593063 38.754932 38.76631
0000e0 61 1f 1b 42 bf 1d 36 bd 3a 48 1b 42 b0 6e 1b 42
       38.780643 -0.04446196 38.820534 38.858093
0000f0 f5 06 1b 42 52 3c 1b 42 1a 78 1b 42 6b 52 92 bf
       38.756794 38.808907 38.867287 -1.1431402
000100 ef 46 1b 42 81 47 1b 42 35 4a 1b 42 1d 7d 1a 42
       38.81927 38.819828 38.822468 38.62218
000110 2f 52 1b 42 5f 4a 1b 42 8d 2d 1b 42 80 fd 1a 42
       38.830257 38.822628 38.794483 38.74756
000120 69 ad 1a 42 bd fa 1a 42 10 7a 1b 42 57 5f 1b 42
       38.669346 38.74486 38.8692 38.843105
000130 14 c5 1a 42 c0 60 1b 42 c9 8b 6f bd 3d b1 86 bd
       38.69246 38.844482 -0.05848292 -0.06576774
000140 85 f1 1a 42 2d 01 1b 42 64 af 5b bd fe e1 1a 42
       38.73586 38.75115 -0.053634062 38.720695
000150 e1 91 85 bd 52 2c 1b 42 13 83 01 bc 58 cb 19 42
       -0.06521965 38.79328 -0.007904786 38.448578
000160 2d 01 1b 42 09 2b 1b 42 d1 26 16 bd 37 57 1a 42
       38.75115 38.792027 -0.036658112 38.58517
000170 2c fa 1a 42 1f 86 1a 42 da 6d 1b 42 01 0e 1b 42
       38.74431 38.630978 38.857277 38.763676
000180 d2 4d 89 bf 2b 27 1b 42 cc 24 1b 42 fd 77 1a 42
       -1.0726874 38.78825 38.785934 38.617176
000190 09 0a 1b 42 5b 3a 7d bf 9a 72 1b 42 de 61 1b 42
       38.7598 -0.9891717 38.861916 38.845573
0001a0 ba d8 1a 42 6b 43 1b 42 9f 56 1b 42 f5 fc 1a 42
       38.711647 38.815838 38.83459 38.74703
0001b0 e7 0b 1b 42 ad 60 1b 42 f9 5e 1b 42 cc 19 1b 42
       38.761623 38.84441 38.842747 38.775192
0001c0 09 a0 1a 42 98 26 1b 42 0e 4f 1b 42 0b 5d 1b 42
       38.656284 38.78769 38.8272 38.840862
0001d0 81 1f 1b 42 40 7d 1b 42 f7 94 1a 42 8f 11 1b 42
       38.780766 38.872314 38.645473 38.767147
0001e0 c8 54 1b 42 29 51 1b 42 f4 2c 1b 42 c4 ea 19 42
       38.832794 38.829258 38.7939 38.479263
0001f0 a1 29 1b 42 da 52 1b 42 0c f2 1a 42 2c 00 1b 42
       38.790653 38.83091 38.736374 38.750168

fc3.weight f4 [64, 128]
000000 a7 00 b9 41 c3 7f b8 41 cc 25 b9 41 1d 86 b8 41
       23.125319 23.062384 23.143456 23.065485
000010 ac 50 b9 41 a8 89 ba 41 a9 71 b9 41 c3 43 b9 41
       23.16439 23.317215 23.180498 23.158087
000020 bc a7 ba 41 fe fd 89 c0 91 d3 b8 41 dc 16 ba 41
       23.331902 -4.312255 23.103304 23.261162
000030 05 81 b7 41 11 70 b9 41 43 eb b9 41 c7 61 b8 41
       22.937998 23.17972 23.239874 23.047743
000040 83 d4 b9 41 ff d8 b9 41 b4 b0 b9 41 5f 0f b8 41
       23.228765 23.230955 23.21128 23.007505
000050 76 ab ba 41 86 c2 b9 41 57 46 b9 41 c0 98 b9 41
       23.333721 23.219982 23.159346 23.199585
000060 3e 25 ba 41 4a bb b6 41 9f d3 b8 41 03 4e b7 41
       23.268185 22.84145 23.10333 22.913092
000070 5c 0f b9 41 0e 8a b9 41 7e 02 ba 41 3d a2 b8 41
       23.1325 23.19241 23.251217 23.079218
000080 62 c4 ba 41 dc d1 b8 41 4e b9 80 bc f4 70 b9 41
       23.34589 23.10247 -0.01571336 23.180153
000090 9a 7e 7c bb b7 55 ba 41 ad 0c b9 41 99 5e b9 41
       -0.003852761 23.291853 23.13119 23.17119
0000a0 ca 19 ba 41 f7 81 ba 41 1a 60 b9 41 48 d5 b8 41
       23.262592 23.31346 23.171925 23.104141
0000b0 b1 df b9 41 87 97 b9 41 dc df b7 41 67 a8 b9 41
       23.234224 23.198988 22.984306 23.207228
0000c0 45 39 ba 41 ad 20 b9 41 af bb b7 41 03 0b ba 41
       23.277964 23.140955 22.966642 23.255377
0000d0 eb 1f b8 41 83 ae b6 41 4e f0 b9 41 d6 cc b9 41
       23.015585 22.83521 23.242336 23.225018
0000e0 61 47 ba 41 26 c2 79 3d 57 93 b8 41 85 16 b9 41
       23.284853 0.06097617 23.071943 23.135996
0000f0 84 a8 b9 41 f7 b4 b9 41 25 6d ba 41 a2 d9 9b c0
       23.207283 23.213362 23.303293 -4.8703165
000100 45 bf b8 41 02 e1 b9 41 7c 1f b9 41 3a 16 b9 41
       23.093393 23.234867 23.140373 23.135853
000110 c4 3e ba 41 a3 15 ba 41 f3 60 b9 41 a4 93 b9 41
       23.280647 23.260565 23.172338 23.19709
000120 d6 0a b8 41 90 29 b9 41 d2 98 ba 41 90 26 ba 41
       23.005291 23.145294 23.32462 23.26883
000130 0a fa b7 41 44 9d b9 41 4e 0f 8c bd 12 e9 57 3d
       22.99709 23.20179 -0.06838857 0.052712508
000140 0a c4 b9 41 28 4b b9 41 91 8b bd bd e7 45 b8 41
       23.220722 23.161697 -0.09255136 23.034132
000150 fc 5a 94 bc 5b 21 b7 41 70 90 67 bd 0a c8 b7 41
       -0.018109791 22.891287 -0.05653423 22.972675
000160 db ab b9 41 fc fc b8 41 8a 61 8d bd f3 39 b6 41
       23.208914 23.123528 -0.0690337 22.778296
000170 cf 8c b8 41 03 dc b8 41 6c e8 b9 41 4c 7f b9 41
       23.068754 23.107428 23.238487 23.187157
000180 04 d6 84 c0 11 fe b8 41 36 46 b9 41 16 51 b6 41
       -4.151125 23.124056 23.159283 22.789593
000190 5b b6 b8 41 1c 56 80 c0 57 a8 b9 41 a5 6f b9 41
       23.08904 -4.0105114 23.207197 23.179514
0001a0 9a 5c b8 41 54 06 ba 41 63 b2 b9 41 6d 0e b9 41
       23.045216 23.25309 23.212103 23.132044
0001b0 4c 0f b9 41 93 aa b9 41 34 15 ba 41 70 bc b7 41
       23.13247 23.208288 23.260353 22.96701
0001c0 f6 e9 b6 41 5f b4 b8 41 f8 3c b9 41 15 dc b9 41
       22.864239 23.088072 23.15477 23.232462
0001d0 ab d4 b9 41 43 01 ba 41 29 18 b6 41 5b 3e b9 41
       23.228842 23.250616 22.761797 23.155447
0001e0 f3 df b8 41 c6 6c b9 41 dc 3a ba 41 50 48 b6 41
       23.10935 23.178112 23.27874 22.785309
0001f0 00 be b9 41 23 25 b8 41 85 b1 b8 41 3b 52 b9 41
       23.217773 23.018133 23.08668 23.165152
000200 a4 f7 b8 41 b7 b7 b9 41 7b 47 b9 41 78 3f ba 41
       23.120918 23.214705 23.159903 23.28099
000210 f6 76 b9 41 45 3a b9 41 71 2c b9 41 7b 39 b9 41
       23.183086 23.153452 23.1467 23.153067
000220 af 93 b8 41 63 28 87 c0 65 a4 b8 41 c6 85 b8 41
       23.072111 -4.22368 23.08027 23.06532
000230 89 f5 b9 41 8c 88 b9 41 04 7b b8 41 7c 8f b9 41
       23.24489 23.191673 23.060066 23.19506
000240 c5 f4 b8 41 c3 67 ba 41 89 6f b9 41 96 21 ba 41
       23.119516 23.300665 23.17946 23.2664
000250 80 ab b8 41 22 e8 b8 41 77 5b b9 41 55 aa b8 41
       23.08374 23.113346 23.16966 23.08317
000260 49 5a b9 41 f5 b1 b9 41 f0 e5 b8 41 4b 78 b8 41
       23.169085 23.211893 23.112274 23.058737
000270 29 c5 b9 41 9e 40 b9 41 ef 57 b9 41 f3 e5 b8 41
       23.22127 23.156551 23.167936 23.11228
000280 9c 07 b9 41 a8 c3 b9 41 2c 91 9c bd 78 ba b9 41
       23.128716 23.220535 -0.07644877 23.21605
000290 36 9d 98 bd 4b b6 b8 41 bb 80 b8 41 ca 24 b9 41
       -0.074518606 23.08901 23.062857 23.142963
0002a0 7b 46 b9 41 6c 8c b8 41 4e bf b8 41 10 0a ba 41
       23.159414 23.068565 23.09341 23.254913
0002b0 cf b7 b9 41 ac 49 b9 41 b9 68 b9 41 15 33 b9 41
       23.21475 23.160973 23.176134 23.149942
0002c0 1b 89 b8 41 3f c9 b9 41 78 56 b9 41 51 30 b9 41
       23.066946 23.223265 23.167221 23.148592
0002d0 1f be b9 41 c9 c6 b9 41 9c cc b9 41 db bd b9 41
       23.217833 23.222063 23.224907 23.217703
0002e0 af 8a b8 41 27 af 3f 3d 37 9f b8 41 1f 04 b9 41
       23.067717 0.046797898 23.077742 23.127012
0002f0 ca 43 b9 41 ba af b9 41 75 c6 b8 41 8e 4d 8e c0
       23.1581 23.210804 23.096903 -4.446967
000300 65 3e b9 41 6c ce b8 41 81 66 b9 41 05 93 b8 41
       23.155466 23.100792 23.17505 23.071787
000310 49 79 b8 41 9a 01 ba 41 39 c9 b9 41 e5 cb b8 41
       23.059221 23.250782 23.223253 23.099558
000320 fa 00 ba 41 6c ed b9 41 27 16 b8 41 11 a9 b8 41
       23.250477 23.240929 23.010817 23.082552
000330 6c 4b ba 41 f0 2f b9 41 90 eb d4 3c df 1d 48 3c
       23.286827 23.148407 0.025991231 0.012214153
000340 63 89 b8 41 15 3e ba 41 27 06 07 bb c6 24 ba 41
       23.067083 23.280313 -0.0020603032 23.267956
000350 04 9b 85 bd 62 f1 b8 41 2c b1 66 bd d4 b2 b8 41
       -0.065237075 23.117863 -0.056321308 23.087318
000360 82 26 ba 41 78 58 b9 41 c3 c8 6e 3d 2b 50 b9 41
       23.268803 23.168198 0.05829693 23.164145
000370 3d 28 b9 41 07 4d b8 41 b6 ee b8 41 f2 8e b8 41
       23.144648 23.037611 23.116558 23.069798
000380 d8 f6 7f c0 6f ce b9 41 f1 24 b9 41 3e 84 b9 41
       -3.9994411 23.225798 23.143038 23.189571
000390 bc 01 ba 41 6c 47 74 c0 a0 19 b9 41 16 fd b8 41
       23.250847 -3.8168592 23.137512 23.123577
0003a0 ec ba b8 41 15 fe b9 41 9d 85 b8 41 e3 a7 b8 41
       23.09127 23.249063 23.06524 23.081976
0003b0 34 85 b9 41 12 55 b9 41 0b fb b8 41 ef 3b b9 41
       23.19004 23.166538 23.12258 23.154264
0003c0 59 1c ba 41 7f a5 b9 41 75 55 b9 41 c3 5e b9 41
       23.263842 23.205809 23.166727 23.17127
0003d0 71 fc b8 41 a1 7b b9 41 3c fa b8 41 0e 6d b8 41
       23.123262 23.185366 23.122185 23.05325
0003e0 b8 61 b9 41 c9 96 b8 41 d2 b8 b9 41 92 d0 b8 41
       23.172714 23.073626 23.215244 23.101841
0003f0 ea 05 b9 41 a3 10 ba 41 af 63 b9 41 64 53 b8 41
       23.127888 23.258123 23.173674 23.040718

fc3.bias f4 [64]
000000 33 f5 16 42 b3 8d 16 42 80 92 16 42 58 f6 78 bd
       37.739452 37.63838 37.643066 -0.060781807
000010 b2 f9 77 bd bb 8e 16 42 3e a2 16 42 6e fb 16 42
       -0.060540862 37.639385 37.65844 37.745537
000020 34 9a c7 bd 11 89 16 42 5a 8b 16 42 91 1b 16 42
       -0.09746209 37.633854 37.636086 37.52692
000030 09 5b d7 3c ef 66 c6 bd e4 82 4d bd b6 0f 16 42
       0.026288526 -0.09687602 -0.050173655 37.515343
000040 df 7f 92 bd 38 90 9d bd 8c 30 16 42 00 d1 16 42
       -0.07153296 -0.07693523 37.54741 37.7041
000050 ed 1f d7 bd 4a 87 14 3d c0 a2 16 42 31 02 17 42
       -0.10504136 0.036261834 37.658936 37.75214
000060 04 b4 16 42 9e 4d 16 42 4c bd 16 42 a3 09 16 42
       37.675797 37.575798 37.68486 37.50941
000070 30 75 16 42 1b ab b7 bd 61 8f 4b bd 89 f6 16 42
       37.61444 -0.08968183 -0.049697284 37.740757
000080 d0 24 16 42 8f dd 16 42 91 b4 da bd 1a fd 16 42
       37.53595 37.716366 -0.106789716 37.74717
000090 5b 6b 16 42 e2 96 0c bd 94 c8 16 42 1d f4 16 42
       37.60484 -0.03432358 37.695877 37.73839
0000a0 da cc 16 42 75 c4 83 bd 59 1b 88 bd ea 21 3a bd
       37.70005 -0.064339556 -0.06645841 -0.0454425
0000b0 0a db 16 42 cf 26 16 42 a2 9d 16 42 41 dd 15 42
       37.713905 37.5379 37.65394 37.46607
0000c0 cd b9 16 42 30 8b 16 42 77 04 bd bc c8 91 16 42
       37.681446 37.635925 -0.023073418 37.642365
0000d0 b4 64 16 42 80 88 16 42 56 14 16 42 13 b0 15 42
       37.598343 37.6333 37.51986 37.421947
0000e0 0a ba 16 42 7c 78 16 42 b4 b6 16 42 02 8d 16 42
       37.68168 37.61766 37.67842 37.637703
0000f0 8c 2c 96 bd f4 c1 4f 3d ce 65 16 42 67 95 16 42
       -0.073327154 0.050722077 37.59942 37.6459

fc4.weight f4 [49, 64]
000000 f3 6e 8e 40 f1 e3 88 40 e6 82 90 40 2b 08 1d bd
       4.4510436 4.277825 4.515979 -0.038337868
000010 ae 14 c3 3d 2f 69 8b 40 13 43 90 40 09 90 8e 40
       0.09525429 4.35659 4.508188 4.4550824
000020 e0 7c e6 3b b7 ba 93 40 84 53 91 40 92 4f 8b 40
       0.007033929 4.6165423 4.541445 4.353463
000030 38 c2 b4 bd 9e c4 a1 3d 78 ed e8 3c ad 57 85 40
       -0.08826107 0.0789883 0.028433546 4.1669526
000040 b8 03 3c bd 40 29 f0 bb 33 a5 85 40 60 54 8d 40
       -0.045901984 -0.007329136 4.176416 4.4165497
000050 34 7b 8c bd e0 5e ab 3c 74 dd 8b 40 4c 3d 8d 40
       -0.06859437 0.020919263 4.370783 4.4137325
000060 4d ce 90 40 0c 1c 8c 40 2f b3 8b 40 a9 3b 8c 40
       4.525183 4.3784237 4.365623 4.3822827
000070 97 f1 8b 40 00 1e 8d 3c 11 42 8f 3c 66 86 88 40
       4.373241 0.01722622 0.017487558 4.266406
000080 4a f7 8f 40 81 0b 8a 40 ea 8d c2 3d d7 bd 8c 40
       4.4989367 4.3139043 0.09499724 4.398174
000090 e8 18 8e 40 56 f5 de 3d a0 80 8f 40 f5 a7 8c 40
       4.4405403 0.10886638 4.4844513 4.3955026
0000a0 a3 af 89 40 c0 10 23 bd b4 43 8a 3d 74 5a 3a bd
       4.30269 -0.039810896 0.067511946 -0.04549642
0000b0 d6 9c 90 40 f5 b9 8d 40 ed 8c 88 40 f9 a8 93 40
       4.519145 4.42895 4.267203 4.6143765
0000c0 5c f5 8c 40 53 a4 92 40 16 85 e3 bb 73 3d 8a 40
       4.404951 4.582559 -0.0069433553 4.320001
0000d0 68 ca 92 40 0c c8 89 40 1d 72 82 40 79 4a 89 40
       4.587208 4.30567 4.07643 4.290341
0000e0 2b 60 8d 40 54 cb 8b 40 80 69 8e 40 2b 9e 88 40
       4.4179893 4.3685703 4.4503784 4.2693076
0000f0 4c 0b a0 bd ca e2 e5 bd 17 9e 8d 40 62 86 91 40
       -0.07814655 -0.11224897 4.425548 4.547654
000100 33 6b ca 40 48 0d cf 40 6a 1f ce 40 c0 2e 5d bd
       6.325586 6.4703712 6.4413347 -0.053999662
000110 66 72 8b bd 5e 9d cf 40 3e b7 d0 40 73 69 ca 40
       -0.06808929 6.48796 6.5223684 6.325372
000120 00 d0 48 3b f3 08 cd 40 ca 39 cb 40 54 60 cd 40
       0.0030641556 6.4073424 6.3508043 6.418009
000130 fa 3f b5 3d b4 b5 d2 bd d8 51 fd 3d 93 0a cc 40
       0.08850093 -0.10288563 0.12369126 6.376291
000140 78 f4 6a 3d e8 3a 20 bd 71 49 cc 40 e5 e7 cf 40
       0.05736205 -0.039118677 6.383965 6.4970574
000150 ec aa 20 3d 18 c1 32 3d 2f ee ce 40 af c5 ca 40
       0.039225504 0.04364118 6.466575 6.3366313
000160 9b 39 d0 40 0c ba ca 40 5c 74 cd 40 61 9d cd 40
       6.507032 6.335211 6.420454 6.4254613
000170 88 da cf 40 60 2c 09 bc 10 00 d2 bc 6c a6 ca 40
       6.495426 -0.008372396 -0.025634795 6.332815
000180 58 28 ca 40 a8 bf cb 40 b4 92 61 bd 60 be cb 40
       6.317425 6.3671455 -0.055071548 6.366989
000190 2f e1 cb 40 f0 dc 1f bd bf 9c cd 40 1e 85 cd 40
       6.371238 -0.03902906 6.425384 6.4224997
0001a0 cd 8c ca 40 b5 e2 a0 bc 0c 3c e2 bd c4 30 99 3d
       6.3296876 -0.019639352 -0.11046609 0.074800044
0001b0 7b c3 d0 40 0c a0 ca 40 4d cb c8 40 c2 c7 cb 40
       6.5238624 6.332037 6.274817 6.3681345
0001c0 3e c1 cc 40 d1 7b c9 40 de f8 a3 3d d5 7d c9 40
       6.398589 6.2963643 0.08006452 6.2966104
0001d0 f5 4a cb 40 eb a1 cd 40 5c e4 cc 40 80 9a c9 40
       6.3529 6.4260154 6.402876 6.30011
0001e0 b8 23 ca 40 8c 08 d0 40 d1 01 cb 40 83 ea cd 40
       6.31686 6.5010433 6.3439717 6.434877
0001f0 40 ff 84 bb f8 7d d0 bd 09 52 ca 40 d8 a8 ca 40
       -0.0040587485 -0.10180277 6.322514 6.333111
000200 ed da 05 41 21 12 06 41 50 c4 06 41 08 88 2f bd
       8.365949 8.379426 8.422928 -0.04285434
000210 68 7e b3 bd 8a 5a 06 41 d4 47 05 41 3b 9d 06 41
       -0.087643445 8.397104 8.330036 8.413386
000220 10 c6 60 bd 70 fd 06 41 02 c9 05 41 c9 95 06 41
       -0.054876387 8.436874 8.361574 8.411569
000230 f6 59 cb 3d d7 13 bb bd 64 3e e2 bd cd 35 05 41
       0.09929268 -0.091346435 -0.11047056 8.325635
000240 56 53 b0 bd fc 06 46 3d 9e 70 04 41 79 71 06 41
       -0.08609645 0.048346505 8.277494 8.402703
000250 f8 b0 8f 3d 3f 5e 2c 3d 95 2b 05 41 6f e1 04 41
       0.07016176 0.042082068 8.32314 8.3050375
000260 df 18 07 41 46 a0 06 41 7b f4 07 41 81 d6 03 41
       8.443572 8.414129 8.497188 8.239869
000270 65 3e 06 41 70 25 95 bd a9 50 aa 3d f6 68 05 41
       8.390233 -0.07282531 0.08316166 8.338125
000280 33 02 04 41 76 02 05 41 b8 d1 a6 3c 2f 41 04 41
       8.250537 8.313101 0.020363674 8.265914
000290 eb 28 06 41 ca c1 90 3d 06 dd 04 41 f1 ac 07 41
       8.38499 0.07068212 8.303961 8.479722
0002a0 6b 8b 04 41 f2 16 7c bd 1c 25 2f 3d 80 1f 8b ba
       8.284038 -0.06154532 0.04276 -0.0010614246
0002b0 b2 91 04 41 b0 3c 05 41 a1 12 06 41 d5 15 06 41
       8.28557 8.327316 8.379548 8.38033
0002c0 aa fd 06 41 47 bd 06 41 9e 21 a1 bd e8 c3 06 41
       8.43693 8.42121 -0.0786774 8.422829
0002d0 fa ee 06 41 76 93 03 41 54 7a 01 41 0e dd 01 41
       8.433344 8.223501 8.092365 8.116468
0002e0 3e 92 07 41 3b aa 03 41 2f 3f 04 41 51 0c 03 41
       8.473204 8.22906 8.265426 8.190507
0002f0 80 14 10 3b 53 de b5 bc 7d 34 05 41 83 0e 07 41
       0.0021984875 -0.022200739 8.3253145 8.441043
000300 69 44 cb 40 dd a1 d0 40 55 c1 cb 40 80 85 34 bc
       6.352101 6.5197587 6.36735 -0.011018157
000310 80 f8 36 bd 67 81 cd 40 da 58 cd 40 d0 e3 ca 40
       -0.04467058 6.422046 6.417096 6.340309
000320 89 de 40 3d 25 4f c8 40 96 48 c9 40 4c 4d cf 40
       0.047087226 6.259661 6.2901106 6.4781857
000330 b8 71 f8 bb a0 16 33 bd d2 94 c3 bd 1a b2 cb 40
       -0.0075819157 -0.04372275 -0.095498696 6.365491
000340 b0 19 43 3c ec ee 93 bd 98 a7 d0 40 03 c9 cb 40
       0.01190798 -0.07223305 6.520458 6.3682876
000350 c4 69 c5 bd a5 90 c8 bd 0f 0f cf 40 78 a8 cf 40
       -0.09639314 -0.09793214 6.470588 6.489315
000360 38 43 c9 40 ef c3 c9 40 3e c7 c8 40 75 cb cc 40
       6.2894554 6.3051677 6.2743216 6.399836
000370 4d 8f cf 40 ae 4c eb bd fe a1 8c bd 25 7b ca 40
       6.486243 -0.11489235 -0.06866835 6.3275323
000380 ba 82 c9 40 98 93 cc 40 6c 10 b0 bd f1 5f cc 40
       6.297208 6.393017 -0.08596882 6.3867116
000390 d7 50 cc 40 24 75 6f 3d 8a f7 c8 40 02 0f cf 40
       6.384868 0.058461323 6.280217 6.470582
0003a0 dd 8b cc 40 db 9c 63 bd f8 66 88 3c 20 a5 9e 3d
       6.392073 -0.05556951 0.016650662 0.07746339
0003b0 22 8f c8 40 d5 50 cc 40 03 de cf 40 74 81 cb 40
       6.2674723 6.384867 6.495851 6.3595524
0003c0 3d 9c cd 40 6c 45 c7 40 cc e1 de bd ea c4 c8 40
       6.425322 6.2272243 -0.10882911 6.2740374
0003d0 35 52 c9 40 38 5d c9 40 9e f0 c9 40 f9 9a ca 40
       6.291285 6.2926292 6.310622 6.3314176
0003e0 4c 88 cd 40 4c c9 cb 40 44 b2 ca 40 2c b7 ce 40
       6.422888 6.3683224 6.334261 6.45986
0003f0 be f2 af 3d f4 61 e1 3d bf e2 ca 40 02 16 c9 40
       0.08591221 0.11005011 6.340179 6.2839365

fc4.bias f4 [49]
000000 e7 69 06 41 6c cc 94 41 1b 45 c5 41 28 ee 88 41
       8.400855 18.599815 24.658743 17.116287
000010 fb 46 03 42 bf e3 cb 41 c7 4f 7c 41 1e 91 05 42
       32.819317 25.486204 15.769477 33.391716
000020 c1 51 e0 41 35 25 ef 41 6a 38 a1 41 37 6e 02 42
       28.039919 29.893167 20.152546 32.60763
000030 f5 5f 5d 41 9c cf 55 bd 39 0d 7c 41 a8 c3 07 42
       13.835927 -0.052199945 15.753228 33.94107
000040 85 9e cc 41 27 fb cd 41 ee 1c 04 42 e2 23 e2 bd
       25.577402 25.747633 33.02825 -0.11042
000050 96 9e a8 bd ba 7b 7c 41 56 5f fe 41 86 ae 80 41
       -0.08233373 15.780207 31.79655 16.085217
000060 fc d2 c8 41 14 42 54 bd fa 8f e5 3d d6 72 a8 bd
       25.10302 -0.05182083 0.11209102 -0.08225028
000070 b8 51 c5 41 ae af f0 41 6f 25 7d 41 08 94 b6 3d
       24.664902 30.085781 15.821639 0.089149535
000080 b0 50 e0 3c 72 df a0 3d 34 33 a8 bd 5a f6 80 41
       0.027382225 0.07855119 -0.08212891 16.120289
000090 ad 22 e6 41 00 c5 33 3a f2 1d af bd 4a 18 cd 3d
       28.766932 0.00068576634 -0.085506335 0.100143984
0000a0 64 62 a2 3d 58 7c 3f bd a2 8c 90 41 18 fb 90 3c
       0.07928923 -0.046749443 18.068668 0.017697856
0000b0 b6 d8 b0 bd c0 b2 46 bc 12 8a db 3d 5c aa cd 3d
       -0.08635084 -0.012127578 0.10719694 0.10042259
0000c0 fa c0 96 3d
       0.07361026
