trike2/models/trainied against random/DQN_Agent_200ep.pt/DQN_Agent.pt (torch, 333080 bytes, 8 tensors)

fc1.weight f4 [256, 148]
00000000: 3823 1640 42fe 7540 975d 6e40 74c4 4740
00000010: 41ed 7840 76ab 2c40 3773 6f40 ee8d f83f
00000020: 73c8 5e40 a865 fe3f 1fa0 1c40 e74c 5140
00000030: c7ae 2140 005f 8bb9 490d 6140 b177 7140
00000040: c8c5 4140 4ac9 e73f dcce 6940 f0e8 413c
00000050: 8a5c edbc f0e5 4440 3e11 7d40 32f3 8040
00000060: d53b 7140 b43f 923c d205 713d bc14 e5bc
00000070: 32a2 4740 c3ec 4240 1561 2e40 6206 99bd
00000080: 4dec 9f3d b19a 9c3d 78b6 c63c ab75 4740
00000090: a7af 1c40 47df 903d 01db 993d 2144 3abd
000000a0: 8226 d1bc 68b3 acbc 3eb1 3740 08c3 ca3c
000000b0: 0e9e 623d 3022 26bc d8ce 9ebc 6931 3abd
000000c0: 5033 2b3d 780d 3540 3f64 7640 a766 7c40
000000d0: 1250 4740 1eb0 5440 61f9 5240 1dcd 7840
000000e0: b256 3940 167e 6b40 74b5 4140 b7ae 4a40
000000f0: d52e 2640 e402 0f40 f71f 943d 8291 4540
00000100: c3aa 3740 b832 3540 c014 2540 038a 5a40
00000110: bf66 16bd 6870 70bd 2f4e 4e40 a7c6 5640
00000120: 596e 4a40 1ca6 4140 d289 0b3d 860b 7f3d
00000130: 7d73 9d3d 4557 5b40 6f07 3440 f5aa 6640
00000140: 5087 eebb 3b69 9a3d 3002 9a3b e034 75bd
00000150: 837e de3f 95f4 6840 5a0c 723d 205d 90bc
00000160: 473a a23d b83e 5a3c 60dd 1f3c cd85 2540
00000170: d4cf 40bd e900 a6bd dea1 773d aa75 553d
00000180: 951d a43d e0c4 7c3b b2cb 2840 ba96 3d40
00000190: 56c4 3240 2f1d 2840 8826 3b40 32a7 1440
000001a0: ec88 1940 9a78 0140 8014 5740 3e52 4640
000001b0: b56e 1a40 2da2 4740 234a ec3f 12d7 a9bc
000001c0: dfae 5340 8c54 5c40 ea35 4340 73e8 fb3f
000001d0: 2a0a 2e40 7a10 603d 073e 45bd 2526 4040
000001e0: ba6b 4a40 958c 4d40 cb98 3340 22cd 553d
000001f0: e6c3 f9bc b6e0 4b3d e8c6 0640 f37c 3040
00000200: 8ad8 5140 9aff 5f3d d070 91bd cdb6 3ebd
00000210: 1079 163c d061 1e40 a71d 4940 38b0 72bc
00000220: 9091 a83b 8ead 70bd 3e58 61bd 9864 173c
00000230: ab5f 5540 904a 043d 38d8 4cbc 8841 f53c
00000240: a80f 2cbd b13f 8ebd c997 913d aa45 a5bc
00000250: 3913 1d40 cb9f 7140 2a75 6340 0098 4240
00000260: 7a54 7e40 e86a 2540 2afd 8040 833a f63f
00000270: 7e92 6340 b921 1540 5b31 1240 ee51 5440
00000280: 6bdf 1840 a253 4c3d 9794 6040 1bad 7740
00000290: 4c78 3c40 0362 ee3f 5d63 6040 404f 1d3c
000002a0: ea92 9dbd fe41 3840 3657 7c40 3419 7d40
000002b0: 6dd7 6e40 1277 533d 8048 b5bb f067 80bd
000002c0: f418 4540 eee5 5140 1a85 5040 d0dc a43b
000002d0: 3f86 04bd 2ad9 383d 8966 9cbd d73d 5440
000002e0: 0374 1340 72de 473d ff4a 8dbd 0a78 133d
000002f0: 58b5 78bc 20c4 ad3b e634 3940 f0d4 ef3c
00000300: 754a 983d eb52 6cbd fa63 553d 2ef4 d4bc
00000310: 8da5 a03d 8a79 4540 a6be 7a40 e704 8040
00000320: eabb 5140 be30 5840 e9e9 4840 ba8c 7640
00000330: 1341 4240 9680 7240 3017 3b40 8b98 4e40
00000340: 49aa 3440 64b9 3340 56c6 2c3d 7036 4d40
00000350: 4683 4340 4e61 2940 aeb7 1d40 6533 5b40
00000360: 14f1 53bd aa8c 7bbd 28a7 4c40 b333 5a40
00000370: bd2a 5940 2049 4840 11da 913d a465 72bd
00000380: a076 4dbc c00a 5640 1be5 3540 7a02 5a40
00000390: 87f5 3ebd 36fb 3c3d 3aec 50bd d6ef 69bd
000003a0: 2938 ac3f f5d6 6b40 70c4 55bc 7c27 e0bc
000003b0: 4dea 84bd 318b a0bd 71fc 1cbd ec42 1640
000003c0: b09d f3bb f14c 9abd 6aca b3bc f895 813c
000003d0: 8c91 81bd 8d1d 63bd 918f 4a40 dfc4 3b40
000003e0: e3f7 3940 876f 1f40 8faf 4840 6987 1840
000003f0: 72f6 2140 b84f f63f 5c7e 5940 7d77 5040
2.3458996 3.8436437 3.7244623 3.1213655 3.8894808 2.6979651 3.7414072 1.9418314
3.4809844 1.9874773 2.447273 3.2703187 2.5262926 -0.00026582927 3.5164359 3.7729304
3.0276966 1.8108304 3.6532507 0.011835322 -0.02897479 3.0765343 3.9541774 4.029687
3.7692769 0.017852642 0.05884344 -0.027963988 3.1192746 3.0457008 2.7246754 -0.074719205
0.07808743 0.076466925 0.02425693 3.116557 2.448221 0.07073837 0.07512475 -0.04547513
-0.025531057 -0.021081641 2.870193 0.024751201 0.055326514 -0.010139987 -0.01938574 -0.045457277
0.041796982 2.828947 3.8498685 3.9437654 3.114262 3.3232493 3.2964709 3.8875191
2.8959165 3.6795707 3.0267 3.1669137 2.5966084 2.2345514 0.07232659 3.087006
2.8697975 2.8312206 2.5793915 3.4146736 -0.03671908 -0.05870095 3.223522 3.3558748
3.162985 3.0257635 0.034066983 0.06226685 0.07688043 3.4272015 2.8129537 3.6041844
-0.007279314 0.07539602 0.004699968 -0.05986488 1.7382358 3.639928 0.05909381 -0.01762253
0.07921272 0.013320617 0.00975737 2.5862916 -0.0470732 -0.08105642 0.060457103 0.052114166
0.08013455 0.0038569495 2.6374326 2.9623246 2.7932334 2.6267812 2.9242268 2.3227048
2.398982 2.022986 3.3606262 3.0987697 2.413007 3.1192734 1.8460125 -0.020732436
3.3075483 3.4426603 3.0501657 1.9680313 2.7193704 0.054703213 -0.048154857 3.0023282
3.162825 3.2117054 2.8062007 0.052197583 -0.03048892 0.049774848 2.1058903 2.7576263
3.2788415 0.05468712 -0.071015954 -0.04656105 0.009184137 2.47472 3.1424348 -0.014812522
0.0051443055 -0.058759265 -0.055015795 0.009240292 3.333964 0.03229767 -0.012502722 0.029938474
-0.04200712 -0.06945742 0.07109029 -0.02017482 2.4542983 3.775378 3.5540261 3.0405273
3.973906 2.58465 4.030904 1.9236606 3.5558162 2.3301833 2.2842624 3.3175006
2.3886364 0.049884446 3.5090692 3.8699405 2.9448423 1.8623661 3.5060647 0.009601414
-0.07694037 2.8790278 3.942823 3.9546633 3.7318985 0.051627226 -0.0055323243 -0.062698245
3.079648 3.2796588 3.2581239 0.0050312057 -0.03235459 0.04512898 -0.076367445 3.3162744
2.3039558 0.048796125 -0.0689907 0.03600315 -0.0151799545 0.005302921 2.8938537 0.029276341
0.074360766 -0.057696264 0.0520973 -0.02599534 0.07844076 3.0855432 3.9178863 4.0005984
3.2770944 3.377975 3.1392767 3.8523393 3.0352218 3.7890983 2.9232903 3.2280605
2.8228934 2.8081903 0.042181335 3.2064476 3.0548873 2.646564 2.464336 3.4250119
-0.051743582 -0.061413445 3.1977024 3.4094055 3.3932335 3.1294632 0.07121671 -0.059178963
-0.012540489 3.3444061 2.8421085 3.4064012 -0.046620872 0.04613801 -0.051006533 -0.05711349
1.3454639 3.684995 -0.013047323 -0.027362578 -0.06490002 -0.07839049 -0.038326684 2.3478346
-0.0074345693 -0.07534207 -0.021947104 0.015818581 -0.06326589 -0.055448104 3.1650126 2.933891
2.9057548 2.491182 3.1357152 2.3832648 2.5306668 1.9243078 3.3983374 3.257293

fc1.bias f4 [256]
00000000: c8d0 8840 89e2 8d40 5a30 8c40 0a70 8e40
00000010: 7725 8f40 3b50 8d40 7ad8 8f40 52f8 8d40
00000020: aa94 8e40 d30b 8e40 0bd9 8d40 85e8 8c40
00000030: 77b8 5ebf 71db 8b40 9165 8e40 be2c 8f40
00000040: 6a7b 8740 f737 9040 fa7a 8e40 a110 8d40
00000050: 2908 8b40 96be 8b40 8e32 8b40 476f 8940
00000060: 2010 8e40 e5ae 8740 7dc8 8840 4f20 8a40
00000070: 4a7a 8f40 8801 8e40 2610 8f40 eb10 8a40
00000080: 3935 8d40 35ee 8c40 157a 8d40 54c5 56bf
00000090: 660e 8c40 cbe0 8e40 4ef1 8c40 982c 7cbf
000000a0: dbbd 8d40 ab7b 61bf 188d 8d40 7a6f 9040
000000b0: 55d8 8f40 a2c9 8e40 26da 8c40 6be6 8f40
000000c0: a2dd 8d40 38eb 5dbf d0f1 8d40 11e1 8940
000000d0: f3f2 8840 bef1 8c40 75f0 8d40 b5aa 8d40
000000e0: 937a 8840 fca9 8d40 4b24 8f40 db4c 9040
000000f0: 07fd 8e40 24d2 8d40 a55f 8e40 2471 8e40
00000100: 34eb 8f40 a826 8e40 3cd3 8a40 09f8 8e40
00000110: a895 8e40 30fb 8f40 0d96 8b40 da75 8e40
00000120: 8096 8d40 e0e8 3bbf 7936 8940 a554 8d40
00000130: eda0 65bf 0138 8a40 8acf 54bf 4be1 6cbf
00000140: ead0 8c40 66a5 8840 b87f 9040 7d90 8c40
00000150: 3d54 8e40 382f 8b40 7c1d 8f40 15bc 8b40
00000160: e16c 69bf a109 8e40 e03e 8f40 4b61 8840
00000170: b36f 8f40 6a06 8c40 f645 8940 9372 69bf
00000180: 1838 8d40 7519 8f40 2866 8940 dc63 8f40
00000190: 92e3 8f40 d1c5 8f40 1bbe 8d40 8c24 8f40
000001a0: 87fc 8e40 d4b4 8f40 cddc 8d40 04ae 9040
000001b0: fcb4 8940 9465 8740 33a2 8a40 4d89 8c40
000001c0: 6806 8f40 0142 8d40 aff4 8c40 ba51 8d40
000001d0: 5a37 8e40 9ac9 8d40 4a5f 9040 eb1a 8f40
000001e0: 6978 4ebf 5300 8f40 80a0 8d40 16ff 62bf
000001f0: cef0 6dbf 1fe5 5ebf 6b32 9040 60cd 9040
00000200: 8a9f 8c40 d907 8f40 d4ce 8b40 b6f9 8f40
00000210: bd45 8540 c136 8e40 f8b6 8840 1cf1 8c40
00000220: 39c0 8840 367d 8a40 8264 8940 1ef7 8b40
00000230: 9249 8940 b5f0 8a40 4755 8b40 a980 8d40
00000240: 8e18 9140 7fcc 8e40 d398 8e40 8a72 8d40
00000250: cdd1 8d40 9988 9040 5cc4 8d40 4000 8d40
00000260: 8a85 8e40 99d0 8e40 b3eb 8640 4f34 8c40
00000270: f218 8f40 2c7b 8f40 e074 8c40 e9a6 8940
00000280: 2fdc 8f40 8227 8d40 5b26 8f40 d825 8d40
00000290: 5c8a 8e40 6bcd 8b40 8756 8940 f1ae 8e40
000002a0: 30de 8f40 f7bb 8e40 30bb 8a40 9c84 8e40
000002b0: 325e 57bf d314 9040 59d6 8e40 6e21 9040
000002c0: fa6d 8840 d758 8e40 fbc9 8d40 d3c2 8c40
000002d0: 18cc 8f40 8abf 8e40 467b 8c40 2155 8d40
000002e0: 47d6 8d40 897b 8d40 a08b 3dbf 870c 8840
000002f0: 6ee7 8f40 d7fa 8e40 47e5 8e40 bf6c 6cbf
00000300: 9fd9 8e40 41cb 8d40 5109 8f40 6c18 8f40
00000310: 5ce1 8f40 af83 8f40 cdff 8e40 a181 5bbf
00000320: d854 8f40 7e9e 8840 7fc5 8940 e9bf 77bf
00000330: 4820 8540 b74e 8a40 6536 8e40 4488 8e40
00000340: 4c25 8f40 ba8a 8740 941f 8f40 10f0 8f40
00000350: a27b 8940 8d7f 8c40 4940 8a40 5b9b 59bf
00000360: 1078 8e40 6cf2 8d40 b29f 8f40 a5a3 8940
00000370: 7b25 9040 e4e5 8d40 e865 8e40 318d 8b40
00000380: 5c25 8e40 b932 8d40 fd5c 81bf a3ce 8e40
00000390: 4e4b 8a40 657d 64bf 4a2e 8c40 9b32 8d40
000003a0: fa8f 8f40 516d 8c40 d14a 8f40 ffa5 79bf
000003b0: ab8e 8b40 af2d 53bf 410a 8b40 b13b 8f40
000003c0: 83bd 8840 b3ba 8d40 0ab9 8c40 b9b9 9040
000003d0: 81fe 8c40 144c 9040 f469 8f40 1aaf 8f40
000003e0: 7b93 8d40 5067 8940 d13c 8d40 b4d5 8e40
000003f0: fba6 8e40 c63e 8d40 d176 8940 e994 8940
4.275486 4.433903 4.3809023 4.4511766 4.4733233 4.4160438 4.4951754 4.4365625
4.4556475 4.4389434 4.4327445 4.4033837 -0.8700022 4.3705373 4.4498982 4.4742117
4.233815 4.5068316 4.452512 4.40828 4.344746 4.367015 4.349921 4.2948337
4.4394684 4.2400994 4.2744737 4.316444 4.483678 4.437687 4.4707212 4.314565
4.412747 4.404078 4.4211526 -0.8389485 4.3767576 4.4649405 4.404456 -0.98505545
4.4294257 -0.8807933 4.4234734 4.513608 4.4951577 4.4621134 4.4016294 4.496877
4.433305 -0.8668704 4.435768 4.308724 4.279657 4.4045095 4.4356027 4.4270883
4.2649627 4.427 4.4731803 4.509382 4.468387 4.431902 4.4491754 4.451311
4.4974613 4.442219 4.3382854 4.4677777 4.4557686 4.4994125 4.3620667 4.451886
4.4246216 -0.73402214 4.2878995 4.4165826 -0.8969868 4.3193364 -0.8312918 -0.9253127
4.400502 4.2701902 4.5155907 4.3926377 4.447783 4.349514 4.472349 4.366709
-0.9118176 4.4386754 4.476425 4.2618766 4.482385 4.375783 4.28979 -0.9119045
4.4130974 4.4718575 4.2937202 4.48094 4.4965296 4.4928975 4.429456 4.4732113
4.468326 4.4908237 4.433203 4.521242 4.303343 4.2311497 4.3322997 4.3917603
4.469532 4.414307 4.4048686 4.4162264 4.444257 4.4308596 4.511632 4.472036
-0.8065248 4.4687896 4.4258423 -0.8867048 -0.92945564 -0.8706836 4.5061545 4.52507
4.394475 4.469708 4.3689976 4.4992323 4.164763 4.444184 4.272335 4.4044323
4.2734647 4.3277845 4.293519 4.3739157 4.2902308 4.341883 4.35416 4.4219556
4.5342474 4.462463 4.4561553 4.420232 4.4318604 4.5166745 4.4302197 4.4062805
4.453801 4.4629636 4.216272 4.3813853 4.471795 4.4837856 4.389267 4.301625
4.495628 4.4110727 4.473432 4.4108696 4.4543896 4.3688254 4.2918124 4.458855
4.4958725 4.460445 4.33535 4.4536877 -0.84128106 4.502542 4.4636655 4.504081
4.263425 4.4483447 4.430906 4.3987823 4.493664 4.460881 4.390048 4.4166417
4.432407 4.42133 -0.74041176 4.251529 4.4970007 4.46812 4.465488 -0.92353433
4.464065 4.4310613 4.4698873 4.471731 4.4962597 4.4848247 4.4687257 -0.85744673
4.479107 4.269347 4.3053584 -0.96777207 4.1601906 4.3221087 4.44414 4.454134
4.473303 4.2356844 4.4726048 4.4980545 4.296342 4.39057 4.3203473 -0.8500268
4.452156 4.4358425 4.488244 4.301226 4.5045753 4.434313 4.4499397 4.3609853
4.4420605 4.4124417 -1.0106503 4.462724 4.3216925 -0.89253837 4.3806505 4.4124274
4.4863253 4.3883443 4.477883 -0.97518915 4.3611655 -0.8249158 4.3450017 4.4760365
4.2731338 4.4290404 4.397588 4.522671 4.4060674 4.509287 4.4816837 4.4901247
4.424253 4.2938614 4.413674 4.463587 4.4578834 4.413913 4.295754 4.2994275

fc2.weight f4 [128, 256]
00000000: 8dac 8740 350b 8c40 68d1 8840 77c5 8a40
00000010: f1f2 8a40 4f71 8840 6fe9 8940 60cd 8740
00000020: 1054 8e40 1425 8940 43dc 8b40 25a3 8840
00000030: ae42 edbf 20ff 7e40 b55c 8840 1ce5 8540
00000040: 994c 8b40 c55a 8f40 80a4 8b40 52c1 8d40
00000050: 2ad5 8140 c5fa 8540 80ec 8a40 cd27 8a40
00000060: 0f47 8640 f698 7640 8792 8a40 4b33 8540
00000070: 09bd 8740 1367 8940 b318 8b40 7293 8840
00000080: 331c 8640 07c8 8640 0821 8b40 db17 01c0
00000090: 9814 8a40 d940 8740 9905 8c40 6ddc 05c0
000000a0: 24ad 8c40 7671 f1bf 78d0 8c40 6837 8a40
000000b0: 237c 8a40 d13c 8840 1ecc 8940 33bb 8f40
000000c0: 50b5 8440 ea10 f7bf c9a4 8840 51f3 8140
000000d0: 0216 8840 f705 8a40 b07d 8d40 c4f6 8a40
000000e0: ecf8 8c40 9f5b 8b40 1ce0 8b40 b0f4 8f40
000000f0: 7cc5 8940 1d91 8740 4870 8840 049f 8d40
00000100: 2b7b 8c40 3f67 8940 0c9f 8540 a0c5 8840
00000110: b2e3 8a40 036b 8a40 9d00 8a40 d211 8d40
00000120: ebec 8640 d82e eabf 8161 8940 1028 8740
00000130: fc36 07c0 6db9 8940 e800 f2bf e4a1 f5bf
00000140: 3f32 8840 ad1f 8640 628a 8c40 1e14 8740
00000150: 5f00 8c40 80c3 8a40 8353 8e40 65ca 8c40
00000160: 1347 ebbf f3ac 8c40 8a62 8b40 7ab5 8240
00000170: ffed 8740 8775 8b40 5d0d 8c40 cb37 f5bf
00000180: 5610 8940 0faf 8d40 a986 8a40 6698 8e40
00000190: 3a62 8b40 ae4c 8840 4cfa 8c40 c171 8940
000001a0: e88f 8640 a538 8d40 c753 8940 4f73 8940
000001b0: f782 8d40 94fc 8940 7205 8c40 701e 8a40
000001c0: 507f 8b40 e952 8240 66a2 8b40 ef1a 8940
000001d0: 102d 8b40 f221 8640 0a32 8940 abb7 8940
000001e0: a5ce dfbf 33cc 8a40 ca90 8740 2cc0 e2bf
000001f0: 303d e2bf 0ccf eabf 4141 8f40 569e 8c40
00000200: 3867 8940 5526 8b40 4b63 8d40 48ae 8740
00000210: 111e 8940 6099 8640 0dc7 8a40 c25f 8740
00000220: d744 8640 2b8b 8a40 c15b 7d40 d8ad 8440
00000230: e592 8a40 167e 8540 a2fa 8540 ed25 8b40
00000240: ae5b 8d40 50ac 8a40 3d11 8740 1569 8840
00000250: 6b3c 8540 99b1 8e40 0fb3 8940 e748 8840
00000260: 5cb1 8640 e15c 8940 3af3 8140 bcdd 8640
00000270: 8f01 8840 5090 8b40 c229 8a40 4c88 8940
00000280: 8092 8b40 ceea 8c40 40db 8b40 0d59 8540
00000290: f8dc 8840 ab88 8840 1838 8240 b8df 8940
000002a0: 85af 8b40 2cd7 8b40 7ce7 8340 a237 8840
000002b0: cd43 f0bf 864e 8c40 6277 8a40 74c8 8b40
000002c0: 9d9f 8b40 a766 8940 179e 8940 6a04 8740
000002d0: e358 8c40 ac8d 8b40 f0b9 8940 9eb7 8740
000002e0: 574d 8a40 d0b8 8740 fba6 f1bf d94a 8840
000002f0: 87f1 8e40 f6ab 8c40 0e78 8840 a7cd eabf
00000300: 1659 8c40 0866 8e40 7172 8740 1cae 8a40
00000310: 426b 8b40 af09 8940 f90d 8c40 78e1 fbbf
00000320: de62 8b40 2ee7 8040 804e 8940 e689 07c0
00000330: 4814 7040 dbe0 8240 4749 8c40 109f 8840
00000340: 5bcb 8a40 7389 8540 e63c 8740 b1b1 8e40
00000350: 8581 8840 3445 8e40 6ada 8a40 971e febf
00000360: e924 8840 4ab2 8940 8cf6 8740 9d4f 8840
00000370: 5273 8a40 dc0c 8840 8853 8740 947c 8740
00000380: 9433 8b40 2241 8b40 208e e8bf 8ac1 8a40
00000390: a01e 8540 6058 e7bf 4928 8e40 b835 8b40
000003a0: 2e0c 8a40 283d 9040 a7e4 8940 8c7f debf
000003b0: 274a 8b40 0279 fdbf 12cf 8840 4e56 9040
000003c0: 4785 8840 924b 8940 c476 8e40 ad3b 8e40
000003d0: c2c6 8540 b8d2 8f40 bb5a 8840 6036 8b40
000003e0: be2e 8b40 ade3 8640 295c 8f40 42cf 8b40
000003f0: f510 8c40 8eed 8940 ae53 8340 44fe 8640
4.2398133 4.376368 4.2755623 4.3366046 4.342156 4.2638316 4.3097453 4.24382
4.4477615 4.285776 4.3706374 4.269915 -1.8535974 3.9843216 4.261317 4.1842175
4.3531003 4.4798303 4.3638306 4.4298487 4.057271 4.1868615 4.3413696 4.3173585
4.196174 3.853086 4.3303866 4.1625113 4.2418256 4.2938323 4.346765 4.2679987
4.1909423 4.2119174 4.347782 -2.017081 4.315014 4.226666 4.3756833 -2.0915787
4.3961353 -1.886275 4.400448 4.3192635 4.3276534 4.257424 4.3061666 4.4916015
4.147133 -1.9302037 4.2701154 4.0609517 4.2526865 4.313228 4.4215927 4.3426228
4.405386 4.354934 4.371107 4.498619 4.305357 4.236464 4.263706 4.425661
4.390035 4.2938533 4.175665 4.274124 4.340295 4.325563 4.312575 4.4084253
4.2164207 -1.8295546 4.2931523 4.2236404 -2.112731 4.303885 -1.8906527 -1.919003
4.2561336 4.1913667 4.3918924 4.2212057 4.3750453 4.3363647 4.4476943 4.3997064
-1.8381065 4.396112 4.3557787 4.084653 4.2478023 4.3580966 4.3766313 -1.9157652
4.283244 4.4276195 4.328938 4.4561033 4.3557405 4.2593603 4.405554 4.295136
4.2050667 4.4131646 4.2914767 4.2953258 4.422237 4.3120823 4.3756647 4.3162155
4.359291 4.072621 4.363574 4.284538 4.349251 4.1916437 4.2873583 4.3036704
-1.7484938 4.3374267 4.2364244 -1.7714896 -1.7674923 -1.8344436 4.4767156 4.394328
4.29385 4.348429 4.4183707 4.2400246 4.28492 4.2062225 4.336798 4.230439
4.1959033 4.3294883 3.9587252 4.146221 4.3304315 4.1716413 4.186845 4.3483796
4.4174414 4.3335342 4.2208543 4.2628274 4.1636252 4.4591794 4.3031077 4.258899
4.2091503 4.2925878 4.0609407 4.214567 4.2501903 4.3613663 4.3175974 4.297888
4.3616333 4.4036627 4.370514 4.1671205 4.2769737 4.266683 4.0693474 4.3085594
4.3651757 4.370016 4.1220074 4.256791 -1.8770691 4.3845854 4.327073 4.3682194
4.363234 4.293781 4.300548 4.219289 4.3858504 4.361044 4.3039474 4.241164
4.321941 4.24131 -1.8879083 4.2591367 4.4669833 4.3959913 4.264655 -1.834401
4.3858747 4.449955 4.23272 4.3337536 4.356843 4.282432 4.3767056 -1.9678183
4.3558187 4.02822 4.2908325 -2.1177917 3.7512379 4.089948 4.383945 4.269417
4.3373237 4.1730285 4.226184 4.459191 4.2658105 4.4459476 4.339162 -1.9853085
4.2545056 4.303014 4.248846 4.2597184 4.326577 4.2515697 4.2289467 4.2339573
4.350046 4.351701 -1.8168373 4.3361254 4.1599884 -1.8073845 4.4424176 4.3503075
4.313987 4.5074654 4.3091617 -1.7382674 4.352802 -1.9802554 4.275277 4.5105352
4.266269 4.290475 4.4519978 4.4447846 4.1805124 4.4944725 4.2610755 4.3503876
4.349456 4.2152925 4.48 4.36905 4.37707 4.3102484 4.103965 4.2185383

fc2.bias f4 [128]
00000000: 0a38 8540 f322 8540 74d1 8340 20ca 8640
00000010: 4555 8740 d6b7 8440 ee2d 8640 84c2 8840
00000020: 913e 8840 fd2b 8740 41e1 8540 5cda 8740
00000030: e51d 8640 54e7 8540 0b7a 8640 9833 8640
00000040: 524b 8440 2276 a6bd 0eb5 8840 e2ff 353b
00000050: f499 8640 93c1 8840 acd5 8540 8c8a 8640
00000060: 9ee0 8540 3e6c 76bd 8777 8840 7f5e 8740
00000070: bcb5 87bd 2691 8640 69a5 8640 6170 8840
00000080: 2824 8140 abfc 8640 1960 8740 2052 8840
00000090: bbdb 8740 059b 8540 b2c9 8240 10de 8540
000000a0: aa9f 74bd 14c3 8740 f1a5 8640 f3ac 8840
000000b0: 50f8 8540 ac98 8540 ee8a 8640 130f 8740
000000c0: 9913 8740 d6cf 8440 1454 8640 321c 8840
000000d0: e465 70bd 543c 8740 0f1e 8640 44ff 8740
000000e0: 1ece 8440 85c3 8640 ea38 77bd c5f4 8540
000000f0: f01e 8540 43fc 8640 60e8 8540 60d5 8640
00000100: 46d4 8740 4eaa 8740 76ce 8340 2055 d7bd
00000110: 701f 8740 09cc aebd 88ce 8440 495d 8440
00000120: ddc7 8440 b80b 8740 7f69 8840 9b9f 8740
00000130: 529f 77bd ed98 8740 9bb9 8640 5c80 8640
00000140: b99e 8840 89e9 8540 0755 8940 a6a8 14bd
00000150: 1818 8840 798b 8440 1df6 8740 31c2 8740
00000160: 8d5a 8abd da2d 8840 aa3f 8640 ccde 32bd
00000170: 8552 8840 7183 8640 1f99 8740 b2bd 8540
00000180: 86be 60bc 569a 253a 5de1 8340 1e4b 8540
00000190: 9977 8840 c803 8740 9cf3 8440 f7c9 41bd
000001a0: 7a36 8840 f935 8540 0f17 8840 e404 dfbd
000001b0: c489 8840 11fb 8440 30ce 8740 c334 8540
000001c0: c488 8740 6950 8640 e7b9 8740 eade 8840
000001d0: f73e 8740 2533 56bd 0a28 8840 b7c4 8540
000001e0: ff74 8540 2f27 8540 cc2d fdbc cc2b 8540
000001f0: 5b8a 8540 2d13 8dbc a621 8740 42d7 5dbb
4.1630907 4.1605163 4.119318 4.2121735 4.229159 4.147441 4.1931067 4.2737446
4.2576375 4.2241197 4.183747 4.245405 4.191149 4.1844883 4.202398 4.193798
4.1341944 -0.08128001 4.2721014 0.0027770926 4.206293 4.2736297 4.182333 4.2044125
4.183669 -0.06016182 4.2645907 4.230285 -0.0662646 4.2052183 4.2076917 4.263718
4.0356636 4.2183433 4.2304807 4.260025 4.2455726 4.1751733 4.087121 4.1833572
-0.05972258 4.2425632 4.2077565 4.271112 4.1865616 4.1748867 4.204459 4.22059
4.2211423 4.1503706 4.1977634 4.253442 -0.05869092 4.2261143 4.1911693 4.2499104
4.150161 4.211367 -0.06035701 4.186129 4.1600266 4.2182937 4.184616 4.2135468
4.2446623 4.239539 4.1189528 -0.10514283 4.2225876 -0.0853501 4.1502113 4.1363873
4.1493974 4.2201805 4.262878 4.238233 -0.060454674 4.2374177 4.210157 4.203169
4.2693753 4.1847577 4.2916293 -0.03629365 4.252941 4.1420255 4.248793 4.242455
-0.067555524 4.255597 4.1952715 -0.043669507 4.260073 4.203545 4.2374415 4.179406
-0.013717299 0.00063172483 4.12126 4.1654196 4.2645993 4.2192116 4.1547375 -0.04731175
4.25665 4.1628385 4.252815 -0.10889605 4.266817 4.1556478 4.2439194 4.1626906
4.235445 4.1973157 4.241443 4.277211 4.226436 -0.05229487 4.2548876 4.180263
4.1705317 4.161033 -0.030905627 4.1615963 4.173139 -0.017221058 4.2228575 -0.0033850227

fc3.weight f4 [64, 128]
00000000: 515a ae3b 1523 1d3d 3ecd 42bd e5a1 cdbd
00000010: bb50 55bd 2961 1d3d 7b89 b5bd 3967 36bd
00000020: 9145 d2bc db90 97bd 7e3a 4e3d e2e4 65bd
00000030: 6502 50bc d292 94bd 3a13 61bd 0661 ebbc
00000040: 8ee8 84bd 1d24 65bd 612d 0abb 7ec5 be3b
00000050: 0003 51bc 5993 00bd fd10 633d 4fcf 003d
00000060: 0a14 f3bc 8788 97bc b397 4dbd 0212 2abd
00000070: 3acd 543d 3ae2 eebd f724 813d 88a5 533d
00000080: 023c 203c a399 413d bdb0 18bd 6a05 823c
00000090: 7702 e6bc 3f38 9dbb c6a4 5a3c 356e 9c3c
000000a0: 3b78 87bd 4663 ec3c 1ab2 a43c 3fdd 9cbd
000000b0: aa9d 6c3d 8456 81bd 4183 c4ba 0dcb 95bd
000000c0: 0b1b c43c d255 9abd 6135 843d d758 b03c
000000d0: 275e 47bd f4e9 773c af43 f4bd a0ac 88bc
000000e0: 1f8f f83c ecaa 093d 40c0 e3bb 02f4 f8bd
000000f0: 9fac 983d c852 c0bd 8626 4bbd bbfe 97bd
00000100: fe22 d0bc 24c0 963b 58ac 683d 4c76 0a3d
00000110: c9bf 8bbb da70 0b3c b30a 303d 3aa7 583d
00000120: 689f fbbd 3e1b fabd 3a33 bebd 947c 87bd
00000130: 1587 473b 93e6 1d3d b055 923d ee12 9ebd
00000140: 8c11 bcbd 024b c43d 0d48 e8bd ef9f b23d
00000150: 1d0a 8c3d 8372 93bd f206 d7bc 95bb ffbd
00000160: 12a5 893d 9d36 df3c 8adb 34bd f527 01bd
00000170: 75aa c9bd 3559 1cbd a80e c8bc c773 8fbc
00000180: 54d4 afbd 3ea5 e1bd f058 90bd 729d 14bd
00000190: 3014 c53c 8407 dfbd b9b5 69bd 7f70 65bd
000001a0: 737b 963c 6aa7 05be d525 15bd 770c 32bd
000001b0: 0463 2ebb 7fce d7bd e054 c6bc 24f0 d1bd
000001c0: 58dd 013d eb3f 933b b385 153c cc05 1bbc
000001d0: 7962 bcbc 64c8 013d 6571 bcbd c19f 5f3d
000001e0: 26e5 b93c d1eb d2bd e548 703d a43b 90bc
000001f0: 85b7 5cbd 879f 383c 3e22 533d c308 a3bc
00000200: 75a0 09bd 28fe 203c 7ef1 93bd 3891 8a3c
00000210: ca61 c5b9 f78e 9cbd 0913 f93c 9e5a 1ebd
00000220: 50fd 94bd ae7f 5a3c 045a a23c c29f afbd
00000230: 8cc9 a3bc 475f f7bc 7c7b a6bd 323c 26bd
00000240: 844c c23c 6e8a 5bbd 0763 943d f5c1 6d3d
00000250: 43b9 c73b 380b edbc 44cf 103d 40cc 823b
00000260: be0c 433d eb86 19bd cc42 3cbd 9976 9abc
00000270: 2b7a 8f3d efc0 b4bd 8959 8e3d a0f8 a63c
00000280: 405d d2bd a22a 183d 3a4c 633d 7774 9abd
00000290: b2d0 603d 4b6f 92bd 836a 103b 1f62 843d
000002a0: 6e1f afbd 78cd 1abd d2b8 0dbd 51b9 86bd
000002b0: 4b7f 193d c0a9 a23a 7d8e 95bd 1c7b f63c
000002c0: 480b 52bc 3303 33bc fd99 d23c a08b e33c
000002d0: d23c 2bbd 7bb4 1a3c 57e4 aabd 4d68 b43d
000002e0: a33b 1cbd d87a 0bbd 001a 04bd c978 adbd
000002f0: c024 b23b e223 6cbd 269f 383d 6045 513b
00000300: 001d 203c 6da0 a6bd 8735 07bd 6c20 88bc
00000310: 160c 343d e870 c23c f00d 0ebc 7bd0 ebbc
00000320: 27b1 af3d cd68 36bd 8513 abbd c64f 663d
00000330: f715 c8bb 0324 34bd 222a 1c3d 1b63 9b3d
00000340: 4ca3 053d 786b 043d f444 91bc d08e d53b
00000350: f894 3fbd a789 0f3d c879 ccbc 008a 3c3b
00000360: d0cc 123c 6625 703d 5dc9 9dbd 2053 1abc
00000370: 7420 c63c 8e3f 45bd 1a01 073d 4537 bdbd
00000380: 2779 84ba f5de 313d 4030 85bd 1d9c 3abd
00000390: 8aef 79bd 30f2 a83c 3abd 623d 21b6 aebd
000003a0: 499f 963d 008e 1eba 54fe a73c 63ad b73a
000003b0: 47dc 11bd f6f8 003d 767b 583d 6073 5c3b
000003c0: 00db a0bd b96a 29bd dcc1 873c 0ed4 09bd
000003d0: c04d a4bd 09f6 88bd 4561 4fbd 1903 bf3c
000003e0: f625 abbc 150e a0bd e06f 4d3d a8bc 07bc
000003f0: 11d1 a7bd 7e11 433d ca6a 673d 9e99 4b3d
0.005320825 0.038363535 -0.047559015 -0.100406446 -0.052078944 0.038422737 -0.08864113 -0.044532035
-0.025667937 -0.07400676 0.05034875 -0.056126483 -0.012695883 -0.07254566 -0.054949977 -0.028732788
-0.06489669 -0.055942643 -0.0021084177 0.0058218827 -0.012757063 -0.03139052 0.055436123 0.031447705
-0.029672641 -0.018497718 -0.0501935 -0.04152108 0.05195353 -0.11664243 0.063058786 0.051671535
0.009779932 0.04726566 -0.037277926 0.015871722 -0.028077347 -0.004797965 0.013344949 0.01909552
-0.06614729 0.028855931 0.020104457 -0.07659387 0.057767548 -0.0631533 -0.001499273 -0.073141195
0.023938676 -0.075359 0.06455494 0.021526737 -0.048673775 0.015131462 -0.11926972 -0.016683877
0.030341683 0.03361027 -0.006950408 -0.12155916 0.074548 -0.09390789 -0.049597286 -0.07421633
-0.02540731 0.0046005417 0.056804985 0.033804223 -0.004264806 0.008510793 0.042978954 0.052893855
-0.12286264 -0.12212227 -0.092871144 -0.06615558 0.0030445505 0.03854997 0.0714525 -0.07718454
-0.09183034 0.09584619 -0.113418676 0.08721911 0.068378665 -0.07199576 -0.026248429 -0.1248695
0.06720938 0.027247721 -0.04415468 -0.031532247 -0.09846965 -0.038171012 -0.024421051 -0.017511262
-0.0858542 -0.110178456 -0.070482135 -0.036282964 0.024057478 -0.10890105 -0.05705807 -0.056015488
0.018369412 -0.13052145 -0.036413033 -0.04346892 -0.002660931 -0.10537433 -0.024210393 -0.10250881
0.03170523 0.0044937036 0.009126115 -0.009461831 -0.022996174 0.031685248 -0.09201316 0.054595713
0.022692274 -0.10298885 0.058663268 -0.017606564 -0.053885955 0.011268503 0.051546328 -0.019901639
-0.03360029 0.009826221 -0.07223795 0.016914949 -0.00037647627 -0.07644456 0.030404584 -0.038660638
-0.07274878 0.013336105 0.019818313 -0.08575393 -0.019993566 -0.030196799 -0.081290215 -0.04058475
0.023718126 -0.053598814 0.072454505 0.0580463 0.006095083 -0.028936014 0.035353914 0.0039916337
0.047619574 -0.037482183 -0.04596214 -0.01885538 0.070057236 -0.08825862 0.06950671 0.020382226
-0.10271692 0.037150033 0.055492617 -0.07541745 0.054886527 -0.07150134 0.0022036142 0.064640276
-0.085509166 -0.037793607 -0.034600087 -0.06578315 0.03747491 0.0012410209 -0.07302568 0.030088
-0.0128200725 -0.010926056 0.025708193 0.02777654 -0.04180605 0.009442444 -0.083443336 0.08808956
-0.03814281 -0.0340527 -0.032251358 -0.084703036 0.00543651 -0.057651408 0.04507365 0.003193222
0.009772539 -0.081360675 -0.033010032 -0.016617022 0.04395684 0.023735479 -0.008670315 -0.028785935
0.08578711 -0.04453354 -0.083533324 0.05622842 -0.006106134 -0.043979656 0.03812612 0.07587262
0.032626435 0.032329053 -0.017733075 0.0065172687 -0.046772927 0.035043385 -0.024960414 0.0028768778
0.008959964 0.058629416 -0.077044226 -0.009419233 0.024185397 -0.048156314 0.032960035 -0.092390575
-0.0010106907 0.04342552 -0.065033436 -0.045559037 -0.061019458 0.020623296 0.05535624 -0.08530832
0.073546 -0.00060483813 0.020507015 0.0014013465 -0.035610463 0.031487428 0.052852117 0.0033638105
-0.07854271 -0.041361544 0.016571932 -0.033649497 -0.08022642 -0.066875525 -0.050629873 0.023316907
-0.020892125 -0.07815186 0.05015552 -0.008284725 -0.08194173 0.047624104 0.056498326 0.049707048

fc3.bias f4 [64]
00000000: fe3f f7bc 2fd3 bdbd b33e 7ebd 2e06 8040
00000010: 3e96 7d40 1c28 c3bd 77d5 8140 6b16 1abd
00000020: d49a 6c40 864e e63d 5ca7 7f40 6fbe 8240
00000030: a7f5 7c40 fb7a cbbd fbcb 76bd 9d79 8040
00000040: 8a0a 7f40 6509 8340 58d1 7c40 d200 7c40
00000050: 61f1 d1bd 88ac cebd 30b9 9f3d 0064 7d40
00000060: 41aa 7940 6508 babd 7a93 8140 c00f 7840
00000070: 3ca5 7c40 187f d2bd 186e 8040 2c5d 7940
00000080: e89a 8140 83d1 7f40 0362 8240 5501 7f40
00000090: 5c53 3abd dca4 abbd 0ea5 7e40 6e0f 7440
000000a0: 83b4 7e40 c779 8040 f886 8140 fc2f 8340
000000b0: 6a20 7e40 8766 7f40 d620 7f40 6575 8140
000000c0: aa1e 8140 c0d7 60bd 0a93 8040 bb29 7240
000000d0: d81d 7e40 397e 8140 0728 7d40 5807 7840
000000e0: d3a5 8040 53ba 8040 2f3a 7e40 ca4c f3bd
000000f0: 7871 f8bc f020 8140 8584 87bd 6d06 8040
-0.030181881 -0.09268796 -0.062071513 4.0007544 3.962295 -0.09529135 4.0573077 -0.037619036
3.69695 0.11245446 3.9945898 4.0857463 3.9524934 -0.09935566 -0.060253125 4.0148454
3.9850183 4.094897 3.9502773 3.93755 -0.102511175 -0.100915015 0.077989936 3.9592285
3.9010165 -0.090836324 4.0492525 3.8759613 3.947585 -0.102781475 4.013439 3.8963118
4.0501595 3.9971626 4.0744643 3.9844563 -0.045489654 -0.08381054 3.9788241 3.8134418
3.9797676 4.0148654 4.0477257 4.0996075 3.9707284 3.9906328 3.9863791 4.0455804
4.034993 -0.054893255 4.017949 3.783797 3.9705715 4.046658 3.955568 3.8754482
4.020242 4.0227447 3.9723012 -0.11879881 -0.030327544 4.0352707 -0.06617073 4.0007844

fc4.weight f4 [49, 64]
00000000: 425e 113e e452 eb3d 007d 8d3d 7746 a73f
00000010: 439d bc3f 4831 b2bd b1d6 ad3f bc17 eebd
00000020: 0029 a43f e660 1fbe 4c5f 663f d86b ad3f
00000030: 14bb bd3f 191b ecbd 20e7 abbb 1752 b43f
00000040: 774a a43f c266 b33f dbf0 b43f b476 b93f
00000050: f2a0 a13d 6065 43bc 3d4a 063e b0bd a43f
00000060: 5ee7 8a3f a235 91bd 59d0 bb3f 1d7c b93f
00000070: f2ee 823f b8ad d7bc 92cc ba3f b62b ba3f
00000080: 4f40 bb3f ed72 723f eca3 b63f 3ac0 853f
00000090: c488 8c3d f92f 943d 5896 b63f 2388 a13f
000000a0: 5580 a33f 4dbb a03f f9c7 a73f cea1 a43f
000000b0: 1278 af3f 981d b93f 38da a13f dd80 b33f
000000c0: b280 a63f e6ef 0cbd f777 9d3f cc90 b53f
000000d0: 69a1 af3f 5cd8 aa3f 39ae b73f 09c7 a93f
000000e0: fb61 a33f 2936 ad3f f022 bc3f 0039 363d
000000f0: 4068 e43b 5ade a93f 16dc 9cbd e5a4 a93f
00000100: f114 0eba fae9 943d b4fc 1abd c4d2 6f40
00000110: 2659 6c40 0c01 31bb 0470 7340 30f2 48bd
00000120: 5c58 6640 7236 1b3e 290d 6940 eedb 6d40
00000130: 6ce6 7640 f797 933d 8ecb 933d e143 7a40
00000140: 9995 6c40 4085 7240 4b78 7340 ec32 7340
00000150: 4018 543b 8413 493d 15b4 11bd 5cdc 7940
00000160: eea6 6940 fe8f 3b3d 007d 7740 c30a 7440
00000170: 663a 6140 168b f0bd 022b 7a40 d138 6b40
00000180: 677f 6c40 03f6 6540 5dbc 7540 4126 6a40
00000190: 3a88 d73d 6a4b c2ba a834 7540 4408 6940
000001a0: 48bd 7840 4c47 6e40 3825 7040 ef6e 7940
000001b0: 8b79 6d40 d13b 7340 7ecb 7040 2307 7440
000001c0: 8cf9 6d40 e4d1 7abd 5aa5 7140 5381 7340
000001d0: 6d46 7440 94dc 7140 6874 7640 ea1d 7740
000001e0: 9078 6b40 2be3 7140 51c0 6e40 febf 9f3d
000001f0: 28e4 3c3d f09e 7440 2cbc 3e3d 73ee 6a40
00000200: b562 8f3d 2656 84bd 58af 2fbd 5885 5640
00000210: 02b1 5740 5ca2 97bd 60df 5840 168e f8bd
00000220: 0e18 4740 359a 63bd 9e2f 4c40 d4ef 5840
00000230: 5e52 5f40 24c3 e5bd d0ae 7d3c 2de9 5c40
00000240: 2130 5b40 6222 5f40 cbca 5f40 2553 5540
00000250: 1e9e edbd bade 83bd 28ab a83d e1a8 5e40
00000260: d7ec 5040 606b 463c 8648 5c40 6ab5 5340
00000270: 1cfd 5440 5ce0 b03d 8997 5740 bfdd 4c40
00000280: 6970 5f40 3eb5 4b40 c0a9 5840 0678 4840
00000290: c003 17bd 11b3 cb3d e6c4 5b40 d2b1 4840
000002a0: ad88 6140 d8e8 5840 4446 5440 7bbb 6140
000002b0: 333c 5e40 6888 5b40 3462 6040 aff0 5c40
000002c0: 706e 5940 90ef acbc 5f10 5b40 b6ad 5440
000002d0: 487f 4b40 e8ef 6240 0d74 5740 cf9d 5540
000002e0: d41c 5e40 f0ab 5e40 1081 5640 a4eb 853d
000002f0: 6c2e 60bd bd7d 6140 9852 613d 3a6d 5d40
00000300: 6def 283d 3896 0abd c8f5 a8bc 1767 2c40
00000310: 81f0 3540 bec7 c13b 4951 2940 6289 ddbd
00000320: 7c33 2640 5922 6a3d 4d6d 2e40 2211 3240
00000330: f6a9 3340 c122 b4bd 567a 8bbd bb55 2a40
00000340: 3841 2e40 629d 3640 46fa 2f40 2f66 3140
00000350: caf0 a33d 8a9a a53d f164 95bc 86cc 2e40
00000360: 51a5 3640 ba31 643c ad06 2a40 8c70 3340
00000370: 0b38 2e40 40d0 57bd 0f1e 2f40 799c 2f40
00000380: 7d26 3540 a94a 3040 2fb7 2f40 dd23 2d40
00000390: 9478 58bd 9d84 db3d c3e0 2b40 0659 3140
000003a0: 8c71 3440 7768 3040 5503 3740 8ef4 2840
000003b0: 8934 2940 61b3 3440 758c 3140 790a 3740
000003c0: fbe9 2d40 906b c23c d154 3140 ca47 2e40
000003d0: a85b 3540 e4ed 3540 f432 3640 ff59 3140
000003e0: 7f13 3040 835b 3040 d46b 2940 c0f8 3dbd
000003f0: f0b3 943d 2086 3440 885c c8bd 149c 3540
0.14196113 0.114904195 0.069086075 1.3068379 1.4735492 -0.08700806 1.3581144 -0.11625621
1.2825012 -0.15564308 0.8998916 1.3548536 1.4822717 -0.11528606 -0.005246058 1.4087552
1.2835225 1.4015734 1.4136003 1.448935 0.07892026 -0.011926025 0.13114257 1.2870388
1.0851858 -0.07090308 1.4672958 1.4491001 1.022917 -0.026327953 1.459368 1.454459
1.4629 0.9470661 1.4268775 1.0449288 0.068620235 0.072357126 1.4264631 1.2619671
1.2773539 1.255716 1.3107902 1.2861879 1.3708518 1.4462156 1.264472 1.4023701
1.3008025 -0.034408472 1.2302235 1.4184813 1.3721133 1.3347278 1.4350044 1.3263866
1.2764276 1.3532153 1.4698162 0.044487953 0.0069704354 1.3270981 -0.076591656 1.3253447
-0.00054199906 0.0727119 -0.037838653 3.747239 3.6929412 -0.002700868 3.803712 -0.049059093
3.599143 0.15157488 3.6414282 3.7165484 3.8578138 0.07206719 0.07216559 3.910393
3.6966307 3.789383 3.804217 3.799983 0.0032363087 0.049090877 -0.03557213 3.9040747
3.6508136 0.04579162 3.8670044 3.8131568 3.5191894 -0.117452785 3.908875 3.6753428
3.695276 3.5931404 3.8396218 3.6585848 0.1052403 -0.00148235 3.831339 3.6411295
3.8865528 3.7231016 3.7522717 3.8973958 3.7105434 3.800526 3.7624202 3.8129356
3.7183561 -0.061235324 3.7757173 3.8047683 3.8167984 3.779088 3.8508549 3.8612008
3.6792336 3.7794902 3.730488 0.078002915 0.046116024 3.8222008 0.046566173 3.6708038
0.07001249 -0.06461744 -0.04289183 3.3518887 3.3701787 -0.074040145 3.3886337 -0.12136476
3.1108432 -0.055566985 3.1904063 3.389638 3.4894023 -0.11218861 0.015483573 3.451732
3.4248126 3.4864736 3.4967525 3.3331997 -0.11602424 -0.06438966 0.082357705 3.4790576
3.2644556 0.012110561 3.4419265 3.3079476 3.3279486 0.08636543 3.368624 3.2010343
3.491236 3.1829371 3.3853607 3.1323256 -0.03686881 0.099462636 3.4338927 3.1358533
3.523967 3.3892117 3.3167887 3.527068 3.4724243 3.4302006 3.5059938 3.4521902
3.3973656 -0.021110326 3.4228742 3.3231025 3.1796436 3.5458927 3.3664582 3.3377569
3.4705095 3.4792442 3.3516273 0.065390855 -0.05473177 3.5232995 0.05501041 3.4597917
0.04124396 -0.033834666 -0.02062501 2.693792 2.8428042 0.0059137037 2.6455863 -0.10817219
2.5968924 0.057161663 2.7254212 2.7822957 2.8072486 -0.08795691 -0.06810443 2.6614826
2.7227306 2.853356 2.7496505 2.7718618 0.08004911 0.080861166 -0.01823661 2.7312331
2.85384 0.013927871 2.6566575 2.8037443 2.7221706 -0.052688837 2.7362096 2.7439253
2.8304741 2.754557 2.7455556 2.705314 -0.052849367 0.10718653 2.6855934 2.7710586
2.8194304 2.756376 2.8595784 2.6399264 2.6438315 2.8234484 2.7741978 2.8600142
2.717406 0.02373293 2.7708018 2.7231317 2.8337193 2.8426447 2.84686 2.771118
2.75119 2.7555854 2.6472063 -0.046379805 0.07260883 2.8206863 -0.09783274 2.8376513

fc4.bias f4 [49]
00000000: 5161 5a3f 0e2e 5740 0cd7 5940 eb7a 2c40
00000010: 83d1 2840 599b b73f 4c3c 4a40 9836 9c3f
00000020: 9370 5640 4110 e53f 53cc 1540 7845 3f40
00000030: be24 b13f 0834 d5bd 9ba3 5040 6c91 2b40
00000040: 8422 ef3f 7de9 c73f 4cb0 3a40 9ed4 e7bd
00000050: 760a b73d c7cd 0540 4155 4d40 18fd 5c40
00000060: 2789 2040 0078 a838 da0a adbd ec45 603d
00000070: 97df fc3f 71ed e83f 52ff 4740 fa5d 9a3d
00000080: 6091 953c a097 133c f887 e3bc fef4 1440
00000090: 7b67 e03f 9820 25bd f004 09bc b005 afbc
000000a0: 8892 c53c c69f a8bd 0e25 943f 3471 b83d
000000b0: 3835 d53c 0882 6abd a4d5 373d 0afa e23d
000000c0: 30de 863d
0.85304743 3.362186 3.4037504 2.6950023 2.6377876 1.4344283 3.1599302 1.2204161
3.350621 1.7895585 2.340596 2.988615 1.3839338 -0.10410315 3.2599857 2.6807508
1.8682408 1.561813 2.9170103 -0.113198504 0.08937542 2.0906847 3.2083285 3.4529476
2.508371 8.033216e-05 -0.084493354 0.054754183 1.9755734 1.8197461 3.1249585 0.07537456
0.018257797 0.009008318 -0.027774796 2.3274531 1.753158 -0.040314287 -0.008362994 -0.021365017
0.024117723 -0.08233599 1.1573808 0.09005967 0.026026353 -0.057252914 0.044881478 0.110828474
0.06585348
