trike2/models/DQN_Agent_2000ep.pt/DQN_Agent.pt (torch, 333080 bytes, 8 tensors)

fc1.weight f4 [256, 148]
0	0x41bd59d5	23.668863
1	0x41ceb520	25.83844
2	0x41c9d9db	25.231375
3	0x41cadb05	25.356943
4	0x41b4f14b	22.617819
5	0x41c1b251	24.212069
6	0x41be35e6	23.776318
7	0x41b6d5b4	22.854347
8	0x41c4de2d	24.608484
9	0x41cecdb4	25.850441
10	0x41c40b64	24.505562
11	0x41b57f9d	22.687311
12	0x41c5629c	24.67315
13	0x3d281422	0.041034825
14	0x41cbd51b	25.479055
15	0x41b08125	22.063059
16	0x41c4a874	24.582253
17	0x41d3f670	26.49533
18	0x41c246e5	24.284616
19	0x3d69d1e2	0.057084925
20	0xbd875e41	-0.066097744
21	0x41c6eff8	24.867172
22	0x41c3e96b	24.488974
23	0x41c20283	24.251226
24	0x41c88d7b	25.069082
25	0x3da50939	0.080584
26	0xbcddf41c	-0.02709394
27	0xbd7e4e2a	-0.06208626
28	0x41c434ed	24.525843
29	0x41c77253	24.930822
30	0x41c4db9f	24.607237
31	0x39dca000	0.0004208088
32	0x3d1ac990	0.03778988
33	0xbd1d661e	-0.038427465
34	0x3da16f15	0.07882515
35	0x41ad64f8	21.674301
36	0x41c644f0	24.78366
37	0x3d29232a	0.0412933
38	0xbd5bd91e	-0.053673856
39	0xbcbaa724	-0.022784777
40	0xbd4ed164	-0.05049266
41	0xbce1a1fa	-0.027543057
42	0x41befc08	23.873062
43	0xbd8f6cc7	-0.070031695
44	0xbcbd9870	-0.023143977
45	0x3b88f6c0	0.0041798055
46	0xbd6db979	-0.05803821
47	0x3da67f63	0.08129766
48	0xbd703f92	-0.058654375
49	0x41ba9ebb	23.327505
50	0x41c04489	24.033464
51	0x41c60ee4	24.75727
52	0x41c0976c	24.073936
53	0x41ba007c	23.250237
54	0x41bdbf2c	23.718346
55	0x41c00c21	24.005922
56	0x41acca5e	21.598812
57	0x41cfbb02	25.966312
58	0x41c53d94	24.655067
59	0x41c57b42	24.685184
60	0x41ba2d01	23.271975
61	0x41b466ed	22.550257
62	0x3d8efd6b	0.069819294
63	0x41d3500a	26.414082
64	0x41ace30a	21.610859
65	0x41d242e0	26.282654
66	0x41acf5f4	21.620094
67	0x41bedaff	23.856932
68	0x3d97c029	0.074096985
69	0xbd363374	-0.044482663
70	0x41b76dfb	22.928701
71	0x41cc1571	25.51047
72	0x41aefa22	21.872135
73	0x41be3ef0	23.780731
74	0xbce78656	-0.028262299
75	0xbd92d3b5	-0.07169286
76	0x3b55b260	0.003260754
77	0x41bdd5eb	23.729452
78	0x41c22ad4	24.270912
79	0x41c2dfee	24.35934
80	0x3d4e1c52	0.050319977
81	0xbd3cc1e5	-0.04608335
82	0xbd8038e3	-0.0626085
83	0x3d2e9688	0.042624027
84	0x41abec12	21.490269
85	0x41c3c64e	24.471828
86	0xbcc0477a	-0.023471583
87	0x3cd4312c	0.025902353
88	0xbc3dd7f8	-0.0115871355
89	0xbd8fd56c	-0.07023129
90	0x3d874bed	0.066062786
91	0x41b76300	22.92334
92	0x3d4529fa	0.048135735
93	0x3d3ea922	0.046548016
94	0x3d01ef0e	0.03172212
95	0xbd390373	-0.045169305
96	0xbd7c890a	-0.061654128
97	0x3d6cb5f6	0.05779072
98	0x4194c7c6	18.597546
99	0x419756e2	18.917423
100	0x41ae94cc	21.822655
101	0x41a97e6b	21.186728
102	0x41a3e38d	20.486109
103	0x41853a53	16.653479
104	0x41969e3d	18.827265
105	0x41993015	19.148478
106	0x41a88ff5	21.070292
107	0x41b4bba3	22.59162
108	0x41b6602a	22.796955
109	0x41bd73e2	23.681583
110	0x41a38669	20.44063
111	0x3da0840d	0.07837687
112	0x41b8203a	23.015736
113	0x4190d563	18.104193
114	0x41cade95	25.358683
115	0x41c066cf	24.0502
116	0x41b42346	22.517223
117	0xbd2ec73a	-0.042670466
118	0x3d924575	0.07142154
119	0x419db3bd	19.712763
120	0x41a21d18	20.264206
121	0x419852ed	19.040491
122	0x41b15e30	22.17099
123	0x3d8e0c11	0.06935895
124	0xbd1dd8d9	-0.03853688
125	0x3da1f3a3	0.07907798
126	0x41b58a59	22.692553
127	0x41acbed9	21.593187
128	0x41ac6b08	21.552261
129	0xbaea18c0	-0.0017860159
130	0xbd8ff3f4	-0.07028952
131	0x3d86d4f9	0.0658359
132	0x3d734876	0.059395276
133	0x4182729d	16.305964
134	0x41a4ec01	20.615236
135	0xbcefcfae	-0.029273834
136	0xbd061e00	-0.032743454
137	0x3d8121ef	0.063053004
138	0x3d6f8b02	0.058482178
139	0x3d82f60b	0.06394585
140	0x41a587ad	20.691248
141	0xbcd28740	-0.025699258
142	0xbd7a78a4	-0.061150208
143	0x3bf0fb20	0.007354155
144	0x3b561900	0.003266871
145	0x3d856e4d	0.06515179
146	0x3d6f822e	0.05847376
147	0x3da6c255	0.08142535
148	0x41bd6216	23.672894
149	0x41cdb5aa	25.713703
150	0x41c93b5b	25.153982
151	0x41cac3c7	25.345594
152	0x41b5eaee	22.739712
153	0x41c1d69e	24.229794
154	0x41bda67d	23.706293
155	0x41b5ee1c	22.741264
156	0x41c5effd	24.742182
157	0x41cd4730	25.65976
158	0x41c4a04f	24.578276
159	0x41b41c4f	22.513823
160	0x41c649ec	24.786095
161	0x3d94b175	0.0726041
162	0x41ca8c64	25.31855
163	0x41b15526	22.166576
164	0x41c2b4d7	24.3383
165	0x41d3af46	26.460583
166	0x41c26ac5	24.302134
167	0xbd3b3b3c	-0.045710787
168	0xbc10f3d0	-0.008847192
169	0x41c7c1e6	24.969677
170	0x41c4b33c	24.587517
171	0x41c138c8	24.152725
172	0x41c82d83	25.022223
173	0x3c72f070	0.014827833
174	0x3bd35a40	0.0064499676
175	0x3cfa403c	0.030548207
176	0x41c43375	24.525126
177	0x41c54f86	24.66383
178	0x41c5096f	24.629606
179	0x3d7eb4fa	0.06218431
180	0xbbb923a0	-0.005649999
181	0x3cc32cd8	0.023825094
182	0x3d0a361a	0.033743
183	0x41adfbeb	21.748007
184	0x41c48a87	24.56764
185	0xbda29166	-0.07937889
186	0x3d50df32	0.050994106
187	0x3d05bbc0	0.032649755
188	0xbcf577aa	-0.029964287
189	0xbd8c3fcf	-0.06848108
190	0x41be71ba	23.80553
191	0xbd31a7fe	-0.0433731
192	0x3d78fdf6	0.06078907
193	0x3da2c8cb	0.079484545
194	0xbc341cd0	-0.010993198
195	0xbd647c1f	-0.055782434
196	0x3d7d87fa	0.061897255
197	0x41bb12b8	23.38414
198	0x41be8a00	23.817383
199	0x41c5e08e	24.734646
200	0x41c09e80	24.077393
201	0x41b8f350	23.118805
202	0x41bbfeea	23.49947
203	0x41c102d6	24.126385
204	0x41adf5be	21.744991
205	0x41ce39a9	25.778154
206	0x41c5864e	24.690578
207	0x41c55805	24.667978
208	0x41bacaa9	23.348955
209	0x41b3acf9	22.45946
210	0xbcd76ac2	-0.026296023
211	0x41d2d842	26.355595
212	0x41ae25ec	21.768517
213	0x41d32d9b	26.397268
214	0x41aa824a	21.313618
215	0x41bd6881	23.676027
216	0xbc870028	-0.016479567
217	0xbc5ca490	-0.013466969
218	0x41b68326	22.814037
219	0x41cb2558	25.393234
220	0x41ae087b	21.75414
221	0x41bd8524	23.69001
222	0x3d7aa336	0.061190806
223	0xbd234df6	-0.03986927
224	0x3c2942a0	0.010330826
225	0x41bd50cf	23.664457
226	0x41c19e74	24.20237
227	0x41c259a8	24.293777
228	0xbd7aae36	-0.061201297
229	0x3cdce124	0.026962824
230	0x3b877160	0.0041333884
231	0xbd5fbcca	-0.054623403
232	0x41aa2be5	21.271433
233	0x41c3d8b9	24.480822
234	0xbda3f865	-0.08006362
235	0xbd3f7167	-0.04673901
236	0x3d8fa36d	0.07013593
237	0x3d5f793a	0.05455897
238	0x3da4f51b	0.08054563
239	0x41b71fce	22.89053
240	0xbd1bae1e	-0.038007848
241	0xbbfa52e0	-0.007639274
242	0xbda76c00	-0.08174896
243	0xbd54dc90	-0.051968157
244	0x3d41c09e	0.047302835
245	0x3da44d83	0.08022597
246	0x419354b0	18.416351
247	0x4196524c	18.790184
248	0x41acdbbc	21.607292
249	0x41a9b142	21.211552
250	0x41a3542d	20.416101
251	0x41856ebe	16.679073
252	0x4196251f	18.768126
253	0x419a411a	19.281788
254	0x41a7d9eb	20.981405
255	0x41b53eaa	22.655598

fc1.bias f4 [256]
0	0x41a51c37	20.638777
1	0x41a53ae7	20.65376
2	0x41a572e1	20.681093
3	0x41a53e0e	20.6553
4	0x41a59f98	20.702927
5	0x41a4e615	20.612345
6	0x41a4f47e	20.61938
7	0x41a4aba3	20.583807
8	0x41a50335	20.626566
9	0x41a57e14	20.686562
10	0x41a55643	20.66712
11	0x41a4e765	20.612986
12	0x41a54499	20.658495
13	0x41a5a3c1	20.704958
14	0x41a5aa24	20.708076
15	0x41a560a2	20.672184
16	0x41a4b7ec	20.589806
17	0x41a4fc9a	20.62334
18	0x41a5cc60	20.724792
19	0x41a593a1	20.697084
20	0x41a50665	20.628122
21	0x41a50942	20.62952
22	0x41a566f7	20.675276
23	0x41a59e80	20.702393
24	0x41a4f127	20.61775
25	0x41a4d6df	20.604918
26	0x41a57556	20.682293
27	0x41a5bffa	20.718739
28	0x41a517ef	20.636686
29	0x41a57bba	20.685413
30	0x41a4fad8	20.622482
31	0x41a57539	20.682238
32	0x41a4f6b0	20.620453
33	0x41a57285	20.680918
34	0x41a51601	20.635744
35	0x41a5a705	20.706553
36	0x41a4c45a	20.595875
37	0x41a58d68	20.694046
38	0x41a5186a	20.63692
39	0x41a4ff28	20.624588
40	0x41a53083	20.648687
41	0x41a49994	20.57499
42	0xc072437a	-3.7853684
43	0x41a4c946	20.598278
44	0x41a5de57	20.733564
45	0x41a499e4	20.575142
46	0x41a539b8	20.653183
47	0x41a57222	20.680729
48	0x41a50f8d	20.632593
49	0x41a513b3	20.634619
50	0x41a4f31d	20.618708
51	0x41a54558	20.65886
52	0x41a51939	20.637316
53	0x41a4f4d5	20.619547
54	0x41a554a8	20.666336
55	0x41a573ba	20.681507
56	0x41a59a54	20.700356
57	0x41a52f27	20.648024
58	0x41a4f400	20.61914
59	0x41a5a2af	20.704435
60	0x41a53afa	20.653797
61	0x41a4df7b	20.609121
62	0x41a50367	20.626661
63	0x41a47f43	20.56214
64	0x41a53ed9	20.655687
65	0x41a54fec	20.664024
66	0x41a4f40c	20.619164
67	0x41a50d65	20.63154
68	0x41a5381f	20.652403
69	0x41a5c474	20.720924
70	0x41a49eeb	20.577597
71	0x41a530a6	20.648754
72	0x41a55ff0	20.671844
73	0x41a515ca	20.63564
74	0xc075f327	-3.8429658
75	0x41a57315	20.681192
76	0x41a4883f	20.566526
77	0xc07434d8	-3.8157253
78	0xc078f37f	-3.8898618
79	0x41a45a6b	20.54415
80	0x41a4f78b	20.62087
81	0x41a55959	20.668627
82	0x41a53170	20.64914
83	0x41a59147	20.695936
84	0x41a45a5e	20.544125
85	0x41a4f8c3	20.621466
86	0x41a59338	20.696884
87	0x41a4f57d	20.619867
88	0x41a5a7c8	20.706924
89	0x41a4e335	20.61094
90	0x41a538ca	20.652729
91	0x41a54e0e	20.663113
92	0x41a5b0aa	20.711262
93	0x41a574f8	20.682114
94	0x41a574e2	20.682072
95	0x41a5732a	20.681232
96	0x41a482bd	20.563837
97	0x41a54032	20.656345
98	0x41a58969	20.692095
99	0xc0753039	-3.8310683
100	0x41a58d7d	20.694086
101	0x41a5500a	20.664082
102	0x41a5b80b	20.714865
103	0x41a42a9d	20.520807
104	0x41a5797d	20.68432
105	0x41a4edf5	20.61619
106	0x41a5a3f3	20.705053
107	0x41a4e612	20.612339
108	0x41a56870	20.675995
109	0x41a4e3b3	20.611181
110	0x41a569f4	20.676735
111	0x41a56b44	20.677376
112	0x41a511f3	20.633764
113	0x41a40246	20.50111
114	0x41a52b19	20.646044
115	0x41a49c3c	20.576286
116	0x41a55527	20.666578
117	0x41a54f28	20.66365
118	0x41a4f184	20.617928
119	0x41a54dbf	20.662962
120	0x41a5b245	20.712046
121	0x41a47abf	20.559935
122	0x41a50fa4	20.632637
123	0x41a41c30	20.513763
124	0x41a5dbc8	20.732315
125	0x41a55fcb	20.671774
126	0x41a498b9	20.574572
127	0x41a505e9	20.627886
128	0x41a528d7	20.644941
129	0x41a48d20	20.568909
130	0x41a542fd	20.65771
131	0xc07a1ee6	-3.908136
132	0x41a49463	20.572454
133	0x41a5a751	20.706697
134	0x41a5ae3b	20.710073
135	0x41a57206	20.680676
136	0x41a56bee	20.6777
137	0xc0745c09	-3.8181174
138	0x41a490c8	20.570694
139	0x41a4ceaa	20.60091
140	0x41a5ce19	20.725634
141	0x41a5246a	20.64278
142	0xc078ee44	-3.8895426
143	0x41a58f22	20.69489
144	0x41a5d2c7	20.727919
145	0x41a4952f	20.572844
146	0x41a5a775	20.706766
147	0x41a59839	20.699327
148	0x41a4fc38	20.623154
149	0x41a51ae1	20.638124
150	0x41a51f13	20.640173
151	0x41a4650d	20.549341
152	0x41a56e8b	20.678976
153	0x41a58bb5	20.693216
154	0x41a4f42b	20.619223
155	0x41a5636a	20.673542
156	0x41a4e752	20.61295
157	0x41a5c29c	20.720024
158	0x41a4c0bb	20.594107
159	0x41a56102	20.672367
160	0x41a5a698	20.706345
161	0x41a51b9a	20.638477
162	0x41a4a5c6	20.580944
163	0x41a54a7c	20.66137
164	0x41a4e5d3	20.612219
165	0x41a493b6	20.572124
166	0x41a4e94f	20.61392
167	0x41a50d07	20.631361
168	0x41a5abaf	20.70883
169	0x41a4d200	20.60254
170	0x41a4afd6	20.585857
171	0x41a55f01	20.671389
172	0x41a59dd0	20.702057
173	0x41a4f550	20.619781
174	0x41a5acbe	20.709347
175	0x41a55f55	20.671549
176	0xc076c32b	-3.855662
177	0xc0782188	-3.8770466
178	0x41a427f3	20.519506
179	0x41a4b9fb	20.59081
180	0xc078fe6a	-3.8905282
181	0x41a5bf6d	20.71847
182	0x41a43da0	20.53009
183	0x41a4a0fb	20.578604
184	0x41a538a8	20.652664
185	0x41a5ad42	20.709599
186	0x41a51db4	20.639503
187	0x41a554c6	20.666393
188	0x41a57b1c	20.685112
189	0x41a50712	20.628452
190	0x41a51f4c	20.640282
191	0x41a583a8	20.689285
192	0x41a5b9c8	20.715714
193	0x41a4c5a5	20.596506
194	0x41a54a96	20.661419
195	0x41a57a3b	20.684683
196	0x41a4f2c0	20.61853
197	0x41a527b3	20.644384
198	0x41a5343e	20.650509
199	0x41a4ee0f	20.61624
200	0x41a5749b	20.681936
201	0x41a5902f	20.695402
202	0x41a5561f	20.667051
203	0x41a4db61	20.607119
204	0xc07558a6	-3.8335357
205	0x41a58136	20.688091
206	0x41a559d0	20.668854
207	0x41a4f7e9	20.62105
208	0x41a478c5	20.55897
209	0x41a539d7	20.653242
210	0x41a4acdf	20.58441
211	0x41a549ea	20.66109
212	0x41a53231	20.649508
213	0x41a596bb	20.698599
214	0x41a51436	20.634869
215	0x41a577df	20.68353
216	0x41a5527a	20.665272
217	0x41a5acba	20.70934
218	0x41a51213	20.633825
219	0x41a56706	20.675304
220	0x41a44b11	20.536654
221	0x41a58770	20.691132
222	0x41a4b4c4	20.588264
223	0xc075fa41	-3.8433993
224	0x41a4cda3	20.600409
225	0x41a5cc34	20.724709
226	0x41a4d991	20.606234
227	0x41a54c1b	20.66216
228	0x41a463ea	20.548786
229	0x41a4f0ac	20.617516
230	0x41a46f8b	20.554464
231	0xc078d0d0	-3.887745
232	0x41a57de2	20.686466
233	0x41a504af	20.627287
234	0x41a54e15	20.663126
235	0x41a4c39e	20.595516
236	0x41a4b265	20.587107
237	0x41a5547d	20.666254
238	0x41a4caf7	20.599104
239	0x41a588dc	20.691826
240	0x41a5bddf	20.71771
241	0x41a50ba9	20.630693
242	0x41a4ef08	20.616714
243	0x41a507d9	20.628832
244	0x41a4a22f	20.579191
245	0x41a50021	20.625063
246	0x41a56f39	20.679308
247	0x41a4f7cb	20.620993
248	0x41a5740a	20.68166
249	0x41a57ca9	20.68587
250	0x41a3f12e	20.492764
251	0x41a51372	20.634495
252	0x41a58788	20.691177
253	0xc071f6e6	-3.7806945
254	0x41a57bba	20.685413
255	0x41a5c7ca	20.722553

fc2.weight f4 [128, 256]
0	0x41eb7bf5	29.435526
1	0x41eba6c6	29.456432
2	0x41eba1a8	29.453934
3	0x41ebae2f	29.46005
4	0x41ebed46	29.490856
5	0x41ec24df	29.518003
6	0x41ec7f08	29.562027
7	0x41ec9806	29.57423
8	0x41eb6cbb	29.428091
9	0x41ebe82c	29.488365
10	0x41eaeb11	29.364779
11	0x41ec6a80	29.552002
12	0x41eb396e	29.403042
13	0x41eb97c3	29.449102
14	0x41ec1ef5	29.515116
15	0x41ec9cac	29.5765
16	0x41ebc990	29.47342
17	0x41ebdbf4	29.482399
18	0x41eb57ca	29.417866
19	0x41ebb3d5	29.462809
20	0x41eb22ce	29.391994
21	0x41eb7514	29.432167
22	0x41eb89aa	29.442219
23	0x41eacb49	29.34926
24	0x41ec0566	29.502636
25	0x41eb9045	29.445444
26	0x41ead9ba	29.356312
27	0x41ec0b15	29.505411
28	0x41ea9660	29.323425
29	0x41ec88ff	29.566893
30	0x41eb6f04	29.429207
31	0x41eb7d87	29.436293
32	0x41ebfd34	29.498634
33	0x41eb4d37	29.412703
34	0x41eb8d3d	29.443964
35	0x41ebd9ca	29.481342
36	0x41ebf5ee	29.495083
37	0x41ebec0a	29.490253
38	0x41eb97b9	29.449083
39	0x41ebce56	29.47575
40	0x41ebd50a	29.479023
41	0x41eb9998	29.449997
42	0xc10f1c02	-8.944338
43	0x41ec8079	29.56273
44	0x41eaed6e	29.365932
45	0x41eb6fa9	29.429522
46	0x41ec4f7e	29.538815
47	0x41ec2e66	29.522655
48	0x41eb7f66	29.437206
49	0x41ebda4f	29.481596
50	0x41eca2d0	29.579498
51	0x41ebd635	29.479593
52	0x41eccc3e	29.599728
53	0x41ebc128	29.469315
54	0x41ec98fe	29.574703
55	0x41eb1b8d	29.388453
56	0x41ec65ac	29.549644
57	0x41eb63d1	29.423738
58	0x41ebe8d6	29.48869
59	0x41ec6840	29.550903
60	0x41ebc434	29.470802
61	0x41ea0c15	29.2559
62	0x41ec34a0	29.525696
63	0x41ecc894	29.597939
64	0x41eb07d3	29.37882
65	0x41ea7e9d	29.311823
66	0x41ebef02	29.491703
67	0x41eb98c6	29.449596
68	0x41ea7158	29.305344
69	0x41eb7b74	29.43528
70	0x41ec00bb	29.500357
71	0x41ebcf12	29.476109
72	0x41eb9dc7	29.45204
73	0x41ebb193	29.461706
74	0xc10d8e34	-8.847218
75	0x41ec6a65	29.55195
76	0x41eb50b9	29.414415
77	0xc1105cd6	-9.022665
78	0xc1101f4d	-9.007642
79	0x41ec7ed8	29.561935
80	0x41eb03ac	29.376793
81	0x41ec34f2	29.525852
82	0x41eb1346	29.38441
83	0x41ec5d9f	29.545713
84	0x41eb4766	29.409863
85	0x41ec3f27	29.530836
86	0x41eaee57	29.366377
87	0x41eb6f4f	29.42935
88	0x41ebfa61	29.497255
89	0x41eaccb0	29.349945
90	0x41eb8b01	29.442873
91	0x41ebaa66	29.458202
92	0x41ec5faa	29.546711
93	0x41ea0b13	29.255407
94	0x41eb8a11	29.442415
95	0x41eb6cd2	29.428135
96	0x41eb95db	29.448172
97	0x41eaa0e3	29.328558
98	0x41eb6b1b	29.427298
99	0xc10f93db	-8.973598
100	0x41ec99c5	29.575083
101	0x41ec87fd	29.5664
102	0x41ebe1b4	29.485207
103	0x41e877c7	29.058485
104	0x41ec59a7	29.543776
105	0x41ec1528	29.51033
106	0x41eb4c6a	29.412312
107	0x41ec6243	29.54798
108	0x41ebcf54	29.476234
109	0x41eb60e2	29.422306
110	0x41eb164f	29.385893
111	0x41ebe592	29.487095
112	0x41ebedcd	29.491114
113	0x41ec0247	29.501112
114	0x41ebcb3c	29.474236
115	0x41ec20c0	29.515991
116	0x41eb603a	29.421986
117	0x41ec28c1	29.5199
118	0x41ea1932	29.262302
119	0x41eb85a3	29.440252
120	0x41eb29aa	29.395344
121	0x41eb59a4	29.41877
122	0x41eba1ab	29.45394
123	0x41ec34b9	29.525743
124	0x41eb7123	29.430243
125	0x41ebdfda	29.484303
126	0x41eab961	29.340517
127	0x41ec53c3	29.5409
128	0x41ec2ac2	29.520878
129	0x41ebf454	29.4943
130	0x41ebbe2a	29.467854
131	0xc10e5de7	-8.897925
132	0x41ebc09a	29.469044
133	0x41eb39e4	29.403267
134	0x41ec6fbe	29.554562
135	0x41ec82e8	29.56392
136	0x41ebd069	29.476763
137	0xc10e4d82	-8.893923
138	0x41ec59d4	29.543861
139	0x41eaf5e0	29.370056
140	0x41eb5c9f	29.420225
141	0x41ec7089	29.554949
142	0xc10e2e09	-8.886239
143	0x41ec9ad3	29.575598
144	0x41eae36e	29.36105
145	0x41ec9de7	29.5771
146	0x41ec776c	29.558311
147	0x41eb8f3c	29.444939
148	0x41ec8e96	29.569622
149	0x41ebec2e	29.490322
150	0x41ebf58b	29.494894
151	0x41e9fa76	29.247295
152	0x41ebbea9	29.468096
153	0x41ec3214	29.524452
154	0x41ead5b3	29.354345
155	0x41ecaacb	29.583395
156	0x41eb6bbc	29.427605
157	0x41eba464	29.455269
158	0x41ebfefa	29.4995
159	0x41eb3167	29.399122
160	0x41eafa4f	29.372221
161	0x41eae1c5	29.360239
162	0x41ebb4ba	29.463245
163	0x41ec1a41	29.51282
164	0x41eb1e81	29.389894
165	0x41ead2d8	29.352951
166	0x41ebcb7e	29.474361
167	0x41ebf806	29.496105
168	0x41ec4d94	29.53788
169	0x41ea5bb6	29.29478
170	0x41ebba65	29.466013
171	0x41ebbc57	29.466963
172	0x41ec1508	29.51027
173	0x41ebaf8d	29.460718
174	0x41eb547b	29.41625
175	0x41eafbbd	29.37292
176	0xc10fd5f0	-8.989731
177	0xc10fa53b	-8.977839
178	0x41ec7691	29.557894
179	0x41ebe128	29.48494
180	0xc10dada2	-8.854891
181	0x41eb011e	29.375546
182	0x41ec4754	29.534828
183	0x41eb0d24	29.381416
184	0x41eab6f2	29.339329
185	0x41eb9078	29.445541
186	0x41e9b27b	29.212149
187	0x41ebc33a	29.470325
188	0x41eaa0db	29.328543
189	0x41eafc47	29.373182
190	0x41ebe3f3	29.486303
191	0x41ecc45b	29.595877
192	0x41ebafad	29.46078
193	0x41eb22a9	29.391924
194	0x41eb6cd6	29.428143
195	0x41ec1e3d	29.514765
196	0x41eb6085	29.422129
197	0x41eca343	29.579718
198	0x41ea8e16	29.319378
199	0x41ec0c6d	29.506067
200	0x41eb6ffd	29.429682
201	0x41ebfa8c	29.497337
202	0x41ebed2a	29.490803
203	0x41ec2d56	29.522137
204	0xc10fcb81	-8.987184
205	0x41eb6c75	29.427958
206	0x41eb2ac1	29.395876
207	0x41eba612	29.456089
208	0x41eb3ca8	29.404617
209	0x41ec82e2	29.563908
210	0x41ebc5c5	29.471567
211	0x41ebe9f3	29.489233
212	0x41ecd972	29.606174
213	0x41ec33e6	29.525341
214	0x41eb424c	29.407372
215	0x41ec9d68	29.576859
216	0x41eb4f1a	29.413624
217	0x41ec4d74	29.537819
218	0x41eb7e3a	29.436634
219	0x41eb7c08	29.435562
220	0x41ea94f9	29.32274
221	0x41eb3f8e	29.406033
222	0x41eb7995	29.434366
223	0xc10f7306	-8.965582
224	0x41ebf690	29.495392
225	0x41ebc33c	29.47033
226	0x41eb879d	29.441217
227	0x41ebc16e	29.469448
228	0x41ec71b4	29.55552
229	0x41ebe776	29.488018
230	0x41ec36d5	29.526773
231	0xc10f2f71	-8.949082
232	0x41ebb04c	29.461082
233	0x41ebd10b	29.477072
234	0x41ebc795	29.472452
235	0x41eb984e	29.449368
236	0x41ea9f62	29.327824
237	0x41ebd8e0	29.480896
238	0x41eaa941	29.332644
239	0x41ecfa19	29.622118
240	0x41ebb0ac	29.461266
241	0x41ec0dc6	29.506725
242	0x41e99488	29.197525
243	0x41eb58a0	29.418274
244	0x41ebb58f	29.463652
245	0x41ebf3a6	29.493969
246	0x41ec91c0	29.571167
247	0x41ebca0a	29.473652
248	0x41ec84c2	29.564823
249	0x41ebb9ba	29.465687
250	0x41ec3181	29.524172
251	0x41ec4215	29.532267
252	0x41ec0ab2	29.505222
253	0xc10de979	-8.8695
254	0x41ebbe64	29.467964
255	0x41ebaec9	29.460344

fc2.bias f4 [128]
0	0x41e54316	28.657757
1	0x41e4f5fd	28.620111
2	0x41e56f97	28.679487
3	0x41e42b72	28.521214
4	0x41e59b24	28.700752
5	0x41e5c97b	28.72338
6	0x41e5b8db	28.715261
7	0x41e48a27	28.567457
8	0x41e5db34	28.732033
9	0xbf89f9b7	-1.0779332
10	0x41e559b3	28.668798
11	0x41e56237	28.672956
12	0x41e4d921	28.60602
13	0x41e55f3d	28.671503
14	0x41e57956	28.684246
15	0x41e5407a	28.656483
16	0x41e52990	28.645294
17	0x41e52d20	28.647034
18	0x41e46b6a	28.552448
19	0x41e4e682	28.612553
20	0x41e5fe59	28.749193
21	0x41e56111	28.672396
22	0x41e5a317	28.704634
23	0x41e5add8	28.709885
24	0x41e5923b	28.696402
25	0x41e368ed	28.426233
26	0x41e55017	28.664106
27	0x41e5115c	28.633476
28	0x41e4ed0a	28.615742
29	0x41e55e92	28.671177
30	0x41e533d6	28.65031
31	0x41e591f2	28.696262
32	0x41e5a149	28.703753
33	0x41e4a4c3	28.58045
34	0xbc6e7bbe	-0.01455587
35	0x41e59c57	28.701338
36	0xbd68b2cf	-0.05681115
37	0x41e57949	28.684221
38	0x41e57469	28.68184
39	0x41e4b80a	28.589863
40	0x41e5cbba	28.724476
41	0x41e5128b	28.634054
42	0x41e4ef2f	28.616789
43	0x41e50235	28.626078
44	0x41e534e5	28.650827
45	0x41e4e283	28.610601
46	0x41e4c12f	28.594328
47	0x41e5743d	28.681757
48	0x41e558c6	28.668346
49	0x41e5b433	28.712988
50	0x41e57dd2	28.686436
51	0x41e4eca2	28.615543
52	0x41e4f673	28.620337
53	0x41e3a534	28.455666
54	0x41e4f0c3	28.61756
55	0x41e50810	28.628937
56	0x41e52560	28.64325
57	0xbd361dbf	-0.04446196
58	0x41e57715	28.683146
59	0x41e5c401	28.720705
60	0x41e4f48f	28.619413
61	0x41e55f40	28.671509
62	0x41e5d6d4	28.729897
63	0xbf92526b	-1.1431402
64	0x41e5747d	28.681879
65	0x41e575a1	28.682436
66	0x41e57b05	28.685068
67	0x41e3e0d6	28.484783
68	0x41e58afa	28.69286
69	0x41e57b5c	28.685234
70	0x41e541c0	28.657104
71	0x41e4e1a9	28.610186
72	0x41e4417a	28.531971
73	0x41e4dc20	28.607483
74	0x41e5dabb	28.731802
75	0x41e5a549	28.705706
76	0x41e470cc	28.555077
77	0x41e5a822	28.707096
78	0xbd6f8bc9	-0.05848292
79	0xbd86b13d	-0.06576774
80	0x41e4c9b6	28.598492
81	0x41e4e901	28.613771
82	0xbd5baf64	-0.053634062
83	0x41e4aaa5	28.583323
84	0xbd8591e1	-0.06521965
85	0x41e53f49	28.655901
86	0xbc018313	-0.007904786
87	0x41e27d59	28.311205
88	0x41e4e8fe	28.613766
89	0x41e53cb9	28.65465
90	0xbd1626d1	-0.036658112
91	0x41e39511	28.447786
92	0x41e4db06	28.606945
93	0x41e3f2e6	28.493603
94	0x41e5c255	28.719889
95	0x41e502a4	28.62629
96	0xbf894dd2	-1.0726874
97	0x41e534f8	28.650864
98	0x41e5303f	28.648558
99	0x41e3d69d	28.479792
100	0x41e4fabf	28.622435
101	0xbf7d3a5b	-0.9891717
102	0x41e5cbd5	28.724527
103	0x41e5aa5d	28.708185
104	0x41e4981f	28.574278
105	0x41e56d77	28.67845
106	0x41e593db	28.697195
107	0x41e4e094	28.609657
108	0x41e4fe74	28.624245
109	0x41e5a7fb	28.707022
110	0x41e5a48d	28.705347
111	0x41e51a40	28.637817
112	0x41e426b7	28.518904
113	0x41e533d9	28.650316
114	0x41e584bb	28.68981
115	0x41e5a0b5	28.70347
116	0x41e525a7	28.643385
117	0x41e5e11c	28.734917
118	0x41e41096	28.508099
119	0x41e509c8	28.629776
120	0x41e5902f	28.695402
121	0x41e588ef	28.691862
122	0x41e54086	28.656506
123	0x41e2bc31	28.34189
124	0x41e539e6	28.65327
125	0x41e58c52	28.693516
126	0x41e4cabc	28.598991
127	0x41e4e703	28.612799

fc3.weight f4 [64, 128]
0	0x41b900a7	23.125319
1	0x41b87fc3	23.062384
2	0x41b925cc	23.143456
3	0x41b8861d	23.065485
4	0x41b950ac	23.16439
5	0x41ba89a8	23.317215
6	0x41b971a9	23.180498
7	0x41b943c3	23.158087
8	0x41baa7bc	23.331902
9	0xc089fdfe	-4.312255
10	0x41b8d391	23.103304
11	0x41ba16dc	23.261162
12	0x41b78105	22.937998
13	0x41b97011	23.17972
14	0x41b9eb43	23.239874
15	0x41b861c7	23.047743
16	0x41b9d483	23.228765
17	0x41b9d8ff	23.230955
18	0x41b9b0b4	23.21128
19	0x41b80f5f	23.007505
20	0x41baab76	23.333721
21	0x41b9c286	23.219982
22	0x41b94657	23.159346
23	0x41b998c0	23.199585
24	0x41ba253e	23.268185
25	0x41b6bb4a	22.84145
26	0x41b8d39f	23.10333
27	0x41b74e03	22.913092
28	0x41b90f5c	23.1325
29	0x41b98a0e	23.19241
30	0x41ba027e	23.251217
31	0x41b8a23d	23.079218
32	0x41bac462	23.34589
33	0x41b8d1dc	23.10247
34	0xbc80b94e	-0.01571336
35	0x41b970f4	23.180153
36	0xbb7c7e9a	-0.003852761
37	0x41ba55b7	23.291853
38	0x41b90cad	23.13119
39	0x41b95e99	23.17119
40	0x41ba19ca	23.262592
41	0x41ba81f7	23.31346
42	0x41b9601a	23.171925
43	0x41b8d548	23.104141
44	0x41b9dfb1	23.234224
45	0x41b99787	23.198988
46	0x41b7dfdc	22.984306
47	0x41b9a867	23.207228
48	0x41ba3945	23.277964
49	0x41b920ad	23.140955
50	0x41b7bbaf	22.966642
51	0x41ba0b03	23.255377
52	0x41b81feb	23.015585
53	0x41b6ae83	22.83521
54	0x41b9f04e	23.242336
55	0x41b9ccd6	23.225018
56	0x41ba4761	23.284853
57	0x3d79c226	0.06097617
58	0x41b89357	23.071943
59	0x41b91685	23.135996
60	0x41b9a884	23.207283
61	0x41b9b4f7	23.213362
62	0x41ba6d25	23.303293
63	0xc09bd9a2	-4.8703165
64	0x41b8bf45	23.093393
65	0x41b9e102	23.234867
66	0x41b91f7c	23.140373
67	0x41b9163a	23.135853
68	0x41ba3ec4	23.280647
69	0x41ba15a3	23.260565
70	0x41b960f3	23.172338
71	0x41b993a4	23.19709
72	0x41b80ad6	23.005291
73	0x41b92990	23.145294
74	0x41ba98d2	23.32462
75	0x41ba2690	23.26883
76	0x41b7fa0a	22.99709
77	0x41b99d44	23.20179
78	0xbd8c0f4e	-0.06838857
79	0x3d57e912	0.052712508
80	0x41b9c40a	23.220722
81	0x41b94b28	23.161697
82	0xbdbd8b91	-0.09255136
83	0x41b845e7	23.034132
84	0xbc945afc	-0.018109791
85	0x41b7215b	22.891287
86	0xbd679070	-0.05653423
87	0x41b7c80a	22.972675
88	0x41b9abdb	23.208914
89	0x41b8fcfc	23.123528
90	0xbd8d618a	-0.0690337
91	0x41b639f3	22.778296
92	0x41b88ccf	23.068754
93	0x41b8dc03	23.107428
94	0x41b9e86c	23.238487
95	0x41b97f4c	23.187157
96	0xc084d604	-4.151125
97	0x41b8fe11	23.124056
98	0x41b94636	23.159283
99	0x41b65116	22.789593
100	0x41b8b65b	23.08904
101	0xc080561c	-4.0105114
102	0x41b9a857	23.207197
103	0x41b96fa5	23.179514
104	0x41b85c9a	23.045216
105	0x41ba0654	23.25309
106	0x41b9b263	23.212103
107	0x41b90e6d	23.132044
108	0x41b90f4c	23.13247
109	0x41b9aa93	23.208288
110	0x41ba1534	23.260353
111	0x41b7bc70	22.96701
112	0x41b6e9f6	22.864239
113	0x41b8b45f	23.088072
114	0x41b93cf8	23.15477
115	0x41b9dc15	23.232462
116	0x41b9d4ab	23.228842
117	0x41ba0143	23.250616
118	0x41b61829	22.761797
119	0x41b93e5b	23.155447
120	0x41b8dff3	23.10935
121	0x41b96cc6	23.178112
122	0x41ba3adc	23.27874
123	0x41b64850	22.785309
124	0x41b9be00	23.217773
125	0x41b82523	23.018133
126	0x41b8b185	23.08668
127	0x41b9523b	23.165152
128	0x41b8f7a4	23.120918
129	0x41b9b7b7	23.214705
130	0x41b9477b	23.159903
131	0x41ba3f78	23.28099
132	0x41b976f6	23.183086
133	0x41b93a45	23.153452
134	0x41b92c71	23.1467
135	0x41b9397b	23.153067
136	0x41b893af	23.072111
137	0xc0872863	-4.22368
138	0x41b8a465	23.08027
139	0x41b885c6	23.06532
140	0x41b9f589	23.24489
141	0x41b9888c	23.191673
142	0x41b87b04	23.060066
143	0x41b98f7c	23.19506
144	0x41b8f4c5	23.119516
145	0x41ba67c3	23.300665
146	0x41b96f89	23.17946
147	0x41ba2196	23.2664
148	0x41b8ab80	23.08374
149	0x41b8e822	23.113346
150	0x41b95b77	23.16966
151	0x41b8aa55	23.08317
152	0x41b95a49	23.169085
153	0x41b9b1f5	23.211893
154	0x41b8e5f0	23.112274
155	0x41b8784b	23.058737
156	0x41b9c529	23.22127
157	0x41b9409e	23.156551
158	0x41b957ef	23.167936
159	0x41b8e5f3	23.11228
160	0x41b9079c	23.128716
161	0x41b9c3a8	23.220535
162	0xbd9c912c	-0.07644877
163	0x41b9ba78	23.21605
164	0xbd989d36	-0.074518606
165	0x41b8b64b	23.08901
166	0x41b880bb	23.062857
167	0x41b924ca	23.142963
168	0x41b9467b	23.159414
169	0x41b88c6c	23.068565
170	0x41b8bf4e	23.09341
171	0x41ba0a10	23.254913
172	0x41b9b7cf	23.21475
173	0x41b949ac	23.160973
174	0x41b968b9	23.176134
175	0x41b93315	23.149942
176	0x41b8891b	23.066946
177	0x41b9c93f	23.223265
178	0x41b95678	23.167221
179	0x41b93051	23.148592
180	0x41b9be1f	23.217833
181	0x41b9c6c9	23.222063
182	0x41b9cc9c	23.224907
183	0x41b9bddb	23.217703
184	0x41b88aaf	23.067717
185	0x3d3faf27	0.046797898
186	0x41b89f37	23.077742
187	0x41b9041f	23.127012
188	0x41b943ca	23.1581
189	0x41b9afba	23.210804
190	0x41b8c675	23.096903
191	0xc08e4d8e	-4.446967
192	0x41b93e65	23.155466
193	0x41b8ce6c	23.100792
194	0x41b96681	23.17505
195	0x41b89305	23.071787
196	0x41b87949	23.059221
197	0x41ba019a	23.250782
198	0x41b9c939	23.223253
199	0x41b8cbe5	23.099558
200	0x41ba00fa	23.250477
201	0x41b9ed6c	23.240929
202	0x41b81627	23.010817
203	0x41b8a911	23.082552
204	0x41ba4b6c	23.286827
205	0x41b92ff0	23.148407
206	0x3cd4eb90	0.025991231
207	0x3c481ddf	0.012214153
208	0x41b88963	23.067083
209	0x41ba3e15	23.280313
210	0xbb070627	-0.0020603032
211	0x41ba24c6	23.267956
212	0xbd859b04	-0.065237075
213	0x41b8f162	23.117863
214	0xbd66b12c	-0.056321308
215	0x41b8b2d4	23.087318
216	0x41ba2682	23.268803
217	0x41b95878	23.168198
218	0x3d6ec8c3	0.05829693
219	0x41b9502b	23.164145
220	0x41b9283d	23.144648
221	0x41b84d07	23.037611
222	0x41b8eeb6	23.116558
223	0x41b88ef2	23.069798
224	0xc07ff6d8	-3.9994411
225	0x41b9ce6f	23.225798
226	0x41b924f1	23.143038
227	0x41b9843e	23.189571
228	0x41ba01bc	23.250847
229	0xc074476c	-3.8168592
230	0x41b919a0	23.137512
231	0x41b8fd16	23.123577
232	0x41b8baec	23.09127
233	0x41b9fe15	23.249063
234	0x41b8859d	23.06524
235	0x41b8a7e3	23.081976
236	0x41b98534	23.19004
237	0x41b95512	23.166538
238	0x41b8fb0b	23.12258
239	0x41b93bef	23.154264
240	0x41ba1c59	23.263842
241	0x41b9a57f	23.205809
242	0x41b95575	23.166727
243	0x41b95ec3	23.17127
244	0x41b8fc71	23.123262
245	0x41b97ba1	23.185366
246	0x41b8fa3c	23.122185
247	0x41b86d0e	23.05325
248	0x41b961b8	23.172714
249	0x41b896c9	23.073626
250	0x41b9b8d2	23.215244
251	0x41b8d092	23.101841
252	0x41b905ea	23.127888
253	0x41ba10a3	23.258123
254	0x41b963af	23.173674
255	0x41b85364	23.040718

fc3.bias f4 [64]
0	0x41dcd18f	27.602324
1	0x41dc0253	27.501135
2	0x41dc0c74	27.50608
3	0xbd78f658	-0.060781807
4	0xbd77f9b2	-0.060540862
5	0x41dc03c2	27.501835
6	0x41dc2b54	27.521156
7	0x41dcde42	27.608524
8	0xbdc79a34	-0.09746209
9	0x41dbf973	27.496801
10	0x41dbfddd	27.498957
11	0x41db1d4a	27.389301
12	0x3cd75b09	0.026288526
13	0xbdc666ef	-0.09687602
14	0xbd4d82e4	-0.050173655
15	0x41db056d	27.37765
16	0xbd927fdf	-0.07153296
17	0xbd9d9038	-0.07693523
18	0x41db47fb	27.410147
19	0x41dc89c8	27.567276
20	0xbdd71fed	-0.10504136
21	0x3d14874a	0.036261834
22	0x41dc2c11	27.521517
23	0x41dceaa4	27.61457
24	0x41dc4f3d	27.53869
25	0x41db82c5	27.438852
26	0x41dc617a	27.547596
27	0x41daf948	27.37172
28	0x41dbd205	27.477549
29	0xbdb7ab1b	-0.08968183
30	0xbd4b8f61	-0.049697284
31	0x41dcd427	27.60359
32	0x41db2fdc	27.398369
33	0x41dca16d	27.578821
34	0xbddab491	-0.106789716
35	0x41dce0fa	27.609852
36	0x41dbbcdc	27.467216
37	0xbd0c96e2	-0.03432358
38	0x41dc77d3	27.558508
39	0x41dccf9a	27.601368
40	0x41dc7f43	27.56214
41	0xbd83c475	-0.064339556
42	0xbd881b59	-0.06645841
43	0xbd3a21ea	-0.0454425
44	0x41dc9cfe	27.576656
45	0x41db344d	27.400537
46	0x41dc2152	27.51627
47	0x41daa11f	27.328672
48	0x41dc5ae5	27.544382
49	0x41dbfd7b	27.49877
50	0xbcbd0477	-0.023073418
51	0x41dc0ac8	27.505264
52	0x41dbb0b1	27.461275
53	0x41dbf6f1	27.495577
54	0x41db0d8c	27.381615
55	0x41da4656	27.284344
56	0x41dc5c72	27.54514
57	0x41dbd758	27.480148
58	0x41dc53e0	27.540955
59	0x41dc010b	27.50051
60	0xbd962c8c	-0.073327154
61	0x3d4fc1f4	0.050722077
62	0x41dbb212	27.461948
63	0x41dc12a9	27.509111

fc4.weight f4 [49, 64]
0	0x408e6ef3	4.4510436
1	0x4088e3f1	4.277825
2	0x409082e6	4.515979
3	0xbd1d082b	-0.038337868
4	0x3dc314ae	0.09525429
5	0x408b692f	4.35659
6	0x40904313	4.508188
7	0x408e9009	4.4550824
8	0x3be67ce0	0.007033929
9	0x4093bab7	4.6165423
10	0x40915384	4.541445
11	0x408b4f92	4.353463
12	0xbdb4c238	-0.08826107
13	0x3da1c49e	0.0789883
14	0x3ce8ed78	0.028433546
15	0x408557ad	4.1669526
16	0xbd3c03b8	-0.045901984
17	0xbbf02940	-0.007329136
18	0x4085a533	4.176416
19	0x408d5460	4.4165497
20	0xbd8c7b34	-0.06859437
21	0x3cab5ee0	0.020919263
22	0x408bdd74	4.370783
23	0x408d3d4c	4.4137325
24	0x4090ce4d	4.525183
25	0x408c1c0c	4.3784237
26	0x408bb32f	4.365623
27	0x408c3ba9	4.3822827
28	0x408bf197	4.373241
29	0x3c8d1e00	0.01722622
30	0x3c8f4211	0.017487558
31	0x40888666	4.266406
32	0x408ff74a	4.4989367
33	0x408a0b81	4.3139043
34	0x3dc28dea	0.09499724
35	0x408cbdd7	4.398174
36	0x408e18e8	4.4405403
37	0x3ddef556	0.10886638
38	0x408f80a0	4.4844513
39	0x408ca7f5	4.3955026
40	0x4089afa3	4.30269
41	0xbd2310c0	-0.039810896
42	0x3d8a43b4	0.067511946
43	0xbd3a5a74	-0.04549642
44	0x40909cd6	4.519145
45	0x408db9f5	4.42895
46	0x40888ced	4.267203
47	0x4093a8f9	4.6143765
48	0x408cf55c	4.404951
49	0x4092a453	4.582559
50	0xbbe38516	-0.0069433553
51	0x408a3d73	4.320001
52	0x4092ca68	4.587208
53	0x4089c80c	4.30567
54	0x4082721d	4.07643
55	0x40894a79	4.290341
56	0x408d602b	4.4179893
57	0x408bcb54	4.3685703
58	0x408e6980	4.4503784
59	0x40889e2b	4.2693076
60	0xbda00b4c	-0.07814655
61	0xbde5e2ca	-0.11224897
62	0x408d9e17	4.425548
63	0x40918662	4.547654
64	0x40ca6b33	6.325586
65	0x40cf0d48	6.4703712
66	0x40ce1f6a	6.4413347
67	0xbd5d2ec0	-0.053999662
68	0xbd8b7266	-0.06808929
69	0x40cf9d5e	6.48796
70	0x40d0b73e	6.5223684
71	0x40ca6973	6.325372
72	0x3b48d000	0.0030641556
73	0x40cd08f3	6.4073424
74	0x40cb39ca	6.3508043
75	0x40cd6054	6.418009
76	0x3db53ffa	0.08850093
77	0xbdd2b5b4	-0.10288563
78	0x3dfd51d8	0.12369126
79	0x40cc0a93	6.376291
80	0x3d6af478	0.05736205
81	0xbd203ae8	-0.039118677
82	0x40cc4971	6.383965
83	0x40cfe7e5	6.4970574
84	0x3d20aaec	0.039225504
85	0x3d32c118	0.04364118
86	0x40ceee2f	6.466575
87	0x40cac5af	6.3366313
88	0x40d0399b	6.507032
89	0x40caba0c	6.335211
90	0x40cd745c	6.420454
91	0x40cd9d61	6.4254613
92	0x40cfda88	6.495426
93	0xbc092c60	-0.008372396
94	0xbcd20010	-0.025634795
95	0x40caa66c	6.332815
96	0x40ca2858	6.317425
97	0x40cbbfa8	6.3671455
98	0xbd6192b4	-0.055071548
99	0x40cbbe60	6.366989
100	0x40cbe12f	6.371238
101	0xbd1fdcf0	-0.03902906
102	0x40cd9cbf	6.425384
103	0x40cd851e	6.4224997
104	0x40ca8ccd	6.3296876
105	0xbca0e2b5	-0.019639352
106	0xbde23c0c	-0.11046609
107	0x3d9930c4	0.074800044
108	0x40d0c37b	6.5238624
109	0x40caa00c	6.332037
110	0x40c8cb4d	6.274817
111	0x40cbc7c2	6.3681345
112	0x40ccc13e	6.398589
113	0x40c97bd1	6.2963643
114	0x3da3f8de	0.08006452
115	0x40c97dd5	6.2966104
116	0x40cb4af5	6.3529
117	0x40cda1eb	6.4260154
118	0x40cce45c	6.402876
119	0x40c99a80	6.30011
120	0x40ca23b8	6.31686
121	0x40d0088c	6.5010433
122	0x40cb01d1	6.3439717
123	0x40cdea83	6.434877
124	0xbb84ff40	-0.0040587485
125	0xbdd07df8	-0.10180277
126	0x40ca5209	6.322514
127	0x40caa8d8	6.333111
128	0x4105daed	8.365949
129	0x41061221	8.379426
130	0x4106c450	8.422928
131	0xbd2f8808	-0.04285434
132	0xbdb37e68	-0.087643445
133	0x41065a8a	8.397104
134	0x410547d4	8.330036
135	0x41069d3b	8.413386
136	0xbd60c610	-0.054876387
137	0x4106fd70	8.436874
138	0x4105c902	8.361574
139	0x410695c9	8.411569
140	0x3dcb59f6	0.09929268
141	0xbdbb13d7	-0.091346435
142	0xbde23e64	-0.11047056
143	0x410535cd	8.325635
144	0xbdb05356	-0.08609645
145	0x3d4606fc	0.048346505
146	0x4104709e	8.277494
147	0x41067179	8.402703
148	0x3d8fb0f8	0.07016176
149	0x3d2c5e3f	0.042082068
150	0x41052b95	8.32314
151	0x4104e16f	8.3050375
152	0x410718df	8.443572
153	0x4106a046	8.414129
154	0x4107f47b	8.497188
155	0x4103d681	8.239869
156	0x41063e65	8.390233
157	0xbd952570	-0.07282531
158	0x3daa50a9	0.08316166
159	0x410568f6	8.338125
160	0x41040233	8.250537
161	0x41050276	8.313101
162	0x3ca6d1b8	0.020363674
163	0x4104412f	8.265914
164	0x410628eb	8.38499
165	0x3d90c1ca	0.07068212
166	0x4104dd06	8.303961
167	0x4107acf1	8.479722
168	0x41048b6b	8.284038
169	0xbd7c16f2	-0.06154532
170	0x3d2f251c	0.04276
171	0xba8b1f80	-0.0010614246
172	0x410491b2	8.28557
173	0x41053cb0	8.327316
174	0x410612a1	8.379548
175	0x410615d5	8.38033
176	0x4106fdaa	8.43693
177	0x4106bd47	8.42121
178	0xbda1219e	-0.0786774
179	0x4106c3e8	8.422829
180	0x4106eefa	8.433344
181	0x41039376	8.223501
182	0x41017a54	8.092365
183	0x4101dd0e	8.116468
184	0x4107923e	8.473204
185	0x4103aa3b	8.22906
186	0x41043f2f	8.265426
187	0x41030c51	8.190507
188	0x3b101480	0.0021984875
189	0xbcb5de53	-0.022200739
190	0x4105347d	8.3253145
191	0x41070e83	8.441043
192	0x40cb4469	6.352101
193	0x40d0a1dd	6.5197587
194	0x40cbc155	6.36735
195	0xbc348580	-0.011018157
196	0xbd36f880	-0.04467058
197	0x40cd8167	6.422046
198	0x40cd58da	6.417096
199	0x40cae3d0	6.340309
200	0x3d40de89	0.047087226
201	0x40c84f25	6.259661
202	0x40c94896	6.2901106
203	0x40cf4d4c	6.4781857
204	0xbbf871b8	-0.0075819157
205	0xbd3316a0	-0.04372275
206	0xbdc394d2	-0.095498696
207	0x40cbb21a	6.365491
208	0x3c4319b0	0.01190798
209	0xbd93eeec	-0.07223305
210	0x40d0a798	6.520458
211	0x40cbc903	6.3682876
212	0xbdc569c4	-0.09639314
213	0xbdc890a5	-0.09793214
214	0x40cf0f0f	6.470588
215	0x40cfa878	6.489315
216	0x40c94338	6.2894554
217	0x40c9c3ef	6.3051677
218	0x40c8c73e	6.2743216
219	0x40cccb75	6.399836
220	0x40cf8f4d	6.486243
221	0xbdeb4cae	-0.11489235
222	0xbd8ca1fe	-0.06866835
223	0x40ca7b25	6.3275323
224	0x40c982ba	6.297208
225	0x40cc9398	6.393017
226	0xbdb0106c	-0.08596882
227	0x40cc5ff1	6.3867116
228	0x40cc50d7	6.384868
229	0x3d6f7524	0.058461323
230	0x40c8f78a	6.280217
231	0x40cf0f02	6.470582
232	0x40cc8bdd	6.392073
233	0xbd639cdb	-0.05556951
234	0x3c8866f8	0.016650662
235	0x3d9ea520	0.07746339
236	0x40c88f22	6.2674723
237	0x40cc50d5	6.384867
238	0x40cfde03	6.495851
239	0x40cb8174	6.3595524
240	0x40cd9c3d	6.425322
241	0x40c7456c	6.2272243
242	0xbddee1cc	-0.10882911
243	0x40c8c4ea	6.2740374
244	0x40c95235	6.291285
245	0x40c95d38	6.2926292
246	0x40c9f09e	6.310622
247	0x40ca9af9	6.3314176
248	0x40cd884c	6.422888
249	0x40cbc94c	6.3683224
250	0x40cab244	6.334261
251	0x40ceb72c	6.45986
252	0x3daff2be	0.08591221
253	0x3de161f4	0.11005011
254	0x40cae2bf	6.340179
255	0x40c91602	6.2839365

fc4.bias f4 [49]
0	0x40eac4e8	7.3365364
1	0x414cb869	12.795022
2	0x418fcf2f	17.976164
3	0x415230f5	13.136952
4	0x41bd0c30	23.63095
5	0x418d65d7	17.674726
6	0x413ec28b	11.922496
7	0x41c13c6f	24.154509
8	0x41a4bffd	20.593744
9	0x41a86093	21.047155
10	0x41628f8e	14.160048
11	0x41babede	23.343197
12	0x412ba129	10.726846
13	0xbd55cf9c	-0.052199945
14	0x413a6ecc	11.65205
15	0x41c5083e	24.629025
16	0x4193cf7e	18.476315
17	0x4195a145	18.703745
18	0x41be42af	23.78256
19	0xbde223e2	-0.11042
20	0xbda89e96	-0.08233373
21	0x41444135	12.26592
22	0x41b53589	22.65114
23	0x4141fa86	12.123663
24	0x4190cdf5	18.100565
25	0xbd544214	-0.05182083
26	0x3de58ffa	0.11209102
27	0xbda872d6	-0.08225028
28	0x418df55c	17.744804
29	0x41a9e83e	21.2384
30	0x41471628	12.442909
31	0x3db69408	0.089149535
32	0x3ce050b0	0.027382225
33	0x3da0df72	0.07855119
34	0xbda83334	-0.08212891
35	0x4137063e	11.439024
36	0x419f41d3	19.90714
37	0x3a33c500	0.00068576634
38	0xbdaf1df2	-0.085506335
39	0x3dcd184a	0.100143984
40	0x3da26264	0.07928923
41	0xbd3f7c58	-0.046749443
42	0x4156b010	13.417984
43	0x3c90fb18	0.017697856
44	0xbdb0d8b6	-0.08635084
45	0xbc46b2c0	-0.012127578
46	0x3ddb8a12	0.10719694
47	0x3dcdaa5c	0.10042259
48	0x3d96c0fa	0.07361026
