trike2/models/trainied against random/DQN_Agent_500ep.pt/DQN_Agent.pt (torch, 333080 bytes, 8 tensors)

fc1.weight f4 [256, 148]
0	0x40d6cc4e	6.7124395
1	0x41135ad1	9.209672
2	0x410bd905	8.740483
3	0x40f437f6	7.631831
4	0x410c6e35	8.776906
5	0x40e7a1de	7.238509
6	0x410b0208	8.687996
7	0x40cb8369	6.3597913
8	0x410b2b4b	8.69807
9	0x40d1bcaa	6.5542803
10	0x40cbb7be	6.3661795
11	0x41007707	8.029059
12	0x40d5c992	6.6808558
13	0xb98b5f00	-0.00026582927
14	0x410a712e	8.652632
15	0x410b8e5c	8.722256
16	0x40f7d223	7.7444015
17	0x40bffdd1	5.9997334
18	0x41076068	8.461037
19	0x3c41e8f0	0.011835322
20	0xbced5c8a	-0.02897479
21	0x40f29682	7.5808725
22	0x411320e2	9.195528
23	0x4117cdd0	9.487747
24	0x410a5cb6	8.6476345
25	0x3c923fb4	0.017852642
26	0x3d7105d2	0.05884344
27	0xbce514bc	-0.027963988
28	0x40fcffa8	7.906208
29	0x40ff71f6	7.9826612
30	0x40f9dab9	7.8079495
31	0xbd990662	-0.074719205
32	0x3d9fec4d	0.07808743
33	0x3d9c9ab1	0.076466925
34	0x3cc6b678	0.02425693
35	0x40f6feb9	7.718594
36	0x40dbba98	6.8665276
37	0x3d90df47	0.07073837
38	0x3d99db01	0.07512475
39	0xbd3a4421	-0.04547513
40	0xbcd12682	-0.025531057
41	0xbcacb368	-0.021081641
42	0x40e92190	7.285347
43	0x3ccac308	0.024751201
44	0x3d629e0e	0.055326514
45	0xbc262230	-0.010139987
46	0xbc9eced8	-0.01938574
47	0xbd3a3169	-0.045457277
48	0x3d2b3350	0.041796982
49	0x40e8a956	7.270671
50	0x41125883	9.146609
51	0x4111c5e7	9.110816
52	0x40e6b34c	7.209387
53	0x410561d2	8.336382
54	0x40f9b0f3	7.8028502
55	0x410bd997	8.7406225
56	0x40e83eec	7.257681
57	0x410b7f2c	8.718548
58	0x40f5d36e	7.6820593
59	0x40dc1ec1	6.878754
60	0x40eff3ca	7.4985094
61	0x40cbd7c3	6.370088
62	0x3d941ff7	0.07232659
63	0x4103d7eb	8.240214
64	0x40f592e2	7.67418
65	0x40f27134	7.5763187
66	0x40ccc711	6.3993
67	0x4103bdde	8.233854
68	0xbd1666bf	-0.03671908
69	0xbd707068	-0.05870095
70	0x41015f7e	8.0858135
71	0x4109f95d	8.62338
72	0x4104dfbc	8.304623
73	0x40ebfb17	7.3744006
74	0x3d0b89d2	0.034066983
75	0x3d7f0b86	0.06226685
76	0x3d9d737d	0.07688043
77	0x41002841	8.009828
78	0x40f49f20	7.6444244
79	0x410ac9b6	8.674246
80	0xbbee8750	-0.007279314
81	0x3d9a693b	0.07539602
82	0x3b9a0230	0.004699968
83	0xbd7534e0	-0.05986488
84	0x40c2f9ab	6.092977
85	0x41038bd8	8.221642
86	0x3d720c5a	0.05909381
87	0xbc905d20	-0.01762253
88	0x3da23a47	0.07921272
89	0x3c5a3eb8	0.013320617
90	0x3c1fdd60	0.00975737
91	0x40c227dc	6.0673656
92	0xbd40cfd4	-0.0470732
93	0xbda600e9	-0.08105642
94	0x3d77a1de	0.060457103
95	0x3d5575aa	0.052114166
96	0x3da41d95	0.08013455
97	0x3b7cc4e0	0.0038569495
98	0x40d162af	6.5432963
99	0x40cd9ed3	6.4256377
100	0x40e587f8	7.1728477
101	0x40c76961	6.2316136
102	0x40e96bfa	7.2944307
103	0x40b57893	5.6709685
104	0x40cdde09	6.433354
105	0x40ae23e5	5.4418817
106	0x40ee86c3	7.4539504
107	0x40d98bd2	6.798318
108	0x40c01078	6.0020103
109	0x40ed0b78	7.40765
110	0x409fe0d3	4.9961944
111	0xbca9d712	-0.020732436
112	0x40e4f708	7.155155
113	0x40fabd7a	7.8356295
114	0x40ee6ecb	7.4510245
115	0x40bb20e9	5.8477674
116	0x40cd3c41	6.413605
117	0x3d60107a	0.054703213
118	0xbd453e07	-0.048154857
119	0x40e664f3	7.199823
120	0x40e56859	7.1689878
121	0x40c8e7ac	6.2782803
122	0x40d8af86	6.771426
123	0x3d55cd22	0.052197583
124	0xbcf9c3e6	-0.03048892
125	0x3d4be0b6	0.049774848
126	0x40b0ae55	5.521281
127	0x40e0cc09	7.0249066
128	0x40dc860b	6.8913627
129	0x3d5fff9a	0.05468712
130	0xbd9170d0	-0.071015954
131	0xbd3eb6cd	-0.04656105
132	0x3c167910	0.009184137
133	0x40c99418	6.299328
134	0x40db6e8f	6.857246
135	0xbc72b038	-0.014812522
136	0x3ba89190	0.0051443055
137	0xbd70ad8e	-0.058759265
138	0xbd61583e	-0.055015795
139	0x3c176498	0.009240292
140	0x40e7c4f8	7.242794
141	0x3d044a90	0.03229767
142	0xbc4cd838	-0.012502722
143	0x3cf54188	0.029938474
144	0xbd2c0fa8	-0.04200712
145	0xbd8e3fb1	-0.06945742
146	0x3d9197c9	0.07109029
147	0xbca545aa	-0.02017482
148	0x40da3913	6.819467
149	0x41123c8f	9.139785
150	0x41091865	8.568456
151	0x40f19677	7.5496173
152	0x410dc1a9	8.85978
153	0x40e3f625	7.123797
154	0x410f9d4f	8.975905
155	0x40cae3fa	6.340329
156	0x410c5769	8.77134
157	0x40dca918	6.8956413
158	0x40c6768a	6.20197
159	0x41013240	8.074768
160	0x40d15752	6.541909
161	0x3d4c53a2	0.049884446
162	0x410a4cb2	8.643724
163	0x410d1556	8.817709
164	0x40f51f75	7.66009
165	0x40c19a3c	6.0500774
166	0x4104ff83	8.312381
167	0x3c1d4f40	0.009601414
168	0xbd9d92ea	-0.07694037
169	0x40ec390d	7.381964
170	0x4112ebd5	9.182576
171	0x411693d1	9.411088
172	0x4109bd33	8.608691
173	0x3d537712	0.051627226
174	0xbbb54880	-0.0055323243
175	0xbd8067f0	-0.062698245
176	0x40fbaeb9	7.8650784
177	0x41037119	8.215112
178	0x4105701c	8.33987
179	0x3ba4dcd0	0.0050312057
180	0xbd04863f	-0.03235459
181	0x3d38d92a	0.04512898
182	0xbd9c6689	-0.076367445
183	0x40fd56f5	7.916865
184	0x40d711ce	6.7209234
185	0x3d47de72	0.048796125
186	0xbd8d4aff	-0.0689907
187	0x3d13780a	0.03600315
188	0xbc78b558	-0.0151799545
189	0x3badc420	0.005302921
190	0x40e9d863	7.3076644
191	0x3cefd4f0	0.029276341
192	0x3d984a75	0.074360766
193	0xbd6c52eb	-0.057696264
194	0x3d5563fa	0.0520973
195	0xbcd4f42e	-0.02599534
196	0x3da0a58d	0.07844076
197	0x40f0d444	7.5259113
198	0x411368a7	9.21305
199	0x4112a7e7	9.165992
200	0x40ebde80	7.3709106
201	0x41063bd7	8.389609
202	0x40f49d88	7.64423
203	0x410b432e	8.703901
204	0x40eca8eb	7.39562
205	0x410d3967	8.826514
206	0x40f27890	7.577217
207	0x40de0a63	6.938768
208	0x40f725bb	7.723356
209	0x40de28cb	6.9424796
210	0x3d2cc656	0.042181335
211	0x4105bad8	8.358116
212	0x40fb7303	7.8577895
213	0x40ec7c80	7.3901978
214	0x40c90f3e	6.2831106
215	0x4103e216	8.242697
216	0xbd53f114	-0.051743582
217	0xbd7b8caa	-0.061413445
218	0x4100efaf	8.0585165
219	0x410ace33	8.675342
220	0x4108886a	8.533304
221	0x40ef41b5	7.476771
222	0x3d91da11	0.07121671
223	0xbd7265a4	-0.059178963
224	0xbc4d76a0	-0.012540489
225	0x40fd9e9e	7.9256124
226	0x40f58239	7.6721463
227	0x41079942	8.474916
228	0xbd3ef587	-0.046620872
229	0x3d3cfb36	0.04613801
230	0xbd50ec3a	-0.051006533
231	0xbd69efd6	-0.05711349
232	0x40b65d6c	5.698904
233	0x41043e5d	8.265225
234	0xbc55c470	-0.013047323
235	0xbce0277c	-0.027362578
236	0xbd84ea4d	-0.06490002
237	0xbda08b31	-0.07839049
238	0xbd1cfc71	-0.038326684
239	0x40ba7d54	5.827799
240	0xbbf39db0	-0.0074345693
241	0xbd9a4cf1	-0.07534207
242	0xbcb3ca6a	-0.021947104
243	0x3c8195f8	0.015818581
244	0xbd81918c	-0.06326589
245	0xbd631d8d	-0.055448104
246	0x40e23aae	7.069663
247	0x40ccad00	6.396118
248	0x40e9171c	7.284071
249	0x40c309cc	6.094946
250	0x40f02596	7.504588
251	0x40b7603e	5.7304983
252	0x40d20b34	6.5638676
253	0x40aaf2e2	5.342149
254	0x40efb160	7.490402
255	0x40de959d	6.9557633

fc1.bias f4 [256]
0	0x411d525c	9.832607
1	0x411fd447	9.989326
2	0x411f0767	9.939307
3	0x41201648	10.00544
4	0x41206fed	10.027326
5	0x411f9139	9.972955
6	0x4120c806	10.048834
7	0x411fe565	9.993505
8	0x41202788	10.009651
9	0x411fe6fb	9.993892
10	0x411fcd54	9.987629
11	0x411f62cc	9.96162
12	0xbfad9667	-1.3561524
13	0x411ef9ba	9.935968
14	0x41201eb5	10.007497
15	0x41208676	10.032827
16	0x411ca762	9.790865
17	0x4120e6c4	10.056339
18	0x41201d19	10.007104
19	0x411f662b	9.962443
20	0x411e92f8	9.910881
21	0x411eccb4	9.924976
22	0x411e8205	9.906743
23	0x411d976f	9.849471
24	0x411ffbb1	9.998948
25	0x411cf560	9.809906
26	0x411d45a1	9.829499
27	0x411e0b2f	9.87773
28	0x4120a6bf	10.0407095
29	0x411fe747	9.993964
30	0x41207679	10.028924
31	0x411dec0b	9.870128
32	0x411f84fa	9.969965
33	0x411f6404	9.961918
34	0x411fab11	9.979264
35	0xbfb1c511	-1.3888265
36	0x411efc57	9.936606
37	0x41206708	10.025154
38	0x411f5a5b	9.959559
39	0xbfceeef0	-1.6166668
40	0x411fbcc1	9.9835825
41	0xbfa3620a	-1.2764294
42	0x411fa7e7	9.978492
43	0x412112bc	10.067074
44	0x4120c511	10.048112
45	0x41204d31	10.018846
46	0x411f4e6b	9.956645
47	0x4120c7ca	10.048777
48	0x411fe531	9.993455
49	0xbfa7e923	-1.3118023
50	0x411fe085	9.992314
51	0x411decee	9.870344
52	0x411d6586	9.837286
53	0x411f60e4	9.961155
54	0x411fd910	9.990494
55	0x411fbc76	9.983511
56	0x411d1b4e	9.819166
57	0x411fb3eb	9.981425
58	0x4120774d	10.029126
59	0x4120f5ee	10.060041
60	0x41205c87	10.02259
61	0x411fc9be	9.986753
62	0x41201ac5	10.006536
63	0x412019f7	10.006339
64	0x4120ce92	10.050432
65	0x411ff80d	9.998059
66	0x411e5c46	9.897528
67	0x412068aa	10.025553
68	0x41203195	10.012105
69	0x4120e825	10.056676
70	0x411eaec3	9.917666
71	0x41201a99	10.006494
72	0x411fb68d	9.982068
73	0xbf908975	-1.1291949
74	0x411d8939	9.846002
75	0x411f961a	9.974146
76	0xbfc2b3a5	-1.5211073
77	0x411e05e9	9.876443
78	0xbfa788e8	-1.3088655
79	0xbfb96bd1	-1.4486028
80	0x411f4ef5	9.956777
81	0x411d4379	9.828973
82	0x41211163	10.066745
83	0x411f3129	9.949502
84	0x412012fb	10.004634
85	0x411e73fd	9.903317
86	0x41206800	10.025391
87	0x411ebf39	9.921685
88	0xbfaad094	-1.3344903
89	0x411fea6e	9.994734
90	0x412088ed	10.033429
91	0x411d2ff5	9.824208
92	0x4120a5e5	10.040502
93	0x411eee03	9.933108
94	0x411d8234	9.844288
95	0xbfbdefd4	-1.4838815
96	0x411f82ac	9.969402
97	0x412058fa	10.021723
98	0x411d92d3	9.848346
99	0x41208b4d	10.034009
100	0x4120d477	10.051871
101	0x4120d04a	10.050852
102	0x411fbd24	9.983677
103	0x41207c68	10.030373
104	0x41206b4b	10.026195
105	0x4120b6fa	10.044672
106	0x411fd87c	9.990353
107	0x4121468d	10.079724
108	0x411dba37	9.857963
109	0x411c9b4f	9.787917
110	0x411e3652	9.888262
111	0x411f2953	9.947589
112	0x41205cfb	10.0227
113	0x411f960b	9.974132
114	0x411f6008	9.960945
115	0x411f92ae	9.97331
116	0x41200117	10.000266
117	0x411fd16e	9.98863
118	0x4121188a	10.068491
119	0x41207665	10.028905
120	0xbfa138d9	-1.2595474
121	0x41206096	10.023581
122	0x411fbcb9	9.983575
123	0xbfb5601d	-1.4169956
124	0xbfc0de97	-1.5067929
125	0xbfaa9fa0	-1.3329964
126	0x4120ebd6	10.057577
127	0x41213d3f	10.077453
128	0x411f33ae	9.950117
129	0x41206472	10.024523
130	0x411ebc72	9.921007
131	0x4120ec1c	10.057644
132	0x411b98e6	9.724829
133	0x4120092c	10.002239
134	0x411d4f7e	9.831907
135	0x411f6455	9.961995
136	0x411d558e	9.833387
137	0x411e2579	9.884149
138	0x411dc4b9	9.860528
139	0x411eeb38	9.932426
140	0x411d8eb5	9.847341
141	0x411e62f0	9.899155
142	0x411e94cd	9.911328
143	0x411fb2af	9.981124
144	0x41215c1b	10.084987
145	0x4120476c	10.017437
146	0x41203be4	10.014622
147	0x411f9c7d	9.975705
148	0x411fd97c	9.990597
149	0x41211c4e	10.06941
150	0x411fcdb2	9.987719
151	0x411f6dcd	9.964307
152	0x412031b1	10.012132
153	0x41204c13	10.018573
154	0x411c7758	9.779137
155	0x411f03d1	9.938432
156	0x412072dd	10.028043
157	0x4120a269	10.039651
158	0x411f18a7	9.943519
159	0x411dc254	9.859943
160	0x4120c8a1	10.048982
161	0x411f78b3	9.966968
162	0x412077a7	10.029212
163	0x411f86d1	9.970414
164	0x41202d5a	10.011072
165	0x411ecd95	9.925191
166	0x411daaf8	9.85424
167	0x41203c72	10.014757
168	0x4120d365	10.05161
169	0x412038a0	10.013824
170	0x411e542c	9.89555
171	0x4120361d	10.013211
172	0xbfb4aa54	-1.411448
173	0x4120dfbd	10.054624
174	0x41205415	10.020528
175	0x4120f117	10.05886
176	0x411d1b81	9.819215
177	0x41200341	10.000794
178	0x411fcafc	9.987057
179	0x411f4e9b	9.956691
180	0x4120c0e4	10.047092
181	0x4120419a	10.016016
182	0x411f2523	9.946567
183	0x411f9a73	9.975207
184	0x411fd1ec	9.98875
185	0x411fad98	9.979881
186	0xbf8e198e	-1.1101549
187	0x411ce27f	9.805297
188	0x4120d6b1	10.052415
189	0x412061af	10.023849
190	0x41205775	10.021352
191	0xbfb102ed	-1.3829018
192	0x4120494c	10.017895
193	0x411fc565	9.985692
194	0x41206b92	10.026262
195	0x41206c7d	10.026486
196	0x4120d414	10.051777
197	0x4120ae1a	10.042505
198	0x41205d35	10.022756
199	0xbfb95f31	-1.4482175
200	0x41209921	10.037385
201	0x411d4970	9.830429
202	0x411dcdd7	9.862754
203	0xbfba6b64	-1.4564023
204	0x411bbf1c	9.734158
205	0x411e2167	9.883155
206	0x41200155	10.000325
207	0x41203199	10.012109
208	0x4120775d	10.029141
209	0x411cb207	9.793464
210	0x41207e46	10.030828
211	0x4120d021	10.050813
212	0x411da21b	9.852077
213	0x411f17a9	9.943276
214	0x411dff1a	9.874781
215	0xbfaf8a6f	-1.3714122
216	0x4120271e	10.00955
217	0x411fe505	9.993413
218	0x4120bf06	10.046637
219	0x411db2e9	9.856179
220	0x4120f619	10.060082
221	0x411fdcc3	9.991397
222	0x41201dbe	10.007261
223	0x411eb0b1	9.918138
224	0x411ffacf	9.998733
225	0x411f7a8a	9.967417
226	0xbfc7ac9e	-1.5599554
227	0x41203c68	10.014748
228	0x411e1779	9.880731
229	0xbfac56d1	-1.3463994
230	0x411ef543	9.934878
231	0x411f845a	9.969812
232	0x4120afdb	10.042933
233	0x411f1088	9.941536
234	0x4120893e	10.033506
235	0xbfc689cf	-1.5510806
236	0x411eb259	9.918542
237	0xbfa97c8d	-1.3241135
238	0x411e757d	9.903684
239	0x412071d3	10.027789
240	0x411d545a	9.833094
241	0x411fbb02	9.983156
242	0x411f4072	9.953234
243	0x41213b11	10.0769205
244	0x411f74a3	9.965976
245	0x4120f613	10.060077
246	0x41209f98	10.038963
247	0x4120c023	10.046908
248	0x411fb105	9.980718
249	0x411da049	9.851632
250	0x411f6ba2	9.963778
251	0x41204bfa	10.018549
252	0x412033d8	10.012657
253	0x411f87c3	9.970645
254	0x411db8d5	9.857625
255	0x411dbcf8	9.858635

fc2.weight f4 [128, 256]
0	0x411b8169	9.719094
1	0x411da8db	9.8537245
2	0x411c09c5	9.752385
3	0x411d0ae1	9.815156
4	0x411d26aa	9.821939
5	0x411bdc1b	9.741237
6	0x411c9c76	9.788198
7	0x411b894d	9.721021
8	0x411ed241	9.9263315
9	0x411c3d69	9.764993
10	0x411d9552	9.848955
11	0x411bf48b	9.747203
12	0xc05ecfb9	-3.4814284
13	0x41175c89	9.460092
14	0x411bcf2e	9.738081
15	0x411a92ae	9.66081
16	0x411d5170	9.832382
17	0x411f5dc6	9.960394
18	0x411d7928	9.842079
19	0x411e8b71	9.909043
20	0x411880c4	9.531437
21	0x411aa026	9.664099
22	0x411d1e6b	9.819926
23	0x411cc36c	9.79771
24	0x411ac342	9.67267
25	0x41153963	9.32651
26	0x411cf82f	9.810592
27	0x411a39d6	9.63912
28	0x411b7fcf	9.718703
29	0x411c5932	9.771776
30	0x411d2d8c	9.82362
31	0x411bf5ab	9.747478
32	0x411ab3d0	9.6689
33	0x411b086e	9.689558
34	0x411d34c2	9.82538
35	0xc072a6af	-3.7914236
36	0x411cabd6	9.791952
37	0x411b3ec3	9.702823
38	0x411dad74	9.854847
39	0xc06b851d	-3.6799996
40	0x411dfd6d	9.874372
41	0xc06f6103	-3.7402961
42	0x411e0fff	9.878905
43	0x411cc814	9.798847
44	0x411ceb7e	9.807493
45	0x411bc3ab	9.7352705
46	0x411c8d98	9.784569
47	0x411f87e3	9.970675
48	0x4119f85a	9.623133
49	0xc0882aa2	-4.255204
50	0x411bf828	9.748085
51	0x4118998d	9.537488
52	0x411bb31b	9.731227
53	0x411ca614	9.790546
54	0x411e66d6	9.900106
55	0x411d1f16	9.820089
56	0x411e2d11	9.886003
57	0x411d56af	9.833663
58	0x411d92f0	9.848373
59	0x411fa439	9.977593
60	0x411c8aba	9.783869
61	0x411b7306	9.715582
62	0x411bda2d	9.740766
63	0x411e7574	9.903675
64	0x411de9bd	9.869565
65	0x411c59a0	9.771881
66	0x411a70d8	9.65255
67	0x411c0582	9.751345
68	0x411d15d8	9.817833
69	0x411cd82b	9.802775
70	0x411caba4	9.791904
71	0x411e30b1	9.886888
72	0x411b1982	9.6937275
73	0xc05d40c2	-3.4570775
74	0x411c542b	9.770549
75	0x411b3716	9.700949
76	0xc07142ff	-3.769714
77	0x411c8487	9.782355
78	0xc07424a9	-3.8147376
79	0xc063fdb2	-3.5623593
80	0x411bbe08	9.733894
81	0x411ab2b1	9.668626
82	0x411defec	9.871075
83	0x411b3181	9.699586
84	0x411da2ec	9.852276
85	0x411d13a2	9.817293
86	0x411ed287	9.926398
87	0x411e0f7d	9.878781
88	0xc075a610	-3.8382607
89	0x411dfcab	9.8741865
90	0x411d5260	9.832611
91	0x4118f8d6	9.560751
92	0x411b97da	9.724573
93	0x411d5dc7	9.835395
94	0x411db73d	9.857236
95	0xc061861b	-3.5238101
96	0x411c2db0	9.761154
97	0x411e89b9	9.908624
98	0x411cf1a6	9.808996
99	0x411ef87e	9.935667
100	0x411d54b0	9.833176
101	0x411bc9e9	9.736794
102	0x411e2a05	9.885259
103	0x411c592a	9.771769
104	0x411ae84f	9.681716
105	0x411e48eb	9.892802
106	0x411c4d03	9.768802
107	0x411c5a6c	9.772076
108	0x411e6c9f	9.901519
109	0x411caa0a	9.791513
110	0x411dac86	9.85462
111	0x411cb665	9.79453
112	0x411d6cb0	9.839035
113	0x4118ca26	9.549353
114	0x411d7d1b	9.843043
115	0x411c3022	9.761751
116	0x411d3b1f	9.826934
117	0x411ab19b	9.668361
118	0x411c3d3d	9.764951
119	0x411c7ebe	9.780943
120	0xc075a4ea	-3.8381906
121	0x411d0cbc	9.815609
122	0x411b6969	9.713235
123	0xc0632b22	-3.5495076
124	0xc06a24cd	-3.6584961
125	0xc0764317	-3.8478448
126	0x411f4cb6	9.956228
127	0x411dfa08	9.873543
128	0x411c5d6c	9.772808
129	0x411d39af	9.826583
130	0x411e5d50	9.897781
131	0x411b76da	9.7165165
132	0x411c3b23	9.764438
133	0x411aef15	9.68337
134	0x411d0d19	9.815698
135	0x411b5341	9.707826
136	0x411ac4f6	9.673086
137	0x411cec70	9.807724
138	0x4116ef33	9.433398
139	0x4119f7d8	9.623009
140	0x411cf03f	9.808654
141	0x411a68b1	9.650559
142	0x411aa5bf	9.665465
143	0x411d33e0	9.825165
144	0x411e5904	9.896732
145	0x411cfbbe	9.8114605
146	0x411b27e2	9.697237
147	0x411bdcaf	9.741378
148	0x411a3ece	9.640333
149	0x411f03b3	9.938403
150	0x411c7b2f	9.780074
151	0x411bc716	9.736105
152	0x411af9e6	9.68601
153	0x411c54c3	9.770694
154	0x41189ac9	9.537789
155	0x411b14bb	9.692561
156	0x411ba613	9.728045
157	0x411d6b9c	9.838772
158	0x411cc0c3	9.797061
159	0x411c6b2b	9.776164
160	0x411d753a	9.84112
161	0x411e1bf3	9.881824
162	0x411d9177	9.848014
163	0x411a4af8	9.643303
164	0x411c1018	9.753929
165	0x411beb47	9.744941
166	0x4118b9ac	9.54533
167	0x411c927e	9.785765
168	0x411d7d2a	9.843058
169	0x411d9662	9.849215
170	0x411993be	9.59857
171	0x411bbcb7	9.733573
172	0xc06b7bcc	-3.679431
173	0x411dd238	9.863823
174	0x411cdda1	9.804109
175	0x411d88ee	9.84593
176	0x411d7f4d	9.843579
177	0x411c605c	9.773525
178	0x411c76bb	9.778987
179	0x411b25fc	9.696774
180	0x411dd480	9.86438
181	0x411d6c31	9.838914
182	0x411c8342	9.782045
183	0x411b7dbc	9.718197
184	0x411ccc3c	9.799862
185	0x411b7f67	9.718604
186	0xc0694308	-3.6447163
187	0x411bd8ae	9.7404
188	0x411f1d04	9.944584
189	0x411dfb25	9.873815
190	0x411be274	9.742786
191	0xc083f0d6	-4.123149
192	0x411dd8c2	9.865419
193	0x411ed994	9.92812
194	0x411b5ddc	9.710415
195	0x411d0001	9.812501
196	0x411d58d6	9.834188
197	0x411c23f9	9.758782
198	0x411db2ef	9.856185
199	0xc06709e6	-3.6099792
200	0x411d52f2	9.83275
201	0x41181448	9.5049515
202	0x411c5058	9.769615
203	0xc081665d	-4.0437455
204	0x411397fd	9.2246065
205	0x41190f12	9.566179
206	0x411dcaf1	9.862046
207	0x411bf2a9	9.746743
208	0x411d098b	9.81483
209	0x411a74d1	9.65352
210	0x411b3fa7	9.70304
211	0x411f075d	9.939298
212	0x411beee1	9.74582
213	0x411ecef9	9.92553
214	0x411d1d27	9.819617
215	0xc05bc2af	-3.4337575
216	0x411bb4c3	9.731631
217	0x411c7cff	9.780517
218	0x411b9a3d	9.725156
219	0x411bd8df	9.740447
220	0x411cde0a	9.804209
221	0x411baa37	9.729056
222	0x411b4b83	9.7059355
223	0x411b687d	9.71301
224	0x411d3f59	9.827966
225	0x411d468b	9.829722
226	0xc05d05b9	-3.4534743
227	0x411d0e63	9.816012
228	0x411a3263	9.637301
229	0xc07d9364	-3.962121
230	0x411ebff9	9.921868
231	0x411d3dea	9.827616
232	0x411ca805	9.79102
233	0x411fcb94	9.987202
234	0x411c980d	9.787122
235	0xc064b409	-3.5734885
236	0x411d47a6	9.829992
237	0xc07821b2	-3.8770566
238	0x411c0aa9	9.752603
239	0x411fd9f6	9.990713
240	0x411be8ac	9.744305
241	0x411c4fe3	9.769504
242	0x411ee01f	9.929717
243	0x411ec249	9.922433
244	0x411a8326	9.657019
245	0x411f9121	9.972932
246	0x411bd205	9.738774
247	0x411d3f02	9.827883
248	0x411d3a9d	9.82681
249	0x411b19b1	9.693772
250	0x411f5f4e	9.960768
251	0x411d8cd7	9.846885
252	0x411daf9e	9.855375
253	0x411c9b24	9.787876
254	0x41194e7b	9.58166
255	0x411b267a	9.696894

fc2.bias f4 [128]
0	0x4116db34	9.428516
1	0x4116d70f	9.427505
2	0x41163a70	9.389267
3	0x4117a5b9	9.47796
4	0x4117ed65	9.495458
5	0x4116aa7d	9.416623
6	0x411758d8	9.45919
7	0x4118a405	9.540044
8	0x41185b68	9.522316
9	0x4117d68a	9.489878
10	0x41173520	9.45047
11	0x41182e02	9.511232
12	0x41174fda	9.456995
13	0x4117495f	9.455413
14	0x41178e42	9.472231
15	0x41175c5a	9.460047
16	0x411668ea	9.400614
17	0xbda67622	-0.08128001
18	0x41189963	9.537448
19	0x3b35ffe2	0.0027770926
20	0x41178c3a	9.471735
21	0x41189f8c	9.538952
22	0x41173738	9.450981
23	0x411786e2	9.47043
24	0x41172da6	9.448645
25	0xbd766c3e	-0.06016182
26	0x41187c19	9.530297
27	0x4117f2d1	9.496781
28	0xbd87b5bc	-0.0662646
29	0x411788eb	9.470927
30	0x4117965d	9.47421
31	0x41187751	9.52913
32	0x4114df2d	9.304486
33	0x4117b981	9.482789
34	0x4117f04b	9.496165
35	0x41186e09	9.526864
36	0x41182e34	9.51128
37	0x41170c28	9.440468
38	0x4115bba5	9.358312
39	0x41173467	9.450294
40	0xbd749faa	-0.05972258
41	0x411824bb	9.508967
42	0x4117951f	9.4739065
43	0x41189461	9.536225
44	0x41174303	9.45386
45	0x41170fb2	9.441332
46	0x41178f28	9.47245
47	0x4117c98c	9.486706
48	0x4117cd50	9.487625
49	0x4116ab49	9.416818
50	0x41176d53	9.4641905
51	0x41184fe9	9.519509
52	0xbd7065e4	-0.05869092
53	0x4117df39	9.491998
54	0x41175225	9.457555
55	0x41184129	9.515908
56	0x4116b63b	9.41949
57	0x4117ac8f	9.479629
58	0xbd7738ea	-0.06035701
59	0x41173a86	9.451788
60	0x4116de54	9.429279
61	0x4117c14a	9.48469
62	0x411738e5	9.45139
63	0x4117ad6c	9.479839
64	0x411829f4	9.510242
65	0x411815bf	9.505309
66	0x41163ea7	9.390296
67	0xbdd75520	-0.10514283
68	0x4117d1cd	9.488721
69	0xbdaecc09	-0.0853501
70	0x4116ab6e	9.416853
71	0x41168372	9.407091
72	0x4116a6f6	9.415762
73	0x4117c726	9.48612
74	0x411874e6	9.52854
75	0x41181376	9.504751
76	0xbd779f52	-0.060454674
77	0x41180e9a	9.503565
78	0x41179bce	9.475538
79	0x41178097	9.468894
80	0x41189089	9.535287
81	0x411741a1	9.453523
82	0x4118ed80	9.557983
83	0xbd14a8a6	-0.03629365
84	0x411842d5	9.516316
85	0x4116907a	9.410273
86	0x41183cfe	9.514891
87	0x4118221a	9.508326
88	0xbd8a5a8d	-0.067555524
89	0x41185824	9.521519
90	0x4117647a	9.46203
91	0xbd32decc	-0.043669507
92	0x41186be6	9.526342
93	0x411782f3	9.46947
94	0x41180cf5	9.503163
95	0x411724d4	9.446491
96	0xbc60be86	-0.013717299
97	0x3a259a56	0.00063172483
98	0x41163d0c	9.389904
99	0x4116e6bd	9.431333
100	0x41187aa4	9.529942
101	0x4117c5a2	9.48575
102	0x4116bb0e	9.420668
103	0xbd41c9f7	-0.04731175
104	0x41185d95	9.522847
105	0x4116dc03	9.428714
106	0x41184a26	9.518103
107	0xbddf04e4	-0.10889605
108	0x41188703	9.532962
109	0x4116c207	9.42237
110	0x411829ae	9.510176
111	0x4116dca8	9.428871
112	0x41180455	9.501058
113	0x41176c8e	9.464003
114	0x41181c45	9.506902
115	0x4118ae7d	9.5426
116	0x4117ded4	9.491901
117	0xbd563325	-0.05229487
118	0x41185542	9.520815
119	0x4117249e	9.44644
120	0x41170cc4	9.440617
121	0x4116d6be	9.427427
122	0xbcfd2dcc	-0.030905627
123	0x4116d80d	9.427747
124	0x41170b6d	9.4402895
125	0xbc8d132d	-0.017221058
126	0x4117ceac	9.487957
127	0xbb5dd742	-0.0033850227

fc3.weight f4 [64, 128]
0	0x3bae5a51	0.005320825
1	0x3d1d2315	0.038363535
2	0xbd42cd3e	-0.047559015
3	0xbdcda1e5	-0.100406446
4	0xbd5550bb	-0.052078944
5	0x3d1d6129	0.038422737
6	0xbdb5897b	-0.08864113
7	0xbd366739	-0.044532035
8	0xbcd24591	-0.025667937
9	0xbd9790db	-0.07400676
10	0x3d4e3a7e	0.05034875
11	0xbd65e4e2	-0.056126483
12	0xbc500265	-0.012695883
13	0xbd9492d2	-0.07254566
14	0xbd61133a	-0.054949977
15	0xbceb6106	-0.028732788
16	0xbd84e88e	-0.06489669
17	0xbd65241d	-0.055942643
18	0xbb0a2d61	-0.0021084177
19	0x3bbec57e	0.0058218827
20	0xbc510300	-0.012757063
21	0xbd009359	-0.03139052
22	0x3d6310fd	0.055436123
23	0x3d00cf4f	0.031447705
24	0xbcf3140a	-0.029672641
25	0xbc978887	-0.018497718
26	0xbd4d97b3	-0.0501935
27	0xbd2a1202	-0.04152108
28	0x3d54cd3a	0.05195353
29	0xbdeee23a	-0.11664243
30	0x3d8124f7	0.063058786
31	0x3d53a588	0.051671535
32	0x3c203c02	0.009779932
33	0x3d4199a3	0.04726566
34	0xbd18b0bd	-0.037277926
35	0x3c82056a	0.015871722
36	0xbce60277	-0.028077347
37	0xbb9d383f	-0.004797965
38	0x3c5aa4c6	0.013344949
39	0x3c9c6e35	0.01909552
40	0xbd87783b	-0.06614729
41	0x3cec6346	0.028855931
42	0x3ca4b21a	0.020104457
43	0xbd9cdd3f	-0.07659387
44	0x3d6c9daa	0.057767548
45	0xbd815684	-0.0631533
46	0xbac48341	-0.001499273
47	0xbd95cb0d	-0.073141195
48	0x3cc41b0b	0.023938676
49	0xbd9a55d2	-0.075359
50	0x3d843561	0.06455494
51	0x3cb058d7	0.021526737
52	0xbd475e27	-0.048673775
53	0x3c77e9f4	0.015131462
54	0xbdf443af	-0.11926972
55	0xbc88aca0	-0.016683877
56	0x3cf88f1f	0.030341683
57	0x3d09aaec	0.03361027
58	0xbbe3c040	-0.006950408
59	0xbdf8f402	-0.12155916
60	0x3d98ac9f	0.074548
61	0xbdc052c8	-0.09390789
62	0xbd4b2686	-0.049597286
63	0xbd97febb	-0.07421633
64	0xbcd022fe	-0.02540731
65	0x3b96c024	0.0046005417
66	0x3d68ac58	0.056804985
67	0x3d0a764c	0.033804223
68	0xbb8bbfc9	-0.004264806
69	0x3c0b70da	0.008510793
70	0x3d300ab3	0.042978954
71	0x3d58a73a	0.052893855
72	0xbdfb9f68	-0.12286264
73	0xbdfa1b3e	-0.12212227
74	0xbdbe333a	-0.092871144
75	0xbd877c94	-0.06615558
76	0x3b478715	0.0030445505
77	0x3d1de693	0.03854997
78	0x3d9255b0	0.0714525
79	0xbd9e12ee	-0.07718454
80	0xbdbc118c	-0.09183034
81	0x3dc44b02	0.09584619
82	0xbde8480d	-0.113418676
83	0x3db29fef	0.08721911
84	0x3d8c0a1d	0.068378665
85	0xbd937283	-0.07199576
86	0xbcd706f2	-0.026248429
87	0xbdffbb95	-0.1248695
88	0x3d89a512	0.06720938
89	0x3cdf369d	0.027247721
90	0xbd34db8a	-0.04415468
91	0xbd0127f5	-0.031532247
92	0xbdc9aa75	-0.09846965
93	0xbd1c5935	-0.038171012
94	0xbcc80ea8	-0.024421051
95	0xbc8f73c7	-0.017511262
96	0xbdafd454	-0.0858542
97	0xbde1a53e	-0.110178456
98	0xbd9058f0	-0.070482135
99	0xbd149d72	-0.036282964
100	0x3cc51430	0.024057478
101	0xbddf0784	-0.10890105
102	0xbd69b5b9	-0.05705807
103	0xbd65707f	-0.056015488
104	0x3c967b73	0.018369412
105	0xbe05a76a	-0.13052145
106	0xbd1525d5	-0.036413033
107	0xbd320c77	-0.04346892
108	0xbb2e6304	-0.002660931
109	0xbdd7ce7f	-0.10537433
110	0xbcc654e0	-0.024210393
111	0xbdd1f024	-0.10250881
112	0x3d01dd58	0.03170523
113	0x3b933feb	0.0044937036
114	0x3c1585b3	0.009126115
115	0xbc1b05cc	-0.009461831
116	0xbcbc6279	-0.022996174
117	0x3d01c864	0.031685248
118	0xbdbc7165	-0.09201316
119	0x3d5f9fc1	0.054595713
120	0x3cb9e526	0.022692274
121	0xbdd2ebd1	-0.10298885
122	0x3d7048e5	0.058663268
123	0xbc903ba4	-0.017606564
124	0xbd5cb785	-0.053885955
125	0x3c389f87	0.011268503
126	0x3d53223e	0.051546328
127	0xbca308c3	-0.019901639
128	0xbd09a075	-0.03360029
129	0x3c20fe28	0.009826221
130	0xbd93f17e	-0.07223795
131	0x3c8a9138	0.016914949
132	0xb9c561ca	-0.00037647627
133	0xbd9c8ef7	-0.07644456
134	0x3cf91309	0.030404584
135	0xbd1e5a9e	-0.038660638
136	0xbd94fd50	-0.07274878
137	0x3c5a7fae	0.013336105
138	0x3ca25a04	0.019818313
139	0xbdaf9fc2	-0.08575393
140	0xbca3c98c	-0.019993566
141	0xbcf75f47	-0.030196799
142	0xbda67b7c	-0.081290215
143	0xbd263c32	-0.04058475
144	0x3cc24c84	0.023718126
145	0xbd5b8a6e	-0.053598814
146	0x3d946307	0.072454505
147	0x3d6dc1f5	0.0580463
148	0x3bc7b943	0.006095083
149	0xbced0b38	-0.028936014
150	0x3d10cf44	0.035353914
151	0x3b82cc40	0.0039916337
152	0x3d430cbe	0.047619574
153	0xbd1986eb	-0.037482183
154	0xbd3c42cc	-0.04596214
155	0xbc9a7699	-0.01885538
156	0x3d8f7a2b	0.070057236
157	0xbdb4c0ef	-0.08825862
158	0x3d8e5989	0.06950671
159	0x3ca6f8a0	0.020382226
160	0xbdd25d40	-0.10271692
161	0x3d182aa2	0.037150033
162	0x3d634c3a	0.055492617
163	0xbd9a7477	-0.07541745
164	0x3d60d0b2	0.054886527
165	0xbd926f4b	-0.07150134
166	0x3b106a83	0.0022036142
167	0x3d84621f	0.064640276
168	0xbdaf1f6e	-0.085509166
169	0xbd1acd78	-0.037793607
170	0xbd0db8d2	-0.034600087
171	0xbd86b951	-0.06578315
172	0x3d197f4b	0.03747491
173	0x3aa2a9c0	0.0012410209
174	0xbd958e7d	-0.07302568
175	0x3cf67b1c	0.030088
176	0xbc520b48	-0.0128200725
177	0xbc330333	-0.010926056
178	0x3cd299fd	0.025708193
179	0x3ce38ba0	0.02777654
180	0xbd2b3cd2	-0.04180605
181	0x3c1ab47b	0.009442444
182	0xbdaae457	-0.083443336
183	0x3db4684d	0.08808956
184	0xbd1c3ba3	-0.03814281
185	0xbd0b7ad8	-0.0340527
186	0xbd041a00	-0.032251358
187	0xbdad78c9	-0.084703036
188	0x3bb224c0	0.00543651
189	0xbd6c23e2	-0.057651408
190	0x3d389f26	0.04507365
191	0x3b514560	0.003193222
192	0x3c201d00	0.009772539
193	0xbda6a06d	-0.081360675
194	0xbd073587	-0.033010032
195	0xbc88206c	-0.016617022
196	0x3d340c16	0.04395684
197	0x3cc270e8	0.023735479
198	0xbc0e0df0	-0.008670315
199	0xbcebd07b	-0.028785935
200	0x3dafb127	0.08578711
201	0xbd3668cd	-0.04453354
202	0xbdab1385	-0.083533324
203	0x3d664fc6	0.05622842
204	0xbbc815f7	-0.006106134
205	0xbd342403	-0.043979656
206	0x3d1c2a22	0.03812612
207	0x3d9b631b	0.07587262
208	0x3d05a34c	0.032626435
209	0x3d046b78	0.032329053
210	0xbc9144f4	-0.017733075
211	0x3bd58ed0	0.0065172687
212	0xbd3f94f8	-0.046772927
213	0x3d0f89a7	0.035043385
214	0xbccc79c8	-0.024960414
215	0x3b3c8a00	0.0028768778
216	0x3c12ccd0	0.008959964
217	0x3d702566	0.058629416
218	0xbd9dc95d	-0.077044226
219	0xbc1a5320	-0.009419233
220	0x3cc62074	0.024185397
221	0xbd453f8e	-0.048156314
222	0x3d07011a	0.032960035
223	0xbdbd3745	-0.092390575
224	0xba847927	-0.0010106907
225	0x3d31def5	0.04342552
226	0xbd853040	-0.065033436
227	0xbd3a9c1d	-0.045559037
228	0xbd79ef8a	-0.061019458
229	0x3ca8f230	0.020623296
230	0x3d62bd3a	0.05535624
231	0xbdaeb621	-0.08530832
232	0x3d969f49	0.073546
233	0xba1e8e00	-0.00060483813
234	0x3ca7fe54	0.020507015
235	0x3ab7ad63	0.0014013465
236	0xbd11dc47	-0.035610463
237	0x3d00f8f6	0.031487428
238	0x3d587b76	0.052852117
239	0x3b5c7360	0.0033638105
240	0xbda0db00	-0.07854271
241	0xbd296ab9	-0.041361544
242	0x3c87c1dc	0.016571932
243	0xbd09d40e	-0.033649497
244	0xbda44dc0	-0.08022642
245	0xbd88f609	-0.066875525
246	0xbd4f6145	-0.050629873
247	0x3cbf0319	0.023316907
248	0xbcab25f6	-0.020892125
249	0xbda00e15	-0.07815186
250	0x3d4d6fe0	0.05015552
251	0xbc07bca8	-0.008284725
252	0xbda7d111	-0.08194173
253	0x3d43117e	0.047624104
254	0x3d676aca	0.056498326
255	0x3d4b999e	0.049707048

fc3.bias f4 [64]
0	0xbcf73ffe	-0.030181881
1	0xbdbdd32f	-0.09268796
2	0xbd7e3eb3	-0.062071513
3	0x410f2dc5	8.948674
4	0x410e960b	8.911632
5	0xbdc3281c	-0.09529135
6	0x41101732	9.005663
7	0xbd1a166b	-0.037619036
8	0x410aa7e5	8.66599
9	0x3de64e86	0.11245446
10	0x410f8325	8.969518
11	0x4110872f	9.033004
12	0x410e5f23	8.898227
13	0xbdcb7afb	-0.09935566
14	0xbd76cbfb	-0.060253125
15	0x410f6a2e	8.963423
16	0x410ef3fa	8.934565
17	0x4110ac70	9.042099
18	0x410e60c0	8.898621
19	0x410e2f82	8.886599
20	0xbdd1f161	-0.102511175
21	0xbdceac88	-0.100915015
22	0x3d9fb930	0.077989936
23	0x410e8888	8.908333
24	0x410debcb	8.870067
25	0xbdba0865	-0.090836324
26	0x41100079	9.000115
27	0x410d3c2a	8.8271885
28	0x410e8fa7	8.910071
29	0xbdd27f18	-0.102781475
30	0x410f595a	8.959314
31	0x410d9db5	8.851003
32	0x410ffa47	8.998603
33	0x410f7da1	8.968171
34	0x41105d0f	9.022719
35	0x410f36a3	8.950839
36	0xbd3a535c	-0.045489654
37	0xbdaba4dc	-0.08381054
38	0x410ed41c	8.9267845
39	0x410c7a85	8.779912
40	0x410ed088	8.925911
41	0x410f5d60	8.960297
42	0x410ff045	8.99616
43	0x4110bb6b	9.045756
44	0x410eb82a	8.919962
45	0x410f03ed	8.938458
46	0x410ef417	8.934592
47	0x410fe0bf	8.99237
48	0x410fb200	8.980957
49	0xbd60d7c0	-0.054893255
50	0x410f6c64	8.963963
51	0x410bbe01	8.733888
52	0x410ed66b	8.927348
53	0x410feeb0	8.995773
54	0x410e89cf	8.908645
55	0x410d2ed8	8.823936
56	0x410f7f13	8.968524
57	0x410f8efa	8.972406
58	0x410eb884	8.920048
59	0xbdf34cca	-0.11879881
60	0xbcf87178	-0.030327544
61	0x410fb9c7	8.982856
62	0xbd878485	-0.06617073
63	0x410f2e01	8.948731

fc4.weight f4 [49, 64]
0	0x3e115e42	0.14196113
1	0x3deb52e4	0.114904195
2	0x3d8d7d00	0.069086075
3	0x3feaa60c	1.8331923
4	0x40000005	2.0000012
5	0xbdb23148	-0.08700806
6	0x3ff13d05	1.8846747
7	0xbdee17bc	-0.11625621
8	0x3fe7bdc6	1.8104789
9	0xbe1f60e6	-0.15564308
10	0x3fb6e4c5	1.4288565
11	0x3ff0cf64	1.881329
12	0x40008c14	2.0085497
13	0xbdec1b19	-0.11528606
14	0xbbabe720	-0.005246058
15	0x3ff7b755	1.9352823
16	0x3fe7ac6b	1.8099493
17	0x3ff6ca64	1.9280515
18	0x3ff853dc	1.9400592
19	0x3ffcd7bd	1.9753338
20	0x3da1a0f2	0.07892026
21	0xbc436560	-0.011926025
22	0x3e064a3d	0.13114257
23	0x3fe822fc	1.8135676
24	0x3fce867f	1.6134795
25	0xbd9135a2	-0.07090308
26	0x3fff349a	1.9937928
27	0x3ffce0c6	1.9756095
28	0x3fc67d9a	1.550708
29	0xbcd7adb8	-0.026327953
30	0x3ffe2aa5	1.9856764
31	0x3ffd993f	1.9812392
32	0x3ffea28a	1.9893353
33	0x3fbcdf94	1.4755731
34	0x3ffa060c	1.9533095
35	0x3fc956f6	1.5729663
36	0x3d8c88c4	0.068620235
37	0x3d942ff9	0.072357126
38	0x3ff9f7a6	1.9528701
39	0x3fe51932	1.7898314
40	0x3fe6e209	1.803773
41	0x3fe41de2	1.782162
42	0x3feb299d	1.8372074
43	0x3fe80474	1.8126359
44	0x3ff2d83b	1.8972238
45	0x3ffc7fba	1.9726479
46	0x3fe54152	1.7910559
47	0x3ff6deb1	1.928671
48	0x3fe9e46e	1.8272836
49	0xbd0cefe6	-0.034408472
50	0x3fe0dcba	1.756736
51	0x3ff8f934	1.9451051
52	0x3ff31e87	1.8993691
53	0x3fee40c9	1.8613521
54	0x3ffb1bcf	1.9617862
55	0x3fed2c67	1.8529176
56	0x3fe6c880	1.8029938
57	0x3ff09842	1.8796465
58	0x3fff866b	1.9962896
59	0x3d363900	0.044487953
60	0x3be46840	0.0069704354
61	0x3fed449a	1.853656
62	0xbd9cdc16	-0.076591656
63	0x3fed05f8	1.8517447
64	0xba0e14f1	-0.00054199906
65	0x3d94e9fa	0.0727119
66	0xbd1afcb4	-0.037838653
67	0x410e3337	8.887504
68	0x410d58db	8.834193
69	0xbb31010c	-0.002700868
70	0x410f2256	8.945883
71	0xbd48f230	-0.049059093
72	0x410c121e	8.754423
73	0x3e1b3672	0.15157488
74	0x410ce451	8.805741
75	0x410dba60	8.858002
76	0x410ff57a	8.997431
77	0x3d9397f7	0.07206719
78	0x3d93cb8e	0.07216559
79	0x4110d613	9.052264
80	0x410d66d8	8.837608
81	0x410ee4b7	8.930839
82	0x410f20b5	8.945485
83	0x410f0d0a	8.940683
84	0x3b541840	0.0032363087
85	0x3d491384	0.049090877
86	0xbd11b415	-0.03557213
87	0x4110bc3f	9.0459585
88	0x410cf198	8.808983
89	0x3d3b8ffe	0.04579162
90	0x4110232e	9.008589
91	0x410f4732	8.954882
92	0x410ac39a	8.672754
93	0xbdf08b16	-0.117452785
94	0x4110c7b4	9.048756
95	0x410d1cef	8.819564
96	0x410d6195	8.836324
97	0x410c0d72	8.753283
98	0x410fb0b4	8.98064
99	0x410d07e8	8.81443
100	0x3dd7883a	0.1052403
101	0xbac24b6a	-0.00148235
102	0x410f8dc5	8.972112
103	0x410cb9d2	8.795366
104	0x41107062	9.027437
105	0x410dd40b	8.864268
106	0x410e4a51	8.893144
107	0x41109dff	9.038573
108	0x410d9d93	8.85097
109	0x410f10bf	8.941588
110	0x410e7a41	8.904847
111	0x410f3e62	8.95273
112	0x410dc1f8	8.859856
113	0xbd7ad1e4	-0.061235324
114	0x410eadff	8.9174795
115	0x410f2966	8.947607
116	0x410f728a	8.965464
117	0x410ec01a	8.9219
118	0x410febe5	8.995091
119	0x41100cc4	9.003117
120	0x410d24b2	8.821459
121	0x410eba46	8.920477
122	0x410df35c	8.871914
123	0x3d9fbffe	0.078002915
124	0x3d3ce428	0.046116024
125	0x410f6e11	8.964372
126	0x3d3ebc2c	0.046566173
127	0x410cfbf1	8.811509
128	0x3d8f62b5	0.07001249
129	0xbd845626	-0.06461744
130	0xbd2faf58	-0.04289183
131	0x40ceb2d0	6.4593277
132	0x40cf4d38	6.478176
133	0xbd97a25c	-0.074040145
134	0x40cfe915	6.4972024
135	0xbdf88e16	-0.12136476
136	0x40c7436e	6.226981
137	0xbd639a35	-0.055566985
138	0x40c9fa4c	6.311804
139	0x40cfeda7	6.4977603
140	0x40d3161d	6.5964494
141	0xbde5c324	-0.11218861
142	0x3c7daed0	0.015483573
143	0x40d1ec6b	6.5601096
144	0x40d10b8b	6.532659
145	0x40d306ee	6.594596
146	0x40d35a26	6.6047544
147	0x40ce1be5	6.440905
148	0xbded9e1e	-0.11602424
149	0xbd83deba	-0.06438966
150	0x3da8ab28	0.082357705
151	0x40d2cc58	6.5874443
152	0x40cc3bb1	6.3822865
153	0x3c466b60	0.012110561
154	0x40d19a93	6.550119
155	0x40cd51ce	6.416236
156	0x40ce2ddf	6.4430995
157	0x3db0e05c	0.08636543
158	0x40cf3a02	6.475831
159	0x40c9f1b8	6.3107567
160	0x40d32c03	6.5991225
161	0x40c9a932	6.3019037
162	0x40cfc883	6.4932265
163	0x40c7f610	6.248787
164	0xbd1703c0	-0.03686881
165	0x3dcbb311	0.099462636
166	0x40d154f9	6.5416226
167	0x40c80b7f	6.2514033
168	0x40d43785	6.6317773
169	0x40cfe8b7	6.4971576
170	0x40cd962b	6.424581
171	0x40d4521e	6.635024
172	0x40d28efc	6.579954
173	0x40d1381a	6.5380983
174	0x40d3ab89	6.6146894
175	0x40d1e63e	6.5593557
176	0x40d02d32	6.505517
177	0xbcacef90	-0.021110326
178	0x40d0ff6b	6.531179
179	0x40cdd319	6.4320188
180	0x40c957c7	6.291965
181	0x40d4f431	6.6548085
182	0x40cf3cf8	6.4761925
183	0x40ce46fd	6.4461656
184	0x40d28802	6.5791025
185	0x40d2c97e	6.587096
186	0x40ceb613	6.459726
187	0x3d85eba4	0.065390855
188	0xbd602e6c	-0.05473177
189	0x40d4382f	6.6318583
190	0x3d615298	0.05501041
191	0x40d228d4	6.567484
192	0x3d28ef6d	0.04124396
193	0xbd0a9638	-0.033834666
194	0xbca8f5c8	-0.02062501
195	0x40c9453e	6.2897024
196	0x40ce0fa4	6.4394093
197	0x3bc1c7be	0.0059137037
198	0x40c7c58c	6.2428646
199	0xbddd8962	-0.10817219
200	0x40c68270	6.2034225
201	0x3d6a2259	0.057161663
202	0x40cad3c7	6.3383517
203	0x40cc2121	6.379044
204	0x40cce2de	6.4026937
205	0xbdb422c1	-0.08795691
206	0xbd8b7a56	-0.06810443
207	0x40c845f0	6.2585373
208	0x40ca3671	6.3191457
209	0x40ce6738	6.4501
210	0x40cb1497	6.3462634
211	0x40cbc765	6.36809
212	0x3da3f0ca	0.08004911
213	0x3da59a8a	0.080861166
214	0xbc9564f1	-0.01823661
215	0x40ca8175	6.328303
216	0x40cecc38	6.462429
217	0x3c6431ba	0.013927871
218	0x40c81c98	6.2534904
219	0x40ccd26e	6.400687
220	0x40ca7aed	6.3275056
221	0xbd57d040	-0.052688837
222	0x40ca9e78	6.3318443
223	0x40caf6fc	6.3426495
224	0x40cda988	6.4269447
225	0x40cbaa5a	6.364545
226	0x40caf1b6	6.3420057
227	0x40c9fe0c	6.3122616
228	0xbd587894	-0.052849367
229	0x3ddb849d	0.10718653
230	0x40c90507	6.2818637
231	0x40cc0f4d	6.376868
232	0x40cd4e29	6.415791
233	0x40cb4b21	6.352921
234	0x40ce96f6	6.455928
235	0x40c79142	6.2364817
236	0x40c7acef	6.23986
237	0x40cd700d	6.419928
238	0x40cbe494	6.3716526
239	0x40ce942b	6.455587
240	0x40ca0dce	6.314185
241	0x3cc26b90	0.02373293
242	0x40cbc4d9	6.3677793
243	0x40ca446f	6.3208537
244	0x40cdf05e	6.4355917
245	0x40ce1767	6.4403567
246	0x40ce4266	6.4456053
247	0x40cbc85b	6.3682075
248	0x40cb26fd	6.3485093
249	0x40cb43af	6.352012
250	0x40c7ce3e	6.243926
251	0xbd3df8c0	-0.046379805
252	0x3d94b3f0	0.07260883
253	0x40cd5fe4	6.4179554
254	0xbdc85c88	-0.09783274
255	0x40cde258	6.43388

fc4.bias f4 [49]
0	0x3fa345c3	1.2755665
1	0x40f62b12	7.6927576
2	0x40dfbb0f	6.9915843
3	0x40b8dcaa	5.7769365
4	0x40c82c91	6.25544
5	0x402ccd74	2.7000399
6	0x40c1207c	6.0352154
7	0x4022a292	2.5411725
8	0x40f2a921	7.5831456
9	0x406fe574	3.7483797
10	0x40a93c48	5.2886086
11	0x40e3a957	7.1144214
12	0x40552e56	3.3309531
13	0xbdd53408	-0.10410315
14	0x40f23bb3	7.5697875
15	0x40ba97a2	5.83101
16	0x40734f01	3.801697
17	0x4044899f	3.0708997
18	0x40d710cc	6.7208004
19	0xbde7d49e	-0.113198504
20	0x3db70a76	0.08937542
21	0x4084c17a	4.1486177
22	0x40f17f38	7.5467796
23	0x40fa868b	7.8289237
24	0x409ca127	4.894672
25	0x38a87800	8.033216e-05
26	0xbdad0ada	-0.084493354
27	0x3d6045ec	0.054754183
28	0x408750b4	4.2286015
29	0x4081fa97	4.0618396
30	0x40e80e1a	7.2517214
31	0x3d9a5dfa	0.07537456
32	0x3c959160	0.018257797
33	0x3c1397a0	0.009008318
34	0xbce387f8	-0.027774796
35	0x40be6a04	5.9504414
36	0x404b5a69	3.1773932
37	0xbd252098	-0.040314287
38	0xbc0904f0	-0.008362994
39	0xbcaf05b0	-0.021365017
40	0x3cc59288	0.024117723
41	0xbda89fc6	-0.08233599
42	0x40044fd1	2.0673716
43	0x3db87134	0.09005967
44	0x3cd53538	0.026026353
45	0xbd6a8208	-0.057252914
46	0x3d37d5a4	0.044881478
47	0x3de2fa0a	0.110828474
48	0x3d86de30	0.06585348
