trike2/models/trainied against random/DQN_Agent_600ep.pt/DQN_Agent.pt (torch, 333080 bytes, 8 tensors)

fc1.weight f4 [256, 148]
7.981554 10.708829 10.117836 8.8638935 10.172782 8.440119 10.061668 7.644418
10.1269045 7.768494 7.455877 9.384733 7.7209926 -0.00026582927 10.093803 10.055433
8.9778385 7.1590695 9.779088 0.011835322 -0.02897479 8.843137 10.658928 10.991642
9.98422 0.017852642 0.05884344 -0.027963988 9.203266 9.320512 9.21419 -0.074719205
0.07808743 0.076466925 0.02425693 8.936109 8.077415 0.07073837 0.07512475 -0.04547513
-0.025531057 -0.021081641 8.478868 0.024751201 0.055326514 -0.010139987 -0.01938574 -0.045457277
0.041796982 8.550039 10.5869465 10.516348 8.326071 9.664938 9.120253 10.0440035
8.465849 10.10966 8.961936 8.043001 8.821778 7.5765038 0.07232659 9.655128
8.977904 8.88066 7.587143 9.575165 -0.03671908 -0.05870095 9.4246855 10.078758
9.726094 8.54738 0.034066983 0.06226685 0.07688043 9.220039 8.969527 10.028904
-0.007279314 0.07539602 0.004699968 -0.05986488 7.311304 9.4299 0.05909381 -0.01762253
0.07921272 0.013320617 0.00975737 7.0640597 -0.0470732 -0.08105642 0.060457103 0.052114166
0.08013455 0.0038569495 7.6415277 7.337527 8.384483 7.255906 8.480471 6.578338
7.541521 6.4200897 8.538484 7.902204 6.969778 8.588153 5.877732 -0.020732436
8.1880045 9.051288 8.643148 6.9119763 7.5018477 0.054703213 -0.048154857 8.443182
8.250852 7.0797477 7.8691006 0.052197583 -0.03048892 0.049774848 6.5312777 8.174061
7.907907 0.05468712 -0.071015954 -0.04656105 0.009184137 7.335943 7.848462 -0.014812522
0.0051443055 -0.058759265 -0.055015795 0.009240292 8.316437 0.03229767 -0.012502722 0.029938474
-0.04200712 -0.06945742 0.07109029 -0.02017482 8.088369 10.638689 9.945555 8.781477
10.255417 8.3251915 10.349351 7.6247554 10.199932 8.10964 7.291479 9.430203
7.581881 0.049884446 10.084638 10.150653 8.8933 7.2092257 9.630212 0.009601414
-0.07694037 8.644017 10.645719 10.914727 9.945061 0.051627226 -0.0055323243 -0.062698245
9.161921 9.552731 9.745884 0.0050312057 -0.03235459 0.04512898 -0.076367445 9.13416
7.931596 0.048796125 -0.0689907 0.03600315 -0.0151799545 0.005302921 8.500995 0.029276341
0.074360766 -0.057696264 0.0520973 -0.02599534 0.07844076 8.805091 10.653125 10.571281
8.487407 9.71793 8.9614105 10.0070505 8.603589 10.217384 8.856864 8.102831
9.046401 8.148682 0.042181335 9.77277 9.161271 8.694326 7.4707675 9.5838
-0.051743582 -0.061413445 9.39716 10.13048 9.954533 8.649551 0.07121671 -0.059178963
-0.012540489 9.135615 8.997045 9.829342 -0.046620872 0.04613801 -0.051006533 -0.05711349
6.9170322 9.473278 -0.013047323 -0.027362578 -0.06490002 -0.07839049 -0.038326684 6.8243074
-0.0074345693 -0.07534207 -0.021947104 0.015818581 -0.06326589 -0.055448104 8.167702 7.307851
8.495498 7.119053 8.690437 6.637716 7.671847 6.3201885 8.57475 8.059467
00000000: e468 ff40 5d57 2b41 a8e2 2141 82d2 0d41
00000010: b7c3 2241 ba0a 0741 98fc 2041 129f f440
00000020: cd07 2241 8197 f840 8b96 ee40 de27 1641
00000030: 5f12 f740 005f 8bb9 3880 2141 0ee3 2041
00000040: 3aa5 0f41 1917 e540 2577 1c41 f0e8 413c
00000050: 8a5c edbc 7d7d 0d41 f88a 2a41 c4dd 2f41
00000060: 5dbf 1f41 b43f 923c d205 713d bc14 e5bc
00000070: 9440 1341 d120 1541 526d 1341 6206 99bd
00000080: 4dec 9f3d b19a 9c3d 78b6 c63c 4dfa 0e41
00000090: 183d 0141 47df 903d 01db 993d 2144 3abd
000000a0: 8226 d1bc 68b3 acbc 71a9 0741 08c3 ca3c
000000b0: 0e9e 623d 3022 26bc d8ce 9ebc 6931 3abd
000000c0: 5033 2b3d f6cc 0841 2264 2941 f642 2841
000000d0: 9637 0541 96a3 1a41 8eec 1141 3db4 2041
000000e0: 1e74 0741 2bc1 2141 1764 0f41 22b0 0041
000000f0: 0126 0d41 b872 f240 f71f 943d 677b 1a41
00000100: 7fa5 0f41 2f17 0e41 e0c9 f240 e033 1941
00000110: bf66 16bd 6870 70bd 83cb 1641 9842 2141
00000120: 159e 1b41 12c2 0841 d289 0b3d 860b 7f3d
00000130: 7d73 9d3d 4885 1341 2f83 0f41 6476 2041
00000140: 5087 eebb 3b69 9a3d 3002 9a3b e034 75bd
00000150: 34f6 e940 dfe0 1641 5a0c 723d 205d 90bc
00000160: 473a a23d b83e 5a3c 60dd 1f3c c70c e240
00000170: d4cf 40bd e900 a6bd dea1 773d aa75 553d
00000180: 951d a43d e0c4 7c3b 6587 f440 05cd ea40
00000190: d826 0641 6230 e840 02b0 0741 bf81 d240
000001a0: 2454 f140 6071 cd40 a19d 0841 dbde fc40
000001b0: 6c08 df40 1369 0941 6116 bc40 12d7 a9bc
000001c0: 1102 0341 13d2 1041 564a 0a41 e92e dd40
000001d0: 230f f040 7a10 603d 073e 45bd 4617 0741
000001e0: 7d03 0441 4b8d e240 accf fb40 22cd 553d
000001f0: e6c3 f9bc b6e0 4b3d 3a00 d140 f4c8 0241
00000200: 930d fd40 9aff 5f3d d070 91bd cdb6 3ebd
00000210: 1079 163c 0cc0 ea40 9a26 fb40 38b0 72bc
00000220: 9091 a83b 8ead 70bd 3e58 61bd 9864 173c
00000230: 2010 0541 904a 043d 38d8 4cbc 8841 f53c
00000240: a80f 2cbd b13f 8ebd c997 913d aa45 a5bc
00000250: f669 0141 1238 2a41 fe20 1f41 ee80 0c41
00000260: 3016 2441 fc33 0541 f196 2541 fffd f340
00000270: ec32 2341 16c1 0141 cc53 e940 1de2 1641
00000280: c59e f240 a253 4c3d ad5a 2141 1369 2241
00000290: f54a 0e41 fab1 e640 5915 1a41 404f 1d3c
000002a0: ea92 9dbd e54d 0a41 dd54 2a41 b9a2 2e41
000002b0: f81e 1f41 1277 533d 8048 b5bb f067 80bd
000002c0: 3a97 1241 fcd7 1841 24ef 1b41 d0dc a43b
000002d0: 3f86 04bd 2ad9 383d 8966 9cbd 8525 1241
000002e0: a2cf fd40 72de 473d ff4a 8dbd 0a78 133d
000002f0: 58b5 78bc 20c4 ad3b 1304 0841 f0d4 ef3c
00000300: 754a 983d eb52 6cbd fa63 553d 2ef4 d4bc
00000310: 8da5 a03d a7e1 0c41 3373 2a41 f823 2941
00000320: 6bcc 0741 a47c 1b41 f061 0f41 e11c 2041
00000330: 4da8 0941 687a 2341 b7b5 0d41 32a5 0141
00000340: 0fbe 1041 0061 0241 56c6 2c3d 445d 1c41
00000350: 9194 1241 f61b 0b41 8710 ef40 3f57 1941
00000360: 14f1 53bd aa8c 7bbd c45a 1641 7216 2241
00000370: c445 1f41 9064 0a41 11da 913d a465 72bd
00000380: a076 4dbc 7b2b 1241 e5f3 0f41 fc44 1d41
00000390: 87f5 3ebd 36fb 3c3d 3aec 50bd d6ef 69bd
000003a0: 5458 dd40 8c92 1741 70c4 55bc 7c27 e0bc
000003b0: 4dea 84bd 318b a0bd 71fc 1cbd ba60 da40
000003c0: b09d f3bb f14c 9abd 6aca b3bc f895 813c
000003d0: 8c91 81bd 8d1d 63bd e8ae 0241 ead9 e940
000003e0: 8fed 0741 48cf e340 080c 0b41 2b68 d440
000003f0: c57f f540 fc3e ca40 2d32 0941 94f3 0041

fc1.bias f4 [256]
11.365331 11.521777 11.47224 11.537703 11.559546 11.5056505 11.581005 11.526209
11.541877 11.52626 11.519995 11.494533 -1.4367988 11.469996 11.54031 11.56579
11.323575 11.587819 11.539421 11.494689 11.445042 11.457842 11.439419 11.3817835
11.532042 11.344616 11.361872 11.411125 11.573431 11.526552 11.561835 11.402586
11.502707 11.494765 11.512161 -1.4947873 11.469757 11.558371 11.491948 -1.7346437
11.51583 -1.3554646 11.510873 11.599203 11.58016 11.551511 11.48903 11.580661
11.526663 -1.404433 11.524955 11.403794 11.370096 11.4938135 11.522857 11.516128
11.351412 11.513717 11.561673 11.591724 11.554842 11.519108 11.539311 11.538728
11.582482 11.530581 11.430584 11.558391 11.5447035 11.589429 11.450135 11.538811
11.514853 -1.1931565 11.378896 11.506949 -1.6256871 11.409167 -1.382066 -1.5019543
11.489364 11.361963 11.598509 11.482185 11.537323 11.435496 11.55745 11.454061
-1.4199736 11.527291 11.566147 11.357773 11.573402 11.465876 11.376575 -1.5740087
11.501997 11.55326 11.38066 11.566068 11.58431 11.583714 11.515925 11.563112
11.559051 11.576868 11.523087 11.612668 11.390277 11.3205805 11.4207945 11.480109
11.554774 11.507276 11.493492 11.506036 11.532819 11.521473 11.601176 11.561596
-1.349298 11.555935 11.516409 -1.5380707 -1.6231302 -1.415503 11.589382 11.609406
11.4825945 11.556877 11.452905 11.590578 11.258005 11.535121 11.365002 11.4948
11.366556 11.416748 11.394819 11.465375 11.380065 11.4319 11.444057 11.514171
11.616692 11.549812 11.547566 11.50816 11.523584 11.601425 11.5205145 11.497184
11.545055 11.551047 11.31278 11.471149 11.560629 11.572176 11.475775 11.392861
11.581087 11.499496 11.561728 11.503517 11.5437355 11.457789 11.387823 11.547296
11.58411 11.545941 11.42876 11.546308 -1.5047544 11.586534 11.553218 11.591212
11.351709 11.532758 11.519625 11.489548 11.579218 11.548417 11.479195 11.50816
11.52135 11.512831 -1.2145501 11.337469 11.584867 11.556351 11.553871 -1.4740222
11.55009 11.518013 11.558868 11.558829 11.584236 11.575331 11.554979 -1.543902
11.570305 11.363782 11.395524 -1.532305 11.269522 11.416507 11.532904 11.544979
11.561666 11.326282 11.563742 11.582824 11.384563 11.475279 11.407058 -1.4810601
11.542329 11.526217 11.579569 11.388544 11.592543 11.524119 11.54003 11.450862
11.531391 11.499793 -1.6235125 11.546647 11.413749 -1.4377682 11.467132 11.502592
11.57559 11.473613 11.565984 -1.6397604 11.451321 -1.4310715 11.436656 11.559643
11.366263 11.515393 11.485722 11.609187 11.499146 11.591785 11.571715 11.579584
11.513342 11.384464 11.495353 11.550925 11.545008 11.50331 11.391103 11.391674
00000000: 65d8 3541 3359 3841 4c8e 3741 6e9a 3841
00000010: e7f3 3841 2517 3841 cc4b 3941 5a6b 3841
00000020: 87ab 3841 906b 3841 e651 3841 9be9 3741
00000030: 06e9 b7bf 1b85 3741 1ca5 3841 7a0d 3941
00000040: 5d2d 3541 b567 3941 78a1 3841 3fea 3741
00000050: e41e 3741 5253 3741 dc07 3741 c91b 3641
00000060: 3e83 3841 8c83 3541 3aca 3541 f893 3641
00000070: c62c 3941 c26c 3841 47fd 3841 fe70 3641
00000080: 160b 3841 8fea 3741 d031 3841 3155 bfbf
00000090: 2084 3741 16ef 3841 05df 3741 ce08 debf
000000a0: d740 3841 dd7f adbf 892c 3841 5696 3941
000000b0: 5648 3941 fdd2 3841 11d3 3741 634a 3941
000000c0: 366d 3841 76c4 b3bf 3766 3841 f175 3641
000000d0: eaeb 3541 a9e6 3741 9f5d 3841 0f42 3841
000000e0: 629f 3541 2f38 3841 9dfc 3841 b477 3941
000000f0: a2e0 3841 444e 3841 05a1 3841 a19e 3841
00000100: d951 3941 437d 3841 ace3 3641 2bef 3841
00000110: 1bb7 3841 4d6e 3941 c133 3741 f89e 3841
00000120: d63c 3841 5ab9 98bf f50f 3641 771c 3841
00000130: 8416 d0bf f38b 3641 8ae7 b0bf 0a40 c0bf
00000140: 6fd4 3741 9aca 3541 7e93 3941 08b7 3741
00000150: e098 3841 cbf7 3641 51eb 3841 d543 3741
00000160: b2c1 b5bf c96f 3841 f00e 3941 70b9 3541
00000170: a82c 3941 3a74 3741 7406 3641 1e79 c9bf
00000180: 2e08 3841 27da 3841 2f17 3641 9d0e 3941
00000190: 5559 3941 e456 3941 3b41 3841 8202 3941
000001a0: dff1 3841 da3a 3941 905e 3841 7dcd 3941
000001b0: 933e 3641 1921 3541 93bb 3641 87ae 3741
000001c0: 5be0 3841 cd1d 3841 58e5 3741 b918 3841
000001d0: 6d86 3841 f457 3841 6b9e 3941 4cfc 3841
000001e0: ccb5 acbf 1ce5 3841 3643 3841 80df c4bf
000001f0: bbc2 cfbf 342f b5bf 1c6e 3941 21c0 3941
00000200: b5b8 3741 f8e8 3841 193f 3741 0273 3941
00000210: ca20 3441 db8f 3841 0cd7 3541 b3ea 3741
00000220: 6add 3541 00ab 3641 2e51 3641 2d72 3741
00000230: bf14 3641 10e9 3641 dc1a 3741 0b3a 3841
00000240: f8dd 3941 08cc 3841 d5c2 3841 6c21 3841
00000250: 9a60 3841 709f 3941 0754 3841 77f4 3741
00000260: 8cb8 3841 17d1 3841 2601 3541 d489 3741
00000270: 56f8 3841 a227 3941 c69c 3741 2949 3641
00000280: 224c 3941 f0fd 3741 d6fc 3841 680e 3841
00000290: 24b3 3841 1b53 3741 8634 3641 b9c1 3841
000002a0: 8458 3941 2dbc 3841 33dc 3641 adbd 3841
000002b0: cb9b c0bf 7162 3941 fbd9 3841 9b75 3941
000002c0: 9aa0 3541 2d86 3841 6250 3841 30d5 3741
000002d0: 7a44 3941 51c6 3841 c8aa 3741 6c21 3841
000002e0: 7357 3841 8e34 3841 6176 9bbf 4666 3541
000002f0: 9d5b 3941 d0e6 3841 a8dc 3841 c2ac bcbf
00000300: 2bcd 3841 c849 3841 20f1 3841 f7f0 3841
00000310: 0859 3941 8e34 3941 32e1 3841 959e c5bf
00000320: f81f 3941 0dd2 3541 1154 3641 9222 c4bf
00000330: f64f 3441 03aa 3641 c686 3841 3cb8 3841
00000340: 95fc 3841 7338 3541 1605 3941 3f53 3941
00000350: 2c27 3641 be9a 3741 4f83 3641 6193 bdbf
00000360: 61ad 3841 636b 3841 ea45 3941 7a37 3641
00000370: 0e7b 3941 cb62 3841 f6a3 3841 bb36 3741
00000380: 9480 3841 27ff 3741 42cf cfbf 11bf 3841
00000390: b79e 3641 ca08 b8bf 5f79 3741 9e0a 3841
000003a0: 9e35 3941 eb93 3741 450e 3941 abe3 d1bf
000003b0: 9c38 3741 5a2d b7bf 8bfc 3641 4cf4 3841
000003c0: 37dc 3541 0d3f 3841 84c5 3741 3bbf 3941
000003d0: 81fc 3741 f477 3941 bf25 3941 fa45 3941
000003e0: a636 3841 c426 3641 f7ec 3741 97d0 3841
000003f0: 5ab8 3841 8f0d 3841 f541 3641 4c44 3641

fc2.weight f4 [128, 256]
11.224257 11.358565 11.257217 11.320187 11.327197 11.246124 11.293158 11.225894
11.431367 11.270194 11.353989 11.252056 -3.925046 10.964747 11.242879 11.165547
11.337546 11.465656 11.347085 11.414133 11.0357685 11.168974 11.325019 11.302994
11.177362 10.830715 11.315783 11.143898 11.223505 11.276706 11.328355 11.252748
11.17396 11.194372 11.330212 -4.25318 11.296684 11.207407 11.359963 -4.0379868
11.379389 -4.179531 11.383922 11.304052 11.31278 11.240212 11.289619 11.475751
11.127784 -4.7183475 11.253058 11.042247 11.236324 11.295431 11.405138 11.324971
11.391332 11.338796 11.353261 11.48263 11.288959 11.220694 11.245594 11.408655
11.3748 11.276867 11.157348 11.256241 11.322731 11.307581 11.29704 11.391933
11.198611 -3.8367739 11.27543 11.2058325 -4.243385 11.287442 -4.2185817 -3.9043868
11.238803 11.173532 11.376157 11.204634 11.357169 11.322724 11.431431 11.383942
-4.2835264 11.379185 11.33737 11.065481 11.229293 11.340179 11.362477 -3.955166
11.266136 11.414 11.314271 11.440884 11.338081 11.241651 11.390467 11.276484
11.186507 11.398029 11.2737 11.276824 11.406593 11.296651 11.359726 11.299598
11.344273 11.054138 11.34816 11.266618 11.3319 11.173213 11.269819 11.285827
-4.2856975 11.320646 11.218049 -3.9595175 -4.125136 -4.2838492 11.461402 11.378714
11.277958 11.331529 11.4029455 11.22124 11.269508 11.188187 11.320692 11.212722
11.177964 11.312671 10.937806 11.127839 11.313714 11.155714 11.170517 11.329891
11.401995 11.316413 11.202056 11.246455 11.145132 11.443593 11.28484 11.240971
11.190801 11.275656 11.042537 11.197581 11.23298 11.343697 11.302276 11.281186
11.346341 11.386821 11.352984 11.147971 11.258747 11.249979 11.049994 11.290675
11.34807 11.354458 11.103278 11.238253 -4.122855 11.369006 11.3089485 11.350827
11.348885 11.278775 11.28401 11.201687 11.36936 11.343869 11.286989 11.223011
11.304842 11.223403 -4.012915 11.24591 11.449472 11.37873 11.247667 -4.5882044
11.370619 11.4331455 11.215363 11.317571 11.339052 11.263468 11.361336 -4.0165596
11.337496 11.009739 11.274625 -4.358899 10.728774 11.070888 11.367071 11.251621
11.319773 11.158831 11.207835 11.4445915 11.251159 11.430704 11.324958 -3.7063634
11.236484 11.285459 11.229861 11.24576 11.309065 11.233949 11.210803 11.218076
11.332868 11.334684 -3.8537064 11.321234 11.142215 -4.4098845 11.427024 11.33245
11.2958975 11.492433 11.292045 -4.0458264 11.334773 -4.251922 11.257471 11.495951
11.249193 11.274622 11.434618 11.427313 11.161672 11.477914 11.243671 11.332796
11.3316765 11.198778 11.466129 11.351855 11.360367 11.292776 11.086573 11.201925
00000000: 8f96 3341 afbc 3541 901d 3441 7c1f 3541
00000010: 333c 3541 20f0 3341 c6b0 3441 439d 3341
00000020: e1e6 3641 b752 3441 f0a9 3541 6c08 3441
00000030: f433 7bc0 9b6f 2f41 d5e2 3341 15a6 3241
00000040: 9766 3541 5473 3741 a98d 3541 4aa0 3641
00000050: 8292 3041 1eb4 3241 4733 3541 10d9 3441
00000060: 7ad6 3241 9c4a 2d41 720d 3541 684d 3241
00000070: 7a93 3341 636d 3441 f140 3541 410b 3441
00000080: 8ac8 3241 261c 3341 8c48 3541 0d1a 88c0
00000090: 38bf 3441 8a51 3341 69c2 3541 3037 81c0
000000a0: fa11 3641 b8be 85c0 8b24 3641 66dd 3441
000000b0: 2601 3541 e9d7 3341 48a2 3441 ad9c 3741
000000c0: 670b 3241 b4fc 96c0 870c 3441 0bad 3041
000000d0: fcc7 3341 16ba 3441 727b 3641 1533 3541
000000e0: e542 3641 b56b 3541 f5a6 3541 dab8 3741
000000f0: 939f 3441 f687 3341 f4ed 3341 da89 3641
00000100: 2eff 3541 0c6e 3441 7f84 3241 9019 3441
00000110: e829 3541 daeb 3441 adc0 3441 5c45 3641
00000120: 832d 3341 b48d 75c0 2968 3441 174b 3341
00000130: cfc9 87c0 5d99 3441 9ffe 86c0 79e1 79c0
00000140: 23d2 3341 c9c6 3241 bd04 3641 2e46 3341
00000150: f7b6 3541 e129 3541 24e7 3641 a024 3641
00000160: a612 89c0 2411 3641 de65 3541 360c 3141
00000170: 2fab 3341 6071 3541 b5cc 3541 7121 7dc0
00000180: 1842 3441 be9f 3641 4107 3541 dc0d 3741
00000190: c868 3541 cddd 3341 5a3f 3641 7a6c 3441
000001a0: effb 3241 545e 3641 1361 3441 df6d 3441
000001b0: 6881 3641 15bf 3441 70c1 3541 27cb 3441
000001c0: 2482 3541 c0dd 3041 1092 3541 1144 3441
000001d0: 764f 3541 7bc5 3241 2e51 3441 bf92 3441
000001e0: 6f24 89c0 5e21 3541 217d 3341 bc68 7dc0
000001f0: 1d01 84c0 4b15 89c0 e761 3741 360f 3641
00000200: 8472 3441 f14d 3541 7772 3641 338a 3341
00000210: e84f 3441 d002 3341 8e21 3541 4f67 3341
00000220: f1d8 3241 b300 3541 4101 2f41 a10b 3241
00000230: f904 3541 ce7d 3241 70ba 3241 3c47 3541
00000240: 926e 3641 0710 3541 9f3b 3341 7bf1 3341
00000250: 7652 3241 f518 3741 b48e 3441 04db 3341
00000260: 850d 3341 1669 3441 3bae 3041 4b29 3341
00000270: 49ba 3341 c87f 3541 1fd6 3441 bd7f 3441
00000280: 9d8a 3541 6b30 3641 d3a5 3541 175e 3241
00000290: d423 3441 eaff 3341 c7cc 3041 9ba6 3441
000002a0: b291 3541 dcab 3541 07a7 3141 e2cf 3341
000002b0: 6eee 83c0 73e7 3541 74f1 3441 fd9c 3541
000002c0: 0895 3541 dd75 3441 4e8b 3441 1c3a 3341
000002d0: e6e8 3541 7d80 3541 8297 3441 7491 3341
000002e0: a2e0 3441 0f93 3341 cd69 80c0 3fef 3341
000002f0: 0a31 3741 470f 3641 72f6 3341 92d2 92c0
00000300: 0eee 3541 2aee 3641 2072 3341 c514 3541
00000310: c26c 3541 2a37 3441 08c8 3541 a887 80c0
00000320: 6266 3541 e427 3041 dd64 3441 1a7c 8bc0
00000330: 0fa9 2b41 5b22 3141 86df 3541 a406 3441
00000340: ca1d 3541 928a 3241 4b53 3341 0c1d 3741
00000350: bf04 3441 2ae4 3641 0733 3541 0f35 6dc0
00000360: a3c8 3341 3d91 3441 83ad 3341 a2ee 3341
00000370: eef1 3441 41be 3341 735f 3341 3d7d 3341
00000380: 6d53 3541 de5a 3541 20a3 76c0 c623 3541
00000390: 8346 3241 c61d 8dc0 17d5 3641 b751 3541
000003a0: ffbb 3441 01e1 3741 37ac 3441 6977 81c0
000003b0: 3b5b 3541 bf0f 88c0 9a1e 3441 6aef 3741
000003c0: b2fc 3341 da64 3441 32f4 3641 46d6 3641
000003d0: 3596 3241 89a5 3741 14e6 3341 2253 3541
000003e0: 8c4e 3541 322e 3341 4475 3741 33a1 3541
000003f0: 10c4 3541 36af 3441 9a62 3141 163b 3341

fc2.bias f4 [128]
10.887474 10.886693 10.848909 10.9369755 10.954535 10.876134 10.918239 10.999127
10.981162 10.948891 10.909611 10.970248 10.916014 10.915196 10.931849 10.919118
10.859702 -0.08128001 10.9964 0.0027770926 10.930704 10.997903 10.910421 10.929474
10.90754 -0.06016182 10.9893055 10.95587 -0.0662646 10.929937 10.933319 10.988088
10.763924 10.9416 10.955167 10.986017 10.970283 10.899414 10.81811 10.909461
-0.05972258 10.968057 10.932961 10.995145 10.913098 10.900437 10.931794 10.945764
10.946733 10.875911 10.923279 10.978555 -0.05869092 10.951024 10.916641 10.974951
10.8790455 10.939016 -0.06035701 10.91078 10.888821 10.943779 10.910538 10.938924
10.969228 10.964325 10.850123 -0.10514283 10.947782 -0.0853501 10.875977 10.86684
10.874846 10.945155 10.987536 10.963861 -0.060454674 10.96262 10.934489 10.927904
10.994323 10.912988 11.01707 -0.03629365 10.974959 10.869662 10.973947 10.967353
-0.067555524 10.980551 10.921173 -0.043669507 10.98542 10.928505 10.962167 10.905691
-0.013717299 0.00063172483 10.849345 10.89036 10.988892 10.944863 10.879705 -0.04731175
10.981914 10.887741 10.977048 -0.10889605 10.992023 10.881511 10.969252 10.887929
10.960046 10.923132 10.965874 11.001557 10.950872 -0.05229487 10.979845 10.905506
10.90028 10.886518 -0.030905627 10.886802 10.89951 -0.017221058 10.946884 -0.0033850227
00000000: 1833 2e41 e52f 2e41 2295 2d41 dafd 2e41
00000010: c645 2f41 a504 2e41 1bb1 2e41 6dfc 2f41
00000020: d7b2 2f41 a82e 2f41 c48d 2e41 2386 2f41
00000030: fea7 2e41 a5a4 2e41 dae8 2e41 b5b4 2e41
00000040: 57c1 2d41 2276 a6bd 41f1 2f41 e2ff 353b
00000050: 2ae4 2e41 69f7 2f41 1691 2e41 20df 2e41
00000060: 4985 2e41 3e6c 76bd 32d4 2f41 3e4b 2f41
00000070: bcb5 87bd 06e1 2e41 e0ee 2e41 35cf 2f41
00000080: 0839 2c41 cb10 2f41 5d48 2f41 bac6 2f41
00000090: 4786 2f41 0064 2e41 fb16 2d41 278d 2e41
000000a0: aa9f 74bd 297d 2f41 69ed 2e41 1dec 2f41
000000b0: 0d9c 2e41 3168 2e41 a1e8 2e41 d921 2f41
000000c0: d225 2f41 bb03 2e41 c0c5 2e41 29a8 2f41
000000d0: e465 70bd 6537 2f41 90aa 2e41 6699 2f41
000000e0: 9210 2e41 3606 2f41 ea38 77bd 8e92 2e41
000000f0: 9c38 2e41 b819 2f41 9091 2e41 d505 2f41
00000100: f581 2f41 e06d 2f41 1b9a 2d41 2055 d7bd
00000110: 1d2a 2f41 09cc aebd 0004 2e41 94de 2d41
00000120: 5fff 2d41 5b1f 2f41 f3cc 2f41 fa6b 2f41
00000130: 529f 77bd e466 2f41 abf3 2e41 b2d8 2e41
00000140: bfe8 2f41 999b 2e41 eb45 3041 a6a8 14bd
00000150: 6f99 2f41 23ea 2d41 4995 2f41 477a 2f41
00000160: 8d5a 8abd 56b0 2f41 20bd 2e41 ccde 32bd
00000170: 48c4 2f41 28db 2e41 0965 2f41 b67d 2e41
00000180: 86be 60bc 569a 253a eb96 2d41 ea3e 2e41
00000190: 80d2 2f41 291e 2f41 4613 2e41 f7c9 41bd
000001a0: ebb5 2f41 3034 2e41 fda1 2f41 e404 dfbd
000001b0: 54df 2f41 ab1a 2e41 0e82 2f41 f534 2e41
000001c0: 595c 2f41 26c5 2e41 3874 2f41 6106 3041
000001d0: c636 2f41 2533 56bd 72ad 2f41 f47c 2e41
000001e0: 8c67 2e41 2d2f 2e41 cc2d fdbc 5730 2e41
000001f0: 6564 2e41 2d13 8dbc 7026 2f41 42d7 5dbb

fc3.weight f4 [64, 128]
0.005320825 0.038363535 -0.047559015 -0.100406446 -0.052078944 0.038422737 -0.08864113 -0.044532035
-0.025667937 -0.07400676 0.05034875 -0.056126483 -0.012695883 -0.07254566 -0.054949977 -0.028732788
-0.06489669 -0.055942643 -0.0021084177 0.0058218827 -0.012757063 -0.03139052 0.055436123 0.031447705
-0.029672641 -0.018497718 -0.0501935 -0.04152108 0.05195353 -0.11664243 0.063058786 0.051671535
0.009779932 0.04726566 -0.037277926 0.015871722 -0.028077347 -0.004797965 0.013344949 0.01909552
-0.06614729 0.028855931 0.020104457 -0.07659387 0.057767548 -0.0631533 -0.001499273 -0.073141195
0.023938676 -0.075359 0.06455494 0.021526737 -0.048673775 0.015131462 -0.11926972 -0.016683877
0.030341683 0.03361027 -0.006950408 -0.12155916 0.074548 -0.09390789 -0.049597286 -0.07421633
-0.02540731 0.0046005417 0.056804985 0.033804223 -0.004264806 0.008510793 0.042978954 0.052893855
-0.12286264 -0.12212227 -0.092871144 -0.06615558 0.0030445505 0.03854997 0.0714525 -0.07718454
-0.09183034 0.09584619 -0.113418676 0.08721911 0.068378665 -0.07199576 -0.026248429 -0.1248695
0.06720938 0.027247721 -0.04415468 -0.031532247 -0.09846965 -0.038171012 -0.024421051 -0.017511262
-0.0858542 -0.110178456 -0.070482135 -0.036282964 0.024057478 -0.10890105 -0.05705807 -0.056015488
0.018369412 -0.13052145 -0.036413033 -0.04346892 -0.002660931 -0.10537433 -0.024210393 -0.10250881
0.03170523 0.0044937036 0.009126115 -0.009461831 -0.022996174 0.031685248 -0.09201316 0.054595713
0.022692274 -0.10298885 0.058663268 -0.017606564 -0.053885955 0.011268503 0.051546328 -0.019901639
-0.03360029 0.009826221 -0.07223795 0.016914949 -0.00037647627 -0.07644456 0.030404584 -0.038660638
-0.07274878 0.013336105 0.019818313 -0.08575393 -0.019993566 -0.030196799 -0.081290215 -0.04058475
0.023718126 -0.053598814 0.072454505 0.0580463 0.006095083 -0.028936014 0.035353914 0.0039916337
0.047619574 -0.037482183 -0.04596214 -0.01885538 0.070057236 -0.08825862 0.06950671 0.020382226
-0.10271692 0.037150033 0.055492617 -0.07541745 0.054886527 -0.07150134 0.0022036142 0.064640276
-0.085509166 -0.037793607 -0.034600087 -0.06578315 0.03747491 0.0012410209 -0.07302568 0.030088
-0.0128200725 -0.010926056 0.025708193 0.02777654 -0.04180605 0.009442444 -0.083443336 0.08808956
-0.03814281 -0.0340527 -0.032251358 -0.084703036 0.00543651 -0.057651408 0.04507365 0.003193222
0.009772539 -0.081360675 -0.033010032 -0.016617022 0.04395684 0.023735479 -0.008670315 -0.028785935
0.08578711 -0.04453354 -0.083533324 0.05622842 -0.006106134 -0.043979656 0.03812612 0.07587262
0.032626435 0.032329053 -0.017733075 0.0065172687 -0.046772927 0.035043385 -0.024960414 0.0028768778
0.008959964 0.058629416 -0.077044226 -0.009419233 0.024185397 -0.048156314 0.032960035 -0.092390575
-0.0010106907 0.04342552 -0.065033436 -0.045559037 -0.061019458 0.020623296 0.05535624 -0.08530832
0.073546 -0.00060483813 0.020507015 0.0014013465 -0.035610463 0.031487428 0.052852117 0.0033638105
-0.07854271 -0.041361544 0.016571932 -0.033649497 -0.08022642 -0.066875525 -0.050629873 0.023316907
-0.020892125 -0.07815186 0.05015552 -0.008284725 -0.08194173 0.047624104 0.056498326 0.049707048
00000000: 515a ae3b 1523 1d3d 3ecd 42bd e5a1 cdbd
00000010: bb50 55bd 2961 1d3d 7b89 b5bd 3967 36bd
00000020: 9145 d2bc db90 97bd 7e3a 4e3d e2e4 65bd
00000030: 6502 50bc d292 94bd 3a13 61bd 0661 ebbc
00000040: 8ee8 84bd 1d24 65bd 612d 0abb 7ec5 be3b
00000050: 0003 51bc 5993 00bd fd10 633d 4fcf 003d
00000060: 0a14 f3bc 8788 97bc b397 4dbd 0212 2abd
00000070: 3acd 543d 3ae2 eebd f724 813d 88a5 533d
00000080: 023c 203c a399 413d bdb0 18bd 6a05 823c
00000090: 7702 e6bc 3f38 9dbb c6a4 5a3c 356e 9c3c
000000a0: 3b78 87bd 4663 ec3c 1ab2 a43c 3fdd 9cbd
000000b0: aa9d 6c3d 8456 81bd 4183 c4ba 0dcb 95bd
000000c0: 0b1b c43c d255 9abd 6135 843d d758 b03c
000000d0: 275e 47bd f4e9 773c af43 f4bd a0ac 88bc
000000e0: 1f8f f83c ecaa 093d 40c0 e3bb 02f4 f8bd
000000f0: 9fac 983d c852 c0bd 8626 4bbd bbfe 97bd
00000100: fe22 d0bc 24c0 963b 58ac 683d 4c76 0a3d
00000110: c9bf 8bbb da70 0b3c b30a 303d 3aa7 583d
00000120: 689f fbbd 3e1b fabd 3a33 bebd 947c 87bd
00000130: 1587 473b 93e6 1d3d b055 923d ee12 9ebd
00000140: 8c11 bcbd 024b c43d 0d48 e8bd ef9f b23d
00000150: 1d0a 8c3d 8372 93bd f206 d7bc 95bb ffbd
00000160: 12a5 893d 9d36 df3c 8adb 34bd f527 01bd
00000170: 75aa c9bd 3559 1cbd a80e c8bc c773 8fbc
00000180: 54d4 afbd 3ea5 e1bd f058 90bd 729d 14bd
00000190: 3014 c53c 8407 dfbd b9b5 69bd 7f70 65bd
000001a0: 737b 963c 6aa7 05be d525 15bd 770c 32bd
000001b0: 0463 2ebb 7fce d7bd e054 c6bc 24f0 d1bd
000001c0: 58dd 013d eb3f 933b b385 153c cc05 1bbc
000001d0: 7962 bcbc 64c8 013d 6571 bcbd c19f 5f3d
000001e0: 26e5 b93c d1eb d2bd e548 703d a43b 90bc
000001f0: 85b7 5cbd 879f 383c 3e22 533d c308 a3bc
00000200: 75a0 09bd 28fe 203c 7ef1 93bd 3891 8a3c
00000210: ca61 c5b9 f78e 9cbd 0913 f93c 9e5a 1ebd
00000220: 50fd 94bd ae7f 5a3c 045a a23c c29f afbd
00000230: 8cc9 a3bc 475f f7bc 7c7b a6bd 323c 26bd
00000240: 844c c23c 6e8a 5bbd 0763 943d f5c1 6d3d
00000250: 43b9 c73b 380b edbc 44cf 103d 40cc 823b
00000260: be0c 433d eb86 19bd cc42 3cbd 9976 9abc
00000270: 2b7a 8f3d efc0 b4bd 8959 8e3d a0f8 a63c
00000280: 405d d2bd a22a 183d 3a4c 633d 7774 9abd
00000290: b2d0 603d 4b6f 92bd 836a 103b 1f62 843d
000002a0: 6e1f afbd 78cd 1abd d2b8 0dbd 51b9 86bd
000002b0: 4b7f 193d c0a9 a23a 7d8e 95bd 1c7b f63c
000002c0: 480b 52bc 3303 33bc fd99 d23c a08b e33c
000002d0: d23c 2bbd 7bb4 1a3c 57e4 aabd 4d68 b43d
000002e0: a33b 1cbd d87a 0bbd 001a 04bd c978 adbd
000002f0: c024 b23b e223 6cbd 269f 383d 6045 513b
00000300: 001d 203c 6da0 a6bd 8735 07bd 6c20 88bc
00000310: 160c 343d e870 c23c f00d 0ebc 7bd0 ebbc
00000320: 27b1 af3d cd68 36bd 8513 abbd c64f 663d
00000330: f715 c8bb 0324 34bd 222a 1c3d 1b63 9b3d
00000340: 4ca3 053d 786b 043d f444 91bc d08e d53b
00000350: f894 3fbd a789 0f3d c879 ccbc 008a 3c3b
00000360: d0cc 123c 6625 703d 5dc9 9dbd 2053 1abc
00000370: 7420 c63c 8e3f 45bd 1a01 073d 4537 bdbd
00000380: 2779 84ba f5de 313d 4030 85bd 1d9c 3abd
00000390: 8aef 79bd 30f2 a83c 3abd 623d 21b6 aebd
000003a0: 499f 963d 008e 1eba 54fe a73c 63ad b73a
000003b0: 47dc 11bd f6f8 003d 767b 583d 6073 5c3b
000003c0: 00db a0bd b96a 29bd dcc1 873c 0ed4 09bd
000003d0: c04d a4bd 09f6 88bd 4561 4fbd 1903 bf3c
000003e0: f625 abbc 150e a0bd e06f 4d3d a8bc 07bc
000003f0: 11d1 a7bd 7e11 433d ca6a 673d 9e99 4b3d

fc3.bias f4 [64]
-0.030181881 -0.09268796 -0.062071513 10.328512 10.29175 -0.09529135 10.385625 -0.037619036
10.048747 0.11245446 10.353121 10.412898 10.277716 -0.09935566 -0.060253125 10.343381
10.314639 10.421797 10.278509 10.266707 -0.102511175 -0.100915015 0.077989936 10.288458
10.252951 -0.090836324 10.380333 10.2074795 10.29184 -0.102781475 10.338978 10.231634
10.378533 10.35094 10.402619 10.333324 -0.045489654 -0.08381054 10.306471 10.162305
10.305453 10.33993 10.37598 10.425363 10.299968 10.318383 10.314383 10.372084
10.360518 -0.054893255 10.343602 10.114209 10.308517 10.375651 10.288989 10.203969
10.3483715 10.352274 10.300098 -0.11879881 -0.030327544 10.362595 -0.06617073 10.328515
00000000: fe3f f7bc 2fd3 bdbd b33e 7ebd 9641 2541
00000010: 02ab 2441 1c28 c3bd 852b 2641 6b16 1abd
00000020: abc7 2041 864e e63d 62a6 2541 3b9b 2641
00000030: 8671 2441 fb7a cbbd fbcb 76bd 7d7e 2541
00000040: c308 2541 aebf 2641 c674 2441 6f44 2441
00000050: 61f1 d1bd 88ac cebd 30b9 9f3d 869d 2441
00000060: 160c 2441 6508 babd d815 2641 d651 2341
00000070: 60ab 2441 187f d2bd 746c 2541 c6b4 2341
00000080: 790e 2641 739d 2541 2171 2641 4c55 2541
00000090: 5c53 3abd dca4 abbd 4ee7 2441 cd98 2241
000000a0: 23e3 2441 5a70 2541 0404 2641 49ce 2641
000000b0: abcc 2441 1918 2541 b607 2541 0ef4 2541
000000c0: afc4 2541 c0d7 60bd 657f 2541 cdd3 2141
000000d0: b0ef 2441 ab02 2641 b39f 2441 7543 2341
000000e0: ee92 2541 eaa2 2541 34cd 2441 ca4c f3bd
000000f0: 7871 f8bc 30cd 2541 8584 87bd 9941 2541

fc4.weight f4 [49, 64]
0.14196113 0.114904195 0.069086075 1.981696 2.148521 -0.08700806 2.033206 -0.11625621
1.9591854 -0.15564308 1.5776825 2.029852 2.1570468 -0.11528606 -0.005246058 2.0838096
1.9584621 2.076574 2.0885801 2.1238468 0.07892026 -0.011926025 0.13114257 1.9620944
1.7622283 -0.07090308 2.1423147 2.124133 1.6993924 -0.026327953 2.1341774 2.129797
2.1378515 1.6243434 2.101826 1.7216831 0.068620235 0.072357126 2.101383 1.9385246
1.9522866 1.9306816 1.9857183 1.9611546 2.0457313 2.1211658 1.9395891 2.07717
1.9758056 -0.034408472 1.9052608 2.093648 2.0479898 2.0098925 2.1103446 2.001445
1.9515244 2.0281591 2.1448133 0.044487953 0.0069704354 2.0021863 -0.076591656 2.000255
-0.00054199906 0.0727119 -0.037838653 10.30586 10.252708 -0.002700868 10.364546 -0.049059093
10.175048 0.15157488 10.227703 10.2765665 10.415702 0.07206719 0.07216559 10.470871
10.256071 10.3493805 10.363999 10.359119 0.0032363087 0.049090877 -0.03557213 10.464572
10.230058 0.04579162 10.427143 10.373463 10.093141 -0.117452785 10.46708 10.238521
10.254808 10.174625 10.3991165 10.235174 0.1052403 -0.00148235 10.39055 10.215839
10.445912 10.282781 10.311593 10.45708 10.269339 10.360081 10.323542 10.371023
10.278432 -0.061235324 10.336089 10.36638 10.385145 10.340646 10.414059 10.421742
10.240128 10.338937 10.29048 0.078002915 0.046116024 10.383032 0.046566173 10.229946
0.07001249 -0.06461744 -0.04289183 7.229632 7.2485657 -0.074040145 7.2676625 -0.12136476
6.9984865 -0.055566985 7.084003 7.268173 7.3667064 -0.11218861 0.015483573 7.3305416
7.303028 7.3649964 7.375143 7.2112556 -0.11602424 -0.06438966 0.082357705 7.3578806
7.1540265 0.012110561 7.320524 7.1866536 7.2144747 0.08636543 7.2461147 7.081376
7.3695016 7.0737877 7.263603 7.020344 -0.03686881 0.099462636 7.311971 7.022822
7.4021473 7.2675467 7.1949377 7.4054112 7.350271 7.3084784 7.3851695 7.3296227
7.275934 -0.021110326 7.3016124 7.202547 7.062965 7.4253197 7.2468195 7.2166085
7.349565 7.35746 7.2301393 0.065390855 -0.05473177 7.4023175 0.05501041 7.3378334
0.04124396 -0.033834666 -0.02062501 7.254217 7.4040318 0.0059137037 7.207587 -0.10817219
7.1694493 0.057161663 7.30526 7.343696 7.3671627 -0.08795691 -0.06810443 7.223224
7.2837353 7.4147377 7.3108854 7.3326545 0.08004911 0.080861166 -0.01823661 7.292992
7.4287524 0.013927871 7.218137 7.3653502 7.293361 -0.052688837 7.2963424 7.307569
7.3915467 7.3310447 7.3066034 7.2783604 -0.052849367 0.10718653 7.246429 7.3427887
7.380384 7.317542 7.420503 7.2011003 7.2043824 7.3845377 7.336407 7.4200635
7.278846 0.02373293 7.3324647 7.2856526 7.40098 7.4051404 7.410529 7.332903
7.3132358 7.3165994 7.2085767 -0.046379805 0.07260883 7.3826823 -0.09783274 7.3984437
00000000: 425e 113e e452 eb3d 007d 8d3d 37a8 fd3f
00000010: 5e81 0940 4831 b2bd 0c20 0240 bc17 eebd
00000020: 96c6 fa3f e660 1fbe 80f1 c93f 18e9 0140
00000030: 0e0d 0a40 191b ecbd 20e7 abbb 235d 0540
00000040: e3ae fa3f 97e6 0440 4cab 0540 1bed 0740
00000050: f2a0 a13d 6065 43bc 3d4a 063e e925 fb3f
00000060: b290 e13f a235 91bd af1b 0940 ccf1 0740
00000070: b185 d93f b8ad d7bc 5d96 0840 984e 0840
00000080: 8fd2 0840 7cea cf3f 5184 0640 1d60 dc3f
00000090: c488 8c3d f92f 943d 0f7d 0640 9321 f83f
000000a0: 87e4 f93f 9320 f73f 042c fe3f 1d07 fb3f
000000b0: 43ed 0240 2ec1 0740 7544 f83f 5af0 0440
000000c0: 33e7 fc3f e6ef 0cbd 96df f33f 54fe 0540
000000d0: 4412 0340 14a2 0040 e30f 0740 ad17 0040
000000e0: 8dcb f93f 5ccd 0140 9f44 0940 0039 363d
000000f0: 4068 e43b d223 0040 16dc 9cbd 2e04 0040
00000100: f114 0eba fae9 943d b4fc 1abd cde4 2441
00000110: 180b 2441 0c01 31bb 2ed5 2541 30f2 48bd
00000120: ffcc 2241 7236 1b3e aca4 2341 d16c 2441
00000130: b7a6 2641 f797 933d 8ecb 933d b088 2741
00000140: de18 2441 1097 2541 f1d2 2541 f4be 2541
00000150: 4018 543b 8413 493d 15b4 11bd e36e 2741
00000160: 51ae 2341 fe8f 3b3d 94d5 2641 b4f9 2541
00000170: 817d 2141 168b f0bd 2979 2741 fbd0 2341
00000180: b213 2441 44cb 2241 c862 2641 46c3 2341
00000190: 3a88 d73d 6a4b c2ba b13f 2641 1474 2341
000001a0: 7522 2741 4586 2441 49fc 2441 3350 2741
000001b0: 364f 2441 e4c2 2541 3a2d 2541 b6ef 2541
000001c0: 7574 2441 e4d1 7abd 9f60 2541 b1dc 2541
000001d0: 8e29 2641 4973 2541 fc9f 2641 75bf 2641
000001e0: 90d7 2341 496c 2541 cea5 2441 febf 9f3d
000001f0: 28e4 3c3d e620 2641 2cbc 3e3d dcad 2341
00000200: b562 8f3d 2656 84bd 58af 2fbd 2559 e740
00000210: 40f4 e740 5ca2 97bd b190 e840 168e f8bd
00000220: 9af3 df40 359a 63bd 27b0 e240 e094 e840
00000230: 0fbc eb40 24c3 e5bd d0ae 7d3c cc93 ea40
00000240: 68b2 e940 0dae eb40 2c01 ec40 9bc2 e640
00000250: 1e9e edbd bade 83bd 28ab a83d c273 eb40
00000260: c9ed e440 606b 463c bc41 ea40 11f9 e540
00000270: fadc e640 5ce0 b03d 2ce0 e740 a29a e240
00000280: f5d2 eb40 785c e240 706f e840 a8a6 e040
00000290: c003 17bd 11b3 cb3d abfb e940 f5ba e040
000002a0: 64de ec40 be8f e840 ee3c e640 21f9 ec40
000002b0: 6c35 eb40 0edf e940 4f53 ec40 458c ea40
000002c0: 74d4 e840 90ef acbc cfa6 e940 447b e640
000002d0: cf03 e240 389c ed40 f2e5 e740 75ee e640
000002e0: a32f eb40 5070 eb40 4d5d e740 a4eb 853d
000002f0: 6c2e 60bd c9df ec40 9852 613d 88cf ea40
00000300: 6def 283d 3896 0abd c8f5 a8bc 8c22 e840
00000310: d4ed ec40 bec7 c13b 8da4 e640 6289 ddbd
00000320: 216c e540 5922 6a3d b1c4 e940 8fff ea40
00000330: ccbf eb40 c122 b4bd 567a 8bbd a724 e740
00000340: 5c14 e940 8845 ed40 c6f2 e940 1ba5 ea40
00000350: caf0 a33d 8a9a a53d f164 95bc 3160 e940
00000360: 57b8 ed40 ba31 643c fafa e640 f3b0 eb40
00000370: 3763 e940 40d0 57bd a37b e940 9bd7 e940
00000380: 8d87 ec40 eb97 ea40 b2cf e940 54e8 e840
00000390: 9478 58bd 9d84 db3d bfe2 e740 20f8 ea40
000003a0: 1b2c ec40 4e29 ea40 c374 ed40 6a6f e640
000003b0: 4d8a e640 224e ec40 d9c3 ea40 2971 ed40
000003c0: 4eec e840 906b c23c 8da3 ea40 1124 e940
000003d0: d4d4 ec40 e9f6 ec40 0e23 ed40 24a7 ea40
000003e0: 0706 ea40 9521 ea40 a9ac e640 c0f8 3dbd
000003f0: f0b3 943d ef3e ec40 885c c8bd 0dc0 ec40

fc4.bias f4 [49]
1.3958801 8.920738 7.882252 6.6233954 7.259487 2.9412491 6.7907424 2.945935
8.7947445 4.339702 5.979985 8.284661 3.9201581 -0.10410315 8.777552 6.775257
4.3145804 3.418964 7.7853155 -0.113198504 0.08937542 4.6945 8.760412 9.043293
5.569074 8.033216e-05 -0.084493354 0.054754183 4.787179 4.57298 8.418761 0.07537456
0.018257797 0.009008318 -0.027774796 6.978516 3.5496457 -0.040314287 -0.008362994 -0.021365017
0.024117723 -0.08233599 2.240043 0.09005967 0.026026353 -0.057252914 0.044881478 0.110828474
0.06585348
00000000: 33ac b23f 58bb 0e41 693b fc40 dbf2 d340
00000010: b84d e840 6d3d 3c40 c34d d940 338a 3c40
00000020: 46b7 0c41 d7de 8a40 0a5c bf40 f98d 0441
00000030: dfe3 7a40 0834 d5bd da70 0c41 e8ce d840
00000040: 0b11 8a40 4ed0 5a40 4e21 f940 9ed4 e7bd
00000050: 760a b73d 5839 9640 a62a 0c41 54b1 1041
00000060: db35 b240 0078 a838 da0a adbd ec45 603d
00000070: 9230 9940 da55 9240 3fb3 0641 fa5d 9a3d
00000080: 6091 953c a097 133c f887 e3bc 0150 df40
00000090: 652d 6340 9820 25bd f004 09bc b005 afbc
000000a0: 8892 c53c c69f a8bd dd5c 0f40 3471 b83d
000000b0: 3835 d53c 0882 6abd a4d5 373d 0afa e23d
000000c0: 30de 863d
