trike2/models/trainied against random/DQN_Agent_2000ep.pt/DQN_Agent.pt (torch, 333080 bytes, 8 tensors)

fc1.weight f4 [256, 148]
0	0x41a28e45	20.319468
1	0x41b68867	22.816603
2	0x41b10675	22.128153
3	0x41c251b3	24.289892
4	0x41aba6aa	21.456379
5	0x41a74a6a	20.911335
6	0x41adcbbe	21.724483
7	0x41b065ae	22.049648
8	0x41c10c3e	24.130978
9	0x41b5925b	22.696463
10	0x41b5a89c	22.707329
11	0x41bbfeef	23.49948
12	0x41b5fca7	22.748365
13	0x3d612f1a	0.05497656
14	0x41b84b3f	23.036741
15	0x41aeb805	21.839853
16	0x41bbfa80	23.497314
17	0x41b90e8f	23.132109
18	0x41b12791	22.14432
19	0xbd0ddd69	-0.03463498
20	0x3d8baf0f	0.06820499
21	0x41bb7936	23.434185
22	0x41b3d9e9	22.481401
23	0x41a2e118	20.35991
24	0x41b47d8e	22.561306
25	0x3d62a3ca	0.055331983
26	0x3b839650	0.0040157214
27	0x3da5cec7	0.0809608
28	0x41b5c942	22.72327
29	0x41b5c515	22.721231
30	0x41c7209a	24.890919
31	0xbd2af497	-0.041737165
32	0x3d18410c	0.03717141
33	0x3cf967e0	0.03044504
34	0xbc9bc51c	-0.019014888
35	0x41ac1c66	21.513866
36	0x41a80be6	21.00581
37	0xbd05ddfa	-0.032682396
38	0x3d932f63	0.07186773
39	0x3d082e62	0.03324736
40	0x3d3e8da2	0.04652179
41	0x3d43d192	0.047807284
42	0x41ac6162	21.54755
43	0x3c9aa184	0.018875845
44	0x3d91962f	0.07108723
45	0xbc4b7ed8	-0.012420379
46	0xbd321dc1	-0.043485407
47	0x3d88d7e9	0.066818066
48	0x3da257ef	0.07926928
49	0x41a8ebfb	21.115225
50	0x41b5ef9a	22.741993
51	0x41a98287	21.188734
52	0x41bde554	23.736977
53	0x41a8e8b8	21.113632
54	0x41ab7852	21.43375
55	0x41a39e6a	20.45235
56	0x41b31259	22.383959
57	0x41bdb0db	23.711355
58	0x41b99c95	23.201456
59	0x41bff698	23.995407
60	0x41b5af4d	22.710596
61	0x41b0de99	22.10869
62	0x3a952a80	0.0011380464
63	0x41b0e129	22.109941
64	0x41ad23ec	21.64254
65	0x41ab2522	21.393131
66	0x41a4fc71	20.623262
67	0x41b1e4c4	22.236702
68	0x3c96ae90	0.018393785
69	0x3d66bc6a	0.05633203
70	0x41b2d576	22.354229
71	0x41a640f2	20.781712
72	0x41b7c0a3	22.96906
73	0x41b63965	22.778025
74	0xbd7992e6	-0.06093111
75	0x3d29f346	0.04149177
76	0xbc9a39ac	-0.018826328
77	0x41befc2f	23.873137
78	0x41b5e1f6	22.735332
79	0x41bea065	23.828318
80	0x3d3c38da	0.045952655
81	0xbd368d2a	-0.04456822
82	0x3da5cacb	0.0809532
83	0xbd06b01c	-0.032882795
84	0x41991196	19.133587
85	0x41ad8868	21.691605
86	0x3cb86260	0.022507846
87	0xbd44fcc8	-0.048092633
88	0x3d738d3a	0.059460856
89	0xbd541778	-0.051780194
90	0xbd9125ea	-0.0708731
91	0x41a53604	20.651375
92	0xbd638648	-0.055547982
93	0xbc23df20	-0.010001928
94	0xbd8dd8d8	-0.06926125
95	0x3d33c226	0.043886326
96	0xbd86f393	-0.06589427
97	0xbc891a44	-0.016736157
98	0x419507ae	18.62875
99	0x419279e3	18.309515
100	0x419becfd	19.490717
101	0x419d5620	19.667053
102	0x41a3a164	20.453804
103	0x4197ff56	18.999676
104	0x418e550e	17.79153
105	0x417afa27	15.686072
106	0x419e66d6	19.800213
107	0x419c12c0	19.509155
108	0x419fabad	19.958826
109	0x41b18b1e	22.192928
110	0x419f7901	19.934084
111	0xbd2efc7e	-0.042721264
112	0x419a75d5	19.307535
113	0x4154a5e4	13.290501
114	0x41a9aba5	21.20881
115	0x41a3c2f5	20.470194
116	0x4190073b	18.00353
117	0xbda341a1	-0.07971502
118	0xbcc8e2dc	-0.024522237
119	0x4199993a	19.199818
120	0x41acc34d	21.595362
121	0x4188e5b2	17.112156
122	0x41a7b0e9	20.961382
123	0x3d3083ee	0.043094568
124	0xbd4952ac	-0.049151108
125	0xbc6cf150	-0.01446183
126	0x419e5cc4	19.795296
127	0x41a0e1d8	20.110275
128	0x419d268a	19.643818
129	0xbd774606	-0.060369514
130	0x3d42976e	0.047507696
131	0xbd4b6450	-0.049656212
132	0x3ce99e74	0.02851794
133	0x417cf5ed	15.81004
134	0x41893370	17.150116
135	0xbd33ff1d	-0.043944467
136	0x3d524116	0.051331602
137	0xbcc702b6	-0.024293285
138	0x3d8f1d97	0.06988066
139	0x39f7a300	0.00047232956
140	0x418ee874	17.863503
141	0x3d624f26	0.055251263
142	0xbce6d726	-0.028178763
143	0x3d93d361	0.07218052
144	0x3ca10b88	0.019658819
145	0xbd4c44aa	-0.04987017
146	0x3d9944ad	0.07483802
147	0xbd74bd31	-0.05975074
148	0x41a48b1f	20.56793
149	0x41b614ee	22.76022
150	0x41af0643	21.878057
151	0x41c2494b	24.285788
152	0x41acb6ef	21.589323
153	0x41a5beda	20.71819
154	0x41ade66f	21.737516
155	0x41b0a809	22.082048
156	0x41c066f7	24.050276
157	0x41b6959d	22.823053
158	0x41b3afdf	22.460875
159	0x41bb1baa	23.388508
160	0x41b60092	22.750278
161	0x3d7290a2	0.059219964
162	0x41b83f57	23.030928
163	0x41ace883	21.613531
164	0x41b9d34c	23.228172
165	0x41b747e5	22.910105
166	0x41b0b7b1	22.089693
167	0xbd566825	-0.052345414
168	0x3d35917a	0.04432819
169	0x41babd69	23.342485
170	0x41b5f3d1	22.744051
171	0x41a1a17b	20.203848
172	0x41b39e0d	22.452173
173	0x3d8277df	0.0637052
174	0xbd3ab448	-0.045582086
175	0x3c4d73d8	0.012539826
176	0x41b2c4e2	22.346134
177	0x41b4fd3d	22.623652
178	0x41c5ca59	24.723803
179	0x3d93e95d	0.07222245
180	0xbd49d80d	-0.049278308
181	0xbc28ba78	-0.010298364
182	0x3d40a252	0.0470298
183	0x41acb111	21.586458
184	0x41a6c16f	20.84445
185	0xbd9f0161	-0.07763935
186	0x3ba21a40	0.004946977
187	0x3d9c6e11	0.07638181
188	0x3d6c4b3e	0.057688944
189	0xbd8070f4	-0.06271544
190	0x41acc78a	21.597431
191	0xbca04f78	-0.019569144
192	0x3caeca5c	0.021336727
193	0xbd65d88b	-0.056114715
194	0xbda21c42	-0.07915546
195	0xbd69c86c	-0.057075903
196	0xbd8f6d27	-0.07003241
197	0x41a9ab00	21.208496
198	0x41b66ee3	22.804144
199	0x41aa76f5	21.308084
200	0x41be0f90	23.757599
201	0x41a885d9	21.065355
202	0x41aa5a1c	21.293999
203	0x41a268f3	20.301245
204	0x41b0dc0a	22.10744
205	0x41bb0389	23.376726
206	0x41b754a9	22.916338
207	0x41bed8fe	23.855953
208	0x41b56f89	22.67946
209	0x41b0ed3c	22.115837
210	0xbcff71d4	-0.031182207
211	0x41b02ed4	22.022865
212	0x41adaffa	21.710926
213	0x41ac9dce	21.577053
214	0x41a1fb22	20.247623
215	0x41b0f559	22.119799
216	0xbc5012c0	-0.012699783
217	0xbd6bbca3	-0.057552945
218	0x41b2dab4	22.356789
219	0x41a41b06	20.513195
220	0x41b7666b	22.925009
221	0x41b6826a	22.813679
222	0x3cbdaf64	0.023154922
223	0xbd5ca158	-0.053864807
224	0x3c9c0d88	0.019049421
225	0x41be74a9	23.806963
226	0x41b4869c	22.565727
227	0x41bd6409	23.673845
228	0x3d99dd4d	0.07512913
229	0xbd6e6810	-0.05820471
230	0xbda81e3f	-0.08208894
231	0xbc3bfb40	-0.011473477
232	0x4199fd1f	19.248594
233	0x41af2c6c	21.89669
234	0x3d7ba8ae	0.061440162
235	0xbb37ede0	-0.0028065369
236	0x3cc879e0	0.024472177
237	0x3c8f4ca0	0.017492592
238	0x3d9837ed	0.07432542
239	0x41a48e51	20.56949
240	0x3c74b6c8	0.014936157
241	0x3da3a6d5	0.07990805
242	0x3d857db1	0.06518114
243	0x3d928a05	0.071552314
244	0xbc549d78	-0.012976997
245	0xbcebc8b0	-0.028782219
246	0x41969d8e	18.826931
247	0x418f1ae2	17.888126
248	0x419bf23b	19.493277
249	0x419d7a30	19.684662
250	0x41a36006	20.421886
251	0x4196c717	18.847212
252	0x419028d6	18.01994
253	0x417cf918	15.810814
254	0x419e6a0d	19.801783
255	0x419acc08	19.349625

fc1.bias f4 [256]
0	0x419f0c19	19.880907
1	0x41a03d82	20.030033
2	0x419fff92	19.99979
3	0x41a06a0b	20.051779
4	0x41a0454a	20.033833
5	0x41a01970	20.01242
6	0x41a0545e	20.041195
7	0x419fe6bd	19.987665
8	0x41a094ca	20.07265
9	0x41a083ce	20.064358
10	0x41a03f2a	20.030842
11	0x41a038cf	20.027739
12	0x419f91b8	19.946152
13	0x41a0491f	20.035704
14	0x41a09519	20.072802
15	0x419faf29	19.960527
16	0x419fe23f	19.985472
17	0x41a054f1	20.041475
18	0x419f32b4	19.899757
19	0x419eb7e4	19.83979
20	0x41a006b0	20.003265
21	0x419fd028	19.976639
22	0x41a098be	20.074581
23	0x419fe163	19.985052
24	0x419f37e6	19.902294
25	0x41a05a53	20.044104
26	0xc0164ad6	-2.3483176
27	0x419ff500	19.994629
28	0x419fdb02	19.981937
29	0x41a019f4	20.012672
30	0x41a01f1b	20.015188
31	0x41a0ad57	20.084639
32	0x419fa82f	19.95712
33	0x41a07cac	20.060875
34	0x41a07d5c	20.06121
35	0x41a0795d	20.05926
36	0x41a034ed	20.025843
37	0x41a03b14	20.028847
38	0x41a053f8	20.041
39	0x419f157e	19.885494
40	0x41a04b9f	20.036924
41	0x41a052d9	20.040453
42	0x41a05f1d	20.046442
43	0x419f9e63	19.952337
44	0x419fd87b	19.980703
45	0xc00b71b1	-2.1788142
46	0x419fd40e	19.978542
47	0x41a0a1af	20.078947
48	0x41a0572b	20.042562
49	0x41a07f99	20.062304
50	0x41a07844	20.058723
51	0x41a045eb	20.03414
52	0x41a02f69	20.02315
53	0x41a03461	20.025576
54	0x419ef5b4	19.869972
55	0x419ff488	19.9944
56	0x419f9aba	19.95055
57	0x41a06e4f	20.053862
58	0x41a07d48	20.061172
59	0x419f9baa	19.951008
60	0x419ee91d	19.863825
61	0x41a05ac7	20.044325
62	0x419fd561	19.979189
63	0x419fd413	19.978552
64	0x419fdfaf	19.98422
65	0x419f878f	19.94119
66	0x41a01071	20.008028
67	0x419fdfbf	19.984251
68	0x419ff799	19.995897
69	0x41a01640	20.010864
70	0x419eaa0f	19.833036
71	0x41a065d1	20.049715
72	0x419f4772	19.909885
73	0x419fb07c	19.961174
74	0x41a025bc	20.018425
75	0x41a04f76	20.0388
76	0x41a04c95	20.037394
77	0x41a07012	20.054722
78	0x41a00236	20.00108
79	0x41a01aa2	20.013004
80	0x41a029f8	20.020493
81	0x41a02c57	20.02165
82	0x419fe7e9	19.988237
83	0x41a07248	20.055801
84	0x41a08e52	20.069492
85	0x41a0552f	20.041594
86	0x419fe87f	19.988523
87	0x419e4081	19.781496
88	0x41a0290e	20.020046
89	0x419f1eba	19.890003
90	0x419f9549	19.947893
91	0x41a07e0d	20.061548
92	0x41a01e14	20.014687
93	0x41a00d46	20.006481
94	0x41a077d5	20.058512
95	0x41a03c52	20.029453
96	0x419fda40	19.981567
97	0x41a05cad	20.045252
98	0x41a040fe	20.031734
99	0xc01772f1	-2.3663905
100	0x41a01a71	20.01291
101	0x419fe68f	19.987577
102	0x41a00e9e	20.007137
103	0x41a05b69	20.044634
104	0x41a075db	20.057547
105	0x41a04352	20.032871
106	0x41a045c8	20.034073
107	0x41a06df7	20.053694
108	0x419e8633	19.815527
109	0x419f0cf5	19.881327
110	0xc0155312	-2.3331952
111	0x41a01ad3	20.013098
112	0x419ffdbd	19.998896
113	0x419f4f42	19.9137
114	0x41a080a3	20.06281
115	0x41a00213	20.001013
116	0x419fe91f	19.988829
117	0x41a02010	20.015656
118	0x419f6c88	19.927994
119	0x41a00ab7	20.005232
120	0x419f5c8e	19.920193
121	0x419eca80	19.848877
122	0x419fc9e5	19.973581
123	0x41a07e99	20.061815
124	0x41a09cc1	20.07654
125	0x419fc474	19.970924
126	0x419f5271	19.915255
127	0x41a065b3	20.049658
128	0x41a08254	20.063637
129	0x41a00e09	20.006853
130	0x419fed73	19.990942
131	0x41a014b9	20.010118
132	0x41a0540f	20.041044
133	0x419fba29	19.965899
134	0x41a004e9	20.002398
135	0x419f4e63	19.913275
136	0x419f92b9	19.946642
137	0x41a00709	20.003435
138	0x41a0847a	20.064686
139	0x41a005c2	20.002811
140	0x41a0a4fc	20.080559
141	0x41a06c3f	20.052855
142	0xc01a2d1e	-2.4090037
143	0x419fdf5b	19.98406
144	0x419f56ea	19.917439
145	0x41a02903	20.020025
146	0x419fae1d	19.960016
147	0x41a08ee3	20.069769
148	0x41a01e1a	20.014698
149	0x41a0940d	20.07229
150	0x419f36d9	19.901781
151	0x41a01425	20.009836
152	0x419ffb87	19.997816
153	0x419ef19c	19.867973
154	0x41a028bc	20.01989
155	0x419ef4a8	19.869461
156	0x419eb869	19.840044
157	0x419ff5f3	19.995092
158	0x41a0385d	20.027521
159	0xc0153387	-2.33127
160	0x41a09d8c	20.076927
161	0x41a049e9	20.036089
162	0x41a00421	20.002016
163	0x41a072ab	20.05599
164	0x419f747f	19.931883
165	0x41a06e27	20.053785
166	0x419f8179	19.93822
167	0x41a02012	20.01566
168	0x419fcf90	19.976349
169	0x41a0544b	20.041159
170	0x41a02159	20.016283
171	0x419fe6bc	19.987663
172	0x419fa1da	19.95403
173	0x419fa470	19.955292
174	0x41a0882d	20.066492
175	0x419f43cd	19.908106
176	0x419fe927	19.988844
177	0x41a05d01	20.045412
178	0x419fede5	19.99116
179	0x419ffc92	19.998325
180	0x41a03f2a	20.030842
181	0x41a01e9e	20.01495
182	0x419fcfd5	19.97648
183	0xc018f551	-2.389973
184	0x41a06deb	20.05367
185	0x419fe197	19.985151
186	0xc0172cda	-2.3621125
187	0x419fef35	19.9918
188	0x419fbb7e	19.966549
189	0x419fda9c	19.981743
190	0x419ef301	19.868654
191	0x41a0a744	20.081673
192	0x41a01c80	20.013916
193	0x419fcf0a	19.976093
194	0x41a065e2	20.049747
195	0x419fac9d	19.959284
196	0x419f35d0	19.901276
197	0x41a096a5	20.073557
198	0x41a00f56	20.007488
199	0x419f6d13	19.928259
200	0x419f2ec1	19.89783
201	0x41a04474	20.033424
202	0x41a0227e	20.016842
203	0x419f5056	19.914227
204	0x419fdf13	19.983923
205	0x419feb35	19.989847
206	0x41a0226c	20.016808
207	0x41a04a75	20.036356
208	0x419f67d6	19.925701
209	0x41a054ae	20.041348
210	0x41a08667	20.065626
211	0x41a03d2a	20.029865
212	0x41a0734f	20.056303
213	0xc016de83	-2.357331
214	0x419f071a	19.878468
215	0x41a05710	20.042511
216	0x41a01e16	20.01469
217	0x419f85cb	19.940329
218	0x41a07581	20.057375
219	0x419e8a82	19.81763
220	0x41a0351d	20.025934
221	0x419f8fd9	19.945238
222	0x419fd76e	19.98019
223	0x41a00043	20.000128
224	0xc0179230	-2.3682976
225	0x419ffb4a	19.9977
226	0xc01602a0	-2.3439102
227	0x41a01c27	20.013746
228	0x41a00df3	20.006811
229	0x41a01655	20.010904
230	0x419fc68c	19.971947
231	0x41a04561	20.033876
232	0x419fb153	19.961584
233	0x41a02ab3	20.02085
234	0x419fe64e	19.987453
235	0x41a03126	20.023998
236	0x419f7371	19.931368
237	0x419f9738	19.948837
238	0x41a0862f	20.06552
239	0x41a0a1e4	20.079048
240	0x41a03c4e	20.029446
241	0x419fd0f3	19.977026
242	0x41a01648	20.01088
243	0x41a05d1d	20.045465
244	0x419f2a3f	19.895628
245	0x41a04c15	20.03715
246	0x41a0955f	20.072935
247	0x41a05cb0	20.045258
248	0x419fe792	19.988071
249	0x41a01ea6	20.014965
250	0x41a04534	20.03379
251	0x41a07d4e	20.061184
252	0x41a06147	20.047499
253	0x41a010db	20.00823
254	0x41a00276	20.001202
255	0x419fac2f	19.959074

fc2.weight f4 [128, 256]
0	0x41d1719a	26.18047
1	0x41d3aa66	26.458202
2	0x41d305f7	26.377913
3	0x41d3dc3a	26.482533
4	0x41d51687	26.636
5	0x41d35079	26.414293
6	0x41d3c15a	26.46941
7	0x41d3d417	26.47856
8	0x41d4b202	26.586918
9	0x41d401f9	26.500963
10	0x41d4bc35	26.591898
11	0x41d427b7	26.519392
12	0x41d4089f	26.50421
13	0x41d3af9f	26.460752
14	0x41d35fa2	26.421696
15	0x41d3049c	26.37725
16	0x41d2de65	26.358591
17	0x41d4352b	26.52596
18	0x41d2dc68	26.35762
19	0x41d34934	26.410744
20	0x41d429ad	26.52035
21	0x41d3a41f	26.455137
22	0x41d482a7	26.563795
23	0x41d21d65	26.264353
24	0x41d440a3	26.53156
25	0x41d46d30	26.553314
26	0xc0ea9e99	-7.33186
27	0x41d47fad	26.562342
28	0x41d4012b	26.50057
29	0x41d3bf15	26.468302
30	0x41d33fe8	26.406204
31	0x41d3c58c	26.471458
32	0x41d421ff	26.5166
33	0x41d48537	26.565046
34	0x41d483e3	26.564398
35	0x41d4983c	26.574333
36	0x41d5553a	26.666615
37	0x41d35843	26.418097
38	0x41d38350	26.439117
39	0x41d34419	26.40825
40	0x41d4f236	26.618267
41	0x41d2e433	26.361425
42	0x41d395bc	26.448112
43	0x41d2eb37	26.364851
44	0x41d44f0b	26.538595
45	0xc0b6b159	-5.709149
46	0x41d312be	26.384151
47	0x41d3dd42	26.483036
48	0x41d392db	26.446707
49	0x41d3bdb6	26.467632
50	0x41d40d0c	26.50637
51	0x41d35c91	26.420198
52	0x41d3c53f	26.471312
53	0x41d2c470	26.345917
54	0x41d2c973	26.348364
55	0x41d1ec20	26.240295
56	0x41d43bce	26.529202
57	0x41d48e9a	26.56963
58	0x41d3d2cc	26.477928
59	0x41d45e2a	26.545979
60	0x41d3c400	26.470703
61	0x41d4d4af	26.60385
62	0x41d2542a	26.291096
63	0x41d3b487	26.463148
64	0x41d45abc	26.544304
65	0x41d30462	26.37714
66	0x41d51373	26.634497
67	0x41d3d996	26.481243
68	0x41d39734	26.44883
69	0x41d437e0	26.527283
70	0x41d2e4b4	26.361671
71	0x41d4242c	26.517662
72	0x41d361d4	26.422768
73	0x41d3b4e8	26.463333
74	0x41d44112	26.531773
75	0x41d47018	26.554733
76	0x41d36980	26.426514
77	0x41d3a051	26.45328
78	0x41d3e053	26.484533
79	0x41d3bfed	26.468714
80	0x41d3a1d8	26.454025
81	0x41d3f963	26.49677
82	0x41d482ad	26.563807
83	0x41d419bb	26.512564
84	0x41d393ff	26.447264
85	0x41d3f69b	26.495413
86	0x41d3f702	26.49561
87	0x41d32cb3	26.396826
88	0x41d47a1b	26.559622
89	0x41d3dfd5	26.484293
90	0x41d307ba	26.378773
91	0x41d4127f	26.509031
92	0x41d45f45	26.546518
93	0x41d35ac6	26.419323
94	0x41d3b992	26.46561
95	0x41d43e2b	26.530355
96	0x41d36a0a	26.426777
97	0x41d3f0fc	26.492668
98	0x41d45122	26.539616
99	0xc0e8fddf	-7.28099
100	0x41d32245	26.391733
101	0x41d40110	26.500519
102	0x41d4b139	26.586535
103	0x41d56073	26.672094
104	0x41d4c666	26.596874
105	0x41d44f52	26.53873
106	0x41d2d519	26.354052
107	0x41d391f2	26.446262
108	0x41d2c4fc	26.346184
109	0x41d2a359	26.32976
110	0xc0eb778b	-7.3583426
111	0x41d4480a	26.535175
112	0x41d3595c	26.418633
113	0x41d48a83	26.567633
114	0x41d363e9	26.423784
115	0x41d3a4c4	26.455452
116	0x41d2b3e5	26.33784
117	0x41d2eba5	26.36506
118	0x41d3774e	26.433254
119	0x41d3fb5c	26.497734
120	0x41d31d87	26.389418
121	0x41d1ff76	26.249737
122	0x41d38ee3	26.444769
123	0x41d437ef	26.527311
124	0x41d49b86	26.57594
125	0x41d3e107	26.484877
126	0x41d421c3	26.516485
127	0x41d43db8	26.530136
128	0x41d2f27d	26.368402
129	0x41d390d0	26.44571
130	0x41d4a869	26.582232
131	0x41d424fd	26.51806
132	0x41d4347b	26.525625
133	0x41d4101f	26.507872
134	0x41d4068a	26.503193
135	0x41d303ac	26.376793
136	0x41d3d12c	26.477135
137	0x41d34adc	26.411552
138	0x41d3c644	26.47181
139	0x41d2ecc2	26.365604
140	0x41d458fc	26.54345
141	0x41d38457	26.43962
142	0xc0edc479	-7.4302335
143	0x41d398f2	26.44968
144	0x41d332b3	26.399755
145	0x41d4965c	26.573418
146	0x41d46882	26.55103
147	0x41d45862	26.543156
148	0x41d58bfa	26.693348
149	0x41d54220	26.657288
150	0x41d40469	26.502153
151	0x41d4fcb3	26.623388
152	0x41d429de	26.520443
153	0x41d35083	26.414312
154	0x41d46c06	26.552746
155	0x41d2c34b	26.345358
156	0x41d337b6	26.402203
157	0x41d3dbf8	26.482407
158	0x41d41972	26.512424
159	0xc0ec4bdb	-7.3842597
160	0x41d33705	26.401865
161	0x41d26f8b	26.304464
162	0x41d45716	26.542522
163	0x41d3e62a	26.487385
164	0x41d2ecb6	26.365582
165	0x41d40513	26.502478
166	0x41d3b156	26.46159
167	0x41d41383	26.509527
168	0x41d4d9d4	26.606361
169	0x41d330b9	26.39879
170	0x41d3584b	26.418112
171	0x41d2c44c	26.345848
172	0x41d2d565	26.354197
173	0x41d4439f	26.533018
174	0x41d46f18	26.554245
175	0x41d1db8e	26.232204
176	0x41d382ec	26.438927
177	0x41d3ef02	26.491703
178	0x41d3d995	26.481241
179	0x41d3bba6	26.466625
180	0x41d43909	26.52785
181	0x41d4ab46	26.58363
182	0x41d45646	26.542126
183	0xc0ea3acf	-7.319679
184	0x41d49bbb	26.57604
185	0x41d38051	26.437654
186	0xc0ea31f9	-7.3186
187	0x41d46bff	26.552732
188	0x41d2f27a	26.368397
189	0x41d2dc48	26.35756
190	0x41d32cca	26.39687
191	0x41d4d7a3	26.605291
192	0x41d3bd6c	26.467491
193	0x41d362f9	26.423326
194	0x41d4d9d0	26.606354
195	0x41d46243	26.54798
196	0x41d1c7fe	26.222652
197	0x41d38a19	26.44243
198	0x41d3be38	26.46788
199	0x41d2fae5	26.372507
200	0x41d3f6e3	26.49555
201	0x41d2d634	26.354591
202	0x41d3eeb7	26.49156
203	0x41d3ae79	26.460192
204	0x41d3f1fb	26.493155
205	0x41d2d216	26.352581
206	0x41d41007	26.507826
207	0x41d48c1a	26.568409
208	0x41d394be	26.447628
209	0x41d3b7ea	26.464802
210	0x41d3743f	26.43176
211	0x41d318e0	26.387146
212	0x41d3f81a	26.496143
213	0xc0ed277a	-7.411069
214	0x41d2e8b6	26.363628
215	0x41d3fab4	26.497414
216	0x41d4053d	26.502558
217	0x41d381ec	26.438438
218	0x41d4192c	26.512291
219	0x41d16d36	26.178326
220	0x41d387fb	26.441397
221	0x41d25867	26.293165
222	0x41d457f9	26.542955
223	0x41d3d247	26.477674
224	0xc0e8e4da	-7.277936
225	0x41d417be	26.511593
226	0xc0eeeaa5	-7.466143
227	0x41d3c26c	26.469933
228	0x41d3ac2c	26.459068
229	0x41d2637f	26.298582
230	0x41d3962d	26.448328
231	0x41d3affc	26.46093
232	0x41d40ed1	26.507235
233	0x41d2837d	26.314203
234	0x41d29800	26.324219
235	0x41d395df	26.44818
236	0x41d3834f	26.439116
237	0x41d25452	26.291172
238	0x41d38071	26.437716
239	0x41d39ff7	26.453108
240	0x41d2e35f	26.361021
241	0x41d2b20b	26.336935
242	0x41d333ba	26.400257
243	0x41d4b395	26.587687
244	0x41d380e1	26.43793
245	0x41d2e152	26.36002
246	0x41d45934	26.543556
247	0x41d4989e	26.57452
248	0x41d21f3f	26.265257
249	0x41d3c34e	26.470364
250	0x41d3ee6c	26.491417
251	0x41d3cdfc	26.475578
252	0x41d3ec9e	26.490536
253	0x41d4c1b2	26.594578
254	0x41d3bf10	26.468292
255	0x41d45617	26.542036

fc2.bias f4 [128]
0	0x41ccf536	25.619732
1	0x41cd913a	25.695911
2	0x41cd6289	25.673113
3	0xbd6d7a53	-0.057977986
4	0x41cd868a	25.690693
5	0x41cd43dd	25.658136
6	0x41cdcb87	25.724379
7	0x41cd775b	25.683279
8	0x41cd1b44	25.638313
9	0x41cc5e4d	25.546045
10	0x41cdaa5d	25.708185
11	0x41ccd84e	25.605618
12	0x41cd59b4	25.6688
13	0x41cd86ed	25.690882
14	0xbd72d6af	-0.05928677
15	0x41cd2150	25.641266
16	0x41cd5721	25.667543
17	0x41cdaed0	25.710358
18	0x41ce188e	25.76199
19	0x41cd8dca	25.694233
20	0x41cdad48	25.70961
21	0x41cdd7dd	25.730402
22	0x41cd2242	25.641727
23	0x41ce0074	25.750221
24	0x41cd50b8	25.664413
25	0x41ccd1f0	25.602509
26	0x41ce1606	25.760754
27	0x41cd9467	25.697462
28	0x41ccc21a	25.594776
29	0x41cdaeb4	25.710304
30	0x41cdc3ad	25.720545
31	0x41cdcfea	25.72652
32	0x41cd568a	25.667255
33	0x41cc95f7	25.573225
34	0x41cddf87	25.734144
35	0xbda4f719	-0.08054943
36	0x41cd6b3c	25.67736
37	0x41cd71e3	25.680609
38	0x41cddc19	25.73247
39	0x41cdf0b7	25.742537
40	0x41cde6dd	25.737726
41	0x41cda5e0	25.705994
42	0x41cda5b5	25.705912
43	0x41cd55ae	25.666836
44	0xbbcb7856	-0.0062094135
45	0x41cd6863	25.67597
46	0x41cd0ba3	25.630682
47	0x41cd608f	25.672148
48	0x41cd6660	25.674988
49	0x3b025e61	0.001989268
50	0x41cd7624	25.682686
51	0x41cc4f54	25.538734
52	0x41ce094e	25.754543
53	0x41cdd6fa	25.729969
54	0x41cd867c	25.690666
55	0x41cdc06e	25.71896
56	0x41cc6df5	25.55369
57	0x41cd520f	25.665068
58	0x41cca3ea	25.580036
59	0x41cd3ac0	25.653687
60	0x3c6de121	0.014519007
61	0x41cd5d30	25.670502
62	0x41cda0cc	25.703514
63	0x41ce18f2	25.76218
64	0x41cded00	25.740723
65	0x41cd8c11	25.693392
66	0x41ccd805	25.605478
67	0xbbd192c1	-0.0063956683
68	0x41cd82ad	25.688807
69	0x41cce6f9	25.61278
70	0x41cd28a0	25.644836
71	0x41cde71e	25.73785
72	0x41cdd4cc	25.728905
73	0x41cdaca6	25.709301
74	0x41cdd7eb	25.730429
75	0x41cd25b4	25.64341
76	0x41cd9b86	25.70094
77	0x41cdb69e	25.714169
78	0x41ccdf9f	25.60919
79	0xbcacf796	-0.021114152
80	0x41cd74e1	25.68207
81	0x41cda337	25.704695
82	0x41cd7ae6	25.685009
83	0x41cdac4d	25.709131
84	0x41cdb2dd	25.712336
85	0x41ccb92b	25.590414
86	0x41cdc50a	25.72121
87	0x41cda16b	25.703817
88	0x41cd955b	25.697927
89	0x41cdce4e	25.725735
90	0x41cd8d65	25.69404
91	0x41cd3f64	25.655952
92	0x41cddd91	25.733187
93	0x41cd7c70	25.68576
94	0xbdc4fd1c	-0.09618589
95	0x41cdeb84	25.739998
96	0x41cd30fa	25.648914
97	0x41cd120c	25.633812
98	0x41ce2287	25.76686
99	0x41cdaace	25.7084
100	0x41cdb397	25.71269
101	0x41ccd2bd	25.6029
102	0x41cd2b6c	25.646202
103	0x41cd71de	25.6806
104	0x41cd5428	25.666092
105	0x41cdc5f1	25.721651
106	0x41cdf35e	25.743832
107	0xbd41c855	-0.047310192
108	0x3c55676b	0.013025145
109	0x41cdb590	25.713654
110	0x41cd6916	25.676311
111	0x41ce022e	25.751064
112	0x41cd7f5d	25.68719
113	0x41cdec7a	25.740467
114	0x41ce0bd9	25.755785
115	0x41cd25ce	25.64346
116	0x41cd4456	25.658367
117	0x41cd8c16	25.693401
118	0x41cca43c	25.580193
119	0x41cdd9fc	25.731438
120	0x41cd7c34	25.685646
121	0x41ccdb6b	25.607138
122	0x41cd90ab	25.695639
123	0x41cd4391	25.657991
124	0x41cda6d1	25.706453
125	0xbc4a5a8b	-0.012350689
126	0x41cdd4e4	25.72895
127	0x41cd5eec	25.671349

fc3.weight f4 [64, 128]
0	0x41b37185	22.43043
1	0x41b1ed7d	22.240961
2	0x41b3614f	22.422514
3	0xbd57384e	-0.05254393
4	0x41b35a7d	22.419184
5	0x41b29064	22.320503
6	0x41b41aa8	22.513016
7	0x41b28c39	22.318468
8	0x41b38677	22.440657
9	0x41b1e03f	22.234495
10	0x41b2db77	22.35716
11	0x41b1b472	22.213108
12	0x41b331a7	22.399244
13	0x41b34ed8	22.413498
14	0xbd2b648d	-0.04184394
15	0x41b3b675	22.46409
16	0x41b2ec09	22.365252
17	0x41b3c6c6	22.472057
18	0x41b342f6	22.407696
19	0x41b2a346	22.329723
20	0x41b25631	22.292086
21	0x41b28c0c	22.318382
22	0x41b266e3	22.300238
23	0x41b284d5	22.31486
24	0x41b330ed	22.39889
25	0x41b3c434	22.470802
26	0x41b34d1e	22.412655
27	0x41b3738c	22.43142
28	0x41b28e17	22.31938
29	0x41b25008	22.289078
30	0x41b2a147	22.328749
31	0x41b3f5d1	22.495028
32	0x41b30215	22.376017
33	0x41b2e9ed	22.364222
34	0x41b3118a	22.383564
35	0x3dc77912	0.09739889
36	0x41b27bee	22.310513
37	0x41b38714	22.440956
38	0x41b3bd2f	22.467375
39	0x41b29f73	22.327856
40	0x41b2d2c7	22.352919
41	0x41b31f09	22.390154
42	0x41b2e652	22.362461
43	0x41b3ddc8	22.483292
44	0x3db23598	0.087016284
45	0x41b376d6	22.433025
46	0x41b35398	22.415817
47	0x41b39aa8	22.450516
48	0x41b2f7c4	22.37098
49	0x3d381ee6	0.044951342
50	0x41b2c6a8	22.347
51	0x41b240c4	22.281624
52	0x41b3d88d	22.480738
53	0x41b32f78	22.398178
54	0x41b3f902	22.496586
55	0x41b346b5	22.409525
56	0x41b3dba9	22.482256
57	0x41b3389e	22.402645
58	0x41b38c35	22.44346
59	0x41b3530c	22.41555
60	0x3da1f959	0.079088874
61	0x41b3fa6a	22.497272
62	0x41b3a6c2	22.456425
63	0x41b2d048	22.3517
64	0x41b301f9	22.375963
65	0x41b3a5c5	22.455942
66	0x41b3d350	22.47818
67	0xbe1c4e85	-0.15264328
68	0x41b3ac14	22.459023
69	0x41b312cb	22.384176
70	0x41b3ada5	22.459787
71	0x41b3b8da	22.46526
72	0x41b3b8bb	22.4652
73	0x41b2ef2a	22.36678
74	0x41b30493	22.377234
75	0x41b3e70d	22.487818
76	0x41b3428f	22.4075
77	0x41b3d290	22.477814
78	0x41b26487	22.299086
79	0x3d091341	0.033465628
80	0x41b347cf	22.410063
81	0x41b3fdf5	22.499002
82	0x41b3069e	22.378231
83	0x41b31a79	22.387926
84	0x41b3a848	22.457169
85	0x41b32092	22.390903
86	0x41b40f1c	22.507378
87	0x41b36b99	22.427538
88	0x41b41ef0	22.515106
89	0x41b42375	22.517313
90	0x41b3d90f	22.480986
91	0x41b2b1ba	22.33678
92	0x41b42a4b	22.52065
93	0x41b31b72	22.388401
94	0xbf7ac348	-0.97954226
95	0x41b3be2d	22.46786
96	0x41b2946a	22.322468
97	0x41b3bd3d	22.467402
98	0x41b37a99	22.434862
99	0x41b3d09e	22.476864
100	0x41b27363	22.306341
101	0x41b33671	22.401583
102	0x41b42319	22.517138
103	0x41b411f4	22.508766
104	0x41b3b70a	22.464375
105	0x41b3b8e5	22.46528
106	0x41b290f9	22.320787
107	0x3d9bf8bb	0.07615801
108	0x3d80bdb9	0.06286187
109	0x41b443fd	22.533197
110	0x41b42c40	22.521606
111	0x41b3436f	22.407927
112	0x41b37714	22.433144
113	0x41b2f58f	22.369902
114	0x41b33bac	22.404137
115	0x41b357e4	22.417915
116	0x41b49ed8	22.57756
117	0x41b3c5b2	22.47153
118	0x41b32e88	22.39772
119	0x41b34e33	22.413183
120	0x41b35dbd	22.42077
121	0x41b3ecf7	22.490705
122	0x41b2cc8d	22.349878
123	0x41b29bd2	22.326084
124	0x41b254a5	22.29133
125	0x3db1d32d	0.08682857
126	0x41b3ecb1	22.490572
127	0x41b2dd7e	22.35815
128	0x3c994fbc	0.018714778
129	0x3b634d0e	0.003468338
130	0x3d2a0d49	0.041516576
131	0x3c4ece30	0.012622401
132	0x3d849fad	0.06475768
133	0x3d35a14e	0.044343285
134	0xbdaaf9b4	-0.08348408
135	0xbd1ed3ca	-0.038776197
136	0xbd0cb4f2	-0.03435225
137	0xbc445d40	-0.011985123
138	0xbd914488	-0.070931494
139	0x3d8b5b51	0.068045266
140	0x3db3b89b	0.08775445
141	0x3c988297	0.018616958
142	0xbda2e0fb	-0.07953068
143	0xbda10ef7	-0.078641824
144	0x3c4af86a	0.012388328
145	0xbd7a8c2e	-0.061168842
146	0xbd83ec96	-0.064416096
147	0xbd706ac9	-0.05869559
148	0x3c2359e3	0.009970161
149	0x3d83aa49	0.06428964
150	0x3cab300b	0.020896932
151	0x3cbe2adb	0.023213794
152	0x3d26b8a2	0.040703423
153	0x3d9fdf65	0.07806281
154	0xbc2bd0ed	-0.0104868235
155	0xbd4eeaa7	-0.05051675
156	0x3d618555	0.055058796
157	0xbdc17976	-0.09446995
158	0x3d44793a	0.047967173
159	0xbd60dfae	-0.054900818
160	0xbbe889cf	-0.007096506
161	0xbc20f178	-0.009823196
162	0xbd06157b	-0.03273533
163	0xbda558d5	-0.08073584
164	0x3d3bb6f6	0.045828782
165	0xbd81561c	-0.06315252
166	0x3ce17821	0.027523102
167	0xbd53e2f2	-0.051730104
168	0x3c7fef95	0.015621086
169	0x3d5ad11c	0.05342208
170	0xbdabbeae	-0.08385979
171	0xbce27d6b	-0.027647695
172	0xbd9d60de	-0.076844916
173	0xbd139b69	-0.036036883
174	0xbd74bef2	-0.059752412
175	0xbd3122bc	-0.043246016
176	0x3d239bb2	0.039943404
177	0x3d91b173	0.07113924
178	0x3d61faa1	0.05517066
179	0x3d9ce2c3	0.07660439
180	0xbd35dd25	-0.044400353
181	0x3c11bc68	0.008895017
182	0x3d59f602	0.053213127
183	0x3c24402a	0.0100250635
184	0xbca36104	-0.019943722
185	0xbd95e2ab	-0.07318624
186	0x3c8ccadd	0.017186577
187	0xbcc73083	-0.024315124
188	0x3bf22370	0.0073894784
189	0xbc9e9d15	-0.019362012
190	0x3d942a22	0.07234599
191	0x3d83121e	0.0639994
192	0xbdafa411	-0.08576215
193	0xbd46c26e	-0.048525266
194	0x3d724f1a	0.05915747
195	0x3bba0700	0.005677104
196	0x3ca042c0	0.019563079
197	0x3c66d876	0.014089694
198	0xbcb01b28	-0.021497324
199	0x3c8bf976	0.017086726
200	0xbd72a998	-0.05924377
201	0x3d035ece	0.032072835
202	0x3ba84e6f	0.005136303
203	0xbb5c6da0	-0.0033634678
204	0xbbcfe821	-0.0063448106
205	0xbd1ef799	-0.038810346
206	0x3d30f18e	0.043199115
207	0x3d868dbf	0.06570005
208	0xbd6a3f18	-0.057189077
209	0xbd564bee	-0.052318506
210	0xbc81d736	-0.01584969
211	0x3b1f71d3	0.002432932
212	0x3d34055e	0.04395043
213	0x3a985ec0	0.0011624917
214	0xbd6a9676	-0.057272397
215	0xbd80b761	-0.06284977
216	0x3ccdd630	0.025126547
217	0x3cc5a18b	0.024124881
218	0xbd72318b	-0.05912928
219	0x3cbb7199	0.022881316
220	0x3d9ed66f	0.07755744
221	0xbb485080	-0.003056556
222	0x3d952331	0.07282103
223	0x3d473bab	0.04864089
224	0xbd29b9fd	-0.041437138
225	0x3d162e0a	0.036665
226	0x3d1651e0	0.036699176
227	0xbdb8a8ac	-0.090165466
228	0xbd346f33	-0.04405136
229	0xbd901d6b	-0.07036861
230	0x3d848e70	0.0647248
231	0xbd9c3f14	-0.07629219
232	0xbd4e0a62	-0.05030287
233	0x3d88cc91	0.06679643
234	0xbbcba08f	-0.0062142084
235	0xbd6fdee3	-0.05856217
236	0x3daa58a7	0.0831769
237	0x3dabd6f3	0.08390608
238	0x3d3602f6	0.044436418
239	0xbc1f17eb	-0.009710292
240	0x3c875b1e	0.01652294
241	0x3d6ad63c	0.057333216
242	0xbc0d4a8f	-0.008623733
243	0xbcf7ed8a	-0.030264635
244	0x3d5f0fd6	0.05445846
245	0x3cc8dad8	0.024518415
246	0xbdb0e55e	-0.08637498
247	0xbdae9d4b	-0.08526095
248	0xbdc2d72c	-0.09513697
249	0xbd422dc8	-0.04740694
250	0xbd56e523	-0.052464616
251	0xbd9e3afa	-0.07726093
252	0x3d9aa474	0.07550898
253	0xbd44e6ab	-0.048071545
254	0xbd389f0d	-0.045073558
255	0x3cc316e4	0.023814626

fc3.bias f4 [64]
0	0x41c3fdeb	24.498983
1	0xbdaba858	-0.083817184
2	0x41c371f0	24.430634
3	0xbca91999	-0.020642089
4	0x41c42ade	24.520931
5	0x41c2f18d	24.367945
6	0x41c49bbf	24.576048
7	0xbd828dbe	-0.063746914
8	0x41c56dd9	24.678637
9	0x41c4b74d	24.589502
10	0xbd0cddb0	-0.034391105
11	0x3d877a14	0.066150814
12	0x41c58938	24.692001
13	0x41c3860a	24.440449
14	0x41c34d39	24.412706
15	0x41c3cf89	24.476336
16	0x41c3970a	24.44875
17	0x3d7cd5bb	0.061727267
18	0x41c3d71c	24.480034
19	0x41c4eb9e	24.615047
20	0x41c50aac	24.63021
21	0xbdc278d1	-0.094957
22	0x41c51db6	24.639507
23	0x41c448bc	24.535515
24	0x41c4bb09	24.591326
25	0x41c4459a	24.533985
26	0x41c41c7a	24.513905
27	0x41c3f746	24.495739
28	0x41c563bb	24.673697
29	0x41c4a5de	24.58099
30	0x41c526c7	24.643934
31	0x41c460d5	24.547281
32	0x41c45d85	24.545664
33	0x41c4aa9c	24.583305
34	0x41c4170d	24.511255
35	0x41c4b3ce	24.587795
36	0x41c45f35	24.546488
37	0x41c47895	24.558878
38	0x41c4782b	24.558676
39	0x41c446ba	24.534534
40	0x41c4fe2f	24.624113
41	0xbd921010	-0.0713197
42	0x41c5e6dd	24.737726
43	0x41c3608b	24.42214
44	0xbdbed756	-0.09318416
45	0xbc965e72	-0.018355582
46	0xbd134018	-0.035949796
47	0xbc12818c	-0.008942019
48	0x41c339ff	24.403318
49	0x41c4e1e3	24.610296
50	0x41c3e35d	24.486017
51	0x41c488ee	24.56686
52	0xbd4cac75	-0.049969155
53	0x41c55124	24.66462
54	0xbd910389	-0.070807524
55	0x41c4cc9f	24.599913
56	0x41c45d4c	24.545555
57	0x41c47d72	24.561253
58	0x41c4e0ec	24.609825
59	0x41c4f113	24.617712
60	0xbd630d8c	-0.05543284
61	0x41c4ea2e	24.614346
62	0xbde7a4d3	-0.113107346
63	0x41c54f8d	24.663843

fc4.weight f4 [49, 64]
0	0x3f62cfb2	0.8859817
1	0x3bb13b40	0.0054086745
2	0x3f561a15	0.8363355
3	0xbcaccaae	-0.021092739
4	0x3f88fb03	1.0701603
5	0x3f0baefb	0.54563874
6	0x3f8f334f	1.1187533
7	0x3d310cec	0.043225214
8	0x3f9617c5	1.1726004
9	0x3f8e7cc3	1.1131824
10	0x3dc6e40a	0.09711464
11	0xbd2d16d0	-0.042258084
12	0x3f8bd05c	1.0922961
13	0x3f368f72	0.7131263
14	0x3f772786	0.9654468
15	0x3f3c51b4	0.7356217
16	0x3f48761e	0.7830523
17	0x3ca7a06f	0.020462243
18	0x3f619d46	0.88130605
19	0x3f9b7865	1.2146116
20	0x3f6de669	0.92929703
21	0x3dfeb3e6	0.12436657
22	0x3f8fd9e0	1.1238365
23	0x3f66e533	0.9019348
24	0x3f85295f	1.040325
25	0x3f6c154d	0.9222
26	0x3f4a985c	0.7913873
27	0x3f554691	0.833108
28	0x3f8b2474	1.08705
29	0x3f420654	0.75790906
30	0x3f8c6dab	1.0970968
31	0x3f986ff9	1.1909171
32	0x3f653c60	0.8954525
33	0x3f96e828	1.1789598
34	0x3f7fafc1	0.99877554
35	0x3f92b52a	1.1461537
36	0x3f7a96a8	0.97886133
37	0x3f89197e	1.0710905
38	0x3f88bce9	1.0682651
39	0x3f86cbec	1.0530982
40	0x3f942935	1.1575075
41	0xbdad24de	-0.084542975
42	0x3f794735	0.9737428
43	0x3f7d32e0	0.98905754
44	0xbb206100	-0.002447188
45	0x3db4bf5a	0.0882556
46	0xbd050902	-0.032479294
47	0xbde129f0	-0.10994327
48	0x3f5cbb18	0.8622298
49	0x3f986291	1.190508
50	0x3f4bf88d	0.79676133
51	0x3f801aa0	1.0008125
52	0x3cb20430	0.021730512
53	0x3f956f84	1.1674657
54	0x3d9f6cbd	0.07784412
55	0x3f4d8c99	0.8029266
56	0x3f4530e7	0.77027744
57	0x3f27ada0	0.65499306
58	0x3f6e1604	0.93002343
59	0x3fa1d5c7	1.2643365
60	0xbc83d8c8	-0.01609458
61	0x3f8acb32	1.084326
62	0x3db864a2	0.09003569
63	0x3f96da89	1.1785442
64	0x40994b46	4.7904387
65	0xbc9d2dc0	-0.019186854
66	0x409a5fd2	4.824197
67	0x3d5fd831	0.054649536
68	0x409bb755	4.8661294
69	0x4097695d	4.7316117
70	0x409ab5c4	4.834688
71	0x3d70e1b4	0.058808997
72	0x409cb3e4	4.8969593
73	0x409cd8c7	4.901462
74	0xbcae3b7f	-0.021268604
75	0x3dcaa9d3	0.09895673
76	0x4098de47	4.7771335
77	0x409947e0	4.790024
78	0x40954c45	4.6655602
79	0x40988483	4.7661757
80	0x409668e6	4.700305
81	0xbdaa184e	-0.08305417
82	0x409c7663	4.8894515
83	0x409bf838	4.87405
84	0x409d9c95	4.925364
85	0x3ce03438	0.02736865
86	0x409d1da1	4.909867
87	0x409aa7d9	4.832989
88	0x4099ec4e	4.810096
89	0x40987458	4.764202
90	0x409be771	4.872002
91	0x409a4a74	4.8215885
92	0x4099fb36	4.8119154
93	0x4096867a	4.7039156
94	0x4097f0ce	4.748145
95	0x409af607	4.8425326
96	0x4098a26d	4.7698274
97	0x4096820c	4.703375
98	0x40976988	4.731632
99	0x409bd58d	4.869818
100	0x4098af20	4.7713776
101	0x409748c7	4.727634
102	0x40996ae6	4.794299
103	0x4099554b	4.7916617
104	0x409ccab9	4.8997464
105	0x3d5e0944	0.054208055
106	0x409948c5	4.790133
107	0x4095df8b	4.683538
108	0x3dfbee38	0.12301296
109	0xbca71400	-0.020395279
110	0xbde1b33e	-0.11020516
111	0x3dcde7da	0.10053988
112	0x4096a8ca	4.708104
113	0x409dc361	4.9301
114	0x4097ed74	4.747736
115	0x4098868b	4.7664237
116	0x3d1cbc4c	0.03826551
117	0x4098d815	4.776377
118	0x3d954966	0.0728939
119	0x409bffbe	4.8749685
120	0x4096e4c1	4.715424
121	0x409b1145	4.845858
122	0x409a483d	4.821318
123	0x409870da	4.763776
124	0xbc7cb910	-0.015424982
125	0x409d3ec7	4.9139132
126	0x3cd15a40	0.02555573
127	0x409996ff	4.799682
128	0x41065852	8.396563
129	0x3d9c94f4	0.07645598
130	0x4104a199	8.289453
131	0x3d8645cf	0.06556284
132	0x410636dd	8.388394
133	0x4107893e	8.471006
134	0x4104bae9	8.295632
135	0xbd85bf7a	-0.06530662
136	0x4106c8a8	8.423988
137	0x410782e5	8.469457
138	0x3be700f0	0.0070496723
139	0x3d322041	0.04348779
140	0x41051269	8.316995
141	0x410694e7	8.411353
142	0x410416c2	8.255556
143	0x4106c970	8.424179
144	0x4107d7a7	8.4901495
145	0x3df8402f	0.12121617
146	0x41055886	8.334112
147	0x4106d596	8.427145
148	0x41054d1a	8.331324
149	0x3da12432	0.07868232
150	0x4107ba88	8.48304
151	0x4106dfaf	8.42961
152	0x4104d4b9	8.301934
153	0x410587dc	8.345669
154	0x41061ed5	8.382527
155	0x41057ace	8.342482
156	0x410459e7	8.271949
157	0x4106da1a	8.428247
158	0x410739d4	8.451618
159	0x41075cd7	8.460166
160	0x4107c85a	8.486414
161	0x41050fad	8.316327
162	0x41064fa7	8.394446
163	0x4106edd4	8.4330635
164	0x4107ae37	8.480033
165	0x41053445	8.325261
166	0x41051584	8.317753
167	0x41054b3d	8.330869
168	0x4105acff	8.354735
169	0xbc78aae0	-0.0151774585
170	0x41071f85	8.445195
171	0x410770a0	8.464996
172	0xbdad941e	-0.08475517
173	0xbd8d75ae	-0.06907211
174	0x3e0af072	0.13568285
175	0xbdc86728	-0.097853005
176	0x41056d6f	8.339217
177	0x4105b40c	8.356457
178	0x41041c89	8.256967
179	0x4105a57a	8.3529
180	0xbd03a0d0	-0.032135785
181	0x41063359	8.387536
182	0xbc3c36f0	-0.0114877075
183	0x41060dd4	8.378376
184	0x41073472	8.450304
185	0x41054bd0	8.331009
186	0x41075bfc	8.459957
187	0x410690f7	8.410392
188	0x3db9f77a	0.090804055
189	0x4106b4b2	8.419115
190	0xbd87f26b	-0.066380344
191	0x4104f499	8.309716
192	0x41389e2f	11.538619
193	0x3d0559fc	0.03255652
194	0x413795fd	11.474118
195	0xbc6c290b	-0.014414082
196	0x4138764c	11.528881
197	0x41375402	11.45801
198	0x41398e96	11.597311
199	0x3d38e5c0	0.04514098
200	0x4138c830	11.548874
201	0x4136c469	11.422952
202	0xbd3afb11	-0.04564959
203	0xbdd149a8	-0.10219127
204	0x4134e17e	11.305052
205	0x41322bc2	11.135683
206	0x41333c8d	11.202283
207	0x413752dc	11.457729
208	0x4138ca88	11.549446
209	0xbddb395e	-0.10704301
210	0x4135cd81	11.362672
211	0x413765b8	11.462334
212	0x4137b46b	11.481547
213	0xbd7e269c	-0.06204854
214	0x41375c4b	11.460032
215	0x41399272	11.598253
216	0x41397edd	11.5934725
217	0x4135477c	11.329952
218	0x4138997e	11.537474
219	0x41359e7e	11.351194
220	0x4136d9fc	11.428219
221	0x4136a078	11.414177
222	0x413640c1	11.390809
223	0x41362641	11.384339
224	0x413924aa	11.571451
225	0x413514b7	11.317557
226	0x413538d7	11.326377
227	0x41383070	11.511826
228	0x413619dc	11.381313
229	0x4137fd24	11.499302
230	0x413975df	11.591277
231	0x413647ed	11.39256
232	0x4135d65c	11.364834
233	0x3d72d0f8	0.05928132
234	0x4136800e	11.406263
235	0x41390ed8	11.566124
236	0x3d9faccc	0.0779663
237	0x3ca437e0	0.020046175
238	0x3d772aa7	0.06034341
239	0xbdc8d1fe	-0.09805678
240	0x41369b09	11.41285
241	0x41379a10	11.475113
242	0x41330936	11.189749
243	0x4135b29d	11.356107
244	0xbdbf6126	-0.093447015
245	0x41373f27	11.452918
246	0xbd9ea162	-0.07745625
247	0x4136781a	11.404322
248	0x41382270	11.508408
249	0x413869ee	11.525862
250	0x4137c45e	11.485441
251	0x41368e5f	11.409759
252	0xbd6af89c	-0.057366
253	0x41392e17	11.573752
254	0xbb873380	-0.0041260123
255	0x41341554	11.255207

fc4.bias f4 [49]
0	0x4038f4d1	2.8899424
1	0x40e469c0	7.137909
2	0x416dde32	14.866747
3	0x419f246a	19.89278
4	0x4070bb3c	3.7614279
5	0x4189420a	17.157246
6	0x3e777844	0.24166971
7	0x41b06aac	22.052086
8	0x41a1668b	20.17507
9	0x40b6a5c0	5.707733
10	0x41abefc6	21.492077
11	0x4190149b	18.010061
12	0x411f1147	9.941718
13	0x3d82a632	0.063793555
14	0x40e0134d	7.002356
15	0x41b1b5fc	22.21386
16	0x416096b6	14.036795
17	0x412b5d25	10.71024
18	0x41b1689c	22.176079
19	0xbddb2a6e	-0.10701452
20	0xbdded3f0	-0.108802676
21	0x4117805e	9.46884
22	0x4139f57f	11.622436
23	0x41ae8a98	21.817673
24	0x40c4b760	6.1473846
25	0x3d8f0b54	0.069845825
26	0xbd9def80	-0.077116966
27	0x3dee25f6	0.11628334
28	0x41a5d53c	20.729118
29	0x418559bb	16.668814
30	0x41a2ccfe	20.350094
31	0x3dcd0eea	0.1001261
32	0x3d6c2988	0.057656795
33	0x3cb9be70	0.022673815
34	0xbdf37c80	-0.11888981
35	0x410a0c3b	8.627986
36	0x4167018d	14.437879
37	0x3dca5786	0.09879975
38	0xbd88a7f6	-0.06672661
39	0xbcf2eb70	-0.029653281
40	0xbde12e8a	-0.10995205
41	0x3daf79c8	0.0856815
42	0x3f5eb50a	0.86994994
43	0x3c902438	0.017595395
44	0xbd2e15f4	-0.042501405
45	0xbd63d3ec	-0.055622026
46	0x3d31c440	0.04340005
47	0x3c9e4a30	0.019322485
48	0xbd440594	-0.047856882
