trike2/models/trainied against random/DQN_Agent_3000ep.pt/DQN_Agent.pt (torch, 333080 bytes, 8 tensors)

fc1.weight f4 [256, 148]
27.57818 28.988113 29.337444 25.944971 27.816614 27.66381 28.734613 22.049648
26.031954 25.659988 22.707329 26.355862 29.612816 0.05497656 27.839447 21.839853
26.89822 25.709366 22.14432 -0.03463498 0.06820499 28.559168 27.901587 20.35991
28.061525 0.055331983 0.0040157214 0.0809608 23.140549 27.213833 26.08486 -0.041737165
0.03717141 0.03044504 -0.019014888 28.855625 28.302269 -0.032682396 0.07186773 0.03324736
0.04652179 0.047807284 28.823809 0.018875845 0.07108723 -0.012420379 -0.043485407 0.066818066
0.07926928 28.128006 29.022572 27.790573 25.644714 28.129366 28.743984 26.953236
22.383959 26.240095 26.470396 23.995407 26.2521 28.898235 0.0011380464 27.754015
21.64254 24.337816 27.9391 22.236702 0.018393785 0.05633203 28.205307 25.461773
22.96906 27.978176 -0.06093111 0.04149177 -0.018826328 25.269388 27.382158 26.533594
0.045952655 -0.04456822 0.0809532 -0.032882795 26.362179 29.021488 0.022507846 -0.048092633
0.059460856 -0.051780194 -0.0708731 27.652582 -0.055547982 -0.010001928 -0.06926125 0.043886326
-0.06589427 -0.016736157 24.739908 24.674156 25.886026 25.770334 27.440815 25.266071
23.446281 20.340467 26.096548 26.371283 26.073635 29.027803 26.627602 -0.042721264
25.922379 17.328152 28.341223 27.432608 23.339874 -0.07971502 -0.024522237 25.848574
28.45154 21.724333 27.678495 0.043094568 -0.049151108 -0.01446183 25.88483 26.87212
26.228163 -0.060369514 0.047507696 -0.049656212 0.02851794 22.373444 23.050554 -0.043944467
0.051331602 -0.024293285 0.06988066 0.00047232956 24.302935 0.055251263 -0.028178763 0.07218052
0.019658819 -0.04987017 0.07483802 -0.05975074 27.82534 28.895163 29.085928 25.856535
27.923592 27.469336 28.746235 22.082048 25.905865 25.706202 22.460875 26.11273
29.591743 0.059219964 27.720041 21.613531 26.57844 25.41284 22.089693 -0.052345414
0.04432819 28.401876 28.008083 20.203848 27.905785 0.0637052 -0.045582086 0.012539826
22.67836 27.082663 25.853651 0.07222245 -0.049278308 -0.010298364 0.0470298 28.926739
28.13952 -0.07763935 0.004946977 0.07638181 0.057688944 -0.06271544 28.872242 -0.019569144
0.021336727 -0.056114715 -0.07915546 -0.057075903 -0.07003241 28.220066 28.95216 27.887243
25.591173 28.034624 28.602789 26.800848 22.10744 25.822153 26.144234 23.855953
26.178484 28.616291 -0.031182207 27.572187 21.710926 24.483196 27.562 22.119799
-0.012699783 -0.057552945 28.126692 25.127468 22.925009 27.96991 0.023154922 -0.053864807
0.019049421 25.04732 27.193281 26.326357 0.07512913 -0.05820471 -0.08208894 -0.011473477
26.475773 29.225128 0.061440162 -0.0028065369 0.024472177 0.017492592 0.07432542 27.569319
0.014936157 0.07990805 0.06518114 0.071552314 -0.012976997 -0.028782219 24.936935 24.251514
25.887344 25.786798 27.407473 25.112389 23.673582 20.464289 26.096876 26.21035
00000000: 1da0 dc41 a8e7 e741 16b3 ea41 4d8f cf41
00000010: 6d88 de41 7c4f dd41 7de0 e541 ae65 b041
00000020: 7141 d041 a847 cd41 9ca8 b541 ced8 d241
00000030: 0ce7 ec41 1a2f 613d 30b7 de41 05b8 ae41
00000040: 8e2f d741 c8ac cd41 9127 b141 69dd 0dbd
00000050: 0faf 8b3d 2d79 e441 7336 df41 18e1 a241
00000060: 017e e041 caa3 623d 5096 833b c7ce a53d
00000070: d81f b941 eeb5 d941 cbad d041 97f4 2abd
00000080: 0c41 183d e067 f93c 1cc5 9bbc 52d8 e641
00000090: 0c6b e241 fadd 05bd 632f 933d 622e 083d
000000a0: a28d 3e3d 92d1 433d 2997 e641 84a1 9a3c
000000b0: 2f96 913d d87e 4bbc c11d 32bd e9d7 883d
000000c0: ef57 a23d 2806 e141 3a2e e841 1853 de41
000000d0: 6028 cd41 f108 e141 aef3 e541 3aa0 d741
000000e0: 5912 b341 b7eb d141 5fc3 d341 98f6 bf41
000000f0: 4d04 d241 962f e741 802a 953a 3908 de41
00000100: ec23 ad41 d9b3 c241 4783 df41 c4e4 b141
00000110: 90ae 963c 6abc 663d 78a4 e141 b6b1 cb41
00000120: a3c0 b741 4ed3 df41 e692 79bd 46f3 293d
00000130: ac39 9abc b527 ca41 a90e db41 cd44 d441
00000140: da38 3c3d 2a8d 36bd cbca a53d 1cb0 06bd
00000150: bee5 d241 022c e841 6062 b83c c8fc 44bd
00000160: 3a8d 733d 7817 54bd ea25 91bd 7d38 dd41
00000170: 4886 63bd 20df 23bc d8d8 8dbd 26c2 333d
00000180: 93f3 86bd 441a 89bc 55eb c541 ac64 c541
00000190: 9516 cf41 a529 ce41 ca86 db41 ea20 ca41
000001a0: fc91 bb41 47b9 a241 bbc5 d041 63f8 d241
000001b0: ce96 d041 f138 e841 5405 d541 7efc 2ebd
000001c0: 0861 cf41 0ea0 8a41 d3ba e241 fb75 db41
000001d0: 10b8 ba41 a141 a3bd dce2 c8bc e1c9 ce41
000001e0: c19c e341 6fcb ad41 8f6d dd41 ee83 303d
000001f0: ac52 49bd 50f1 6cbc 2214 cf41 1afa d641
00000200: 47d3 d141 0646 77bd 6e97 423d 5064 4bbd
00000210: 749e e93c d0fc b241 8967 b841 1dff 33bd
00000220: 1641 523d b602 c7bc 971d 8f3d 00a3 f739
00000230: 696c c241 264f 623d 26d7 e6bc 61d3 933d
00000240: 880b a13c aa44 4cbd ad44 993d 31bd 74bd
00000250: 4c9a de41 4b29 e741 fbaf e841 2fda ce41
00000260: 8463 df41 33c1 db41 4af8 e541 09a8 b041
00000270: 363f cf41 4da6 cd41 dfaf b341 dfe6 d041
00000280: e4bb ec41 a290 723d a5c2 dd41 83e8 ac41
00000290: a5a0 d441 7f4d cb41 b1b7 b041 2568 56bd
000002a0: 7a91 353d 0b37 e341 8e10 e041 7ba1 a141
000002b0: 0c3f df41 df77 823d 48b4 3abd d873 4d3c
000002c0: 486d b541 4ba9 d841 47d4 ce41 5de9 933d
000002d0: 0dd8 49bd 78ba 28bc 52a2 403d f669 e741
000002e0: bd1d e141 6101 9fbd 401a a23b 116e 9c3d
000002f0: 3e4b 6c3d f470 80bd 5afa e641 784f a0bc
00000300: 5cca ae3c 8bd8 65bd 421c a2bd 6cc8 69bd
00000310: 276d 8fbd b2c2 e141 069e e741 1319 df41
00000320: b9ba cc41 e946 e041 83d2 e441 2368 d641
00000330: 0adc b041 c593 ce41 6427 d141 fed8 be41
00000340: 896d d141 2aee e441 d471 ffbc d793 dc41
00000350: faaf ad41 96dd c341 fa7e dc41 59f5 b041
00000360: c012 50bc a3bc 6bbd 7703 e141 0e05 c941
00000370: 6b66 b741 60c2 df41 64af bd3c 58a1 5cbd
00000380: 880d 9c3c e960 c841 d78b d941 619c d241
00000390: 4ddd 993d 1068 6ebd 3f1e a8bd 40fb 3bbc
000003a0: 62ce d341 10cd e941 aea8 7b3d e0ed 37bb
000003b0: e079 c83c a04c 8f3c ed37 983d f78d dc41
000003c0: c8b6 743c d5a6 a33d b17d 853d 058a 923d
000003d0: 789d 54bc b0c8 ebbc d87e c741 1a03 c241
000003e0: 4819 cf41 5d4b ce41 8142 db41 2ce6 c841
000003f0: 7f63 bd41 ddb6 a341 67c6 d041 ccae d141

fc1.bias f4 [256]
19.880907 20.030033 19.99979 20.051779 20.033833 20.01242 20.041195 19.987665
20.07265 20.064358 20.030842 20.027739 19.946152 20.035704 20.072802 19.960527
19.985472 20.041475 19.899757 19.83979 20.003265 19.976639 20.074581 19.985052
19.902294 20.044104 -2.5925791 19.994629 19.981937 20.012672 20.015188 20.084639
19.95712 20.060875 20.06121 20.05926 20.025843 20.028847 20.041 19.885494
20.036924 20.040453 20.046442 19.952337 19.980703 -2.3968961 19.978542 20.078947
20.042562 20.062304 20.058723 20.03414 20.02315 20.025576 19.869972 19.9944
19.95055 20.053862 20.061172 19.951008 19.863825 20.044325 19.979189 19.978552
19.98422 19.94119 20.008028 19.984251 19.995897 20.010864 19.833036 20.049715
19.909885 19.961174 20.018425 20.0388 20.037394 20.054722 20.00108 20.013004
20.020493 20.02165 19.988237 20.055801 20.069492 20.041594 19.988523 19.781496
20.020046 19.890003 19.947893 20.061548 20.014687 20.006481 20.058512 20.029453
19.981567 20.045252 20.031734 -2.6340504 20.01291 19.987577 20.007137 20.044634
20.057547 20.032871 20.034073 20.053694 19.815527 19.881327 -2.579124 20.013098
19.998896 19.9137 20.06281 20.001013 19.988829 20.015656 19.927994 20.005232
19.920193 19.848877 19.973581 20.061815 20.07654 19.970924 19.915255 20.049658
20.063637 20.006853 19.990942 20.010118 20.041044 19.965899 20.002398 19.913275
19.946642 20.003435 20.064686 20.002811 20.080559 20.052855 -2.651712 19.98406
19.917439 20.020025 19.960016 20.069769 20.014698 20.07229 19.901781 20.009836
19.997816 19.867973 20.01989 19.869461 19.840044 19.995092 20.027521 -2.577744
20.076927 20.036089 20.002016 20.05599 19.931883 20.053785 19.93822 20.01566
19.976349 20.041159 20.016283 19.987663 19.95403 19.955292 20.066492 19.908106
19.988844 20.045412 19.99116 19.998325 20.030842 20.01495 19.97648 -2.6412692
20.05367 19.985151 -2.61646 19.9918 19.966549 19.981743 19.868654 20.081673
20.013916 19.976093 20.049747 19.959284 19.901276 20.073557 20.007488 19.928259
19.89783 20.033424 20.016842 19.914227 19.983923 19.989847 20.016808 20.036356
19.925701 20.041348 20.065626 20.029865 20.056303 -2.5974202 19.878468 20.042511
20.01469 19.940329 20.057375 19.81763 20.025934 19.945238 19.98019 20.000128
-2.6272418 19.9977 -2.602873 20.013746 20.006811 20.010904 19.971947 20.033876
19.961584 20.02085 19.987453 20.023998 19.931368 19.948837 20.06552 20.079048
20.029446 19.977026 20.01088 20.045465 19.895628 20.03715 20.072935 20.045258
19.988071 20.014965 20.03379 20.061184 20.047499 20.00823 20.001202 19.959074
00000000: 190c 9f41 823d a041 92ff 9f41 0b6a a041
00000010: 4a45 a041 7019 a041 5e54 a041 bde6 9f41
00000020: ca94 a041 ce83 a041 2a3f a041 cf38 a041
00000030: b891 9f41 1f49 a041 1995 a041 29af 9f41
00000040: 3fe2 9f41 f154 a041 b432 9f41 e4b7 9e41
00000050: b006 a041 28d0 9f41 be98 a041 63e1 9f41
00000060: e637 9f41 535a a041 d1ec 25c0 00f5 9f41
00000070: 02db 9f41 f419 a041 1b1f a041 57ad a041
00000080: 2fa8 9f41 ac7c a041 5c7d a041 5d79 a041
00000090: ed34 a041 143b a041 f853 a041 7e15 9f41
000000a0: 9f4b a041 d952 a041 1d5f a041 639e 9f41
000000b0: 7bd8 9f41 bf66 19c0 0ed4 9f41 afa1 a041
000000c0: 2b57 a041 997f a041 4478 a041 eb45 a041
000000d0: 692f a041 6134 a041 b4f5 9e41 88f4 9f41
000000e0: ba9a 9f41 4f6e a041 487d a041 aa9b 9f41
000000f0: 1de9 9e41 c75a a041 61d5 9f41 13d4 9f41
00000100: afdf 9f41 8f87 9f41 7110 a041 bfdf 9f41
00000110: 99f7 9f41 4016 a041 0faa 9e41 d165 a041
00000120: 7247 9f41 7cb0 9f41 bc25 a041 764f a041
00000130: 954c a041 1270 a041 3602 a041 a21a a041
00000140: f829 a041 572c a041 e9e7 9f41 4872 a041
00000150: 528e a041 2f55 a041 7fe8 9f41 8140 9e41
00000160: 0e29 a041 ba1e 9f41 4995 9f41 0d7e a041
00000170: 141e a041 460d a041 d577 a041 523c a041
00000180: 40da 9f41 ad5c a041 fe40 a041 4894 28c0
00000190: 711a a041 8fe6 9f41 9e0e a041 695b a041
000001a0: db75 a041 5243 a041 c845 a041 f76d a041
000001b0: 3386 9e41 f50c 9f41 5e10 25c0 d31a a041
000001c0: bdfd 9f41 424f 9f41 a380 a041 1302 a041
000001d0: 1fe9 9f41 1020 a041 886c 9f41 b70a a041
000001e0: 8e5c 9f41 80ca 9e41 e5c9 9f41 997e a041
000001f0: c19c a041 74c4 9f41 7152 9f41 b365 a041
00000200: 5482 a041 090e a041 73ed 9f41 b914 a041
00000210: 0f54 a041 29ba 9f41 e904 a041 634e 9f41
00000220: b992 9f41 0907 a041 7a84 a041 c205 a041
00000230: fca4 a041 3f6c a041 a6b5 29c0 5bdf 9f41
00000240: ea56 9f41 0329 a041 1dae 9f41 e38e a041
00000250: 1a1e a041 0d94 a041 d936 9f41 2514 a041
00000260: 87fb 9f41 9cf1 9e41 bc28 a041 a8f4 9e41
00000270: 69b8 9e41 f3f5 9f41 5d38 a041 c2f9 24c0
00000280: 8c9d a041 e949 a041 2104 a041 ab72 a041
00000290: 7f74 9f41 276e a041 7981 9f41 1220 a041
000002a0: 90cf 9f41 4b54 a041 5921 a041 bce6 9f41
000002b0: daa1 9f41 70a4 9f41 2d88 a041 cd43 9f41
000002c0: 27e9 9f41 015d a041 e5ed 9f41 92fc 9f41
000002d0: 2a3f a041 9e1e a041 d5cf 9f41 8e0a 29c0
000002e0: eb6d a041 97e1 9f41 1574 27c0 35ef 9f41
000002f0: 7ebb 9f41 9cda 9f41 01f3 9e41 44a7 a041
00000300: 801c a041 0acf 9f41 e265 a041 9dac 9f41
00000310: d035 9f41 a596 a041 560f a041 136d 9f41
00000320: c12e 9f41 7444 a041 7e22 a041 5650 9f41
00000330: 13df 9f41 35eb 9f41 6c22 a041 754a a041
00000340: d667 9f41 ae54 a041 6786 a041 2a3d a041
00000350: 4f73 a041 223c 26c0 1a07 9f41 1057 a041
00000360: 161e a041 cb85 9f41 8175 a041 828a 9e41
00000370: 1d35 a041 d98f 9f41 6ed7 9f41 4300 a041
00000380: bb24 28c0 4afb 9f41 7995 26c0 271c a041
00000390: f30d a041 5516 a041 8cc6 9f41 6145 a041
000003a0: 53b1 9f41 b32a a041 4ee6 9f41 2631 a041
000003b0: 7173 9f41 3897 9f41 2f86 a041 e4a1 a041
000003c0: 4e3c a041 f3d0 9f41 4816 a041 1d5d a041
000003d0: 3f2a 9f41 154c a041 5f95 a041 b05c a041
000003e0: 92e7 9f41 a61e a041 3445 a041 4e7d a041
000003f0: 4761 a041 db10 a041 7602 a041 2fac 9f41

fc2.weight f4 [128, 256]
34.409496 34.68647 34.60635 34.710976 34.864258 34.642776 34.697838 34.707035
34.81491 34.729103 34.819996 34.747894 34.732384 34.688885 34.64997 34.605698
34.58763 34.75397 34.58636 34.639275 34.74874 34.68359 34.79213 34.492985
34.760033 34.781612 -8.73792 34.79044 34.72902 34.69667 34.634834 34.699734
34.745087 34.79307 34.792458 34.80226 34.894672 34.646496 34.667282 34.636837
34.846348 34.590084 34.67644 34.593422 34.766987 -6.904241 34.613136 34.71134
34.675106 34.69579 34.734512 34.648746 34.69966 34.57483 34.576874 34.46914
34.757454 34.798107 34.706367 34.77454 34.699005 34.83177 34.519775 34.69172
34.772835 34.6062 34.862724 34.70976 34.6773 34.75564 34.59029 34.745888
34.651863 34.69169 34.760227 34.783096 34.65497 34.681435 34.713093 34.697037
34.682102 34.725014 34.792072 34.741005 34.675728 34.723812 34.72391 34.625645
34.788002 34.713207 34.60767 34.737213 34.774803 34.64781 34.69403 34.758854
34.655174 34.721073 34.768063 -8.632593 34.620083 34.72913 34.81491 34.900093
34.824932 34.76695 34.582535 34.67458 34.57493 34.558403 -8.75293 34.76381
34.64699 34.795918 34.65243 34.683796 34.56632 34.593716 34.66172 34.726112
34.618374 34.478733 34.673176 34.75567 34.80394 34.713154 34.745064 34.758194
34.59696 34.6743 34.810352 34.74652 34.754143 34.73641 34.731583 34.6053
34.70569 34.64011 34.700127 34.594017 34.77161 34.668087 -8.842539 34.678177
34.628365 34.80165 34.779617 34.77118 34.92129 34.885593 34.730595 34.851536
34.748997 34.6428 34.781258 34.57391 34.630817 34.710953 34.74082 -8.783523
34.630142 34.533157 34.77098 34.715805 34.59411 34.730854 34.69009 34.73768
34.834938 34.62714 34.646576 34.574303 34.58278 34.761364 34.78251 34.461094
34.66745 34.719986 34.709602 34.69502 34.755913 34.811886 34.770638 -8.688285
34.80408 34.66616 -8.71951 34.78124 34.596848 34.586227 34.62535 34.83327
34.695644 34.652145 34.83443 34.776134 34.451805 34.670757 34.696373 34.601124
34.72389 34.583004 34.719994 34.688797 34.72146 34.5812 34.73659 34.796505
34.676407 34.693085 34.660164 34.615543 34.724518 -8.742387 34.592125 34.725555
34.730988 34.667393 34.74058 34.40746 34.669865 34.522003 34.77146 34.7061
-8.661745 34.74007 -8.814425 34.698376 34.687435 34.527378 34.677 34.689465
34.735977 34.54322 34.55286 34.67662 34.667377 34.519985 34.66623 34.681324
34.589424 34.56539 34.62866 34.816124 34.66638 34.588634 34.77169 34.80266
34.494022 34.69866 34.719723 34.70391 34.718792 34.822784 34.696716 34.770233
00000000: 53a3 0942 f2be 0a42 e76c 0a42 0ad8 0a42
00000010: 0075 0b42 3492 0a42 96ca 0a42 01d4 0a42
00000020: 7842 0b42 9aea 0a42 ad47 0b42 d8fd 0a42
00000030: f6ed 0a42 6bc1 0a42 9299 0a42 3c6c 0a42
00000040: bc59 0a42 1104 0b42 6f58 0a42 9e8e 0a42
00000050: b6fe 0a42 ffbb 0a42 242b 0b42 d1f8 0942
00000060: 460a 0b42 5f20 0b42 85ce 0bc1 6929 0b42
00000070: 84ea 0a42 64c9 0a42 128a 0a42 87cc 0a42
00000080: f8fa 0a42 1b2c 0b42 7a2b 0b42 8435 0b42
00000090: 2594 0b42 0396 0a42 4cab 0a42 1f8c 0a42
000000a0: a962 0b42 3f5c 0a42 adb4 0a42 aa5f 0a42
000000b0: 6511 0b42 8bef dcc0 da73 0a42 6ad8 0a42
000000c0: 4fb3 0a42 7dc8 0a42 24f0 0a42 5198 0a42
000000d0: 74cc 0a42 a04c 0a42 b84e 0a42 66e0 0942
000000e0: a207 0b42 4331 0b42 52d3 0a42 2119 0b42
000000f0: c8cb 0a42 bc53 0b42 4014 0a42 52c4 0a42
00000100: 6217 0b42 c06c 0a42 6e73 0b42 cbd6 0a42
00000110: 8eb5 0a42 c605 0b42 755c 0a42 cafb 0a42
00000120: 829b 0a42 4ac4 0a42 790a 0b42 e421 0b42
00000130: b09e 0a42 cab9 0a42 35da 0a42 c4c9 0a42
00000140: 79ba 0a42 6ae6 0a42 152b 0b42 caf6 0a42
00000150: f2b3 0a42 2fe5 0a42 49e5 0a42 a980 0a42
00000160: ea26 0b42 53da 0a42 416e 0a42 e8f2 0a42
00000170: 6619 0b42 5c97 0a42 b0c6 0a42 1109 0b42
00000180: e69e 0a42 61e2 0a42 7f12 0b42 1a1f 0ac1
00000190: f77a 0a42 a1ea 0a42 7842 0b42 b299 0b42
000001a0: bb4c 0b42 5b11 0b42 8454 0a42 c5b2 0a42
000001b0: ba4c 0a42 ce3b 0a42 000c 0cc1 240e 0b42
000001c0: 8596 0a42 052f 0b42 179c 0a42 35bc 0a42
000001d0: e943 0a42 f75f 0a42 9aa5 0a42 8ae7 0a42
000001e0: 3779 0a42 39ea 0942 55b1 0a42 ce05 0b42
000001f0: 3c37 0b42 45da 0a42 f2fa 0a42 6408 0b42
00000200: 4963 0a42 7cb2 0a42 cd3d 0b42 70fc 0a42
00000210: 3e04 0b42 15f2 0a42 24ed 0a42 d46b 0a42
00000220: a0d2 0a42 798f 0a42 eecc 0a42 4660 0a42
00000230: 2116 0b42 1fac 0a42 0a7b 0dc1 74b6 0a42
00000240: 7283 0a42 e434 0b42 541e 0b42 b015 0b42
00000250: 67af 0b42 d98a 0b42 21ec 0a42 f967 0b42
00000260: f9fe 0a42 3a92 0a42 0220 0b42 af4b 0a42
00000270: f585 0a42 04d8 0a42 9af6 0a42 4f89 0cc1
00000280: 4485 0a42 f421 0a42 7c15 0b42 fcdc 0a42
00000290: 5e60 0a42 65ec 0a42 a7c2 0a42 62f3 0a42
000002a0: fa56 0b42 3182 0a42 1896 0a42 164c 0a42
000002b0: c454 0a42 a30b 0b42 4a21 0b42 29d8 0942
000002c0: 78ab 0a42 44e1 0a42 a2d6 0a42 b3c7 0a42
000002d0: 0e06 0b42 5f3f 0b42 2215 0b42 3703 0bc1
000002e0: 6137 0b42 26aa 0a42 1d83 0bc1 fd1f 0b42
000002f0: 2c63 0a42 4c58 0a42 5c80 0a42 4555 0b42
00000300: 57c8 0a42 cc9b 0a42 7556 0b42 c31a 0b42
00000310: a6ce 0942 dbae 0a42 16c9 0a42 8d67 0a42
00000320: 43e5 0a42 ff54 0a42 46e1 0a42 54c1 0a42
00000330: c6e2 0a42 2653 0a42 45f2 0a42 9f2f 0b42
00000340: a4b4 0a42 b8c5 0a42 02a4 0a42 5176 0a42
00000350: e8e5 0a42 d1e0 0bc1 565e 0a42 f8e6 0a42
00000360: 88ec 0a42 69ab 0a42 5bf6 0a42 3da1 0942
00000370: f1ad 0a42 8816 0a42 fa15 0b42 0cd3 0a42
00000380: 8296 0ac1 d5f5 0a42 e307 0dc1 23cb 0a42
00000390: efbf 0a42 091c 0a42 3fb5 0a42 03c2 0a42
000003a0: a4f1 0a42 422c 0a42 2136 0a42 dcb4 0a42
000003b0: 65ab 0a42 7714 0a42 38aa 0a42 adb9 0a42
000003c0: 925b 0a42 f642 0a42 bf83 0a42 b643 0b42
000003d0: 60aa 0a42 c35a 0a42 3616 0b42 ed35 0b42
000003e0: e1f9 0942 6ecb 0a42 ffe0 0a42 ced0 0a42
000003f0: 0be0 0a42 884a 0b42 70c9 0a42 b814 0b42

fc2.bias f4 [128]
33.770214 33.84639 33.82359 -0.057977986 33.841164 33.808613 33.874847 33.83376
33.78879 33.69655 33.85865 33.75611 33.81928 33.84136 -0.05928677 33.791748
33.81802 33.860825 33.912453 33.844707 33.86008 33.880875 33.792206 33.900692
33.814888 33.752987 33.91123 33.84793 33.745262 33.86077 33.871025 33.87699
33.81773 33.72373 33.884613 -0.08054943 33.827835 33.83109 33.88294 33.893
33.8882 33.85646 33.856377 33.81731 -0.0062094135 33.826443 33.781166 33.822624
33.825455 0.001989268 33.83316 33.689243 33.90501 33.880436 33.84114 33.869434
33.704185 33.815544 33.73052 33.804157 0.014519007 33.820972 33.853985 33.91264
33.891193 33.84388 33.755962 -0.0063956683 33.83928 33.76326 33.79531 33.888325
33.87938 33.859768 33.880898 33.793884 33.85141 33.864647 33.75968 -0.021114152
33.83255 33.855167 33.835484 33.859604 33.862812 33.74091 33.871685 33.854294
33.848396 33.8762 33.844513 33.806427 33.88365 33.836235 -0.09618589 33.89047
33.79939 33.784298 33.917324 33.858868 33.863167 33.753387 33.796673 33.831085
33.816566 33.87213 33.8943 -0.047310192 0.013025145 33.864124 33.826786 33.90153
33.83766 33.890938 33.906246 33.79393 33.80884 33.843876 33.73068 33.881905
33.83612 33.757618 33.84612 33.808464 33.856922 -0.012350689 33.879417 33.821823
00000000: b314 0742 b462 0742 5b4b 0742 537a 6dbd
00000010: 5a5d 0742 053c 0742 d87f 0742 c555 0742
00000020: b927 0742 44c9 0642 426f 0742 4206 0742
00000030: f146 0742 8d5d 0742 afd6 72bd c02a 0742
00000040: a745 0742 7c71 0742 5aa6 0742 fb60 0742
00000050: b970 0742 0486 0742 382b 0742 4f9a 0742
00000060: 7242 0742 0f03 0742 19a5 0742 4864 0742
00000070: 26fb 0642 6e71 0742 ee7b 0742 0a82 0742
00000080: 5b45 0742 19e5 0642 d889 0742 19f7 a4bd
00000090: b44f 0742 0953 0742 2188 0742 6f92 0742
000000a0: 848d 0742 046d 0742 ee6c 0742 ed44 0742
000000b0: 5678 cbbb 474e 0742 ea1f 0742 5e4a 0742
000000c0: 444d 0742 615e 023b 2855 0742 c9c1 0642
000000d0: bb9e 0742 9185 0742 545d 0742 4d7a 0742
000000e0: 16d1 0642 1e43 0742 0dec 0642 7537 0742
000000f0: 21e1 6d3c ad48 0742 7b6a 0742 8ba6 0742
00000100: 9590 0742 2260 0742 1b06 0742 c192 d1bb
00000110: 6c5b 0742 940d 0742 662e 0742 a58d 0742
00000120: 7c84 0742 6770 0742 0a86 0742 f02c 0742
00000130: d867 0742 6675 0742 ea09 0742 96f7 acbc
00000140: 8854 0742 b16b 0742 8957 0742 3c70 0742
00000150: 8573 0742 b1f6 0642 9b7c 0742 cc6a 0742
00000160: c264 0742 3b81 0742 c860 0742 c839 0742
00000170: dc88 0742 4e58 0742 1cfd c4bd d78f 0742
00000180: 9332 0742 1f23 0742 57ab 0742 7b6f 0742
00000190: e273 0742 7803 0742 cb2f 0742 0853 0742
000001a0: 2a44 0742 107d 0742 c393 0742 55c8 41bd
000001b0: 6b67 553c dd74 0742 a14e 0742 2b9b 0742
000001c0: c459 0742 5290 0742 ff9f 0742 fc2c 0742
000001d0: 413c 0742 2160 0742 37ec 0642 1287 0742
000001e0: 3058 0742 cd07 0742 6d62 0742 de3b 0742
000001f0: 7d6d 0742 8b5a 4abc 8684 0742 8c49 0742

fc3.weight f4 [64, 128]
22.43043 22.240961 22.422514 -0.05254393 22.419184 22.320503 22.513016 22.318468
22.440657 22.234495 22.35716 22.213108 22.399244 22.413498 -0.04184394 22.46409
22.365252 22.472057 22.407696 22.329723 22.292086 22.318382 22.300238 22.31486
22.39889 22.470802 22.412655 22.43142 22.31938 22.289078 22.328749 22.495028
22.376017 22.364222 22.383564 0.09739889 22.310513 22.440956 22.467375 22.327856
22.352919 22.390154 22.362461 22.483292 0.087016284 22.433025 22.415817 22.450516
22.37098 0.044951342 22.347 22.281624 22.480738 22.398178 22.496586 22.409525
22.482256 22.402645 22.44346 22.41555 0.079088874 22.497272 22.456425 22.3517
22.375963 22.455942 22.47818 -0.15264328 22.459023 22.384176 22.459787 22.46526
22.4652 22.36678 22.377234 22.487818 22.4075 22.477814 22.299086 0.033465628
22.410063 22.499002 22.378231 22.387926 22.457169 22.390903 22.507378 22.427538
22.515106 22.517313 22.480986 22.33678 22.52065 22.388401 -0.97954226 22.46786
22.322468 22.467402 22.434862 22.476864 22.306341 22.401583 22.517138 22.508766
22.464375 22.46528 22.320787 0.07615801 0.06286187 22.533197 22.521606 22.407927
22.433144 22.369902 22.404137 22.417915 22.57756 22.47153 22.39772 22.413183
22.42077 22.490705 22.349878 22.326084 22.29133 0.08682857 22.490572 22.35815
0.018714778 0.003468338 0.041516576 0.012622401 0.06475768 0.044343285 -0.08348408 -0.038776197
-0.03435225 -0.011985123 -0.070931494 0.068045266 0.08775445 0.018616958 -0.07953068 -0.078641824
0.012388328 -0.061168842 -0.064416096 -0.05869559 0.009970161 0.06428964 0.020896932 0.023213794
0.040703423 0.07806281 -0.0104868235 -0.05051675 0.055058796 -0.09446995 0.047967173 -0.054900818
-0.007096506 -0.009823196 -0.03273533 -0.08073584 0.045828782 -0.06315252 0.027523102 -0.051730104
0.015621086 0.05342208 -0.08385979 -0.027647695 -0.076844916 -0.036036883 -0.059752412 -0.043246016
0.039943404 0.07113924 0.05517066 0.07660439 -0.044400353 0.008895017 0.053213127 0.0100250635
-0.019943722 -0.07318624 0.017186577 -0.024315124 0.0073894784 -0.019362012 0.07234599 0.0639994
-0.08576215 -0.048525266 0.05915747 0.005677104 0.019563079 0.014089694 -0.021497324 0.017086726
-0.05924377 0.032072835 0.005136303 -0.0033634678 -0.0063448106 -0.038810346 0.043199115 0.06570005
-0.057189077 -0.052318506 -0.01584969 0.002432932 0.04395043 0.0011624917 -0.057272397 -0.06284977
0.025126547 0.024124881 -0.05912928 0.022881316 0.07755744 -0.003056556 0.07282103 0.04864089
-0.041437138 0.036665 0.036699176 -0.090165466 -0.04405136 -0.07036861 0.0647248 -0.07629219
-0.05030287 0.06679643 -0.0062142084 -0.05856217 0.0831769 0.08390608 0.044436418 -0.009710292
0.01652294 0.057333216 -0.008623733 -0.030264635 0.05445846 0.024518415 -0.08637498 -0.08526095
-0.09513697 -0.04740694 -0.052464616 -0.07726093 0.07550898 -0.048071545 -0.045073558 0.023814626
00000000: 8571 b341 7ded b141 4f61 b341 4e38 57bd
00000010: 7d5a b341 6490 b241 a81a b441 398c b241
00000020: 7786 b341 3fe0 b141 77db b241 72b4 b141
00000030: a731 b341 d84e b341 8d64 2bbd 75b6 b341
00000040: 09ec b241 c6c6 b341 f642 b341 46a3 b241
00000050: 3156 b241 0c8c b241 e366 b241 d584 b241
00000060: ed30 b341 34c4 b341 1e4d b341 8c73 b341
00000070: 178e b241 0850 b241 47a1 b241 d1f5 b341
00000080: 1502 b341 ede9 b241 8a11 b341 1279 c73d
00000090: ee7b b241 1487 b341 2fbd b341 739f b241
000000a0: c7d2 b241 091f b341 52e6 b241 c8dd b341
000000b0: 9835 b23d d676 b341 9853 b341 a89a b341
000000c0: c4f7 b241 e61e 383d a8c6 b241 c440 b241
000000d0: 8dd8 b341 782f b341 02f9 b341 b546 b341
000000e0: a9db b341 9e38 b341 358c b341 0c53 b341
000000f0: 59f9 a13d 6afa b341 c2a6 b341 48d0 b241
00000100: f901 b341 c5a5 b341 50d3 b341 854e 1cbe
00000110: 14ac b341 cb12 b341 a5ad b341 dab8 b341
00000120: bbb8 b341 2aef b241 9304 b341 0de7 b341
00000130: 8f42 b341 90d2 b341 8764 b241 4113 093d
00000140: cf47 b341 f5fd b341 9e06 b341 791a b341
00000150: 48a8 b341 9220 b341 1c0f b441 996b b341
00000160: f01e b441 7523 b441 0fd9 b341 bab1 b241
00000170: 4b2a b441 721b b341 48c3 7abf 2dbe b341
00000180: 6a94 b241 3dbd b341 997a b341 9ed0 b341
00000190: 6373 b241 7136 b341 1923 b441 f411 b441
000001a0: 0ab7 b341 e5b8 b341 f990 b241 bbf8 9b3d
000001b0: b9bd 803d fd43 b441 402c b441 6f43 b341
000001c0: 1477 b341 8ff5 b241 ac3b b341 e457 b341
000001d0: d89e b441 b2c5 b341 882e b341 334e b341
000001e0: bd5d b341 f7ec b341 8dcc b241 d29b b241
000001f0: a554 b241 2dd3 b13d b1ec b341 7edd b241
00000200: bc4f 993c 0e4d 633b 490d 2a3d 30ce 4e3c
00000210: ad9f 843d 4ea1 353d b4f9 aabd cad3 1ebd
00000220: f2b4 0cbd 405d 44bc 8844 91bd 515b 8b3d
00000230: 9bb8 b33d 9782 983c fbe0 a2bd f70e a1bd
00000240: 6af8 4a3c 2e8c 7abd 96ec 83bd c96a 70bd
00000250: e359 233c 49aa 833d 0b30 ab3c db2a be3c
00000260: a2b8 263d 65df 9f3d edd0 2bbc a7ea 4ebd
00000270: 5585 613d 7679 c1bd 3a79 443d aedf 60bd
00000280: cf89 e8bb 78f1 20bc 7b15 06bd d558 a5bd
00000290: f6b6 3b3d 1c56 81bd 2178 e13c f2e2 53bd
000002a0: 95ef 7f3c 1cd1 5a3d aebe abbd 6b7d e2bc
000002b0: de60 9dbd 699b 13bd f2be 74bd bc22 31bd
000002c0: b29b 233d 73b1 913d a1fa 613d c3e2 9c3d
000002d0: 25dd 35bd 68bc 113c 02f6 593d 2a40 243c
000002e0: 0461 a3bc abe2 95bd ddca 8c3c 8330 c7bc
000002f0: 7023 f23b 159d 9ebc 222a 943d 1e12 833d
00000300: 11a4 afbd 6ec2 46bd 1a4f 723d 0007 ba3b
00000310: c042 a03c 76d8 663c 281b b0bc 76f9 8b3c
00000320: 98a9 72bd ce5e 033d 6f4e a83b a06d 5cbb
00000330: 21e8 cfbb 99f7 1ebd 8ef1 303d bf8d 863d
00000340: 183f 6abd ee4b 56bd 36d7 81bc d371 1f3b
00000350: 5e05 343d c05e 983a 7696 6abd 61b7 80bd
00000360: 30d6 cd3c 8ba1 c53c 8b31 72bd 9971 bb3c
00000370: 6fd6 9e3d 8050 48bb 3123 953d ab3b 473d
00000380: fdb9 29bd 0a2e 163d e051 163d aca8 b8bd
00000390: 336f 34bd 6b1d 90bd 708e 843d 143f 9cbd
000003a0: 620a 4ebd 91cc 883d 8fa0 cbbb e3de 6fbd
000003b0: a758 aa3d f3d6 ab3d f602 363d eb17 1fbc
000003c0: 1e5b 873c 3cd6 6a3d 8f4a 0dbc 8aed f7bc
000003d0: d60f 5f3d d8da c83c 5ee5 b0bd 4b9d aebd
000003e0: 2cd7 c2bd c82d 42bd 23e5 56bd fa3a 9ebd
000003f0: 74a4 9a3d abe6 44bd 0d9f 38bd e416 c33c

fc3.bias f4 [64]
32.649006 -0.083817184 32.580814 -0.020642089 32.670914 32.51806 32.72609 -0.063746914
32.8288 32.739487 -0.034391105 0.066150814 32.842075 32.59054 32.563046 32.626446
32.598778 0.061727267 32.630066 32.76501 32.780178 -0.094957 32.78969 32.68548
32.741474 32.684143 32.663754 32.645756 32.82381 32.7312 32.794083 32.697258
32.695763 32.733433 32.661346 32.73786 32.696552 32.70905 32.70886 32.68459
32.774143 -0.0713197 32.887707 32.572178 -0.09318416 -0.018355582 -0.035949796 -0.008942019
32.553436 32.760155 32.63614 32.716873 -0.049969155 32.814526 -0.070807524 32.750095
32.695602 32.71123 32.759686 32.767914 -0.05543284 32.764393 -0.113107346 32.814117
00000000: 9598 0242 58a8 abbd c152 0242 9919 a9bc
00000010: 04af 0242 7e12 0242 84e7 0242 be8d 82bd
00000020: b150 0342 3cf5 0242 b0dd 0cbd 147a 873d
00000030: 495e 0342 b75c 0242 8f40 0242 7b81 0242
00000040: 2665 0242 bbd5 7c3d 3085 0242 5f0f 0342
00000050: e71e 0342 d178 c2bd a428 0342 eebd 0242
00000060: 45f7 0242 90bc 0242 afa7 0242 4195 0242
00000070: 954b 0342 c0ec 0242 242d 0342 fec9 0242
00000080: 76c8 0242 09ef 0242 38a5 0242 92f3 0242
00000090: 45c9 0242 11d6 0242 dfd5 0242 05bd 0242
000000a0: b918 0342 1010 92bd 038d 0342 e949 0242
000000b0: 56d7 bebd 725e 96bc 1840 13bd 8c81 12bc
000000c0: b836 0242 660a 0342 688b 0242 14de 0242
000000d0: 75ac 4cbd 1342 0342 8903 91bd 1900 0342
000000e0: 4cc8 0242 4dd8 0242 eb09 0342 5812 0342
000000f0: 8c0d 63bd bd0e 0342 d3a4 e7bd a841 0342

fc4.weight f4 [49, 64]
0.8859817 0.0054086745 0.8363355 -0.021092739 1.0701603 0.54563874 1.1187533 0.043225214
1.1726004 1.1131824 0.09711464 -0.042258084 1.0922961 0.7131263 0.9654468 0.7356217
0.7830523 0.020462243 0.88130605 1.2146116 0.92929703 0.12436657 1.1238365 0.9019348
1.040325 0.9222 0.7913873 0.833108 1.08705 0.75790906 1.0970968 1.1909171
0.8954525 1.1789598 0.99877554 1.1461537 0.97886133 1.0710905 1.0682651 1.0530982
1.1575075 -0.084542975 0.9737428 0.98905754 -0.002447188 0.0882556 -0.032479294 -0.10994327
0.8622298 1.190508 0.79676133 1.0008125 0.021730512 1.1674657 0.07784412 0.8029266
0.77027744 0.65499306 0.93002343 1.2643365 -0.01609458 1.084326 0.09003569 1.1785442
4.7904387 -0.019186854 4.824197 0.054649536 4.8661294 4.7316117 4.834688 0.058808997
4.8969593 4.901462 -0.021268604 0.09895673 4.7771335 4.790024 4.6655602 4.7661757
4.700305 -0.08305417 4.8894515 4.87405 4.925364 0.02736865 4.909867 4.832989
4.810096 4.764202 4.872002 4.8215885 4.8119154 4.7039156 4.748145 4.8425326
4.7698274 4.703375 4.731632 4.869818 4.7713776 4.727634 4.794299 4.7916617
4.8997464 0.054208055 4.790133 4.683538 0.12301296 -0.020395279 -0.11020516 0.10053988
4.708104 4.9301 4.747736 4.7664237 0.03826551 4.776377 0.0728939 4.8749685
4.715424 4.845858 4.821318 4.763776 -0.015424982 4.9139132 0.02555573 4.799682
8.396563 0.07645598 8.289453 0.06556284 8.388394 8.471006 8.295632 -0.06530662
8.423988 8.469457 0.0070496723 0.04348779 8.316995 8.411353 8.255556 8.424179
8.4901495 0.12121617 8.334112 8.427145 8.331324 0.07868232 8.48304 8.42961
8.301934 8.345669 8.382527 8.342482 8.271949 8.428247 8.451618 8.460166
8.486414 8.316327 8.394446 8.4330635 8.480033 8.325261 8.317753 8.330869
8.354735 -0.0151774585 8.445195 8.464996 -0.08475517 -0.06907211 0.13568285 -0.097853005
8.339217 8.356457 8.256967 8.3529 -0.032135785 8.387536 -0.0114877075 8.378376
8.450304 8.331009 8.459957 8.410392 0.090804055 8.419115 -0.066380344 8.309716
11.538619 0.03255652 11.474118 -0.014414082 11.528881 11.45801 11.597311 0.04514098
11.548874 11.422952 -0.04564959 -0.10219127 11.305052 11.135683 11.202283 11.457729
11.549446 -0.10704301 11.362672 11.462334 11.481547 -0.06204854 11.460032 11.598253
11.5934725 11.329952 11.537474 11.351194 11.428219 11.414177 11.390809 11.384339
11.571451 11.317557 11.326377 11.511826 11.381313 11.499302 11.591277 11.39256
11.364834 0.05928132 11.406263 11.566124 0.0779663 0.020046175 0.06034341 -0.09805678
11.41285 11.475113 11.189749 11.356107 -0.093447015 11.452918 -0.07745625 11.404322
11.508408 11.525862 11.485441 11.409759 -0.057366 11.573752 -0.0041260123 11.255207
00000000: b2cf 623f 403b b13b 151a 563f aeca acbc
00000010: 03fb 883f fbae 0b3f 4f33 8f3f ec0c 313d
00000020: c517 963f c37c 8e3f 0ae4 c63d d016 2dbd
00000030: 5cd0 8b3f 728f 363f 8627 773f b451 3c3f
00000040: 1e76 483f 6fa0 a73c 469d 613f 6578 9b3f
00000050: 69e6 6d3f e6b3 fe3d e0d9 8f3f 33e5 663f
00000060: 5f29 853f 4d15 6c3f 5c98 4a3f 9146 553f
00000070: 7424 8b3f 5406 423f ab6d 8c3f f96f 983f
00000080: 603c 653f 28e8 963f c1af 7f3f 2ab5 923f
00000090: a896 7a3f 7e19 893f e9bc 883f eccb 863f
000000a0: 3529 943f de24 adbd 3547 793f e032 7d3f
000000b0: 0061 20bb 5abf b43d 0209 05bd f029 e1bd
000000c0: 18bb 5c3f 9162 983f 8df8 4b3f a01a 803f
000000d0: 3004 b23c 846f 953f bd6c 9f3d 998c 4d3f
000000e0: e730 453f a0ad 273f 0416 6e3f c7d5 a13f
000000f0: c8d8 83bc 32cb 8a3f a264 b83d 89da 963f
00000100: 464b 9940 c02d 9dbc d25f 9a40 31d8 5f3d
00000110: 55b7 9b40 5d69 9740 c4b5 9a40 b4e1 703d
00000120: e4b3 9c40 c7d8 9c40 7f3b aebc d3a9 ca3d
00000130: 47de 9840 e047 9940 454c 9540 8384 9840
00000140: e668 9640 4e18 aabd 6376 9c40 38f8 9b40
00000150: 959c 9d40 3834 e03c a11d 9d40 d9a7 9a40
00000160: 4eec 9940 5874 9840 71e7 9b40 744a 9a40
00000170: 36fb 9940 7a86 9640 cef0 9740 07f6 9a40
00000180: 6da2 9840 0c82 9640 8869 9740 8dd5 9b40
00000190: 20af 9840 c748 9740 e66a 9940 4b55 9940
000001a0: b9ca 9c40 4409 5e3d c548 9940 8bdf 9540
000001b0: 38ee fb3d 0014 a7bc 3eb3 e1bd dae7 cd3d
000001c0: caa8 9640 61c3 9d40 74ed 9740 8b86 9840
000001d0: 4cbc 1c3d 15d8 9840 6649 953d beff 9b40
000001e0: c1e4 9640 4511 9b40 3d48 9a40 da70 9840
000001f0: 10b9 7cbc c73e 9d40 405a d13c ff96 9940
00000200: 5258 0641 f494 9c3d 99a1 0441 cf45 863d
00000210: dd36 0641 3e89 0741 e9ba 0441 7abf 85bd
00000220: a8c8 0641 e582 0741 f000 e73b 4120 323d
00000230: 6912 0541 e794 0641 c216 0441 70c9 0641
00000240: a7d7 0741 2f40 f83d 8658 0541 96d5 0641
00000250: 1a4d 0541 3224 a13d 88ba 0741 afdf 0641
00000260: b9d4 0441 dc87 0541 d51e 0641 ce7a 0541
00000270: e759 0441 1ada 0641 d439 0741 d75c 0741
00000280: 5ac8 0741 ad0f 0541 a74f 0641 d4ed 0641
00000290: 37ae 0741 4534 0541 8415 0541 3d4b 0541
000002a0: ffac 0541 e0aa 78bc 851f 0741 a070 0741
000002b0: 1e94 adbd ae75 8dbd 72f0 0a3e 2867 c8bd
000002c0: 6f6d 0541 0cb4 0541 891c 0441 7aa5 0541
000002d0: d0a0 03bd 5933 0641 f036 3cbc d40d 0641
000002e0: 7234 0741 d04b 0541 fc5b 0741 f790 0641
000002f0: 7af7 b93d b2b4 0641 6bf2 87bd 99f4 0441
00000300: 2f9e 3841 fc59 053d fd95 3741 0b29 6cbc
00000310: 4c76 3841 0254 3741 968e 3941 c0e5 383d
00000320: 30c8 3841 69c4 3641 11fb 3abd a849 d1bd
00000330: 7ee1 3441 c22b 3241 8d3c 3341 dc52 3741
00000340: 88ca 3841 5e39 dbbd 81cd 3541 b865 3741
00000350: 6bb4 3741 9c26 7ebd 4b5c 3741 7292 3941
00000360: dd7e 3941 7c47 3541 7e99 3841 7e9e 3541
00000370: fcd9 3641 78a0 3641 c140 3641 4126 3641
00000380: aa24 3941 b714 3541 d738 3541 7030 3841
00000390: dc19 3641 24fd 3741 df75 3941 ed47 3641
000003a0: 5cd6 3541 f8d0 723d 0e80 3641 d80e 3941
000003b0: ccac 9f3d e037 a43c a72a 773d fed1 c8bd
000003c0: 099b 3641 109a 3741 3609 3341 9db2 3541
000003d0: 2661 bfbd 273f 3741 62a1 9ebd 1a78 3641
000003e0: 7022 3841 ee69 3841 5ec4 3741 5f8e 3641
000003f0: 9cf8 6abd 172e 3941 8033 87bb 5415 3441

fc4.bias f4 [49]
2.0883274 8.271434 20.588617 27.002834 4.356464 23.69719 -1.7944624 29.625433
27.14841 6.370371 29.061861 24.662878 12.024775 0.063793555 9.769424 29.813927
18.944183 15.228866 29.788992 -0.10701452 -0.108802676 12.163113 16.08118 29.443462
8.916528 0.069845825 -0.077116966 0.11628334 28.17783 23.049028 26.745758 0.1001261
0.057656795 0.022673815 -0.11888981 10.3715315 20.05104 0.09879975 -0.06672661 -0.029653281
-0.10995205 0.0856815 -2.5238154 0.017595395 -0.042501405 -0.055622026 0.04340005 0.019322485
-0.047856882
00000000: 28a7 0540 cb57 0441 7db5 a441 ce05 d841
00000010: 2768 8b40 d893 bd41 f2b0 e5bf e300 ed41
00000020: f22f d941 14da cb40 b17e e841 934d c541
00000030: 7a65 4041 32a6 823d 904f 1c41 ec82 ee41
00000040: b08d 9741 6fa9 7341 db4f ee41 6e2a dbbd
00000050: f0d3 debd 1c9c 4241 42a6 8041 368c eb41
00000060: 19aa 0e41 540b 8f3d 80ef 9dbd f625 ee3d
00000070: 326c e141 6964 b841 50f7 d541 ea0e cd3d
00000080: 8829 6c3d 70be b93c 807c f3bd cbf1 2541
00000090: 8868 a041 8657 ca3d f6a7 88bd 70eb f2bc
000000a0: 8a2e e1bd c879 af3d 3186 21c0 3824 903c
000000b0: f415 2ebd ecd3 63bd 40c4 313d 304a 9e3c
000000c0: 9405 44bd
