trike2/models/trainied against random/DQN_Agent_400ep.pt/DQN_Agent.pt (torch, 333080 bytes, 8 tensors)

fc1.weight f4 [256, 148]
0	0x40afe54a	5.4967394
1	0x40f46191	7.63691
2	0x40e91065	7.2832513
3	0x40ca8629	6.328877
4	0x40eb4b8b	7.3529716
5	0x40bc6214	5.8869724
6	0x40e84de4	7.259508
7	0x40a0aea0	5.0213165
8	0x40e64f4e	7.1971807
9	0x40a770d0	5.232521
10	0x40a523a3	5.1606
11	0x40d517ce	6.659156
12	0x40af1f74	5.4725895
13	0xb98b5f00	-0.00026582927
14	0x40e59183	7.1740127
15	0x40e9b2aa	7.3030596
16	0x40cd0cc5	6.407809
17	0x4096685c	4.700239
18	0x40e2447c	7.07086
19	0x3c41e8f0	0.011835322
20	0xbced5c8a	-0.02897479
21	0x40c8673c	6.262602
22	0x40f56d7a	7.669614
23	0x40fcea67	7.9036136
24	0x40e7a758	7.2391777
25	0x3c923fb4	0.017852642
26	0x3d7105d2	0.05884344
27	0xbce514bc	-0.027963988
28	0x40d1cb82	6.5560923
29	0x40d11aae	6.534507
30	0x40ca7f80	6.328064
31	0xbd990662	-0.074719205
32	0x3d9fec4d	0.07808743
33	0x3d9c9ab1	0.076466925
34	0x3cc6b678	0.02425693
35	0x40ccc388	6.3988686
36	0x40b2b162	5.584153
37	0x3d90df47	0.07073837
38	0x3d99db01	0.07512475
39	0xbd3a4421	-0.04547513
40	0xbcd12682	-0.025531057
41	0xbcacb368	-0.021081641
42	0x40bfa37a	5.9887056
43	0x3ccac308	0.024751201
44	0x3d629e0e	0.055326514
45	0xbc262230	-0.010139987
46	0xbc9eced8	-0.01938574
47	0xbd3a3169	-0.045457277
48	0x3d2b3350	0.041796982
49	0x40beeea5	5.9666314
50	0x40f35dd2	7.6052027
51	0x40f438e0	7.6319427
52	0x40c23a2f	6.0696025
53	0x40dcb39e	6.896926
54	0x40d0be3f	6.5232234
55	0x40eaffef	7.343742
56	0x40c0a5f8	6.02026
57	0x40e7ff6f	7.249931
58	0x40ca3c79	6.319882
59	0x40b961d1	5.7931905
60	0x40c23dc6	6.0700407
61	0x40a35fa1	5.1054235
62	0x3d941ff7	0.07232659
63	0x40d7bf4a	6.7421007
64	0x40c9a0d7	6.300884
65	0x40c7537e	6.228942
66	0x40a7d2ae	5.2444677
67	0x40dace23	6.837663
68	0xbd1666bf	-0.03671908
69	0xbd707068	-0.05870095
70	0x40d60660	6.688278
71	0x40e2cfbb	7.0878577
72	0x40d9e2e2	6.8089457
73	0x40c263dd	6.0746903
74	0x3d0b89d2	0.034066983
75	0x3d7f0b86	0.06226685
76	0x3d9d737d	0.07688043
77	0x40d59421	6.674332
78	0x40c6c596	6.2116194
79	0x40e66cad	7.200766
80	0xbbee8750	-0.007279314
81	0x3d9a693b	0.07539602
82	0x3b9a0230	0.004699968
83	0xbd7534e0	-0.05986488
84	0x409b1846	4.846713
85	0x40de3e7a	6.9451265
86	0x3d720c5a	0.05909381
87	0xbc905d20	-0.01762253
88	0x3da23a47	0.07921272
89	0x3c5a3eb8	0.013320617
90	0x3c1fdd60	0.00975737
91	0x40a11b35	5.034571
92	0xbd40cfd4	-0.0470732
93	0xbda600e9	-0.08105642
94	0x3d77a1de	0.060457103
95	0x3d5575aa	0.052114166
96	0x3da41d95	0.08013455
97	0x3b7cc4e0	0.0038569495
98	0x40ad637e	5.418395
99	0x40ae458e	5.4459906
100	0x40bd058e	5.906928
101	0x40a6f996	5.217967
102	0x40c205f2	6.0632257
103	0x40948be2	4.6420755
104	0x40a82ee5	5.2557244
105	0x408f0aaa	4.470052
106	0x40c8c7e5	6.274401
107	0x40b5406f	5.6641154
108	0x409f322a	4.9748735
109	0x40c48bd9	6.1420712
110	0x407f56d9	3.9896758
111	0xbca9d712	-0.020732436
112	0x40c1cb5b	6.0560737
113	0x40d248ea	6.5714006
114	0x40c7e0f3	6.2462096
115	0x4097332f	4.724998
116	0x40aacd5c	5.3375683
117	0x3d60107a	0.054703213
118	0xbd453e07	-0.048154857
119	0x40be9df9	5.956784
120	0x40bfbdf4	5.9919376
121	0x40afa1b0	5.4884872
122	0x40b51869	5.6592298
123	0x3d55cd22	0.052197583
124	0xbcf9c3e6	-0.03048892
125	0x3d4be0b6	0.049774848
126	0x408e76e4	4.452013
127	0x40b84ece	5.7596197
128	0x40bcf292	5.9046106
129	0x3d5fff9a	0.05468712
130	0xbd9170d0	-0.071015954
131	0xbd3eb6cd	-0.04656105
132	0x3c167910	0.009184137
133	0x40a5f1c4	5.1857624
134	0x40b8f076	5.779353
135	0xbc72b038	-0.014812522
136	0x3ba89190	0.0051443055
137	0xbd70ad8e	-0.058759265
138	0xbd61583e	-0.055015795
139	0x3c176498	0.009240292
140	0x40c35f93	6.105417
141	0x3d044a90	0.03229767
142	0xbc4cd838	-0.012502722
143	0x3cf54188	0.029938474
144	0xbd2c0fa8	-0.04200712
145	0xbd8e3fb1	-0.06945742
146	0x3d9197c9	0.07109029
147	0xbca545aa	-0.02017482
148	0x40b3545d	5.6040483
149	0x40f227b5	7.567347
150	0x40e391b9	7.1115384
151	0x40c7e6f6	6.2469435
152	0x40edf503	7.4361587
153	0x40b8b8ca	5.7725573
154	0x40f18702	7.5477304
155	0x40a01157	5.0021167
156	0x40e8aa29	7.2707715
157	0x40b25fa2	5.574174
158	0x409fe485	4.9966455
159	0x40d690ad	6.7051606
160	0x40aaaf62	5.333909
161	0x3d4c53a2	0.049884446
162	0x40e54b0b	7.1654105
163	0x40ecc35a	7.3988466
164	0x40ca5c98	6.323803
165	0x409806f5	4.7508492
166	0x40dd8530	6.9225082
167	0x3c1d4f40	0.009601414
168	0xbd9d92ea	-0.07694037
169	0x40c20c17	6.063976
170	0x40f50625	7.657
171	0x40fa7924	7.8272877
172	0x40e66ac4	7.200533
173	0x3d537712	0.051627226
174	0xbbb54880	-0.0055323243
175	0xbd8067f0	-0.062698245
176	0x40d07d13	6.515268
177	0x40d88d61	6.767258
178	0x40db8799	6.8603024
179	0x3ba4dcd0	0.0050312057
180	0xbd04863f	-0.03235459
181	0x3d38d92a	0.04512898
182	0xbd9c6689	-0.076367445
183	0x40d31e2e	6.597434
184	0x40ae0ad6	5.4388227
185	0x3d47de72	0.048796125
186	0xbd8d4aff	-0.0689907
187	0x3d13780a	0.03600315
188	0xbc78b558	-0.0151799545
189	0x3badc420	0.005302921
190	0x40c05c81	6.011292
191	0x3cefd4f0	0.029276341
192	0x3d984a75	0.074360766
193	0xbd6c52eb	-0.057696264
194	0x3d5563fa	0.0520973
195	0xbcd4f42e	-0.02599534
196	0x3da0a58d	0.07844076
197	0x40c71be1	6.222153
198	0x40f58085	7.6719384
199	0x40f5ffda	7.687482
200	0x40c7675b	6.2313666
201	0x40de6a0d	6.9504457
202	0x40cbad27	6.3648868
203	0x40e9d591	7.30732
204	0x40c51228	6.1584663
205	0x40eb7675	7.35821
206	0x40c6e40a	6.215337
207	0x40bb4f56	5.8534346
208	0x40c9722b	6.2951865
209	0x40b5b2be	5.678069
210	0x3d2cc656	0.042181335
211	0x40db87b7	6.8603168
212	0x40cf8386	6.484805
213	0x40c16131	6.043114
214	0x40a41cd9	5.1285214
215	0x40db190c	6.8468075
216	0xbd53f114	-0.051743582
217	0xbd7b8caa	-0.061413445
218	0x40d5293a	6.6612825
219	0x40e47bf5	7.1401315
220	0x40e136c8	7.037937
221	0x40c5acbd	6.177336
222	0x3d91da11	0.07121671
223	0xbd7265a4	-0.059178963
224	0xbc4d76a0	-0.012540489
225	0x40d2e491	6.590401
226	0x40c7ab03	6.2396255
227	0x40e00e50	7.001747
228	0xbd3ef587	-0.046620872
229	0x3d3cfb36	0.04613801
230	0xbd50ec3a	-0.051006533
231	0xbd69efd6	-0.05711349
232	0x408e7e3a	4.4529085
233	0x40dfa5c8	6.988987
234	0xbc55c470	-0.013047323
235	0xbce0277c	-0.027362578
236	0xbd84ea4d	-0.06490002
237	0xbda08b31	-0.07839049
238	0xbd1cfc71	-0.038326684
239	0x40997283	4.7952285
240	0xbbf39db0	-0.0074345693
241	0xbd9a4cf1	-0.07534207
242	0xbcb3ca6a	-0.021947104
243	0x3c8195f8	0.015818581
244	0xbd81918c	-0.06326589
245	0xbd631d8d	-0.055448104
246	0x40be3d77	5.945003
247	0x40ad5596	5.4166975
248	0x40c096f8	6.018429
249	0x40a29bb9	5.081509
250	0x40c8c1b4	6.2736454
251	0x40967552	4.7018213
252	0x40ac5e16	5.386485
253	0x408bdb52	4.3705225
254	0x40c9f490	6.311104
255	0x40ba4c28	5.8217964

fc1.bias f4 [256]
0	0x410388f8	8.22094
1	0x41060c47	8.377997
2	0x41053cdf	8.327361
3	0x41064f52	8.394365
4	0x4106a933	8.416308
5	0x4105c7fa	8.361322
6	0x41070191	8.437882
7	0x41061c1f	8.3818655
8	0x410660c1	8.398622
9	0x41061f69	8.3826685
10	0x410605ce	8.376417
11	0x41059872	8.349718
12	0xbf9da32e	-1.2315423
13	0x41052953	8.322589
14	0x410654d8	8.395714
15	0x4106bbc4	8.420841
16	0x4102de0b	8.17921
17	0x410723e6	8.446264
18	0x410655d7	8.395957
19	0x41059f4c	8.351391
20	0x4104c1f6	8.297354
21	0x41050298	8.313133
22	0x4104b8dd	8.295133
23	0x4103d02f	8.238326
24	0x41063047	8.386786
25	0x4103214c	8.195629
26	0x41037e0b	8.218272
27	0x41043e40	8.265198
28	0x4106dd60	8.429047
29	0x41061e8c	8.382458
30	0x4106ac25	8.417027
31	0x410423f6	8.25878
32	0x4105bb73	8.358264
33	0x41059a05	8.350102
34	0x4105e0ce	8.367384
35	0xbf9fdbb4	-1.2488923
36	0x41053099	8.324365
37	0x41069af2	8.412828
38	0x410592a9	8.348306
39	0xbfbd0f60	-1.4770317
40	0x4105f5d9	8.372521
41	0xbf937c1b	-1.1522249
42	0x4105e048	8.367256
43	0x41074c73	8.456164
44	0x4106ff3b	8.437312
45	0x41068415	8.407247
46	0x410586c8	8.345406
47	0x410702d6	8.438192
48	0x41061927	8.381141
49	0xbf97c07a	-1.1855614
50	0x4106178f	8.380752
51	0x41041fb4	8.25774
52	0x41039baa	8.225504
53	0x410597d3	8.349566
54	0x4106118a	8.379282
55	0x4105f398	8.371971
56	0x4103546a	8.208109
57	0x4105ecd4	8.370319
58	0x4106aede	8.417692
59	0x4107320c	8.449718
60	0x4106959a	8.411524
61	0x41060248	8.375557
62	0x41065120	8.394806
63	0x41065254	8.3951
64	0x410708b7	8.439628
65	0x41062fb2	8.386644
66	0x4104910a	8.28541
67	0x41069eb7	8.413749
68	0x410668ce	8.400587
69	0x41071e92	8.444963
70	0x4104e6a9	8.3063135
71	0x41065358	8.395348
72	0x4105ecd5	8.37032
73	0xbf8588e0	-1.0432396
74	0x4103bef8	8.234123
75	0x4105cc48	8.362373
76	0xbfaf2e92	-1.3686087
77	0x41043c84	8.264774
78	0xbf955aa8	-1.1668291
79	0xbfacf163	-1.3511165
80	0x4105863d	8.345273
81	0x410378a6	8.216955
82	0x41074d14	8.456318
83	0x410567f7	8.337882
84	0x410649c6	8.393011
85	0x4104ad71	8.292344
86	0x4106a20d	8.414563
87	0x4104f7a0	8.310455
88	0xbf9832d2	-1.1890509
89	0x410621e9	8.383279
90	0x4106bf91	8.421769
91	0x41036226	8.211462
92	0x4106db9e	8.4286175
93	0x41052465	8.321385
94	0x4103bb17	8.233176
95	0xbfae52e8	-1.3619051
96	0x4105b9ef	8.357894
97	0x410695ce	8.411573
98	0x4103cb96	8.237204
99	0x4106c555	8.423177
100	0x41070c88	8.440559
101	0x41070632	8.439013
102	0x4105f639	8.372613
103	0x4106b2e9	8.418679
104	0x4106a140	8.414368
105	0x4106f057	8.433677
106	0x41060f02	8.378664
107	0x41077bf9	8.467767
108	0x4103f2fa	8.24682
109	0x4102d232	8.176317
110	0x41046dec	8.276836
111	0x410560fb	8.336177
112	0x410696e6	8.41184
113	0x4105ca53	8.361896
114	0x41059782	8.349489
115	0x4105c946	8.361639
116	0x4106389b	8.38882
117	0x41060773	8.376819
118	0x41074f57	8.45687
119	0x4106ad2d	8.417279
120	0xbf8e0c8b	-1.1097578
121	0x41069928	8.412392
122	0x4105f2c9	8.371774
123	0xbf9f0451	-1.2423192
124	0xbfabf2cd	-1.3433472
125	0xbf9810e2	-1.1880152
126	0x4107274b	8.447093
127	0x410777e2	8.466768
128	0x41056b82	8.338747
129	0x41069d00	8.41333
130	0x4104f766	8.3104
131	0x41072194	8.445698
132	0x4101cd01	8.11255
133	0x41063ef3	8.390368
134	0x41038412	8.219744
135	0x41059a84	8.350224
136	0x410389bc	8.221127
137	0x41045cb1	8.27263
138	0x4103f2f7	8.246818
139	0x4105209f	8.320464
140	0x4103c54b	8.235667
141	0x41049962	8.287447
142	0x4104cb57	8.2996435
143	0x4105e783	8.369021
144	0x41079821	8.474641
145	0x41067fd3	8.406207
146	0x41067150	8.402664
147	0x4105d474	8.364368
148	0x41060eb1	8.378587
149	0x410756a3	8.458652
150	0x410603ec	8.3759575
151	0x4105a39d	8.352445
152	0x41066741	8.400208
153	0x410683eb	8.407207
154	0x4102a918	8.166283
155	0x41053a72	8.326769
156	0x4106aa28	8.416542
157	0x4106da07	8.428229
158	0x410551b6	8.332449
159	0x4103f7e9	8.248025
160	0x41070271	8.438096
161	0x4105b04f	8.355544
162	0x4106af56	8.417807
163	0x4105bb5a	8.35824
164	0x41066441	8.399476
165	0x410504ca	8.313669
166	0x4103dd13	8.241473
167	0x4106740a	8.40333
168	0x41070b25	8.440221
169	0x41067269	8.402932
170	0x4104881d	8.283231
171	0x41066ab0	8.401047
172	0xbfa16fda	-1.2612259
173	0x41071aa0	8.444
174	0x41068adf	8.408904
175	0x410729a9	8.447671
176	0x4103533b	8.20782
177	0x41063dda	8.3901005
178	0x41060264	8.375584
179	0x4105848c	8.34486
180	0x4106faa0	8.436188
181	0x410679db	8.40475
182	0x41055c3b	8.335017
183	0x4105cfce	8.363234
184	0x41060927	8.377234
185	0x4105e2fd	8.367917
186	0xbf80c256	-1.0059307
187	0x41031c00	8.194336
188	0x41070eb2	8.441088
189	0x41069970	8.41246
190	0x41068f19	8.409936
191	0xbf9f6f4a	-1.2455838
192	0x410682ad	8.406903
193	0x4105fe1a	8.3745365
194	0x4106a2c2	8.414736
195	0x4106a51e	8.415312
196	0x41070bfe	8.440428
197	0x4106e430	8.43071
198	0x41069674	8.411732
199	0xbfa6ba21	-1.3025552
200	0x4106ceba	8.42547
201	0x41037cae	8.217939
202	0x41040434	8.251026
203	0xbfad9f85	-1.3564306
204	0x4101e7a8	8.119057
205	0x410454a7	8.270667
206	0x410638b1	8.388841
207	0x41066779	8.400262
208	0x4106aeff	8.417724
209	0x4102e81f	8.18167
210	0x4106b3ec	8.418926
211	0x41070a7b	8.440059
212	0x4103d9e6	8.240698
213	0x41055207	8.332526
214	0x41043809	8.26368
215	0xbfa30fff	-1.2739257
216	0x41065d73	8.397815
217	0x41061b32	8.3816395
218	0x4106f47f	8.434691
219	0x4103eb62	8.2449665
220	0x41072e08	8.448738
221	0x4106135f	8.379729
222	0x41065420	8.395538
223	0x4104e748	8.306465
224	0x410631bd	8.387143
225	0x4105b2ef	8.356185
226	0xbfb708fa	-1.4299614
227	0x4106775a	8.404139
228	0x41044c6c	8.268658
229	0xbf9a0cb6	-1.2035129
230	0x41052e57	8.323813
231	0x4105bab3	8.358081
232	0x4106e6d1	8.431352
233	0x41054a71	8.330674
234	0x4106c116	8.42214
235	0xbfb7f77f	-1.4372405
236	0x4104e8b3	8.306811
237	0xbf99a481	-1.2003328
238	0x4104aabd	8.291684
239	0x4106acf4	8.417225
240	0x41038887	8.220832
241	0x4105f432	8.372118
242	0x41057844	8.341862
243	0x4107741a	8.465845
244	0x4105a8d0	8.353714
245	0x41073211	8.449723
246	0x4106d606	8.427252
247	0x4106f6fb	8.435298
248	0x4105e81f	8.36917
249	0x4103d65a	8.239832
250	0x4105a83a	8.353571
251	0x41068461	8.407319
252	0x41066c71	8.401475
253	0x4105bea7	8.359046
254	0x4103eb6e	8.244978
255	0x4103f1ce	8.246534

fc2.weight f4 [128, 256]
0	0x41021089	8.129037
1	0x41043975	8.264028
2	0x41029a98	8.162743
3	0x41039a8d	8.225232
4	0x4103b59c	8.231838
5	0x41026c84	8.151493
6	0x41032c4c	8.198315
7	0x41021a05	8.131352
8	0x410561b5	8.336354
9	0x4102cc74	8.174915
10	0x41042502	8.259035
11	0x41028537	8.157523
12	0xc04537e6	-3.0815368
13	0x40fbdc84	7.8706684
14	0x41026046	8.148504
15	0x410123fa	8.071283
16	0x4103e088	8.242317
17	0x4105eb8f	8.370009
18	0x410408e6	8.252172
19	0x41051ad7	8.319053
20	0x40fe2867	7.942432
21	0x410130d9	8.074426
22	0x4103ae0e	8.229994
23	0x4103517e	8.207396
24	0x410154de	8.08322
25	0x40f79a3e	7.7375784
26	0x410386b2	8.220385
27	0x4100caee	8.049543
28	0x410210c7	8.129096
29	0x4102e952	8.181963
30	0x4103beba	8.234064
31	0x41028476	8.157339
32	0x410143e8	8.079079
33	0x410198cf	8.099807
34	0x4103c517	8.235618
35	0xc0513d01	-3.2693484
36	0x41033ce7	8.202369
37	0x4101d090	8.113419
38	0x41043c4f	8.264724
39	0xc054121a	-3.3136048
40	0x41048d09	8.284432
41	0xc04d3252	-3.2061963
42	0x4104a007	8.289069
43	0x4103570f	8.208755
44	0x41037a24	8.2173195
45	0x41025408	8.145515
46	0x41031d59	8.194665
47	0x41061735	8.380666
48	0x41008a22	8.033724
49	0xc06ac69b	-3.668372
50	0x41028832	8.158251
51	0x40fe558b	7.9479423
52	0x4102427e	8.141233
53	0x4103368b	8.200816
54	0x4104f669	8.310159
55	0x4103af9c	8.230373
56	0x4104bb32	8.295702
57	0x4103e632	8.2437
58	0x4104239a	8.258692
59	0x41063382	8.387575
60	0x41031a0f	8.193862
61	0x41020249	8.125558
62	0x41026b01	8.151124
63	0x41050565	8.313817
64	0x41047897	8.279441
65	0x4102e964	8.18198
66	0x410101ac	8.062908
67	0x41029669	8.161721
68	0x4103a657	8.22811
69	0x410368fb	8.21313
70	0x41033ae5	8.201879
71	0x4104c05d	8.296964
72	0x4101aa06	8.10401
73	0xc0439731	-3.056103
74	0x4102e4c9	8.180856
75	0x4101c79d	8.111234
76	0xc054c947	-3.324785
77	0x41031442	8.192446
78	0xc052cfbf	-3.2939298
79	0xc04d22c1	-3.2052462
80	0x41024e0b	8.144053
81	0x41014369	8.078958
82	0x41047eff	8.281005
83	0x4101c110	8.109634
84	0x410433af	8.262618
85	0x4103a173	8.226916
86	0x41056230	8.336472
87	0x41049e7c	8.288692
88	0xc0530588	-3.2972126
89	0x41048cce	8.284376
90	0x4103e342	8.242983
91	0x40ff1479	7.971249
92	0x410228f0	8.1349945
93	0x4103ee6e	8.24571
94	0x41044590	8.266983
95	0xc04909b1	-3.1412165
96	0x4102bdb8	8.171318
97	0x410516ef	8.318099
98	0x4103801c	8.218777
99	0x4105873e	8.345518
100	0x4103e515	8.243428
101	0x41025ab7	8.147147
102	0x4104b8d7	8.295127
103	0x4102ea8d	8.182263
104	0x41017991	8.092179
105	0x4104d7a7	8.3026495
106	0x4102dd93	8.179095
107	0x4102ebd9	8.18258
108	0x4104fc1f	8.311553
109	0x410338ee	8.201399
110	0x41043bce	8.264601
111	0x41034615	8.20461
112	0x4103fb33	8.248828
113	0x40feb629	7.9597363
114	0x41040bbf	8.252868
115	0x4102c0c0	8.172058
116	0x4103cb66	8.237158
117	0x4101425c	8.078701
118	0x4102cdd6	8.175253
119	0x41030f4d	8.191236
120	0xc051c668	-3.2777348
121	0x41039cbb	8.225764
122	0x4101fa54	8.123615
123	0xc0460ca0	-3.0945206
124	0xc04c8c08	-3.1960468
125	0xc052e570	-3.2952538
126	0x4105db60	8.366058
127	0x41048925	8.283483
128	0x4102ec64	8.182713
129	0x4103c99e	8.236723
130	0x4104ec0b	8.307628
131	0x41020842	8.127016
132	0x4102ca0e	8.17433
133	0x41017fc8	8.093697
134	0x41039ce6	8.225805
135	0x4101e3c3	8.118106
136	0x4101557c	8.08337
137	0x41037c51	8.217851
138	0x40fb03fa	7.8442354
139	0x410088c8	8.033394
140	0x41037fe3	8.218722
141	0x4100f7c9	8.060494
142	0x41013564	8.075535
143	0x4103c509	8.235604
144	0x4104e7c8	8.306587
145	0x41038bee	8.2216625
146	0x4101b92f	8.107711
147	0x41026c2d	8.15141
148	0x4100cff3	8.050769
149	0x410592bf	8.348327
150	0x41030c10	8.190445
151	0x410257bc	8.14642
152	0x41018b1a	8.09646
153	0x4102e4b6	8.180838
154	0x40fe57d9	7.9482236
155	0x4101a49e	8.10269
156	0x41023658	8.1382675
157	0x4103fc23	8.249057
158	0x41034f76	8.2069
159	0x4102fb16	8.1863
160	0x41040445	8.251042
161	0x4104abeb	8.291972
162	0x410421ee	8.258284
163	0x4100dc85	8.053838
164	0x4102a0ec	8.164288
165	0x41027b20	8.15506
166	0x40fe96a5	7.955889
167	0x41032312	8.196062
168	0x41040d33	8.253222
169	0x41042595	8.259175
170	0x41002517	8.009055
171	0x41024e27	8.14408
172	0xc04fa31e	-3.244331
173	0x41046123	8.273715
174	0x41036e74	8.214466
175	0x41041950	8.25618
176	0x41040d06	8.25318
177	0x4102ef34	8.183399
178	0x41030695	8.189107
179	0x4101b675	8.107045
180	0x41046479	8.274529
181	0x4103fc6c	8.249126
182	0x41031385	8.1922655
183	0x41020e97	8.128562
184	0x41035c8a	8.210093
185	0x41021063	8.129001
186	0xc04a3e82	-3.1600652
187	0x4102661b	8.149928
188	0x4105ad60	8.354828
189	0x41048b61	8.284028
190	0x410272b1	8.153001
191	0xc063a1b0	-3.5567436
192	0x4104678c	8.27528
193	0x41056971	8.338243
194	0x4101ee10	8.120621
195	0x41038f7f	8.222533
196	0x4103e961	8.244477
197	0x4102b55f	8.16928
198	0x410441f8	8.266106
199	0xc04bd245	-3.1847088
200	0x4103e400	8.243164
201	0x40fd4b11	7.9154134
202	0x4102e00e	8.179701
203	0xc05f002e	-3.484386
204	0x40f45813	7.6357512
205	0x40ff416e	7.976737
206	0x41045af9	8.27221
207	0x4102832f	8.157027
208	0x410399f0	8.225082
209	0x41010320	8.063263
210	0x4101d0a9	8.113442
211	0x410595f6	8.349112
212	0x41027d28	8.155556
213	0x41055dc1	8.335389
214	0x4103aacb	8.2291975
215	0xc04986cc	-3.1488523
216	0x4102457a	8.141962
217	0x41030d86	8.190802
218	0x41022bc1	8.135682
219	0x41026689	8.150033
220	0x41036e58	8.214439
221	0x41023aba	8.139338
222	0x4101dc6d	8.116315
223	0x4101f7c5	8.122991
224	0x4103cfb3	8.238208
225	0x4103d672	8.239855
226	0xc043ef79	-3.0614913
227	0x41039cd5	8.225789
228	0x4100c2df	8.047576
229	0xc05982e9	-3.3986151
230	0x41054efb	8.331782
231	0x4103ceb9	8.237969
232	0x410338a9	8.201333
233	0x41065a22	8.397005
234	0x41032875	8.197377
235	0xc046d456	-3.10671
236	0x4103d894	8.2403755
237	0xc058db05	-3.388368
238	0x41029b71	8.16295
239	0x410667d8	8.4003525
240	0x41027925	8.154576
241	0x4102df6e	8.179548
242	0x41057074	8.339954
243	0x4105529d	8.332669
244	0x4101147c	8.067501
245	0x410620d3	8.383014
246	0x41026281	8.149049
247	0x4103cf7d	8.238156
248	0x4103cb13	8.237079
249	0x4101a978	8.103874
250	0x4105ece2	8.370333
251	0x41041cbc	8.257015
252	0x41043f8d	8.265515
253	0x41032b75	8.19811
254	0x40ffbd24	7.9918385
255	0x4101b65a	8.107019

fc2.bias f4 [128]
0	0x40fcbf48	7.89835
1	0x40fcb434	7.8969975
2	0x40fb764d	7.858191
3	0x40fe539a	7.9477053
4	0x40fee210	7.9650955
5	0x40fc57e4	7.885729
6	0x40fdb949	7.928868
7	0x410027a6	8.00968
8	0x40ffc0dd	7.992293
9	0x40feb547	7.9596286
10	0x40fd70d7	7.9200244
11	0x40ff6429	7.9809766
12	0x40fda7c9	7.9267316
13	0x40fd9297	7.9241443
14	0x40fe1e3c	7.9411907
15	0x40fdc011	7.9296956
16	0x40fbd8f9	7.870236
17	0xbda67622	-0.08128001
18	0x41001dda	8.007288
19	0x3b35ffe2	0.0027770926
20	0x40fe213b	7.9415565
21	0x41002408	8.008797
22	0x40fd720c	7.9201717
23	0x40fe157c	7.9401226
24	0x40fd64eb	7.918569
25	0xbd766c3e	-0.06016182
26	0x41000039	8.000054
27	0x40feecc9	7.9664044
28	0xbd87b5bc	-0.0662646
29	0x40fe1a16	7.9406843
30	0x40fe33ad	7.943808
31	0x40fff78a	7.998967
32	0x40f8c1e2	7.7736673
33	0x40fe7d6f	7.9528117
34	0x40fee8e5	7.9659295
35	0x40ffe283	7.9964004
36	0x40ff64aa	7.981038
37	0x40fd2165	7.9103265
38	0x40fa76c3	7.8269973
39	0x40fd6f14	7.9198093
40	0xbd749faa	-0.05972258
41	0x40ff50a5	7.9785943
42	0x40fe31c1	7.9435735
43	0x41001917	8.006125
44	0x40fd8bad	7.9233003
45	0x40fd267a	7.910947
46	0x40fe22e3	7.9417586
47	0x40fe9a99	7.956372
48	0x40fea1a8	7.9572334
49	0x40fc5db9	7.8864408
50	0x40fde1cd	7.9338136
51	0x40ffa771	7.9891896
52	0xbd7065e4	-0.05869092
53	0x40fec669	7.96172
54	0x40fdab7d	7.9271836
55	0x40ff8a19	7.9856076
56	0x40fc6ef7	7.8885455
57	0x40fe5d45	7.9488854
58	0xbd7738ea	-0.06035701
59	0x40fd7d6f	7.9215617
60	0x40fcbf4c	7.8983517
61	0x40fe89bd	7.9543138
62	0x40fd7853	7.920938
63	0x40fe6219	7.949475
64	0x40ff5c60	7.9800262
65	0x40ff33a9	7.975056
66	0x40fb7c6d	7.8589387
67	0xbdd75520	-0.10514283
68	0x40feab18	7.9583855
69	0xbdaecc09	-0.0853501
70	0x40fc5d96	7.886424
71	0x40fc0704	7.8758564
72	0x40fc5524	7.885393
73	0x40fe962b	7.955831
74	0x40fff228	7.99831
75	0x40ff2de8	7.974354
76	0xbd779f52	-0.060454674
77	0x40ff24bc	7.973234
78	0x40fe4089	7.945378
79	0x40fe096d	7.9386506
80	0x41001479	8.004998
81	0x40fd86b7	7.9226947
82	0x4100711d	8.027616
83	0xbd14a8a6	-0.03629365
84	0x40ff91d7	7.9865527
85	0x40fc2520	7.879532
86	0x40ff8188	7.984562
87	0x40ff4c2e	7.9780493
88	0xbd8a5a8d	-0.067555524
89	0x40ffb834	7.9912357
90	0x40fdcf80	7.9315796
91	0xbd32decc	-0.043669507
92	0x40ffdf19	7.9959836
93	0x40fe0dc5	7.939181
94	0x40ff222c	7.9729214
95	0x40fd4fa5	7.915972
96	0xbc60be86	-0.013717299
97	0x3a259a56	0.00063172483
98	0x40fb7db5	7.859095
99	0x40fcd56d	7.901053
100	0x40fffe3b	7.999784
101	0x40fe922e	7.955344
102	0x40fc7df8	7.890377
103	0xbd41c9f7	-0.04731175
104	0x40ffc29a	7.992505
105	0x40fcbffd	7.898436
106	0x40ff9d62	7.987962
107	0xbddf04e4	-0.10889605
108	0x41000ac4	8.002628
109	0x40fc8aa6	7.891925
110	0x40ff5aaf	7.97982
111	0x40fcc0d1	7.898537
112	0x40ff1117	7.970836
113	0x40fddfc7	7.9335666
114	0x40ff4145	7.9767175
115	0x410032f0	8.012436
116	0x40fec661	7.961716
117	0xbd563325	-0.05229487
118	0x40ffb26d	7.9905305
119	0x40fd50b1	7.9161
120	0x40fd1aa7	7.9095035
121	0x40fcb4a9	7.8970532
122	0xbcfd2dcc	-0.030905627
123	0x40fcb7a3	7.8974166
124	0x40fd1ca7	7.9097476
125	0xbc8d132d	-0.017221058
126	0x40fea6bc	7.9578533
127	0xbb5dd742	-0.0033850227

fc3.weight f4 [64, 128]
0	0x3bae5a51	0.005320825
1	0x3d1d2315	0.038363535
2	0xbd42cd3e	-0.047559015
3	0xbdcda1e5	-0.100406446
4	0xbd5550bb	-0.052078944
5	0x3d1d6129	0.038422737
6	0xbdb5897b	-0.08864113
7	0xbd366739	-0.044532035
8	0xbcd24591	-0.025667937
9	0xbd9790db	-0.07400676
10	0x3d4e3a7e	0.05034875
11	0xbd65e4e2	-0.056126483
12	0xbc500265	-0.012695883
13	0xbd9492d2	-0.07254566
14	0xbd61133a	-0.054949977
15	0xbceb6106	-0.028732788
16	0xbd84e88e	-0.06489669
17	0xbd65241d	-0.055942643
18	0xbb0a2d61	-0.0021084177
19	0x3bbec57e	0.0058218827
20	0xbc510300	-0.012757063
21	0xbd009359	-0.03139052
22	0x3d6310fd	0.055436123
23	0x3d00cf4f	0.031447705
24	0xbcf3140a	-0.029672641
25	0xbc978887	-0.018497718
26	0xbd4d97b3	-0.0501935
27	0xbd2a1202	-0.04152108
28	0x3d54cd3a	0.05195353
29	0xbdeee23a	-0.11664243
30	0x3d8124f7	0.063058786
31	0x3d53a588	0.051671535
32	0x3c203c02	0.009779932
33	0x3d4199a3	0.04726566
34	0xbd18b0bd	-0.037277926
35	0x3c82056a	0.015871722
36	0xbce60277	-0.028077347
37	0xbb9d383f	-0.004797965
38	0x3c5aa4c6	0.013344949
39	0x3c9c6e35	0.01909552
40	0xbd87783b	-0.06614729
41	0x3cec6346	0.028855931
42	0x3ca4b21a	0.020104457
43	0xbd9cdd3f	-0.07659387
44	0x3d6c9daa	0.057767548
45	0xbd815684	-0.0631533
46	0xbac48341	-0.001499273
47	0xbd95cb0d	-0.073141195
48	0x3cc41b0b	0.023938676
49	0xbd9a55d2	-0.075359
50	0x3d843561	0.06455494
51	0x3cb058d7	0.021526737
52	0xbd475e27	-0.048673775
53	0x3c77e9f4	0.015131462
54	0xbdf443af	-0.11926972
55	0xbc88aca0	-0.016683877
56	0x3cf88f1f	0.030341683
57	0x3d09aaec	0.03361027
58	0xbbe3c040	-0.006950408
59	0xbdf8f402	-0.12155916
60	0x3d98ac9f	0.074548
61	0xbdc052c8	-0.09390789
62	0xbd4b2686	-0.049597286
63	0xbd97febb	-0.07421633
64	0xbcd022fe	-0.02540731
65	0x3b96c024	0.0046005417
66	0x3d68ac58	0.056804985
67	0x3d0a764c	0.033804223
68	0xbb8bbfc9	-0.004264806
69	0x3c0b70da	0.008510793
70	0x3d300ab3	0.042978954
71	0x3d58a73a	0.052893855
72	0xbdfb9f68	-0.12286264
73	0xbdfa1b3e	-0.12212227
74	0xbdbe333a	-0.092871144
75	0xbd877c94	-0.06615558
76	0x3b478715	0.0030445505
77	0x3d1de693	0.03854997
78	0x3d9255b0	0.0714525
79	0xbd9e12ee	-0.07718454
80	0xbdbc118c	-0.09183034
81	0x3dc44b02	0.09584619
82	0xbde8480d	-0.113418676
83	0x3db29fef	0.08721911
84	0x3d8c0a1d	0.068378665
85	0xbd937283	-0.07199576
86	0xbcd706f2	-0.026248429
87	0xbdffbb95	-0.1248695
88	0x3d89a512	0.06720938
89	0x3cdf369d	0.027247721
90	0xbd34db8a	-0.04415468
91	0xbd0127f5	-0.031532247
92	0xbdc9aa75	-0.09846965
93	0xbd1c5935	-0.038171012
94	0xbcc80ea8	-0.024421051
95	0xbc8f73c7	-0.017511262
96	0xbdafd454	-0.0858542
97	0xbde1a53e	-0.110178456
98	0xbd9058f0	-0.070482135
99	0xbd149d72	-0.036282964
100	0x3cc51430	0.024057478
101	0xbddf0784	-0.10890105
102	0xbd69b5b9	-0.05705807
103	0xbd65707f	-0.056015488
104	0x3c967b73	0.018369412
105	0xbe05a76a	-0.13052145
106	0xbd1525d5	-0.036413033
107	0xbd320c77	-0.04346892
108	0xbb2e6304	-0.002660931
109	0xbdd7ce7f	-0.10537433
110	0xbcc654e0	-0.024210393
111	0xbdd1f024	-0.10250881
112	0x3d01dd58	0.03170523
113	0x3b933feb	0.0044937036
114	0x3c1585b3	0.009126115
115	0xbc1b05cc	-0.009461831
116	0xbcbc6279	-0.022996174
117	0x3d01c864	0.031685248
118	0xbdbc7165	-0.09201316
119	0x3d5f9fc1	0.054595713
120	0x3cb9e526	0.022692274
121	0xbdd2ebd1	-0.10298885
122	0x3d7048e5	0.058663268
123	0xbc903ba4	-0.017606564
124	0xbd5cb785	-0.053885955
125	0x3c389f87	0.011268503
126	0x3d53223e	0.051546328
127	0xbca308c3	-0.019901639
128	0xbd09a075	-0.03360029
129	0x3c20fe28	0.009826221
130	0xbd93f17e	-0.07223795
131	0x3c8a9138	0.016914949
132	0xb9c561ca	-0.00037647627
133	0xbd9c8ef7	-0.07644456
134	0x3cf91309	0.030404584
135	0xbd1e5a9e	-0.038660638
136	0xbd94fd50	-0.07274878
137	0x3c5a7fae	0.013336105
138	0x3ca25a04	0.019818313
139	0xbdaf9fc2	-0.08575393
140	0xbca3c98c	-0.019993566
141	0xbcf75f47	-0.030196799
142	0xbda67b7c	-0.081290215
143	0xbd263c32	-0.04058475
144	0x3cc24c84	0.023718126
145	0xbd5b8a6e	-0.053598814
146	0x3d946307	0.072454505
147	0x3d6dc1f5	0.0580463
148	0x3bc7b943	0.006095083
149	0xbced0b38	-0.028936014
150	0x3d10cf44	0.035353914
151	0x3b82cc40	0.0039916337
152	0x3d430cbe	0.047619574
153	0xbd1986eb	-0.037482183
154	0xbd3c42cc	-0.04596214
155	0xbc9a7699	-0.01885538
156	0x3d8f7a2b	0.070057236
157	0xbdb4c0ef	-0.08825862
158	0x3d8e5989	0.06950671
159	0x3ca6f8a0	0.020382226
160	0xbdd25d40	-0.10271692
161	0x3d182aa2	0.037150033
162	0x3d634c3a	0.055492617
163	0xbd9a7477	-0.07541745
164	0x3d60d0b2	0.054886527
165	0xbd926f4b	-0.07150134
166	0x3b106a83	0.0022036142
167	0x3d84621f	0.064640276
168	0xbdaf1f6e	-0.085509166
169	0xbd1acd78	-0.037793607
170	0xbd0db8d2	-0.034600087
171	0xbd86b951	-0.06578315
172	0x3d197f4b	0.03747491
173	0x3aa2a9c0	0.0012410209
174	0xbd958e7d	-0.07302568
175	0x3cf67b1c	0.030088
176	0xbc520b48	-0.0128200725
177	0xbc330333	-0.010926056
178	0x3cd299fd	0.025708193
179	0x3ce38ba0	0.02777654
180	0xbd2b3cd2	-0.04180605
181	0x3c1ab47b	0.009442444
182	0xbdaae457	-0.083443336
183	0x3db4684d	0.08808956
184	0xbd1c3ba3	-0.03814281
185	0xbd0b7ad8	-0.0340527
186	0xbd041a00	-0.032251358
187	0xbdad78c9	-0.084703036
188	0x3bb224c0	0.00543651
189	0xbd6c23e2	-0.057651408
190	0x3d389f26	0.04507365
191	0x3b514560	0.003193222
192	0x3c201d00	0.009772539
193	0xbda6a06d	-0.081360675
194	0xbd073587	-0.033010032
195	0xbc88206c	-0.016617022
196	0x3d340c16	0.04395684
197	0x3cc270e8	0.023735479
198	0xbc0e0df0	-0.008670315
199	0xbcebd07b	-0.028785935
200	0x3dafb127	0.08578711
201	0xbd3668cd	-0.04453354
202	0xbdab1385	-0.083533324
203	0x3d664fc6	0.05622842
204	0xbbc815f7	-0.006106134
205	0xbd342403	-0.043979656
206	0x3d1c2a22	0.03812612
207	0x3d9b631b	0.07587262
208	0x3d05a34c	0.032626435
209	0x3d046b78	0.032329053
210	0xbc9144f4	-0.017733075
211	0x3bd58ed0	0.0065172687
212	0xbd3f94f8	-0.046772927
213	0x3d0f89a7	0.035043385
214	0xbccc79c8	-0.024960414
215	0x3b3c8a00	0.0028768778
216	0x3c12ccd0	0.008959964
217	0x3d702566	0.058629416
218	0xbd9dc95d	-0.077044226
219	0xbc1a5320	-0.009419233
220	0x3cc62074	0.024185397
221	0xbd453f8e	-0.048156314
222	0x3d07011a	0.032960035
223	0xbdbd3745	-0.092390575
224	0xba847927	-0.0010106907
225	0x3d31def5	0.04342552
226	0xbd853040	-0.065033436
227	0xbd3a9c1d	-0.045559037
228	0xbd79ef8a	-0.061019458
229	0x3ca8f230	0.020623296
230	0x3d62bd3a	0.05535624
231	0xbdaeb621	-0.08530832
232	0x3d969f49	0.073546
233	0xba1e8e00	-0.00060483813
234	0x3ca7fe54	0.020507015
235	0x3ab7ad63	0.0014013465
236	0xbd11dc47	-0.035610463
237	0x3d00f8f6	0.031487428
238	0x3d587b76	0.052852117
239	0x3b5c7360	0.0033638105
240	0xbda0db00	-0.07854271
241	0xbd296ab9	-0.041361544
242	0x3c87c1dc	0.016571932
243	0xbd09d40e	-0.033649497
244	0xbda44dc0	-0.08022642
245	0xbd88f609	-0.066875525
246	0xbd4f6145	-0.050629873
247	0x3cbf0319	0.023316907
248	0xbcab25f6	-0.020892125
249	0xbda00e15	-0.07815186
250	0x3d4d6fe0	0.05015552
251	0xbc07bca8	-0.008284725
252	0xbda7d111	-0.08194173
253	0x3d43117e	0.047624104
254	0x3d676aca	0.056498326
255	0x3d4b999e	0.049707048

fc3.bias f4 [64]
0	0xbcf73ffe	-0.030181881
1	0xbdbdd32f	-0.09268796
2	0xbd7e3eb3	-0.062071513
3	0x40f0347a	7.506406
4	0x40ef0282	7.469056
5	0xbdc3281c	-0.09529135
6	0x40f20699	7.5633054
7	0xbd1a166b	-0.037619036
8	0x40e70890	7.219795
9	0x3de64e86	0.11245446
10	0x40f0b565	7.522143
11	0x40f2e840	7.590851
12	0x40ee9970	7.45623
13	0xbdcb7afb	-0.09935566
14	0xbd76cbfb	-0.060253125
15	0x40f0ab81	7.5209355
16	0x40efbec4	7.492037
17	0x40f3329d	7.5999284
18	0x40ee99b2	7.4562616
19	0x40ee35c4	7.444063
20	0xbdd1f161	-0.102511175
21	0xbdceac88	-0.100915015
22	0x3d9fb930	0.077989936
23	0x40eee81d	7.465834
24	0x40ed90ca	7.4239244
25	0xbdba0865	-0.090836324
26	0x40f1d4a8	7.557209
27	0x40ec4ac3	7.384126
28	0x40eee204	7.46509
29	0xbdd27f18	-0.102781475
30	0x40f08e48	7.5173683
31	0x40ed08e0	7.4073334
32	0x40f1ccf1	7.5562673
33	0x40f0afd5	7.521464
34	0x40f292e2	7.58043
35	0x40f02822	7.504899
36	0xbd3a535c	-0.045489654
37	0xbdaba4dc	-0.08381054
38	0x40ef8092	7.4844446
39	0x40eab1b0	7.3341904
40	0x40ef7c06	7.4838896
41	0x40f09765	7.518481
42	0x40f1b85f	7.553756
43	0x40f35155	7.603678
44	0x40ef4876	7.4775953
45	0x40efe0ea	7.4962053
46	0x40efc1f5	7.4924264
47	0x40f19c98	7.5503654
48	0x40f13e0d	7.5388246
49	0xbd60d7c0	-0.054893255
50	0x40f0b3ed	7.5219636
51	0x40e95018	7.291027
52	0x40ef7543	7.483064
53	0x40f1b4bf	7.5533137
54	0x40eee3a0	7.4652863
55	0x40ec3545	7.3815026
56	0x40f0d6ea	7.5262346
57	0x40f0f42b	7.5298057
58	0x40ef49d9	7.4777646
59	0xbdf34cca	-0.11879881
60	0xbcf87178	-0.030327544
61	0x40f14cac	7.5406094
62	0xbd878485	-0.06617073
63	0x40f03609	7.506596

fc4.weight f4 [49, 64]
0	0x3e115e42	0.14196113
1	0x3deb52e4	0.114904195
2	0x3d8d7d00	0.069086075
3	0x3fe113ff	1.7584227
4	0x3ff66dcc	1.9252257
5	0xbdb23148	-0.08700806
6	0x3fe7aa7b	1.8098902
7	0xbdee17bc	-0.11625621
8	0x3fde27cc	1.7355895
9	0xbe1f60e6	-0.15564308
10	0x3fad4c6a	1.3538945
11	0x3fe73d07	1.8065499
12	0x3ff78645	1.9337851
13	0xbdec1b19	-0.11528606
14	0xbbabe720	-0.005246058
15	0x3fee24c7	1.8604974
16	0x3fde1a46	1.7351768
17	0x3fed380b	1.8532728
18	0x3feec19b	1.8652834
19	0x3ff345a8	1.9005632
20	0x3da1a0f2	0.07892026
21	0xbc436560	-0.011926025
22	0x3e064a3d	0.13114257
23	0x3fde9073	1.7387832
24	0x3fc4efbe	1.5385664
25	0xbd9135a2	-0.07090308
26	0x3ff5a232	1.9190123
27	0x3ff34e49	1.9008266
28	0x3fbce80a	1.4758313
29	0xbcd7adb8	-0.026327953
30	0x3ff498a3	1.9109081
31	0x3ff4062b	1.9064382
32	0x3ff51055	1.9145609
33	0x3fb3484d	1.400644
34	0x3ff073d7	1.8785352
35	0x3fbfc0d5	1.4980723
36	0x3d8c88c4	0.068620235
37	0x3d942ff9	0.072357126
38	0x3ff06583	1.8780979
39	0x3fdb8376	1.7149494
40	0x3fdd4fe5	1.7290007
41	0x3fda8ba1	1.7073861
42	0x3fe19777	1.7624348
43	0x3fde7235	1.7378603
44	0x3fe9462d	1.8224541
45	0x3ff2ed8b	1.8978742
46	0x3fdbaeb6	1.7162693
47	0x3fed4cb6	1.8539035
48	0x3fe051ff	1.7525023
49	0xbd0cefe6	-0.034408472
50	0x3fd74a33	1.6819519
51	0x3fef6685	1.8703161
52	0x3fe98a33	1.82453
53	0x3fe4ae28	1.7865648
54	0x3ff188b7	1.8869847
55	0x3fe399da	1.7781327
56	0x3fdd35f5	1.7282091
57	0x3fe70610	1.8048725
58	0x3ff5f40f	1.9215106
59	0x3d363900	0.044487953
60	0x3be46840	0.0069704354
61	0x3fe3b206	1.7788703
62	0xbd9cdc16	-0.076591656
63	0x3fe373d9	1.7769729
64	0xba0e14f1	-0.00054199906
65	0x3d94e9fa	0.0727119
66	0xbd1afcb4	-0.037838653
67	0x40ece2e7	7.402698
68	0x40eb2c71	7.349175
69	0xbb31010c	-0.002700868
70	0x40eebdfd	7.460692
71	0xbd48f230	-0.049059093
72	0x40e8885b	7.266645
73	0x3e1b3672	0.15157488
74	0x40ea1e6b	7.316213
75	0x40ebef21	7.3729405
76	0x40f0684d	7.512732
77	0x3d9397f7	0.07206719
78	0x3d93cb8e	0.07216559
79	0x40f225e6	7.5671263
80	0x40eb4906	7.352664
81	0x40ee43d2	7.445779
82	0x40eebc33	7.4604735
83	0x40ee95d9	7.455792
84	0x3b541840	0.0032363087
85	0x3d491384	0.049090877
86	0xbd11b415	-0.03557213
87	0x40f1f254	7.560831
88	0x40ea42b7	7.320644
89	0x3d3b8ffe	0.04579162
90	0x40f0c0ab	7.523519
91	0x40ef0861	7.469773
92	0x40e5ee05	7.185305
93	0xbdf08b16	-0.117452785
94	0x40f20c52	7.564004
95	0x40eaafbf	7.3339534
96	0x40eb3e40	7.351349
97	0x40e8773c	7.264555
98	0x40efdc99	7.4956784
99	0x40ea72d8	7.326519
100	0x3dd7883a	0.1052403
101	0xbac24b6a	-0.00148235
102	0x40ef971d	7.4871964
103	0x40e9d979	7.307797
104	0x40f15c34	7.5425053
105	0x40ec22f5	7.379267
106	0x40ed101a	7.4082155
107	0x40f1b6d6	7.553569
108	0x40ebb771	7.3661427
109	0x40ee9ca4	7.456621
110	0x40ed6d59	7.419598
111	0x40eef9f9	7.4680142
112	0x40ebfe17	7.374767
113	0xbd7ad1e4	-0.061235324
114	0x40edd5df	7.4323573
115	0x40eecad2	7.4622583
116	0x40ef53a7	7.4789615
117	0x40edf864	7.436571
118	0x40f04d9f	7.509475
119	0x40f0933f	7.5179744
120	0x40eac297	7.3362536
121	0x40edefd2	7.435525
122	0x40ec6122	7.386857
123	0x3d9fbffe	0.078002915
124	0x3d3ce428	0.046116024
125	0x40ef5552	7.479165
126	0x3d3ebc2c	0.046566173
127	0x40ea73a3	7.326616
128	0x3d8f62b5	0.07001249
129	0xbd845626	-0.06461744
130	0xbd2faf58	-0.04289183
131	0x40b63c67	5.6948733
132	0x40b6d605	5.7136254
133	0xbd97a25c	-0.074040145
134	0x40b7712a	5.732564
135	0xbdf88e16	-0.12136476
136	0x40aec181	5.461121
137	0xbd639a35	-0.055566985
138	0x40b17188	5.545109
139	0x40b7764c	5.7331905
140	0x40baa02f	5.8320537
141	0xbde5c324	-0.11218861
142	0x3c7daed0	0.015483573
143	0x40b974b1	5.7954946
144	0x40b894a1	5.768143
145	0x40ba8f98	5.8300285
146	0x40bae2fa	5.840207
147	0x40b5a52a	5.6764116
148	0xbded9e1e	-0.11602424
149	0xbd83deba	-0.06438966
150	0x3da8ab28	0.082357705
151	0x40ba54ac	5.822836
152	0x40b3b793	5.616159
153	0x3c466b60	0.012110561
154	0x40b9232d	5.785544
155	0x40b4da35	5.6516366
156	0x40b5ad20	5.6773834
157	0x3db0e05c	0.08636543
158	0x40b6c3db	5.711408
159	0x40b17842	5.54593
160	0x40bab500	5.8345947
161	0x40b1238b	5.5355887
162	0x40b75188	5.7287025
163	0x40af73ab	5.4828696
164	0xbd1703c0	-0.03686881
165	0x3dcbb311	0.099462636
166	0x40b8de2e	5.7771215
167	0x40af8a49	5.4856305
168	0x40bbc09a	5.867261
169	0x40b77197	5.732616
170	0x40b51f4f	5.660072
171	0x40bbdaf9	5.87048
172	0x40ba187b	5.8154883
173	0x40b8c114	5.773569
174	0x40bb3360	5.8500214
175	0x40b97038	5.7949486
176	0x40b7b5b9	5.740933
177	0xbcacef90	-0.021110326
178	0x40b887c2	5.766572
179	0x40b55a98	5.667309
180	0x40b0daab	5.526693
181	0x40bc7bc4	5.890108
182	0x40b6c37c	5.711363
183	0x40b5cf3c	5.681547
184	0x40ba100b	5.8144584
185	0x40ba5290	5.8225784
186	0x40b63ec1	5.6951604
187	0x3d85eba4	0.065390855
188	0xbd602e6c	-0.05473177
189	0x40bbc039	5.8672147
190	0x3d615298	0.05501041
191	0x40b9b216	5.802989
192	0x3d28ef6d	0.04124396
193	0xbd0a9638	-0.033834666
194	0xbca8f5c8	-0.02062501
195	0x40a98af2	5.298211
196	0x40ae5431	5.4477773
197	0x3bc1c7be	0.0059137037
198	0x40a80921	5.2511144
199	0xbddd8962	-0.10817219
200	0x40a6b812	5.2099695
201	0x3d6a2259	0.057161663
202	0x40aaffdb	5.3437324
203	0x40ac657b	5.3873878
204	0x40ad2934	5.4112797
205	0xbdb422c1	-0.08795691
206	0xbd8b7a56	-0.06810443
207	0x40a889c7	5.2668185
208	0x40aa7b5f	5.32756
209	0x40aeab91	5.458443
210	0x40ab592c	5.3546352
211	0x40ac0ca0	5.376541
212	0x3da3f0ca	0.08004911
213	0x3da59a8a	0.080861166
214	0xbc9564f1	-0.01823661
215	0x40aac555	5.3365884
216	0x40aefeae	5.468589
217	0x3c6431ba	0.013927871
218	0x40a860e4	5.2618275
219	0x40ad1677	5.4089923
220	0x40aab23a	5.334256
221	0xbd57d040	-0.052688837
222	0x40aae481	5.3403935
223	0x40ab3849	5.3506207
224	0x40adee49	5.4353375
225	0x40abdac0	5.370453
226	0x40ab3686	5.3504057
227	0x40aa32eb	5.3187156
228	0xbd587894	-0.052849367
229	0x3ddb849d	0.10718653
230	0x40a94a28	5.2903023
231	0x40ac45ea	5.3835344
232	0x40ad931f	5.424209
233	0x40ab8fc6	5.3613005
234	0x40aedbfd	5.464354
235	0x40a7d5da	5.244855
236	0x40a7f28b	5.2483573
237	0x40adb4d8	5.4283257
238	0x40ac27d6	5.379863
239	0x40aeda62	5.464158
240	0x40aa51fb	5.3225074
241	0x3cc26b90	0.02373293
242	0x40ac08c4	5.37607
243	0x40aa873b	5.3290076
244	0x40ae2cb8	5.442959
245	0x40ae5a49	5.448521
246	0x40ae83a1	5.453568
247	0x40ac0c2b	5.3764853
248	0x40ab6a86	5.3567533
249	0x40ab888a	5.3604174
250	0x40a812a0	5.2522736
251	0xbd3df8c0	-0.046379805
252	0x3d94b3f0	0.07260883
253	0x40ada36b	5.4261985
254	0xbdc85c88	-0.09783274
255	0x40ae2794	5.4423313

fc4.bias f4 [49]
0	0x3f9a67c6	1.2062919
1	0x40cd1be5	6.409655
2	0x40c1edac	6.0602627
3	0x409d1fdc	4.910139
4	0x40a6100c	5.189459
5	0x40175261	2.364403
6	0x40a778e3	5.2335067
7	0x4002dfb2	2.0449033
8	0x40cb2484	6.3482075
9	0x404ccf1d	3.2001412
10	0x408e24ce	4.4419928
11	0x40bce6bd	5.9031663
12	0x403407c0	2.812973
13	0xbdd53408	-0.10410315
14	0x40ca030e	6.312873
15	0x409c9222	4.8928385
16	0x4051e53a	3.2796159
17	0x402f1e72	2.7362332
18	0x40b330c2	5.599702
19	0xbde7d49e	-0.113198504
20	0x3db70a76	0.08937542
21	0x40656a94	3.58463
22	0x40c8b0db	6.271589
23	0x40d26541	6.57486
24	0x4088e53d	4.277983
25	0x38a87800	8.033216e-05
26	0xbdad0ada	-0.084493354
27	0x3d6045ec	0.054754183
28	0x40656088	3.5840168
29	0x40586322	3.3810506
30	0x40c16afa	6.0443087
31	0x3d9a5dfa	0.07537456
32	0x3c959160	0.018257797
33	0x3c1397a0	0.009008318
34	0xbce387f8	-0.027774796
35	0x409ac792	4.8368616
36	0x4032db74	2.7946444
37	0xbd252098	-0.040314287
38	0xbc0904f0	-0.008362994
39	0xbcaf05b0	-0.021365017
40	0x3cc59288	0.024117723
41	0xbda89fc6	-0.08233599
42	0x3fe8eaf7	1.8196706
43	0x3db87134	0.09005967
44	0x3cd53538	0.026026353
45	0xbd6a8208	-0.057252914
46	0x3d37d5a4	0.044881478
47	0x3de2fa0a	0.110828474
48	0x3d86de30	0.06585348
