trike2/models/DQN_Agent_self_play_1000.pt/DQN_Agent.pt (torch, 333080 bytes, 8 tensors)

fc1.weight f4 [256, 148]
12.755008 13.988895 12.80718 13.591877 12.123196 12.671658 11.141015 14.334074
13.1144285 11.048364 12.9626255 14.275555 12.529571 0.004583746 15.421428 13.55611
14.505226 14.273073 13.017511 0.03464756 0.062962 13.021124 11.529777 13.555158
13.702291 0.03619072 0.039085053 0.053323634 15.218999 10.504622 12.766629 0.045239486
0.057312243 0.05807606 -0.057885975 13.259006 12.792501 -0.053372137 -0.06306584 -0.058351707
-0.017340794 0.03367725 13.784155 0.07198606 -0.041547548 0.0497879 -0.014720224 -0.022376943
-0.014003955 12.617887 13.726062 11.538837 13.89751 12.810474 11.267451 12.067949
14.768108 12.559542 12.757651 13.200055 12.138222 11.3034115 0.021039106 14.507778
12.176173 13.499813 13.978107 14.115528 -0.06101456 -0.072582215 12.854111 13.329908
11.289093 13.388791 -0.047129996 -0.07261286 0.036734983 13.902109 12.743702 11.72744
-0.006551601 -0.022345215 -0.013882287 -0.037658818 13.843553 11.944651 0.03552161 0.06908692
0.073018976 -0.0071672425 0.047507413 12.593196 -0.051335976 0.052654646 -0.06146428 0.040561512
0.075475775 -0.011138536 9.756713 12.167239 11.298213 10.528249 12.346254 9.551929
11.892356 10.603889 11.242584 9.195399 12.485289 10.786741 8.885539 0.0033614784
11.292713 12.570022 9.294573 12.023097 11.479814 -0.03525539 0.07904712 11.665839
12.943486 10.788439 11.727042 -0.056317523 -0.074572 -0.06496102 11.956729 11.759865
12.185599 -0.050069768 0.00064804405 0.07550097 0.035908766 10.568871 9.500183 -0.00083283335
0.045594476 -0.024830591 0.015529789 -0.0027600601 11.955484 -0.042129055 -0.0051306486 0.01334469
0.05907219 -0.073039755 -0.019406132 -0.07185506 12.563484 13.88845 12.969668 13.788632
11.936789 12.659571 11.214841 14.47833 13.094405 11.123898 12.717299 14.537078
12.427321 -0.04906709 15.321504 13.312251 14.549772 14.3520975 13.111141 0.030178174
0.042967625 13.035171 11.572811 13.486284 13.902659 0.020598993 0.081414305 -0.03233717
15.183809 10.716223 12.875637 -0.030244496 -0.012373842 0.07591509 0.013494283 13.127621
12.663654 0.05500517 0.058996953 0.011512823 0.014247999 -0.04367233 13.498845 0.058566608
-0.043419853 -0.021436099 -0.08197911 0.0143295005 0.0024981722 12.663147 13.602883 11.762045
13.646352 12.934187 11.142174 11.941147 14.663116 12.441593 12.728312 13.443763
12.032203 11.342841 -0.021878954 14.675123 12.415952 13.366194 14.019888 13.990769
0.021559574 -0.049132705 12.913606 13.436778 11.446255 13.455464 0.06357213 -0.06790367
0.05986122 13.969825 12.707187 11.632022 -0.032399364 -0.0103648305 -0.049796093 -0.0135756135
13.799507 11.82674 -0.046327814 0.021321334 0.008047469 0.041345872 -0.014875442 12.667674
-0.07765356 -0.011005409 0.048418425 -0.015195243 0.077662416 -0.016679429 9.835996 12.027066
11.340752 10.309516 12.39287 9.524426 11.933619 10.733582 11.194107 8.930566
00000000: 8314 4c41 84d2 5f41 36ea 4c41 5478 5941
00000010: 9cf8 4141 1cbf 4a41 9941 3241 5e58 6541
00000020: b3d4 5141 19c6 3041 ea66 4f41 ac68 6441
00000030: 1f79 4841 4033 963b 2bbe 7641 d4e5 5841
00000040: 6815 6841 825e 6441 ba47 5041 9aea 0d3d
00000050: 39f2 803d 8656 5041 f779 3841 ede1 5841
00000060: 953c 5b41 b83c 143d a617 203d e269 5a3d
00000070: 0581 7341 ef12 2841 1d44 4c41 0a4d 393d
00000080: 3ec0 6a3d 2ae1 6d3d d819 6dbd e324 5441
00000090: 16ae 4c41 be9c 5abd aa28 81bd 3302 6fbd
000000a0: 480e 8ebc 28f1 093d e68b 5c41 6d6d 933d
000000b0: c32d 2abd 66ee 4b3d 182d 71bc da4f b7bc
000000c0: d870 65bc dde2 4941 f39d 5b41 149f 3841
000000d0: 335c 5e41 b4f7 4c41 7b47 3441 5216 4141
000000e0: 2c4a 6c41 e2f3 4841 571f 4c41 6d33 5341
000000f0: 2836 4241 c6da 3441 345a ac3c dc1f 6841
00000100: 9bd1 4241 3cff 5741 54a6 5f41 34d9 6141
00000110: 67ea 79bd fca5 94bd 70aa 4d41 4e47 5541
00000120: 20a0 3441 7d38 5641 620b 41bd 0db6 94bd
00000130: 6c77 163d 0a6f 5e41 34e6 4b41 98a3 3b41
00000140: d0ae d6bb 500d b7bc 8872 63bc 2240 1abd
00000150: 317f 5d41 4a1d 3f41 1c7f 113d 717d 8d3d
00000160: f98a 953d 30db eabb 2297 423d bb7d 4941
00000170: ac45 52bd 66ac 573d f8c1 7bbd d423 263d
00000180: 0b93 9a3d 687e 36bc 7f1b 1c41 03ad 4241
00000190: 7bc5 3441 b573 2841 428a 4541 b4d4 1841
000001a0: 1747 3e41 88a9 2941 a0e1 3341 5b20 1341
000001b0: bec3 4741 7e96 2c41 2b2b 0e41 404c 5c3b
000001c0: f4ae 3441 cf1e 4941 92b6 1441 9b5e 4041
000001d0: 51ad 3741 f567 10bd 75e3 a13d 47a7 3a41
000001e0: 8518 4f41 729d 2c41 f7a1 3b41 34ad 66bd
000001f0: 34b9 98bd 490a 85bd c34e 3f41 6828 3c41
00000200: 37f8 4241 f515 4dbd 80e1 293a 41a0 9a3d
00000210: 1215 133d 181a 2941 c000 1841 8052 5aba
00000220: 46c1 3a3d 8669 cbbc a870 7e3c 20e2 34bb
00000230: aa49 3f41 848f 2cbd 001f a8bb b0a3 5a3c
00000240: aef5 713d de95 95bd 9cf9 9ebc bf28 93bd
00000250: 0804 4941 1737 5e41 c383 4f41 3d9e 5c41
00000260: 16fd 3e41 9a8d 4a41 fd6f 3341 3da7 6741
00000270: af82 5141 7cfb 3141 0f7a 4b41 df97 6841
00000280: 4fd6 4641 93fa 48bd e124 7541 fbfe 5441
00000290: decb 6841 31a2 6541 3cc7 5141 3838 f73c
000002a0: d2fe 2f3d 0f90 5041 3c2a 3941 d2c7 5741
000002b0: 4b71 5e41 38bf a83c 8bbc a63d fb73 04bd
000002c0: e2f0 7241 a675 2b41 9c02 4e41 4ec3 f7bc
000002d0: a8bb 4abc 5f79 9b3d 2017 5d3c bc0a 5241
000002e0: 549e 4a41 1a4d 613d caa6 713d 48a0 3c3c
000002f0: 7070 693c c2e1 32bd 45fb 5741 8ae3 6f3d
00000300: 04d9 31bd c29a afbc aae4 a7bd 48c6 6a3c
00000310: 60b8 233b 409c 4a41 69a5 5941 5631 3c41
00000320: 7557 5a41 6ef2 4e41 5846 3241 f00e 3f41
00000330: 209c 6a41 c410 4741 2aa7 4b41 a719 5741
00000340: e783 4041 477c 3541 7e3b b3bc 4ecd 6a41
00000350: bda7 4641 eedb 5541 7651 6041 31da 5f41
00000360: b49d b03c 603f 49bd 219e 4e41 0bfd 5641
00000370: dc23 3741 9549 5741 1b32 823d 1411 8bbd
00000380: 0a31 753d 6784 5f41 a350 4b41 c31c 3a41
00000390: 32b5 04bd 40d1 29bc fdf6 4bbd 406c 5ebc
000003a0: c8ca 5c41 543a 3d41 3cc2 3dbd 14aa ae3c
000003b0: 88d9 033c 4a5a 293d 20b8 73bc cbae 4a41
000003c0: d408 9fbd 0850 34bc 6652 463d 78f5 78bc
000003d0: 790d 9f3d 4ca3 88bc 3d60 1d41 dd6e 4041
000003e0: b873 3541 c7f3 2441 3249 4641 0d64 1841
000003f0: 1af0 3e41 c0bc 2b41 101b 3341 99e3 0e41

fc1.bias f4 [256]
16.721634 16.665855 16.620565 16.682755 16.644993 16.59172 16.690586 16.666237
16.66065 -2.880569 16.701374 16.707855 16.615349 16.750938 16.74181 16.669546
16.697924 16.543875 16.54558 16.61607 16.592787 16.62615 16.645035 16.696705
16.60987 16.694223 16.72483 16.598026 16.694155 16.742014 16.677008 16.573282
16.588587 16.674507 16.733963 16.591368 16.671225 16.570406 16.711618 16.676874
16.686739 16.730194 16.736961 16.705761 16.689083 16.721195 16.56197 16.66792
16.71483 16.679825 16.709389 16.726425 16.701801 16.660742 16.712942 16.712925
16.681532 16.701391 16.744165 16.7048 16.561462 16.723928 16.696331 16.571924
16.726376 16.577286 16.684753 16.665705 16.669107 16.749958 16.73034 16.572138
16.69935 16.531435 16.463192 16.648533 16.643404 16.538418 16.67277 16.605179
16.72292 16.6374 16.62997 16.549816 16.703758 16.573475 16.626896 16.694231
16.689966 16.639706 16.691027 16.70243 16.64128 16.718359 16.66671 16.620075
16.588362 16.608587 16.636301 16.692553 16.602367 16.658398 16.691141 16.765688
16.577326 16.697275 16.66543 16.734835 16.70061 16.673653 16.681883 16.694658
16.657381 16.581528 16.700611 16.705124 16.669405 16.641436 16.750813 16.568356
16.732735 16.731138 16.71791 16.54973 16.671167 16.60412 16.56245 16.62356
16.673868 16.700922 16.712395 16.698618 16.728678 16.727734 16.718403 16.63303
16.619078 16.719782 16.654228 16.700674 16.598019 16.690233 16.671522 16.689981
16.683128 16.577793 16.624979 16.700996 16.580227 16.58622 16.700333 16.655754
16.582502 16.752213 16.6861 16.59027 16.612766 16.693167 16.731976 16.736103
16.740599 16.67932 16.71357 16.741892 16.719536 16.616312 16.531227 16.662003
16.7417 16.668873 16.583347 16.672548 16.620691 16.72651 16.63121 16.57708
16.735584 16.688602 16.601107 16.675896 16.719414 16.591206 16.664713 16.550606
16.6737 16.710999 -2.8113825 16.642422 16.72351 16.67939 16.589672 16.693691
16.658134 16.703049 16.573896 16.721159 16.732904 16.683226 16.669567 16.605528
16.618332 16.693174 16.687662 16.716291 16.608437 16.660086 16.656233 16.56736
16.58193 16.669403 16.315617 16.68394 16.647243 16.67331 16.674244 16.642975
16.721056 16.622526 16.73718 16.686184 16.673687 16.663805 16.71859 16.662563
16.503826 16.62371 16.577866 16.642572 16.693356 16.657269 16.658583 16.669098
16.649391 16.705595 -2.8354423 16.64446 16.708588 16.65362 16.744837 16.699804
16.586075 16.667583 16.721096 16.588408 16.696344 16.721422 16.612553 16.686108
16.575718 16.659319 16.75711 16.63609 16.740524 16.546772 16.704048 16.635092
00000000: e8c5 8541 ac53 8541 ebf6 8441 4876 8541
00000010: f228 8541 d8bb 8441 5286 8541 7454 8541
00000020: 0349 8541 3e5b 38c0 6a9c 8541 b0a9 8541
00000030: 3cec 8441 ec01 8641 3aef 8541 3b5b 8541
00000040: 5995 8541 db59 8441 595d 8441 b6ed 8441
00000050: 07be 8441 5b02 8541 0829 8541 da92 8541
00000060: 04e1 8441 c58d 8541 74cc 8541 c2c8 8441
00000070: a18d 8541 a5ef 8541 836a 8541 1596 8441
00000080: 6db5 8441 6465 8541 28df 8541 1fbb 8441
00000090: ab5e 8541 3190 8441 65b1 8541 3d6a 8541
000000a0: 717e 8541 70d7 8541 4ce5 8541 66a5 8541
000000b0: 3e83 8541 02c5 8541 ea7e 8441 e657 8541
000000c0: f9b7 8541 4870 8541 d4ac 8541 b8cf 8541
000000d0: 4a9d 8541 3349 8541 1bb4 8541 12b4 8541
000000e0: c773 8541 739c 8541 0df4 8541 6ea3 8541
000000f0: e07d 8441 9bca 8541 1692 8541 4d93 8441
00000100: 9ecf 8541 489e 8441 607a 8541 5d53 8541
00000110: 555a 8541 eaff 8541 bcd7 8541 bd93 8441
00000120: 4598 8541 6140 8441 9eb4 8341 3230 8541
00000130: b125 8541 ae4e 8441 d561 8541 68d7 8441
00000140: 8ac8 8541 6519 8541 2e0a 8541 0666 8441
00000150: 4ca1 8541 7a96 8441 e203 8541 c98d 8541
00000160: 0d85 8541 1e1e 8541 3987 8541 949e 8541
00000170: 5721 8541 33bf 8541 6c55 8541 eaf5 8441
00000180: f7b4 8441 63de 8441 2517 8541 598a 8541
00000190: a6d1 8441 6644 8541 7587 8541 2120 8641
000001a0: 5d9e 8441 0594 8541 cd52 8541 f1e0 8541
000001b0: d99a 8541 a463 8541 7f74 8541 a98e 8541
000001c0: 5142 8541 f8a6 8441 da9a 8541 18a4 8541
000001d0: f15a 8541 a921 8541 aa01 8641 fe8b 8441
000001e0: a4dc 8541 5fd9 8541 48be 8541 d965 8441
000001f0: 8d5e 8541 3dd5 8441 e67f 8441 0dfd 8441
00000200: 1564 8541 7d9b 8541 fcb2 8541 c596 8541
00000210: 55d4 8541 66d2 8541 4abf 8541 7210 8541
00000220: dff3 8441 1dc2 8541 dc3b 8541 fb9a 8541
00000230: bec8 8441 9985 8541 475f 8541 1585 8541
00000240: 0c77 8541 529f 8441 f5ff 8441 a49b 8541
00000250: 4ea4 8441 94b0 8441 489a 8541 fc3e 8541
00000260: f7a8 8441 8804 8641 227d 8541 dfb8 8441
00000270: f2e6 8441 9b8b 8541 16db 8541 8ae3 8541
00000280: bfec 8541 3f6f 8541 64b5 8541 65ef 8541
00000290: 9cc1 8541 35ee 8441 f43f 8441 c84b 8541
000002a0: 00ef 8541 da59 8541 b2aa 8441 6161 8541
000002b0: 2df7 8441 e4cf 8541 b80c 8541 dc9d 8441
000002c0: 7ae2 8541 4282 8541 11cf 8441 3c68 8541
000002d0: 5cc1 8541 caba 8441 5551 8541 a467 8441
000002e0: bd63 8541 20b0 8541 b1ed 33c0 ae23 8541
000002f0: c0c9 8541 646f 8541 a6b7 8441 ae8c 8541
00000300: dc43 8541 d89f 8541 5797 8441 efc4 8541
00000310: fddc 8541 3f77 8541 465b 8541 1fd8 8441
00000320: 58f2 8441 9f8b 8541 5580 8541 f7ba 8541
00000330: 14de 8441 db47 8541 f73f 8541 f489 8441
00000340: cba7 8441 f05a 8541 6286 8241 b678 8541
00000350: 8e2d 8541 f062 8541 da64 8541 d024 8541
00000360: b9c4 8541 effa 8441 bfe5 8541 4e7d 8541
00000370: b663 8541 794f 8541 acbf 8541 ee4c 8541
00000380: d607 8441 5cfd 8441 789f 8441 fd23 8541
00000390: fe8b 8541 1642 8541 c744 8541 505a 8541
000003a0: f431 8541 0fa5 8541 e377 35c0 db27 8541
000003b0: 30ab 8541 9d3a 8541 6df5 8541 3399 8541
000003c0: 48b0 8441 3657 8541 cec4 8541 0fb5 8441
000003d0: 1d92 8541 79c5 8541 82e6 8441 267d 8541
000003e0: 129b 8441 4946 8541 900e 8641 b616 8541
000003f0: 98ec 8541 ca5f 8441 e4a1 8541 ab14 8541

fc2.weight f4 [128, 256]
16.435587 16.347284 16.47985 16.4845 16.471603 16.339779 16.604927 16.360165
16.348595 -5.47716 16.41335 16.230434 16.46994 16.405878 16.360432 16.416298
16.369099 16.125177 16.406504 16.497663 16.487623 16.469318 16.23555 16.32897
16.075518 16.30525 16.207396 16.454706 16.555868 16.387085 16.441675 16.419039
16.311356 16.445498 16.288855 16.306425 16.39035 16.525997 16.391169 16.465456
16.533268 16.399746 16.42967 16.53669 16.555515 16.267717 16.022491 16.58338
16.396803 16.342098 16.459652 16.310452 16.364422 16.481453 16.53706 16.280632
16.31199 16.2287 16.391014 16.361086 16.33133 16.322334 16.47578 16.377485
16.369442 16.305296 16.428074 16.463808 16.35123 16.444359 16.50787 16.014088
16.485523 15.911946 16.23441 16.628517 16.233698 16.139069 16.293724 16.216845
16.4247 16.384834 16.364527 15.944835 16.358093 16.45943 16.262152 16.354818
16.289562 16.378336 16.460888 16.452005 16.539814 16.302866 16.419333 16.19854
16.185879 16.207836 16.217922 16.422224 16.297848 16.28293 16.414288 16.400734
16.497515 16.602303 16.293886 16.362211 16.456148 16.315098 16.341185 16.353397
16.270546 16.36903 16.469957 16.432909 16.363285 16.317274 16.23313 16.341633
16.419636 16.432367 16.257906 16.150604 16.318804 16.492817 16.325901 16.23335
16.611235 16.241074 16.665237 16.394402 16.391703 16.325315 16.421593 16.437906
16.448847 16.344398 16.521711 16.45336 16.474136 16.521713 16.238592 16.505835
16.325426 16.40304 16.426935 16.53993 16.275654 16.461567 16.23848 16.316591
16.377777 16.284344 16.328089 16.405558 16.463627 16.359444 16.455355 16.407316
16.29103 16.29426 16.498335 16.346865 16.205967 16.526615 16.458187 16.332415
16.317648 16.430975 16.415209 16.693325 16.271023 16.384401 16.38801 16.362526
16.454702 16.496273 16.151716 16.389313 16.45092 16.339003 16.31739 16.300152
16.234386 16.356462 -6.0775156 16.411522 16.415285 16.491167 16.44037 16.394176
16.340355 16.376902 16.057621 16.414553 16.464275 16.314484 16.400805 16.168728
16.422459 16.445442 16.279425 16.467995 16.294018 16.216953 16.537643 16.35808
16.235323 16.212473 15.618756 16.271032 16.54177 16.434635 16.285534 16.415062
16.324656 16.392853 16.383074 16.371126 16.549938 16.52927 16.458797 16.33815
16.26141 16.38109 16.362026 16.30322 16.277842 16.596712 16.290022 16.473866
16.35094 16.47094 -5.5236177 16.334908 16.38296 16.408392 16.31665 16.435022
16.33307 16.321146 16.50549 16.499918 16.354536 16.258442 16.337263 16.389585
16.21209 16.381453 16.52317 16.27653 16.388624 16.387821 16.344707 16.22748
00000000: 157c 8341 3dc7 8241 bcd6 8341 42e0 8341
00000010: d8c5 8341 deb7 8241 e4d6 8441 9ee1 8241
00000020: ecc9 8241 e544 afc0 8a4e 8341 eed7 8141
00000030: 70c2 8341 3d3f 8341 2ae2 8241 9454 8341
00000040: eaf3 8241 5d00 8141 8540 8341 37fb 8341
00000050: a7e6 8341 2ac1 8341 68e2 8141 bba1 8241
00000060: a99a 8041 2771 8241 bfa8 8141 3da3 8341
00000070: 6b72 8441 c018 8341 8d88 8341 315a 8341
00000080: a87d 8241 6190 8341 934f 8241 8f73 8241
00000090: 701f 8341 3e35 8441 1d21 8341 41b9 8341
000000a0: 2244 8441 ae32 8341 f76f 8341 244b 8441
000000b0: b271 8441 4924 8241 102e 8041 c3aa 8441
000000c0: a72c 8341 9ebc 8241 5ead 8341 ce7b 8241
000000d0: 56ea 8241 04da 8341 e64b 8441 bc3e 8241
000000e0: f57e 8241 61d4 8141 cc20 8341 81e3 8241
000000f0: 90a6 8241 2494 8241 66ce 8341 1705 8341
00000100: 9ef4 8241 3f71 8241 b26c 8341 e1b5 8341
00000110: 52cf 8241 0c8e 8341 1e10 8441 da1c 8041
00000120: 5ae2 8341 5597 7e41 12e0 8141 3407 8541
00000130: 9dde 8141 d01c 8141 8c59 8241 19bc 8141
00000140: c965 8341 2414 8341 8dea 8241 0b1e 7f41
00000150: 60dd 8241 eaac 8341 e318 8241 abd6 8241
00000160: 0651 8241 d506 8341 e6af 8341 b59d 8341
00000170: 8a51 8441 456c 8241 cb5a 8341 9c96 8141
00000180: ae7c 8141 a6a9 8141 4ebe 8141 b760 8341
00000190: fe61 8241 7143 8241 7650 8341 b434 8341
000001a0: e9fa 8341 84d1 8441 e159 8241 cfe5 8241
000001b0: 31a6 8341 5285 8241 bfba 8241 c2d3 8241
000001c0: 142a 8241 c6f3 8241 79c2 8341 9976 8341
000001d0: 02e8 8241 c789 8241 73dd 8141 aabb 8241
000001e0: 6a5b 8341 7d75 8341 3110 8241 7034 8141
000001f0: e98c 8241 4af1 8341 729b 8241 e7dd 8141
00000200: cfe3 8441 b8ed 8141 6852 8541 bc27 8341
00000210: 3522 8341 3f9a 8241 6c5f 8341 d580 8341
00000220: 3d97 8341 54c1 8241 772c 8441 7ba0 8341
00000230: 08cb 8341 782c 8441 a3e8 8141 f30b 8441
00000240: 799a 8241 6d39 8341 5d6a 8341 c751 8441
00000250: 8a34 8241 4ab1 8341 68e8 8141 6188 8241
00000260: b005 8341 5646 8241 ed9f 8241 953e 8341
00000270: 82b5 8341 24e0 8241 91a4 8341 2f42 8341
00000280: 0854 8241 a55a 8241 97fc 8341 61c6 8241
00000290: d2a5 8141 8236 8441 5eaa 8341 c9a8 8241
000002a0: 8b8a 8241 a372 8341 5952 8341 ee8b 8541
000002b0: 0e2b 8241 4113 8341 a51a 8341 74e6 8241
000002c0: 3ba3 8341 5ef8 8341 b736 8141 501d 8341
000002d0: 7c9b 8341 47b6 8241 048a 8241 b666 8241
000002e0: 06e0 8141 09da 8241 027b c2c0 cc4a 8341
000002f0: 8152 8341 e9ed 8341 e185 8341 4627 8341
00000300: 0cb9 8241 e503 8341 0276 8041 0151 8341
00000310: d6b6 8341 1084 8241 d934 8341 8e59 8141
00000320: 3261 8341 4490 8341 433c 8241 74be 8341
00000330: 265a 8241 52bc 8141 184d 8441 59dd 8241
00000340: f1e1 8141 25b3 8141 6de6 7941 132b 8241
00000350: 8c55 8441 227a 8341 c648 8241 0c52 8341
00000360: e598 8241 9024 8341 8910 8341 11f8 8241
00000370: 4666 8441 f23b 8441 9eab 8341 88b4 8241
00000380: 5e17 8241 790c 8341 6ee5 8241 ff6c 8241
00000390: 0539 8241 11c6 8441 f751 8241 7aca 8341
000003a0: bace 8241 7cc4 8341 7ac1 b0c0 e4ad 8241
000003b0: 4d10 8341 6344 8341 8088 8241 ed7a 8341
000003c0: 21aa 8241 b591 8241 3e0b 8441 d5ff 8341
000003d0: 17d6 8241 4a11 8241 b7b2 8241 df1d 8341
000003e0: 5cb2 8141 370d 8341 742f 8441 5536 8241
000003f0: e71b 8341 421a 8341 f6c1 8241 e1d1 8141

fc2.bias f4 [128]
15.933984 -0.08241275 15.923594 -0.04693433 15.879402 -0.0037893583 15.9004965 -0.027687268
15.853235 -0.037898187 15.872064 15.759192 0.00627505 15.900595 15.350793 15.896444
15.837422 -0.07498371 15.939443 15.936956 15.928865 15.86359 15.912167 15.860763
15.9321575 -0.07202745 15.935527 15.948675 15.8251705 15.952198 15.862702 15.960929
-0.041436 15.844502 15.909914 15.83793 15.874626 15.902789 15.8726225 15.851089
15.942368 15.92629 15.855059 15.9348345 15.910003 15.924021 15.948854 15.923747
15.846054 15.939702 15.937487 15.836695 15.8472805 15.884085 15.884704 15.866016
15.836951 15.794713 15.900327 15.930155 15.93423 0.023415172 15.93707 15.901022
-0.03654223 15.898727 15.863037 15.908224 15.684039 15.896726 0.0009279854 15.939812
15.860265 0.027301596 0.050887257 15.938637 15.820544 15.965956 15.811243 15.940693
15.913966 15.856913 15.907971 15.883012 15.883094 15.799047 15.9172945 15.8447895
15.867358 15.870657 0.030754745 15.892116 15.947383 15.860451 15.867005 15.904082
15.904205 15.901989 15.926323 15.857082 15.8901 15.920161 15.831215 15.939455
-0.03319771 -0.054438308 15.933 15.932046 15.925765 15.87611 15.841195 15.843806
15.853821 15.864923 15.857309 15.865981 15.896933 15.867522 15.903087 15.887484
15.889805 15.842533 0.015480505 15.796598 15.939469 15.950367 15.914709 15.944187
00000000: 99f1 7e41 04c8 a8bd 0bc7 7e41 363e 40bd
00000010: 0812 7e41 e256 78bb 6f68 7e41 69d0 e2bc
00000020: daa6 7d41 213b 1bbd f9f3 7d41 a725 7c41
00000030: ef9e cd3b d668 7e41 d99c 7541 d657 7e41
00000040: 1566 7d41 0f91 99bd f507 7f41 c6fd 7e41
00000050: a2dc 7e41 44d1 7d41 3c98 7e41 afc5 7d41
00000060: 1eea 7e41 2183 93bd ebf7 7e41 c62d 7f41
00000070: e633 7d41 343c 7f41 a1cd 7d41 f75f 7f41
00000080: ccb8 29bd 1583 7d41 028f 7e41 2968 7d41
00000090: 78fe 7d41 d371 7e41 43f6 7d41 0f9e 7d41
000000a0: f013 7f41 15d2 7e41 52ae 7d41 15f5 7e41
000000b0: 5f8f 7e41 cac8 7e41 822e 7f41 abc7 7e41
000000c0: 7089 7d41 0509 7f41 f2ff 7e41 1a63 7d41
000000d0: 768e 7d41 3625 7e41 bf27 7e41 34db 7d41
000000e0: 2764 7d41 25b7 7c41 bd67 7e41 eae1 7e41
000000f0: 9bf2 7e41 2dd1 bf3c 3dfe 7e41 966a 7e41
00000100: 4ead 15bd 3061 7e41 00cf 7d41 1688 7e41
00000110: d3f1 7a41 fd58 7e41 0c44 733a 7809 7f41
00000120: a5c3 7d41 99a7 df3c 286f 503d a804 7f41
00000130: f320 7d41 8e74 7f41 dafa 7c41 140d 7f41
00000140: 9b9f 7e41 eab5 7d41 0d87 7e41 d120 7e41
00000150: 2721 7e41 e6c8 7c41 3dad 7e41 4284 7d41
00000160: b3e0 7d41 36ee 7d41 60f1 fb3c 1b46 7e41
00000170: 7b28 7f41 68c4 7d41 41df 7d41 1f77 7e41
00000180: a077 7e41 8c6e 7e41 38d2 7e41 9cb6 7d41
00000190: d93d 7e41 fbb8 7e41 a84c 7d41 0208 7f41
000001a0: 52fa 07bd b4fa 5ebd 91ed 7e41 a9e9 7e41
000001b0: efcf 7e41 8c04 7e41 8975 7d41 3b80 7d41
000001c0: 40a9 7d41 b9d6 7d41 8ab7 7d41 0fdb 7d41
000001d0: d659 7e41 5fe1 7d41 0b73 7e41 2233 7e41
000001e0: a43c 7e41 047b 7d41 f2a1 7d3c debe 7c41
000001f0: 1108 7f41 b434 7f41 a6a2 7e41 641b 7f41

fc3.weight f4 [64, 128]
0.027966164 -0.0799138 0.06593154 -0.036202215 0.076785244 -0.0025360945 -0.068957776 -0.07027595
0.036299653 -0.012332998 -0.01640821 0.06517339 -0.014865488 -0.03764819 0.08480471 0.018027076
0.06089469 -0.039504193 0.075190336 -0.020994248 0.069985226 0.05922271 0.048762687 0.02617608
-0.061112337 0.0003139004 -0.095445566 0.04971137 0.07459024 -0.025300795 -0.021438234 -0.05810472
-0.010707846 -0.044479534 -0.0068650586 -0.01872675 0.03910429 -0.0007918879 0.045419954 0.02562816
-0.04276531 0.019743117 0.04174407 0.06385785 -0.0967521 -0.038488526 -0.0907765 0.03192486
0.020860294 0.008554097 -0.08723673 -0.08835818 -0.09231456 -0.044345036 -0.05038816 -0.057248484
0.02609421 0.04354211 0.027809523 0.04273719 0.010353399 0.06364524 -0.08781614 -0.08178089
-0.0017130736 0.07730319 0.031226784 0.017818201 0.032799944 -0.04815202 -0.048462912 -0.08912718
0.07293025 0.047291934 -0.05835731 -0.047903292 0.030568285 -0.07325632 0.024595242 -0.04947091
0.020498862 0.056082916 -0.020955596 -0.04370801 -0.070284955 0.07934211 -0.008742438 -0.09715947
0.025535947 -0.07524566 -0.06866698 0.030869495 0.0542913 -0.0425227 0.04915347 0.0010686733
-0.08905151 -0.01689954 0.027948653 0.0598077 -0.082282946 -0.09434501 0.0047148243 -0.060626995
-0.07600143 -0.046853587 0.0062163738 0.07010481 -0.03213476 -0.07967377 0.029985633 -0.048548628
0.021506691 -0.059214108 0.0737131 -0.016160907 -0.028448982 0.055038285 -0.081977926 0.008759208
0.06590464 0.005649732 0.030000381 0.074003674 -0.056994744 0.019267332 -0.04774964 -0.038744345
16.43769 0.013037419 16.47107 -0.026901636 16.335741 -0.07413302 16.378403 0.003908595
16.24835 0.010106195 16.372244 16.386951 -0.7151199 16.35612 16.07816 16.309732
16.388298 -0.021763083 16.426332 16.365213 16.47078 16.472784 16.381367 16.384474
16.442587 -0.07188395 16.521473 16.351238 16.40669 16.406979 16.411877 16.357439
0.0144106075 16.409927 16.413515 16.4028 16.372702 16.399975 16.425364 16.331837
16.411238 16.377735 16.417845 16.370564 16.390926 16.366459 16.441633 16.315514
16.36817 16.493462 16.464706 16.394213 16.311953 16.375977 16.381672 16.323994
16.434341 16.32362 16.394108 16.505796 16.402908 -0.054721676 16.351307 16.32932
-0.4537939 16.509672 16.322248 16.324776 16.392962 16.374542 -0.5866821 16.464867
16.486023 -0.083260976 0.07266468 16.440119 16.464489 16.35911 16.296425 16.46396
16.450058 16.37311 16.409723 16.37024 16.482931 16.303883 16.477484 16.44172
16.319561 16.373482 -0.07638675 16.406397 16.369915 16.409103 16.48618 16.41689
16.46312 16.463295 16.43065 16.390886 16.23393 16.372665 16.362524 16.387234
0.07222954 0.02633378 16.444363 16.477028 16.392637 16.46468 16.400131 16.337444
16.432886 16.303629 16.472864 16.338924 16.345707 16.360538 16.457758 16.419474
16.457315 16.445103 0.07900709 16.351383 16.478922 16.371431 16.414371 16.461193
00000000: 4c19 e53c d9a9 a3bd 1e07 873d c648 14bd
00000010: 9541 9d3d 9b34 26bb bc39 8dbd d6ec 8fbd
00000020: f2ae 143d 5810 4abc 836a 86bc a079 853d
00000030: 608e 73bc fd34 1abd 17ae ad3d 85ad 933c
00000040: b66c 793d 26cf 21bd 64fd 993d 21fc abbc
00000050: 6a54 8f3d 8393 723d 62bb 473d 386f d63c
00000060: ee50 7abd 0093 a439 f778 c3bd 269e 4b3d
00000070: c5c2 983d 9d43 cfbc 3c9f afbc 37ff 6dbd
00000080: f66f 2fbc 2c30 36bd 49f4 e0bb d768 99bc
00000090: d22b 203d b396 4fba 460a 3a3d 26f2 d13c
000000a0: ad2a 2fbd 51bc a13c d4fb 2a3d e8c7 823d
000000b0: f725 c6bd 25a6 1dbd 08e9 b9bd a4c3 023d
000000c0: 35e3 aa3c 7c26 0c3c 2ca9 b2bd 22f5 b4bd
000000d0: 6b0f bdbd 24a3 35bd d163 4ebd 637d 6abd
000000e0: 86c3 d53c 3659 323d ccd0 e33c 310d 2f3d
000000f0: 4ea1 293c 7058 823d f3d8 b3bd bd7c a7bd
00000100: 3689 e0ba 2351 9e3d 50cf ff3c 7af7 913c
00000110: 3c59 063d 0d3b 45bd 0c81 46bd 5088 b6bd
00000120: 745c 953d 30b5 413d 1308 6fbd 3e36 44bd
00000130: 576a fa3c 6907 96bd f67b c93c 02a2 4abd
00000140: 3bed a73c 33b7 653d 12ab abbc 2c07 33bd
00000150: 8ff1 8fbd 1e7e a23d 713c 0fbc 8bfb c6bd
00000160: c330 d13c 661a 9abd 46a1 8cbd 06e2 fc3c
00000170: 8e60 5e3d 482c 2ebd 2655 493d ba12 8c3a
00000180: a360 b6bd e770 8abc 93f4 e43c ebf8 743d
00000190: f683 a8bd f537 c1bd d07e 9a3b 0354 78bd
000001a0: a3a6 9bbd 8ce9 3fbd b9b2 cb3b 1c93 8f3d
000001b0: bd9f 03bd 002c a3bd 6ea4 f53c edda 46bd
000001c0: cd2e b03c 7e8a 72bd e5f6 963d e163 84bc
000001d0: d70d e9bc d36f 613d 0be4 a7bd c882 0f3c
000001e0: 03f9 863d 6321 b93b 5cc3 f53c 3d8f 973d
000001f0: 5273 69bd 86d6 9d3c 2095 43bd 64b2 1ebd
00000200: 6480 8341 e69a 553c c0c4 8341 d260 dcbc
00000210: 99af 8241 0ed3 97bd f806 8341 ac13 803b
00000220: 9ffc 8141 7494 253c 5bfa 8241 7a18 8341
00000230: 1912 37bf 55d9 8241 12a0 8041 557a 8241
00000240: 3c1b 8341 7e48 b2bc 2169 8341 f5eb 8241
00000250: 28c4 8341 43c8 8341 0a0d 8341 6713 8341
00000260: 6b8a 8341 e437 93bd fa2b 8441 56cf 8241
00000270: e740 8341 7e41 8341 864b 8341 09dc 8241
00000280: 781a 6c3c 8847 8341 e14e 8341 ef38 8341
00000290: 4bfb 8241 2633 8341 2567 8341 9aa7 8241
000002a0: 374a 8341 9a05 8341 bf57 8341 eaf6 8241
000002b0: 9e20 8341 82ee 8241 7788 8341 2c86 8241
000002c0: 03f2 8241 9cf2 8341 b8b7 8341 5927 8341
000002d0: e17e 8241 0002 8341 aa0d 8341 8a97 8241
000002e0: 8879 8341 c696 8241 2227 8341 df0b 8441
000002f0: 2839 8341 d623 60bd 7acf 8241 73a2 8241
00000300: ad57 e8be cf13 8441 f793 8241 2499 8241
00000310: c924 8341 10ff 8241 cc30 16bf 0cb8 8341
00000320: 60e3 8341 bb84 aabd 38d1 943d 5d85 8341
00000330: 46b7 8341 75df 8241 145f 8241 31b6 8341
00000340: b899 8341 21fc 8241 1d47 8341 40f6 8241
00000350: 0bdd 8341 5a6e 8241 e3d1 8341 a488 8341
00000360: 768e 8241 e4fc 8241 a870 9cbd 4d40 8341
00000370: 96f5 8241 d845 8341 b2e3 8341 ca55 8341
00000380: 78b4 8341 d4b4 8341 f971 8341 8920 8341
00000390: 17df 8141 38fb 8241 73e6 8241 0e19 8341
000003a0: 15ed 933d f0b9 d73c 0e8e 8341 f4d0 8341
000003b0: 1f24 8341 aab7 8341 7833 8341 16b3 8241
000003c0: 8d76 8341 d56d 8241 6dc8 8341 1eb6 8241
000003d0: 02c4 8241 62e2 8241 7da9 8341 155b 8341
000003e0: 95a8 8341 928f 8341 78ce a13d a2cf 8241
000003f0: d5d4 8341 b1f8 8241 a250 8341 86b0 8341

fc3.bias f4 [64]
-0.039218422 15.165387 15.068547 15.017229 15.073344 -0.098805964 -0.043833464 15.051802
-0.052467864 -0.04144683 -0.063769855 15.023505 14.850897 15.029759 15.008349 0.009612106
-0.07375411 15.007451 15.126018 15.102407 -0.016308263 -0.053569097 -0.004137273 14.896837
-0.0733986 -0.031512607 15.05084 -0.04916111 14.966188 15.085152 15.047606 15.028939
15.075355 -0.034135062 14.957661 -0.024066955 -0.09412037 15.03771 -0.076198615 15.111845
-0.0405592 15.11021 15.149616 14.972365 15.106079 15.063688 15.098666 15.007298
15.087084 15.03906 15.093613 15.097608 15.164648 -0.04571306 14.946355 15.119757
15.191432 -0.07644949 15.117595 15.022005 -0.03917627 15.085973 14.984131 14.940485
00000000: 7fa3 20bd 6da5 7241 c518 7141 9246 7041
00000010: 6b2c 7141 c85a cabd b88a 33bd 2ed4 7041
00000020: 8be8 56bd 27c4 29bd c599 82bd 4760 7041
00000030: 469d 6d41 e579 7041 3322 7041 187c 1d3c
00000040: 650c 97bd 851e 7041 2b04 7241 76a3 7141
00000050: e898 85bc 456b 5bbd f691 87bb 7259 6e41
00000060: 0152 96bd 5d13 01bd 3ed0 7041 295d 49bd
00000070: 8275 6f41 c85c 7141 ffc2 7041 8976 7041
00000080: a734 7141 35d1 0bbd 9452 6f41 1028 c5bc
00000090: 2ec2 c0bd 769a 7041 050e 9cbd 1eca 7141
000000a0: 6721 26bd 6cc3 7141 d464 7241 cf8e 6f41
000000b0: 80b2 7141 de04 7141 2394 7141 e51d 7041
000000c0: b264 7141 fd9f 7041 707f 7141 cd8f 7141
000000d0: 66a2 7241 9e3d 3bbd 4524 6f41 86ea 7141
000000e0: 1b10 7341 8d91 9cbd abe1 7141 225a 7041
000000f0: 4c77 20bd 2560 7141 00bf 6f41 3a0c 6f41

fc4.weight f4 [49, 64]
-0.10253547 2.824426 2.9828205 2.9700353 2.9281557 0.084244296 -0.055959895 2.894049
-0.012289107 -0.12139189 -0.030887485 2.8526266 2.9644508 2.8823843 3.0365758 -0.11418566
-0.08645804 2.8517027 3.011989 3.0551224 0.06730634 0.09090334 0.10641642 2.7607555
-0.09692681 0.07739715 2.993898 0.008225173 2.876005 2.930186 3.029382 3.007395
3.013437 0.07074325 2.9338944 0.0060563087 0.042522594 2.8315084 -0.11488031 3.0150547
-0.054236263 2.9752188 2.90937 2.8986857 2.875855 2.8286364 2.8750734 2.808238
2.994623 2.8633184 2.9526412 2.8414063 3.0115588 0.0072348416 2.861417 2.9175618
2.9415314 -0.10587697 3.056607 3.004993 -0.01732096 2.9973621 2.9460511 2.984632
-0.052618343 10.802123 10.663198 10.840216 10.673334 0.022005413 0.049773872 10.678434
0.08794683 0.04550031 -0.12217058 10.87871 10.839975 10.701192 10.615632 -0.020924091
-0.03267476 10.76152 10.707058 10.629002 0.05778692 -0.059699178 0.03050778 10.812708
0.088732556 0.05662715 10.785379 0.09954591 10.88412 10.702353 10.656092 10.668326
10.861165 0.1114884 10.82074 -0.066160604 0.09684397 10.723922 0.018086163 10.733791
-0.11155911 10.826308 10.727214 10.799368 10.633898 10.81585 10.590103 10.557478
10.852434 10.561265 10.846354 10.412468 10.601331 0.039236754 10.525474 10.751578
10.76168 0.07169065 10.565048 10.5020895 0.09339948 10.43673 10.923065 10.841656
-0.0076760054 5.0152135 5.001765 4.951414 5.1461415 -0.04489979 0.0668092 5.0720377
0.029714674 -0.023890823 -0.0665995 5.0792966 4.8487926 5.270482 5.3415728 0.022973955
0.048851416 5.1032844 5.314649 5.2213383 0.040669408 -0.049355984 -0.107397914 5.173173
-0.03141968 0.051072296 5.0414853 -0.11790857 4.800438 4.9946647 5.14024 5.115874
5.054028 0.048018306 5.1225696 -0.05591698 -0.037338972 5.3049564 -0.035776198 5.096418
-0.06579143 5.0480113 5.06895 5.1997123 5.136892 5.1828976 5.2984414 5.132196
5.150629 5.3278522 5.0075817 5.385704 5.356065 -0.097458825 5.374983 5.285616
5.0819836 -0.021472111 5.237782 5.4133625 -0.014064372 5.400208 4.977171 4.9133067
-0.05516964 13.413038 13.431387 13.2155695 13.222772 0.12140396 0.017059276 13.358512
-0.03464602 -0.08660093 -0.05205026 13.332471 13.368873 13.247247 13.231013 0.019559875
0.08568455 13.398094 13.415614 13.28493 -0.07502943 0.11404258 0.089474335 13.229666
0.08021827 0.06191355 13.2186165 -0.02699396 13.308504 13.302918 13.390307 13.211119
13.391786 -0.063922435 13.352623 -0.015578225 0.025421858 13.270427 0.0506164 13.274706
-0.10105538 13.323852 13.361305 13.345854 13.421016 13.264403 13.295602 13.179839
13.277743 13.367218 13.402157 13.221539 13.242689 0.12032716 13.243069 13.3455515
13.219097 -0.044993788 13.346428 13.240049 0.105257764 13.278811 13.25818 13.300069
00000000: 1efe d1bd 65c3 3440 88e6 3e40 0f15 3e40
00000010: e766 3b40 4688 ac3d 3436 65bd 1938 3940
00000020: 4058 49bc 509c f8bd c007 fdbc 6f91 3640
00000030: 90b9 3d40 fc78 3840 4257 4240 2cda e9bd
00000040: ea10 b1bd 4c82 3640 6ec4 4040 2087 4340
00000050: e8d7 893d 882b ba3d daf0 d93d 38b0 3040
00000060: 9081 c6bd 6682 9e3d 069c 3f40 e0c2 063c
00000070: 7710 3840 2b88 3b40 65e1 4140 2979 4040
00000080: 27dc 4040 d6e1 903d edc4 3b40 0074 c63b
00000090: 2c2c 2e3d 6f37 3540 5e46 ebbd a8f6 4040
000000a0: d826 5ebd fc69 3e40 1e33 3a40 1184 3940
000000b0: 020e 3840 6108 3540 3401 3840 2cba 3340
000000c0: e7a7 3f40 9c40 3740 13f8 3c40 9ad9 3540
000000d0: 61bd 4040 4012 ed3b 7521 3740 55b9 3a40
000000e0: 0d42 3c40 06d6 d8bd 739f 4340 ce51 4040
000000f0: b0e4 8dbc c8d4 3f40 1a8c 3c40 3604 3f40
00000100: 5586 57bd 7fd5 2c41 769c 2a41 8671 2d41
00000110: fac5 2a41 b244 b43c b0df 4b3d deda 2a41
00000120: 781d b43d 885e 3a3d 9234 fabd 320f 2e41
00000130: 8a70 2d41 1538 2b41 a1d9 2941 0069 abbc
00000140: f8d5 05bd 302f 2c41 1c50 2b41 6410 2a41
00000150: fab1 6c3d 2087 74bd 74eb f93c da00 2d41
00000160: 6ab9 b53d dff1 673d ea90 2c41 bade cb3d
00000170: 5b25 2e41 d63c 2b41 5a7f 2a41 77b1 2a41
00000180: 55c7 2d41 0854 e43d c021 2d41 367f 87bd
00000190: 2256 c63d 2f95 2b41 6f29 943c 9cbd 2b41
000001a0: 1a79 e4bd 8f38 2d41 aba2 2b41 36ca 2c41
000001b0: 7224 2a41 b90d 2d41 1071 2941 6eeb 2841
000001c0: 92a3 2d41 f1fa 2841 aa8a 2d41 7899 2641
000001d0: 0d9f 2941 b8b6 203d 5768 2841 7706 2c41
000001e0: d72f 2c41 8cd2 923d 700a 2941 8f08 2841
000001f0: 3a48 bf3d d9fc 2641 e0c4 2e41 6c77 2d41
00000200: 0087 fbbb a17c a040 750e a040 fc71 9e40
00000210: 31ad a440 d8e8 37bd 43d3 883d 224e a240
00000220: 306c f33c b0b6 c3bc 5265 88bd 9989 a240
00000230: 4f29 9b40 caa7 a840 2aee aa40 e033 bc3c
00000240: 6c18 483d 1b4e a340 9b11 aa40 3415 a740
00000250: f794 263d 8029 4abd 70f3 dbbd a28a a540
00000260: ecb1 00bd 2f31 513d d953 a140 0c7a f1bd
00000270: 309d 9940 4bd4 9f40 d97c a440 3db5 a340
00000280: 99ba a140 d8ae 443d 17ec a340 3409 65bd
00000290: c0f0 18bd 34c2 a940 108a 12bd db15 a340
000002a0: a8bd 86bd 4f89 a140 d734 a240 0b64 a640
000002b0: 6b61 a440 4cda a540 d58c a940 f33a a440
000002c0: f4d1 a440 c47d aa40 1c3e a040 b057 ac40
000002d0: e264 ab40 7e98 c7bd dcff ab40 c423 a940
000002e0: 9c9f a240 48e6 afbc e99b a740 443a ad40
000002f0: 406e 66bc 81ce ac40 fc44 9f40 cf39 9d40
00000300: 8ff9 61bd ce9b 5641 f6e6 5641 f972 5341
00000310: 7990 5341 a4a2 f83d e5bf 8b3c 77bc 5541
00000320: fce8 0dbd d45b b1bd a732 55bd cd51 5541
00000330: e7e6 5541 b9f4 5341 3bb2 5341 083c a03c
00000340: 627b af3d 985e 5641 5ba6 5641 138f 5441
00000350: 08a9 99bd 288f e93d 523e b73d b6ac 5341
00000360: 7a49 a43d 1099 7d3d 747f 5341 7022 ddbc
00000370: a2ef 5441 c1d8 5441 b33e 5641 be60 5341
00000380: c144 5641 c4e9 82bd 58a4 5541 d03b 7fbc
00000390: 8041 d03c ab53 5441 2453 4f3d 3265 5441
000003a0: 20f6 cebd 7f2e 5541 e8c7 5541 9e88 5541
000003b0: 7bbc 5641 ff3a 5441 c9ba 5441 9fe0 5241
000003c0: a371 5441 20e0 5541 3c6f 5641 6c8b 5341
000003d0: 0ee2 5341 166e f63d 9ce3 5341 6187 5541
000003e0: 6c81 5341 684b 38bd f88a 5541 3ed7 5341
000003f0: 6291 d73d 0376 5441 8121 5441 15cd 5441

fc4.bias f4 [49]
4.041055 10.854024 6.6512136 12.493371 6.5753827 7.978795 5.561927 11.376213
9.631319 8.27554 8.512476 11.0617895 7.442362 0.081776455 13.221046 7.347863
12.642089 12.983447 8.499228 -0.08594951 -0.013015777 5.8117476 9.909058 7.902996
11.135504 0.035195917 0.08694768 -0.07504973 12.54084 7.694463 7.043414 -0.0675582
0.06573287 -0.03140451 0.12175882 6.8372006 10.578846 0.09105159 -0.0061041117 0.10645667
-0.043095276 0.11687958 6.6732535 -0.029119954 -0.028960615 -0.124359846 0.103196695 0.033921286
0.016573772
00000000: 5350 8140 15aa 2d41 bed6 d440 d9e4 4741
00000010: 8969 d240 4a52 ff40 4efb b140 f804 3641
00000020: e219 1a41 9d68 0441 1a33 0841 17fd 3041
00000030: d427 ee40 6a7a a73d 6889 5341 b221 eb40
00000040: ff45 4a41 33bc 4f41 d6fc 0741 4c06 b0bd
00000050: 2040 55bc d6f9 b940 808b 1e41 58e5 fc40
00000060: 062b 3241 9829 103d a011 b23d acb3 99bd
00000070: 48a7 4841 0a39 f640 a663 e140 f45b 8abd
00000080: f49e 863d 04a2 00bd b05c f93d 59ca da40
00000090: f442 2941 4279 ba3d 0005 c8bb f405 da3d
000000a0: ac84 30bd 905e ef3d 4b8b d540 f88c eebc
000000b0: d03e edbc 60b0 febd ca58 d33d 0cf1 0a3d
000000c0: b8c5 873c
