trike2/models/trainied against random/DQN_Agent_700ep.pt/DQN_Agent.pt (torch, 333080 bytes, 8 tensors)

fc1.weight f4 [256, 148]
9.109849 12.102352 11.373914 10.018378 11.429211 9.587319 11.30585 8.820802
11.457865 8.868058 8.495339 10.626692 8.839959 -0.00026582927 11.413505 11.30268
10.1337805 8.306986 11.054095 0.011835322 -0.02897479 10.008104 12.005722 12.388289
11.211291 0.017852642 0.05884344 -0.027963988 10.378861 10.558379 10.507993 -0.074719205
0.07808743 0.076466925 0.02425693 10.047625 9.20735 0.07073837 0.07512475 -0.04547513
-0.025531057 -0.021081641 9.57645 0.024751201 0.055326514 -0.010139987 -0.01938574 -0.045457277
0.041796982 9.673847 11.933424 11.821765 9.327084 10.896019 10.302945 11.2746
9.581115 11.394515 10.1173315 9.099943 10.105805 8.709355 0.07232659 10.988392
10.209224 10.088636 8.59217 10.804706 -0.03671908 -0.05870095 10.649506 11.427148
11.039346 9.710559 0.034066983 0.06226685 0.07688043 10.340056 10.2230215 11.310327
-0.007279314 0.07539602 0.004699968 -0.05986488 8.464135 10.557165 0.05909381 -0.01762253
0.07921272 0.013320617 0.00975737 8.05933 -0.0470732 -0.08105642 0.060457103 0.052114166
0.08013455 0.0038569495 8.562825 8.184373 9.588392 8.187789 9.565846 7.5242934
8.612019 7.333789 9.58233 8.806287 7.853503 9.667129 6.795246 -0.020732436
9.174264 10.197208 9.726158 7.885948 8.468935 0.054703213 -0.048154857 9.555167
9.307801 7.911191 8.908861 0.052197583 -0.03048892 0.049774848 7.5601797 9.242286
8.794707 0.05468712 -0.071015954 -0.04656105 0.009184137 8.3397875 8.743406 -0.014812522
0.0051443055 -0.058759265 -0.055015795 0.009240292 9.355465 0.03229767 -0.012502722 0.029938474
-0.04200712 -0.06945742 0.07109029 -0.02017482 9.2164955 12.032021 11.201444 9.935811
11.511684 9.472235 11.593366 8.800973 11.53069 9.209042 8.330798 10.671992
8.700698 0.049884446 11.404164 11.397717 10.049082 8.356984 10.905061 0.009601414
-0.07694037 9.808821 11.992338 12.3111725 11.171947 0.051627226 -0.0055323243 -0.062698245
10.337351 10.790422 11.039504 0.0050312057 -0.03235459 0.04512898 -0.076367445 10.245496
9.0613785 0.048796125 -0.0689907 0.03600315 -0.0151799545 0.005302921 9.59842 0.029276341
0.074360766 -0.057696264 0.0520973 -0.02599534 0.07844076 9.928752 11.999401 11.876476
9.488297 10.948838 10.143947 11.237468 9.718697 11.502066 10.012093 9.15962
10.330254 9.281388 0.042181335 11.105832 10.392417 9.902135 8.475646 10.813191
-0.051743582 -0.061413445 10.621785 11.478683 11.267593 9.812574 0.07121671 -0.059178963
-0.012540489 10.255461 10.250386 11.110594 -0.046620872 0.04613801 -0.051006533 -0.05711349
8.069699 10.600372 -0.013047323 -0.027362578 -0.06490002 -0.07839049 -0.038326684 7.819428
-0.0074345693 -0.07534207 -0.021947104 0.015818581 -0.06326589 -0.055448104 9.088863 8.15458
9.699237 8.050813 9.775664 7.5835447 8.742189 7.2337394 9.618446 8.963427
00000000: f1c1 1141 3ca3 4141 8dfb 3541 474b 2041
00000010: 0cde 3641 a965 1941 c3e4 3441 0122 0d41
00000020: 6a53 3741 91e3 0d41 e9ec 0741 ee06 2a41
00000030: 7970 0d41 005f 8bb9 b79d 3641 c7d7 3441
00000040: f723 2241 6ae9 0441 93dd 3041 f0e8 413c
00000050: 8a5c edbc 3221 2041 7017 4041 6f36 4641
00000060: 7361 3341 b43f 923c d205 713d bc14 e5bc
00000070: d10f 2641 1fef 2841 bd20 2841 6206 99bd
00000080: 4dec 9f3d b19a 9c3d 78b6 c63c 12c3 2041
00000090: 4e51 1341 47df 903d 01db 993d 2144 3abd
000000a0: 8226 d1bc 68b3 acbc 2439 1941 08c3 ca3c
000000b0: 0e9e 623d 3022 26bc d8ce 9ebc 6931 3abd
000000c0: 5033 2b3d 14c8 1a41 4eef 3e41 f325 3d41
000000d0: bc3b 1541 1856 2e41 ddd8 2441 c364 3441
000000e0: 3f4c 1941 ef4f 3641 97e0 2141 5e99 1141
000000f0: 61b1 2141 8559 0b41 f71f 943d 74d0 2f41
00000100: fb58 2341 0e6b 2141 8779 0941 13e0 2c41
00000110: bf66 16bd 6870 70bd 6064 2a41 99d5 3641
00000120: 29a1 3041 735e 1b41 d289 0b3d 860b 7f3d
00000130: 7d73 9d3d df70 2541 7f91 2341 19f7 3441
00000140: 5087 eebb 3b69 9a3d 3002 9a3b e034 75bd
00000150: 196d 0741 26ea 2841 5a0c 723d 205d 90bc
00000160: 473a a23d b83e 5a3c 60dd 1f3c 04f3 0041
00000170: d4cf 40bd e900 a6bd dea1 773d aa75 553d
00000180: 951d a43d e0c4 7c3b 5501 0941 31f3 0241
00000190: 0e6a 1941 2f01 0341 b50d 1941 03c7 f040
000001a0: d4ca 0941 66ae ea40 3951 1941 8de6 0c41
000001b0: e64f fb40 8fac 1a41 a872 d940 12d7 a9bc
000001c0: c9c9 1241 c427 2341 589e 1b41 b059 fc40
000001d0: c280 0741 7a10 603d 073e 45bd f7e1 1841
000001e0: c1ec 1441 7a28 fd40 b28a 0e41 22cd 553d
000001f0: e6c3 f9bc b6e0 4b3d feec f140 67e0 1341
00000200: 1fb7 0c41 9aff 5f3d d070 91bd cdb6 3ebd
00000210: 1079 163c c56f 0541 fee4 0b41 38b0 72bc
00000220: 9091 a83b 8ead 70bd 3e58 61bd 9864 173c
00000230: fcaf 1541 904a 043d 38d8 4cbc 8841 f53c
00000240: a80f 2cbd b13f 8ebd c997 913d aa45 a5bc
00000250: c476 1341 2883 4041 1d39 3341 15f9 1e41
00000260: dc2f 3841 468e 1741 6d7e 3941 c9d0 0c41
00000270: b57d 3841 3c58 1341 f34a 0541 7bc0 2a41
00000280: 0f36 0b41 a253 4c3d 7577 3641 0d5d 3641
00000290: 0ac9 2041 35b6 0541 217b 2e41 404f 1d3c
000002a0: ea92 9dbd eef0 1c41 9ee0 3f41 90fa 4441
000002b0: 4bc0 3241 1277 533d 8048 b5bb f067 80bd
000002c0: ca65 2541 92a5 2c41 cfa1 3041 d0dc a43b
000002d0: 3f86 04bd 2ad9 383d 8966 9cbd 8ded 2341
000002e0: 68fb 1041 72de 473d ff4a 8dbd 0a78 133d
000002f0: 58b5 78bc 20c4 ad3b 2193 1941 f0d4 ef3c
00000300: 754a 983d eb52 6cbd fa63 553d 2ef4 d4bc
00000310: 8da5 a03d 2bdc 1e41 8cfd 3f41 0c06 3e41
00000320: 11d0 1741 712e 2f41 9b4d 2241 abcc 3341
00000330: c87f 1b41 7608 3841 8831 2041 ce8d 1241
00000340: b848 2541 9180 1441 56c6 2c3d 7db1 3141
00000350: 5747 2641 256f 1e41 3f9c 0741 d502 2d41
00000360: 14f1 53bd aa8c 7bbd d5f2 2941 b0a8 3741
00000370: 1048 3441 4e00 1d41 11da 913d a465 72bd
00000380: a076 4dbc 5e16 2441 9501 2441 fec4 3141
00000390: 87f5 3ebd 36fb 3c3d 3aec 50bd d6ef 69bd
000003a0: 7d1d 0141 209b 2941 70c4 55bc 7c27 e0bc
000003b0: 4dea 84bd 318b a0bd 71fc 1cbd c138 fa40
000003c0: b09d f3bb f14c 9abd 6aca b3bc f895 813c
000003d0: 8c91 81bd 8d1d 63bd fc6b 1141 2979 0241
000003e0: 1330 1b41 21d0 0041 1f69 1c41 66ac f240
000003f0: 02e0 0b41 cb7a e740 28e5 1941 326a 0f41

fc1.bias f4 [256]
12.7951 12.951338 12.902181 12.967129 12.988931 12.935404 13.010352 12.955969
12.971269 12.955756 12.949486 12.924454 -1.5482702 12.900803 12.97015 12.995758
12.753336 13.016622 12.96888 12.924097 12.875932 12.887731 12.869152 12.811237
12.962125 12.775954 12.791367 12.841419 13.003202 12.956234 12.991756 12.832155
12.932493 12.92463 12.942064 -1.5888051 12.89988 12.988539 12.92146 -1.8501745
12.945238 -1.4593635 12.940379 13.028525 13.009416 12.981236 12.918538 13.00977
12.956822 -1.4733652 12.95466 12.834123 12.799934 12.923532 12.952349 12.945825
12.780817 12.94316 12.991302 13.020693 12.984254 12.948592 12.969128 12.968238
13.011741 12.960189 12.860624 12.988249 12.974392 13.019226 12.879706 12.968269
12.944676 -1.2664746 12.808799 12.936786 -1.7526203 12.838941 -1.4737725 -1.571827
12.919043 12.791949 13.027534 12.911925 12.967069 12.864852 12.98672 12.883562
-1.5170889 12.956933 12.995913 12.788189 13.003311 12.895681 12.806019 -1.6731721
12.931681 12.982109 12.810113 12.995337 13.013865 13.0136 12.945335 12.992897
12.988925 13.006239 12.952868 13.042617 12.819733 12.7503 12.850414 12.909714
12.9840555 12.937394 12.923124 12.93581 12.962458 12.951335 13.03092 12.991343
-1.4431434 12.98542 12.946266 -1.6368154 -1.7140437 -1.5064514 13.018434 13.038584
12.912174 12.9863615 12.882034 13.020518 12.688136 12.965022 12.795086 12.924636
12.796686 12.846436 12.825811 12.895327 12.809835 12.861687 12.873835 12.944206
13.045667 12.979318 12.977516 12.937722 12.953567 13.030653 12.950344 12.92708
12.97499 12.980626 12.74326 12.900915 12.990307 13.001794 12.905194 12.8227825
13.010399 12.929114 12.991331 12.93361 12.973459 12.887476 12.818249 12.976919
13.013704 12.975259 12.858922 12.976397 -1.6133881 13.015668 12.982965 13.020697
12.781301 12.961938 12.949277 12.919424 13.008539 12.977943 12.908897 12.938118
12.951037 12.942786 -1.3096718 12.766813 13.014426 12.985944 12.9834795 -1.5522954
12.979459 12.947476 12.988557 12.988302 13.013807 13.005183 12.984369 -1.6539729
13.000234 12.7940445 12.825332 -1.5603721 12.701344 12.8467655 12.962565 12.97487
12.991279 12.756121 12.993663 13.012048 12.814148 12.904501 12.836495 -1.5345571
12.972148 12.956053 13.009509 12.818033 13.022113 12.953892 12.969836 12.880633
12.961109 12.929297 -1.7070181 12.975768 12.843766 -1.5133951 12.896545 12.932409
13.005306 12.902901 12.995567 -1.7407794 12.881138 -1.5035868 12.86663 12.988726
12.796392 12.944794 12.915309 13.038618 12.929279 13.020774 13.001511 13.009322
12.943045 12.814316 12.924234 12.980429 12.97449 12.933037 12.821455 12.821706
00000000: bbb8 4c41 ae38 4f41 556f 4e41 5c79 4f41
00000010: a9d2 4f41 6af7 4e41 672a 5041 a64b 4f41
00000020: 518a 4f41 c74a 4f41 1831 4f41 90ca 4e41
00000030: b82d c6bf b069 4e41 bc85 4f41 a0ee 4f41
00000040: aa0d 4c41 1544 5041 8880 4f41 1ac9 4e41
00000050: d103 4e41 2534 4e41 0ce8 4d41 d4fa 4c41
00000060: dd64 4f41 4f6a 4c41 70a9 4c41 7476 4d41
00000070: 1e0d 5041 bc4c 4f41 3cde 4f41 8250 4d41
00000080: 7eeb 4e41 49cb 4e41 b212 4f41 f75d cbbf
00000090: e965 4e41 0ed1 4f41 4dbe 4e41 85d2 ecbf
000000a0: b21f 4f41 6ccc babf cb0b 4f41 d774 5041
000000b0: 9126 5041 25b3 4f41 55b2 4e41 0528 5041
000000c0: 254f 4f41 3b97 bcbf 4a46 4f41 9158 4d41
000000d0: 88cc 4c41 c9c6 4e41 d23c 4f41 1922 4f41
000000e0: 3a7e 4c41 2f17 4f41 5fdc 4f41 c254 5041
000000f0: 81bf 4f41 6f2d 4f41 8c81 4f41 e77d 4f41
00000100: 1730 5041 ef5c 4f41 1ec5 4d41 decf 4f41
00000110: 1c97 4f41 c04e 5041 4713 4e41 087e 4f41
00000120: 651d 4f41 d71b a2bf d7f0 4c41 13fd 4e41
00000130: dd55 e0bf 4d6c 4d41 94a4 bcbf a131 c9bf
00000140: 66b4 4e41 d3ab 4c41 c770 5041 3f97 4e41
00000150: 1d79 4f41 6fd6 4d41 9bc9 4f41 1223 4e41
00000160: f82f c2bf 994f 4f41 42ef 4f41 6c9c 4c41
00000170: 900d 5041 b654 4e41 74e5 4c41 812a d6bf
00000180: 2ae8 4e41 b8b6 4f41 39f6 4c41 e6ec 4f41
00000190: cb38 5041 b537 5041 1820 4f41 e8e2 4f41
000001a0: a3d2 4f41 8e19 5041 f33e 4f41 8fae 5041
000001b0: a01d 4d41 3b01 4c41 4c9b 4d41 308e 4e41
000001c0: b1be 4f41 91ff 4e41 1ec5 4e41 14f9 4e41
000001d0: 3a66 4f41 ab38 4f41 a67e 5041 8adc 4f41
000001e0: ecb8 b8bf 48c4 4f41 e823 4f41 2b83 d1bf
000001f0: c965 dbbf 66d3 c0bf 814b 5041 0a9e 5041
00000200: 4498 4e41 23c8 4f41 d01c 4e41 0b54 5041
00000210: 9b02 4b41 bb70 4f41 acb8 4c41 4fcb 4e41
00000220: 3abf 4c41 008b 4d41 8636 4d41 4253 4e41
00000230: 16f5 4c41 78c9 4d41 3afb 4d41 781b 4f41
00000240: 0dbb 5041 49ab 4f41 e8a3 4f41 e900 4f41
00000250: cf41 4f41 8e7d 5041 9c34 4f41 52d5 4e41
00000260: 8f99 4f41 a5b0 4f41 65e4 4b41 266a 4e41
00000270: 4cd8 4f41 5907 5041 ad7b 4e41 1e2a 4d41
00000280: 982a 5041 a7dd 4e41 7edc 4f41 11f0 4e41
00000290: 4a93 4f41 1a33 4e41 8c17 4d41 76a1 4f41
000002a0: 2238 5041 a99a 4f41 25be 4d41 529f 4f41
000002b0: 8083 cebf 2d40 5041 3aba 4f41 c654 5041
000002c0: 3580 4c41 1964 4f41 3d30 4f41 f6b5 4e41
000002d0: fa22 5041 a8a5 4f41 d88a 4e41 8802 4f41
000002e0: 7337 4f41 a715 4f41 53a3 a7bf de44 4c41
000002f0: 173b 5041 6dc6 4f41 55bc 4f41 9eb1 c6bf
00000300: ddab 4f41 dd28 4f41 21d1 4f41 16d0 4f41
00000310: 8e38 5041 3b15 5041 fabf 4f41 62b5 d3bf
00000320: f500 5041 68b4 4c41 8f34 4d41 46ba c7bf
00000330: b438 4b41 5a8c 4d41 ab66 4f41 1199 4f41
00000340: 47dc 4f41 1219 4c41 0be6 4f41 5931 5041
00000350: c006 4d41 d678 4e41 4962 4d41 5e6c c4bf
00000360: eb8d 4f41 fe4b 4f41 f326 5041 aa16 4d41
00000370: 935a 5041 2443 4f41 7384 4f41 1317 4e41
00000380: b460 4f41 67de 4e41 927f dabf bf9c 4f41
00000390: 1180 4d41 eeb6 c1bf 4058 4e41 26eb 4e41
000003a0: bc15 5041 4872 4e41 d8ed 4f41 dcd1 debf
000003b0: 2419 4e41 8875 c0bf b7dd 4d41 d2d1 4f41
000003c0: 06be 4c41 e01d 4f41 1ba5 4e41 2e9e 5041
000003d0: 54de 4e41 1755 5041 3006 5041 2f26 5041
000003e0: b616 4f41 7007 4d41 aac9 4e41 d6af 4f41
000003f0: 8397 4f41 b8ed 4e41 ae24 4d41 b525 4d41

fc2.weight f4 [128, 256]
12.623626 12.757669 12.656256 12.719426 12.72664 12.645246 12.692399 12.625015
12.830699 12.669609 12.753237 12.651197 -4.270752 12.363665 12.641922 12.564599
12.736849 12.865215 12.746345 12.813477 12.434466 12.568063 12.724267 12.702524
12.576338 12.229378 12.715181 12.542938 12.6225815 12.675904 12.727436 12.65215
12.573169 12.59351 12.72935 -4.6832333 12.695761 12.606328 12.759357 -4.337149
12.778628 -4.583693 12.783126 12.703475 12.712237 12.639411 12.68888 12.875107
12.526735 -5.1181316 12.652267 12.441239 12.635619 12.694577 12.804417 12.724143
12.79083 12.738092 12.752375 12.881943 12.6882105 12.620016 12.644721 12.80785
12.774261 12.676082 12.556422 12.655318 12.721917 12.70668 12.696371 12.791203
12.597721 -4.239189 12.674531 12.604948 -4.673835 12.686715 -4.6408105 -4.2416916
12.6379795 12.5726385 12.775585 12.603872 12.756262 12.72228 12.83069 12.783342
-4.7111883 12.778388 12.736452 12.464413 12.628348 12.739229 12.761988 -4.3377857
12.665321 12.813586 12.713683 12.840281 12.73726 12.640785 12.789888 12.675526
12.58555 12.797517 12.672841 12.675847 12.805855 12.695999 12.759005 12.698851
12.743768 12.453215 12.747613 12.665762 12.731118 12.5722885 12.668972 12.684985
-4.672128 12.719882 12.617127 -4.291588 -4.5072327 -4.671716 12.8608465 12.778149
12.677323 12.730727 12.802361 12.620258 12.668785 12.587283 12.719953 12.611842
12.577074 12.711855 12.336567 12.526882 12.712939 12.555073 12.569755 12.728934
12.8014145 12.715604 12.601069 12.645791 12.544176 12.842979 12.683925 12.640068
12.589873 12.674848 12.441488 12.596798 12.632195 12.742854 12.701739 12.680376
12.745787 12.786057 12.752166 12.546931 12.6578455 12.649205 12.448886 12.68979
12.747297 12.753831 12.502318 12.637261 -4.5268693 12.768403 12.7080765 12.749991
12.748426 12.678187 12.683263 12.600846 12.768581 12.743049 12.686149 12.622099
12.704051 12.622473 -4.3924203 12.645453 12.848647 12.777916 12.646822 -4.984534
12.770045 12.832411 12.614534 12.71688 12.738206 12.662497 12.760707 -4.413204
12.736532 12.40872 12.673927 -4.774276 12.12734 12.469805 12.766279 12.650712
12.718958 12.558262 12.606917 12.844055 12.650626 12.8301325 12.724564 -3.9346895
12.635589 12.684592 12.628877 12.645343 12.708237 12.633086 12.609917 12.617386
12.732035 12.733892 -4.2459307 12.720685 12.541319 -4.792202 12.826411 12.731525
12.694972 12.891852 12.691206 -4.471248 12.733829 -4.677825 12.656552 12.895509
12.648299 12.673887 12.833793 12.826482 12.560659 12.877214 12.642835 12.7319565
12.730826 12.597984 12.86572 12.751051 12.759599 12.691942 12.485724 12.601141
00000000: 5ffa 4941 6a1f 4c41 0680 4a41 c582 4b41
00000010: 51a0 4b41 ed52 4a41 1114 4b41 1000 4a41
00000020: 8b4a 4d41 b8b6 4a41 420d 4c41 4e6b 4a41
00000030: 00aa 88c0 92d1 4541 5045 4a41 9908 4941
00000040: 22ca 4b41 ecd7 4d41 07f1 4b41 0004 4d41
00000050: 93f3 4641 c916 4941 9996 4b41 8a3d 4b41
00000060: ae38 4941 88ab 4341 6271 4b41 e0af 4841
00000070: 18f6 4941 81d0 4a41 94a3 4b41 356f 4a41
00000080: b32b 4941 047f 4941 6bab 4b41 0cdd 95c0
00000090: d621 4b41 85b3 4941 5426 4c41 edc9 8ac0
000000a0: 4375 4c41 9dad 92c0 af87 4c41 6f41 4b41
000000b0: 5365 4b41 073b 4a41 a705 4b41 7000 4e41
000000c0: 826d 4841 bcc7 a3c0 b06f 4a41 510f 4741
000000d0: 7f2b 4a41 fd1c 4b41 e4de 4c41 1796 4b41
000000e0: 3da7 4c41 3acf 4b41 ba09 4c41 701c 4e41
000000f0: e902 4b41 96eb 4941 c750 4a41 f4ec 4c41
00000100: 6063 4c41 3bd1 4a41 1be7 4841 2f7c 4a41
00000110: f98c 4b41 904e 4b41 5624 4b41 c4a8 4c41
00000120: 4490 4941 70a7 87c0 e1ca 4a41 dead 4941
00000130: 0e90 95c0 c9fc 4a41 8581 94c0 f0bb 87c0
00000140: 2a35 4a41 8729 4941 cc68 4c41 76a9 4941
00000150: a619 4c41 758e 4b41 824a 4d41 9288 4c41
00000160: 0ec2 96c0 4774 4c41 82c8 4b41 3c6e 4741
00000170: b70d 4a41 e2d3 4b41 1a31 4c41 24cf 8ac0
00000180: 28a5 4a41 7304 4d41 3f6b 4b41 ca71 4d41
00000190: d1cb 4b41 a840 4a41 62a3 4c41 f4ce 4a41
000001a0: 6a5e 4941 a1c2 4c41 f5c3 4a41 45d0 4a41
000001b0: c8e4 4c41 d022 4b41 e224 4c41 7e2e 4b41
000001c0: 79e6 4b41 5e40 4741 39f6 4b41 f6a6 4a41
000001d0: a9b2 4b41 1828 4941 1cb4 4a41 b3f5 4a41
000001e0: 1382 95c0 a384 4b41 c1df 4941 b054 89c0
000001f0: 403b 90c0 b37e 95c0 07c6 4d41 4c73 4c41
00000200: 51d6 4a41 0fb1 4b41 78d6 4c41 94ec 4941
00000210: 58b3 4a41 8365 4941 ed84 4b41 1bca 4941
00000220: b23b 4941 c263 4b41 9462 4541 1c6e 4841
00000230: 3368 4b41 94e1 4841 b71d 4941 b7a9 4b41
00000240: 98d2 4c41 1d73 4b41 fb9d 4941 2955 4a41
00000250: f2b4 4841 d87c 4d41 5bf1 4a41 b83d 4a41
00000260: 1f70 4941 2dcc 4a41 5610 4741 7c8c 4941
00000270: 791d 4a41 bbe2 4b41 533a 4b41 d2e2 4a41
00000280: beee 4b41 b193 4c41 df08 4c41 3bc0 4841
00000290: 8986 4a41 2563 4a41 a32e 4741 6109 4b41
000002a0: eef4 4b41 b10f 4c41 7f09 4841 3932 4a41
000002b0: 1ddc 90c0 614b 4c41 4854 4b41 f7ff 4b41
000002c0: 8ef9 4b41 dbd9 4a41 a5ee 4a41 119d 4941
000002d0: 1c4c 4c41 87e3 4b41 77fa 4a41 1ef4 4941
000002e0: cb43 4b41 a6f5 4941 b58e 8cc0 c753 4a41
000002f0: 0f94 4d41 5872 4c41 6259 4a41 4d81 9fc0
00000300: 1b52 4c41 8e51 4d41 22d5 4941 5778 4b41
00000310: b1cf 4b41 9699 4a41 db2b 4c41 f838 8dc0
00000320: d6c8 4b41 1e8a 4641 68c8 4a41 dec6 98c0
00000330: 9609 4241 5284 4741 ae42 4c41 5169 4a41
00000340: da80 4b41 a4ee 4841 efb5 4941 4081 4d41
00000350: f768 4a41 3948 4d41 d097 4b41 f4d1 7bc0
00000360: 5f2b 4a41 17f4 4a41 e10f 4a41 5353 4a41
00000370: f054 4b41 1f21 4a41 38c2 4941 d0e0 4941
00000380: 6ab6 4b41 06be 4b41 aade 87c0 ed87 4b41
00000390: 3ea9 4841 b859 99c0 fb38 4d41 54b4 4b41
000003a0: 9b1e 4b41 0745 4e41 2e0f 4b41 7714 8fc0
000003b0: c3bd 4b41 beb0 95c0 3d81 4a41 0154 4e41
000003c0: 6f5f 4a41 3ec8 4a41 3757 4d41 4539 4d41
000003d0: 76f8 4841 1209 4e41 0d49 4a41 18b6 4b41
000003e0: 77b1 4b41 5891 4941 fdd9 4d41 4e04 4c41
000003f0: 5127 4c41 3212 4b41 87c5 4741 469e 4941

fc2.bias f4 [128]
12.251839 12.251239 12.2138 12.301383 12.318991 12.240905 12.282677 12.363588
12.345445 12.313293 12.27412 12.334656 12.280425 12.280203 12.296722 12.283567
12.224168 -0.08128001 12.360762 0.0027770926 12.295077 12.362262 12.275153 12.29391
12.271854 -0.06016182 12.353704 12.3203335 -0.0662646 12.294338 12.297804 12.35245
12.128643 12.305853 12.319566 12.350541 12.3346815 12.263767 12.1831255 12.273993
-0.05972258 12.332523 12.297403 12.359475 12.277668 12.264915 12.296452 12.310208
12.311218 12.240381 12.2877445 12.342991 -0.05869092 12.315442 12.281103 12.339384
12.24387 12.303701 -0.06035701 12.275172 12.253628 12.308247 12.275051 12.303386
12.333615 12.32873 12.215176 -0.10514283 12.312227 -0.0853501 12.240476 12.231822
12.239306 12.309579 12.351932 12.328346 -0.060454674 12.327059 12.298849 12.292307
12.358752 12.27773 12.381531 -0.03629365 12.339084 12.234347 12.338389 12.33177
-0.067555524 12.344974 12.285684 -0.043669507 12.349876 12.292933 12.326567 12.270242
-0.013717299 0.00063172483 12.214075 12.254779 12.3532505 12.30935 12.244137 -0.04731175
12.346361 12.252162 12.341398 -0.10889605 12.356468 12.246017 12.333706 12.252374
12.324435 12.287634 12.330249 12.365922 12.315247 -0.05229487 12.344266 12.269954
12.265191 12.250984 -0.030905627 12.25124 12.264078 -0.017221058 12.31122 -0.0033850227
00000000: 8807 4441 1305 4441 ba6b 4341 77d2 4441
00000010: 961a 4541 bfda 4341 d885 4441 42d1 4541
00000020: f186 4541 4003 4541 cc62 4441 c05a 4541
00000030: 9f7c 4441 b67b 4441 60bf 4441 7e89 4441
00000040: 3196 4341 2276 a6bd aec5 4541 e2ff 353b
00000050: a3b8 4441 d3cb 4541 0767 4441 dbb3 4441
00000060: 8459 4441 3e6c 76bd c6a8 4541 1620 4541
00000070: bcb5 87bd 9cb5 4441 cec3 4441 a3a3 4541
00000080: ec0e 4241 c6e4 4441 f11c 4541 d19b 4541
00000090: db5a 4541 6438 4441 15ee 4241 4662 4441
000000a0: aa9f 74bd 0452 4541 2ac2 4441 69c0 4541
000000b0: 5471 4441 183d 4441 44be 4441 9df6 4441
000000c0: c0fa 4441 9ad8 4341 9a9a 4441 e47c 4541
000000d0: e465 70bd 0d0c 4541 667f 4441 1e6e 4541
000000e0: e4e6 4341 f6db 4441 ea38 77bd 1b67 4441
000000f0: dc0e 4441 94ee 4441 9c66 4441 abda 4441
00000100: 7d56 4541 7a42 4541 5c71 4341 2055 d7bd
00000110: e2fe 4441 09cc aebd fdd8 4341 8bb5 4341
00000120: 33d4 4341 09f4 4441 83a1 4541 e840 4541
00000130: 529f 77bd a23b 4541 16c8 4441 4aad 4441
00000140: 73bd 4541 9571 4441 c01a 4641 a6a8 14bd
00000150: e36c 4541 e3bf 4341 0b6a 4541 ee4e 4541
00000160: 8d5a 8abd 0385 4541 2992 4441 ccde 32bd
00000170: 1899 4541 dbaf 4441 9e39 4541 e952 4441
00000180: 86be 60bc 569a 253a da6c 4341 9313 4441
00000190: eaa6 4541 19f3 4441 fce7 4341 f7c9 41bd
000001a0: b28a 4541 db08 4441 5e76 4541 e404 dfbd
000001b0: 18b4 4541 b0ef 4341 dc56 4541 b909 4441
000001c0: e330 4541 269a 4441 b348 4541 d1da 4541
000001d0: 400b 4541 2533 56bd 1d82 4541 bb51 4441
000001e0: 393e 4441 0804 4441 cc2d fdbc 1405 4441
000001f0: aa39 4441 2d13 8dbc c2fa 4441 42d7 5dbb

fc3.weight f4 [64, 128]
0.005320825 0.038363535 -0.047559015 -0.100406446 -0.052078944 0.038422737 -0.08864113 -0.044532035
-0.025667937 -0.07400676 0.05034875 -0.056126483 -0.012695883 -0.07254566 -0.054949977 -0.028732788
-0.06489669 -0.055942643 -0.0021084177 0.0058218827 -0.012757063 -0.03139052 0.055436123 0.031447705
-0.029672641 -0.018497718 -0.0501935 -0.04152108 0.05195353 -0.11664243 0.063058786 0.051671535
0.009779932 0.04726566 -0.037277926 0.015871722 -0.028077347 -0.004797965 0.013344949 0.01909552
-0.06614729 0.028855931 0.020104457 -0.07659387 0.057767548 -0.0631533 -0.001499273 -0.073141195
0.023938676 -0.075359 0.06455494 0.021526737 -0.048673775 0.015131462 -0.11926972 -0.016683877
0.030341683 0.03361027 -0.006950408 -0.12155916 0.074548 -0.09390789 -0.049597286 -0.07421633
-0.02540731 0.0046005417 0.056804985 0.033804223 -0.004264806 0.008510793 0.042978954 0.052893855
-0.12286264 -0.12212227 -0.092871144 -0.06615558 0.0030445505 0.03854997 0.0714525 -0.07718454
-0.09183034 0.09584619 -0.113418676 0.08721911 0.068378665 -0.07199576 -0.026248429 -0.1248695
0.06720938 0.027247721 -0.04415468 -0.031532247 -0.09846965 -0.038171012 -0.024421051 -0.017511262
-0.0858542 -0.110178456 -0.070482135 -0.036282964 0.024057478 -0.10890105 -0.05705807 -0.056015488
0.018369412 -0.13052145 -0.036413033 -0.04346892 -0.002660931 -0.10537433 -0.024210393 -0.10250881
0.03170523 0.0044937036 0.009126115 -0.009461831 -0.022996174 0.031685248 -0.09201316 0.054595713
0.022692274 -0.10298885 0.058663268 -0.017606564 -0.053885955 0.011268503 0.051546328 -0.019901639
-0.03360029 0.009826221 -0.07223795 0.016914949 -0.00037647627 -0.07644456 0.030404584 -0.038660638
-0.07274878 0.013336105 0.019818313 -0.08575393 -0.019993566 -0.030196799 -0.081290215 -0.04058475
0.023718126 -0.053598814 0.072454505 0.0580463 0.006095083 -0.028936014 0.035353914 0.0039916337
0.047619574 -0.037482183 -0.04596214 -0.01885538 0.070057236 -0.08825862 0.06950671 0.020382226
-0.10271692 0.037150033 0.055492617 -0.07541745 0.054886527 -0.07150134 0.0022036142 0.064640276
-0.085509166 -0.037793607 -0.034600087 -0.06578315 0.03747491 0.0012410209 -0.07302568 0.030088
-0.0128200725 -0.010926056 0.025708193 0.02777654 -0.04180605 0.009442444 -0.083443336 0.08808956
-0.03814281 -0.0340527 -0.032251358 -0.084703036 0.00543651 -0.057651408 0.04507365 0.003193222
0.009772539 -0.081360675 -0.033010032 -0.016617022 0.04395684 0.023735479 -0.008670315 -0.028785935
0.08578711 -0.04453354 -0.083533324 0.05622842 -0.006106134 -0.043979656 0.03812612 0.07587262
0.032626435 0.032329053 -0.017733075 0.0065172687 -0.046772927 0.035043385 -0.024960414 0.0028768778
0.008959964 0.058629416 -0.077044226 -0.009419233 0.024185397 -0.048156314 0.032960035 -0.092390575
-0.0010106907 0.04342552 -0.065033436 -0.045559037 -0.061019458 0.020623296 0.05535624 -0.08530832
0.073546 -0.00060483813 0.020507015 0.0014013465 -0.035610463 0.031487428 0.052852117 0.0033638105
-0.07854271 -0.041361544 0.016571932 -0.033649497 -0.08022642 -0.066875525 -0.050629873 0.023316907
-0.020892125 -0.07815186 0.05015552 -0.008284725 -0.08194173 0.047624104 0.056498326 0.049707048
00000000: 515a ae3b 1523 1d3d 3ecd 42bd e5a1 cdbd
00000010: bb50 55bd 2961 1d3d 7b89 b5bd 3967 36bd
00000020: 9145 d2bc db90 97bd 7e3a 4e3d e2e4 65bd
00000030: 6502 50bc d292 94bd 3a13 61bd 0661 ebbc
00000040: 8ee8 84bd 1d24 65bd 612d 0abb 7ec5 be3b
00000050: 0003 51bc 5993 00bd fd10 633d 4fcf 003d
00000060: 0a14 f3bc 8788 97bc b397 4dbd 0212 2abd
00000070: 3acd 543d 3ae2 eebd f724 813d 88a5 533d
00000080: 023c 203c a399 413d bdb0 18bd 6a05 823c
00000090: 7702 e6bc 3f38 9dbb c6a4 5a3c 356e 9c3c
000000a0: 3b78 87bd 4663 ec3c 1ab2 a43c 3fdd 9cbd
000000b0: aa9d 6c3d 8456 81bd 4183 c4ba 0dcb 95bd
000000c0: 0b1b c43c d255 9abd 6135 843d d758 b03c
000000d0: 275e 47bd f4e9 773c af43 f4bd a0ac 88bc
000000e0: 1f8f f83c ecaa 093d 40c0 e3bb 02f4 f8bd
000000f0: 9fac 983d c852 c0bd 8626 4bbd bbfe 97bd
00000100: fe22 d0bc 24c0 963b 58ac 683d 4c76 0a3d
00000110: c9bf 8bbb da70 0b3c b30a 303d 3aa7 583d
00000120: 689f fbbd 3e1b fabd 3a33 bebd 947c 87bd
00000130: 1587 473b 93e6 1d3d b055 923d ee12 9ebd
00000140: 8c11 bcbd 024b c43d 0d48 e8bd ef9f b23d
00000150: 1d0a 8c3d 8372 93bd f206 d7bc 95bb ffbd
00000160: 12a5 893d 9d36 df3c 8adb 34bd f527 01bd
00000170: 75aa c9bd 3559 1cbd a80e c8bc c773 8fbc
00000180: 54d4 afbd 3ea5 e1bd f058 90bd 729d 14bd
00000190: 3014 c53c 8407 dfbd b9b5 69bd 7f70 65bd
000001a0: 737b 963c 6aa7 05be d525 15bd 770c 32bd
000001b0: 0463 2ebb 7fce d7bd e054 c6bc 24f0 d1bd
000001c0: 58dd 013d eb3f 933b b385 153c cc05 1bbc
000001d0: 7962 bcbc 64c8 013d 6571 bcbd c19f 5f3d
000001e0: 26e5 b93c d1eb d2bd e548 703d a43b 90bc
000001f0: 85b7 5cbd 879f 383c 3e22 533d c308 a3bc
00000200: 75a0 09bd 28fe 203c 7ef1 93bd 3891 8a3c
00000210: ca61 c5b9 f78e 9cbd 0913 f93c 9e5a 1ebd
00000220: 50fd 94bd ae7f 5a3c 045a a23c c29f afbd
00000230: 8cc9 a3bc 475f f7bc 7c7b a6bd 323c 26bd
00000240: 844c c23c 6e8a 5bbd 0763 943d f5c1 6d3d
00000250: 43b9 c73b 380b edbc 44cf 103d 40cc 823b
00000260: be0c 433d eb86 19bd cc42 3cbd 9976 9abc
00000270: 2b7a 8f3d efc0 b4bd 8959 8e3d a0f8 a63c
00000280: 405d d2bd a22a 183d 3a4c 633d 7774 9abd
00000290: b2d0 603d 4b6f 92bd 836a 103b 1f62 843d
000002a0: 6e1f afbd 78cd 1abd d2b8 0dbd 51b9 86bd
000002b0: 4b7f 193d c0a9 a23a 7d8e 95bd 1c7b f63c
000002c0: 480b 52bc 3303 33bc fd99 d23c a08b e33c
000002d0: d23c 2bbd 7bb4 1a3c 57e4 aabd 4d68 b43d
000002e0: a33b 1cbd d87a 0bbd 001a 04bd c978 adbd
000002f0: c024 b23b e223 6cbd 269f 383d 6045 513b
00000300: 001d 203c 6da0 a6bd 8735 07bd 6c20 88bc
00000310: 160c 343d e870 c23c f00d 0ebc 7bd0 ebbc
00000320: 27b1 af3d cd68 36bd 8513 abbd c64f 663d
00000330: f715 c8bb 0324 34bd 222a 1c3d 1b63 9b3d
00000340: 4ca3 053d 786b 043d f444 91bc d08e d53b
00000350: f894 3fbd a789 0f3d c879 ccbc 008a 3c3b
00000360: d0cc 123c 6625 703d 5dc9 9dbd 2053 1abc
00000370: 7420 c63c 8e3f 45bd 1a01 073d 4537 bdbd
00000380: 2779 84ba f5de 313d 4030 85bd 1d9c 3abd
00000390: 8aef 79bd 30f2 a83c 3abd 623d 21b6 aebd
000003a0: 499f 963d 008e 1eba 54fe a73c 63ad b73a
000003b0: 47dc 11bd f6f8 003d 767b 583d 6073 5c3b
000003c0: 00db a0bd b96a 29bd dcc1 873c 0ed4 09bd
000003d0: c04d a4bd 09f6 88bd 4561 4fbd 1903 bf3c
000003e0: f625 abbc 150e a0bd e06f 4d3d a8bc 07bc
000003f0: 11d1 a7bd 7e11 433d ca6a 673d 9e99 4b3d

fc3.bias f4 [64]
-0.030181881 -0.09268796 -0.062071513 11.623099 11.58649 -0.09529135 11.680119 -0.037619036
11.345829 0.11245446 11.650416 11.707324 11.57191 -0.09935566 -0.060253125 11.637847
11.609254 11.715968 11.573092 11.5613165 -0.102511175 -0.100915015 0.077989936 11.583156
11.54979 -0.090836324 11.675264 11.502501 11.5880165 -0.102781475 11.633317 11.527199
11.673074 11.647728 11.697377 11.629663 -0.045489654 -0.08381054 11.6011 11.458782
11.599667 11.6341715 11.670645 11.719618 11.594585 11.612833 11.608927 11.666423
11.654753 -0.054893255 11.63788 11.409068 11.604469 11.670164 11.584355 11.498562
11.6428385 11.646823 11.594521 -0.11879881 -0.030327544 11.656859 -0.06617073 11.623034
00000000: fe3f f7bc 2fd3 bdbd b33e 7ebd 37f8 3941
00000010: 4362 3941 1c28 c3bd c4e1 3a41 6b16 1abd
00000020: 8488 3541 864e e63d 1b68 3a41 3351 3b41
00000030: 8b26 3941 fb7a cbbd fbcb 76bd 9f34 3a41
00000040: 81bf 3941 9b74 3b41 632b 3941 27fb 3841
00000050: 61f1 d1bd 88ac cebd 30b9 9f3d 9b54 3941
00000060: f1cb 3841 6508 babd e2cd 3a41 3e0a 3841
00000070: 8468 3941 187f d2bd 1122 3a41 686f 3841
00000080: e9c4 3a41 185d 3a41 7528 3b41 1a13 3a41
00000090: 5c53 3abd dca4 abbd 1b9e 3941 2c57 3741
000000a0: 3c98 3941 9125 3a41 f6ba 3a41 8e83 3b41
000000b0: 6c83 3941 2ace 3941 2abe 3941 aba9 3a41
000000c0: de79 3a41 c0d7 60bd c234 3a41 8b8b 3641
000000d0: e8ab 3941 feb8 3a41 8559 3941 1cfa 3741
000000e0: 1149 3a41 6359 3a41 2883 3941 ca4c f3bd
000000f0: 7871 f8bc 7f82 3a41 8584 87bd f2f7 3941

fc4.weight f4 [49, 64]
0.14196113 0.114904195 0.069086075 2.0068896 2.1737154 -0.08700806 2.0584018 -0.11625621
1.9843979 -0.15564308 1.6029068 2.0550468 2.1822402 -0.11528606 -0.005246058 2.109005
1.9836565 2.1017683 2.1137748 2.1490383 0.07892026 -0.011926025 0.13114257 1.9872892
1.787445 -0.07090308 2.1675096 2.1493285 1.7246028 -0.026327953 2.15937 2.1549957
2.1630461 1.6495643 2.1270208 1.7468971 0.068620235 0.072357126 2.126575 1.9637347
1.9774827 1.9558773 2.0109122 1.986349 2.070924 2.1463602 1.9647853 2.1023626
2.0009975 -0.034408472 1.9304557 2.1188452 2.0731933 2.0350907 2.1355433 2.0266404
1.9767201 2.0533524 2.1700068 0.044487953 0.0069704354 2.0273814 -0.076591656 2.025446
-0.00054199906 0.0727119 -0.037838653 11.65026 11.597226 -0.002700868 11.70917 -0.049059093
11.521181 0.15157488 11.574844 11.621114 11.760015 0.07206719 0.07216559 11.815444
11.6005535 11.693916 11.708511 11.703567 0.0032363087 0.049090877 -0.03557213 11.809144
11.576529 0.04579162 11.77168 11.718023 11.439111 -0.117452785 11.811445 11.583395
11.599302 11.5213 11.743609 11.581383 0.1052403 -0.00148235 11.735011 11.561861
11.790392 11.627296 11.656071 11.801583 11.613751 11.704575 11.668201 11.715356
11.622989 -0.061235324 11.680664 11.7111025 11.730551 11.685352 11.758935 11.766335
11.584754 11.683413 11.635023 0.078002915 0.046116024 11.7276535 0.046566173 11.574402
0.07001249 -0.06461744 -0.04289183 7.757996 7.7769732 -0.074040145 7.796119 -0.12136476
7.527544 -0.055566985 7.6134515 7.796591 7.8950357 -0.11218861 0.015483573 7.8589864
7.8314214 7.8934093 7.9035482 7.7396393 -0.11602424 -0.06438966 0.082357705 7.886324
7.6832147 0.012110561 7.8489394 7.715089 7.743458 0.08636543 7.7744646 7.60993
7.8979015 7.6030517 7.7920012 7.5494285 -0.03686881 0.099462636 7.840357 7.5518346
7.9305387 7.7959533 7.72333 7.9338145 7.878639 7.836878 7.91364 7.857962
7.8043637 -0.021110326 7.8300576 7.731039 7.591729 7.9538054 7.7753725 7.7450557
7.878022 7.88585 7.758556 0.065390855 -0.05473177 7.9307733 0.05501041 7.8662176
0.04124396 -0.033834666 -0.02062501 8.160842 8.310743 0.0059137037 8.114364 -0.10817219
8.077243 0.057161663 8.213729 8.250429 8.273737 -0.08795691 -0.06810443 8.12998
8.190415 8.321462 8.217597 8.239321 0.08004911 0.080861166 -0.01823661 8.199753
8.336778 0.013927871 8.12486 8.272094 8.201035 -0.052688837 8.202948 8.214508
8.298239 8.239205 8.213295 8.186205 -0.052849367 0.10718653 8.153096 8.250518
8.2870655 8.224253 8.327184 8.107791 8.111015 8.291231 8.243206 8.326649
8.185585 0.02373293 8.239225 8.192492 8.308288 8.311972 8.317474 8.23967
8.220024 8.223275 8.115302 -0.046379805 0.07260883 8.289463 -0.09783274 8.30511
00000000: 425e 113e e452 eb3d 007d 8d3d e170 0040
00000010: 271e 0b40 4831 b2bd dbbc 0340 bc17 eebd
00000020: c000 fe3f e660 1fbe 0d2c cd3f e385 0340
00000030: d3a9 0b40 191b ecbd 20e7 abbb f0f9 0640
00000040: 75e8 fd3f 5f83 0640 1648 0740 d889 0940
00000050: f2a0 a13d 6065 43bc 3d4a 063e 7e5f fe3f
00000060: ffca e43f a235 91bd 7ab8 0a40 998e 0940
00000070: c9bf dc3f b8ad d7bc 1e33 0a40 73eb 0940
00000080: 596f 0a40 ec24 d33f 1c21 0840 539a df3f
00000090: c488 8c3d f92f 943d ce19 0840 a95b fb3f
000000a0: 271e fd3f 305a fa3f c9b2 0040 af40 fe3f
000000b0: 058a 0440 f75d 0940 167e fb3f 1c8d 0640
000000c0: 5810 0040 e6ef 0cbd 2c19 f73f 299b 0740
000000d0: 33af 0440 ed3e 0240 beac 0840 7ab4 0140
000000e0: 2a05 fd3f 206a 0340 64e1 0a40 0039 363d
000000f0: 4068 e43b 9ec0 0140 16dc 9cbd e8a0 0140
00000100: f114 0eba fae9 943d b4fc 1abd 7767 3a41
00000110: 3d8e 3941 0c01 31bb c358 3b41 30f2 48bd
00000120: c256 3841 7236 1b3e 9032 3941 15f0 3941
00000130: 0529 3c41 f797 933d 8ecb 933d 0f0c 3d41
00000140: de9b 3941 481a 3b41 1056 3b41 cf41 3b41
00000150: 4018 543b 8413 493d 15b4 11bd 41f2 3c41
00000160: 7639 3941 fe8f 3b3d cd58 3c41 067d 3b41
00000170: 9906 3741 168b f0bd aefb 3c41 9655 3941
00000180: be96 3941 3f57 3841 d3e5 3b41 584d 3941
00000190: 3a88 d73d 6a4b c2ba 9bc2 3b41 62fd 3841
000001a0: 72a5 3c41 6809 3a41 447f 3a41 49d3 3c41
000001b0: edd1 3941 f045 3b41 f4b0 3a41 1972 3b41
000001c0: c3f7 3941 e4d1 7abd 00e4 3a41 ad60 3b41
000001d0: 56b0 3b41 34f7 3a41 9924 3c41 e842 3c41
000001e0: 275b 3941 42ef 3a41 0e29 3a41 febf 9f3d
000001f0: 28e4 3c3d 78a4 3b41 2cbc 3e3d c030 3941
00000200: b562 8f3d 2656 84bd 58af 2fbd 8141 f840
00000210: f7dc f840 5ca2 97bd cf79 f940 168e f8bd
00000220: a4e1 f040 359a 63bd 65a1 f340 ac7d f940
00000230: 22a4 fc40 24c3 e5bd d0ae 7d3c d17c fb40
00000240: 019b fa40 cf96 fc40 dee9 fc40 20ab f740
00000250: 1e9e edbd bade 83bd 28ab a83d c45c fc40
00000260: e5dc f540 606b 463c 832a fb40 02e2 f640
00000270: 68ca f740 5ce0 b03d 6ac8 f840 8c84 f340
00000280: 9cbb fc40 334c f340 1358 f940 eb94 f140
00000290: c003 17bd 11b3 cb3d 34e4 fa40 a1a8 f140
000002a0: f9c6 fd40 7378 f940 8525 f740 cfe1 fd40
000002b0: d01d fc40 b4c7 fa40 8a3c fd40 6d74 fb40
000002c0: 59bd f940 90ef acbc d58f fa40 ac64 f740
000002d0: 72ef f240 9385 fe40 dacf f840 7fd7 f740
000002e0: c218 fc40 e258 fc40 1746 f840 a4eb 853d
000002f0: 6c2e 60bd e5c8 fd40 9852 613d 0eb8 fb40
00000300: 6def 283d 3896 0abd c8f5 a8bc cf92 0241
00000310: cef8 0441 bec7 c13b 6fd4 0141 6289 ddbd
00000320: 633c 0141 5922 6a3d 6f6b 0341 c201 0441
00000330: 3a61 0441 c122 b4bd 567a 8bbd 6614 0241
00000340: f10b 0341 b524 0541 477b 0341 42d4 0341
00000350: caf0 a33d 8a9a a53d f164 95bc 3032 0341
00000360: 7163 0541 ba31 643c 6dff 0141 7f5a 0441
00000370: 7037 0341 40d0 57bd 463f 0341 a06e 0341
00000380: 96c5 0441 c9d3 0341 a869 0341 b2fa 0241
00000390: 9478 58bd 9d84 db3d 1573 0241 1f02 0441
000003a0: d297 0441 8a96 0341 253c 0541 83b9 0141
000003b0: b8c6 0141 e2a8 0441 2ce4 0341 f439 0541
000003c0: 28f8 0241 906b c23c ded3 0341 7214 0341
000003d0: bfee 0441 d6fd 0441 6014 0541 b0d5 0341
000003e0: 3885 0341 8992 0341 47d8 0141 c0f8 3dbd
000003f0: f0b3 943d a4a1 0441 885c c8bd bbe1 0441

fc4.bias f4 [49]
1.4062847 10.113031 8.616357 7.4406786 8.262831 3.2133224 7.518089 3.2729726
9.924434 4.834498 6.653457 9.386254 4.427316 -0.10410315 9.9139385 7.6185627
4.8634934 3.698697 8.76938 -0.113198504 0.08937542 5.193728 9.89812 10.207492
6.1017737 8.033216e-05 -0.084493354 0.054754183 5.318965 5.15626 9.52182 0.07537456
0.018257797 0.009008318 -0.027774796 7.937617 4.0095024 -0.040314287 -0.008362994 -0.021365017
0.024117723 -0.08233599 2.3589125 0.09005967 0.026026353 -0.057252914 0.044881478 0.110828474
0.06585348
00000000: 2301 b43f face 2141 99dc 0941 0a1a ee40
00000010: 8e34 0441 13a7 4d40 2f94 f040 6278 5140
00000020: 7bca 1e41 35b4 9a40 1fe9 d440 192e 1641
00000030: 93ac 8d40 0834 d5bd 7e9f 1e41 44cb f340
00000040: bda1 9b40 74b7 6c40 614f 0c41 9ed4 e7bd
00000050: 760a b73d 0533 a640 b35e 1e41 e351 2341
00000060: bb41 c340 0078 a838 da0a adbd ec45 603d
00000070: f634 aa40 1500 a540 6059 1841 fa5d 9a3d
00000080: 6091 953c a097 133c f887 e3bc f500 fe40
00000090: d84d 8040 9820 25bd f004 09bc b005 afbc
000000a0: 8892 c53c c69f a8bd 6cf8 1640 3471 b83d
000000b0: 3835 d53c 0882 6abd a4d5 373d 0afa e23d
000000c0: 30de 863d
