trike2/models/trainied against random/DQN_Agent_5000ep.pt/DQN_Agent.pt (torch, 333080 bytes, 8 tensors)

fc1.weight f4 [256, 148]
29.831985 28.988113 31.079868 25.944971 27.816614 32.472923 35.797367 22.049648
26.031954 25.659988 22.707329 26.355862 29.612816 0.05497656 27.839447 21.839853
26.89822 25.709366 22.14432 -0.03463498 0.06820499 28.559168 27.901587 20.35991
28.061525 0.055331983 0.0040157214 0.0809608 23.140549 27.213833 26.08486 -0.041737165
0.03717141 0.03044504 -0.019014888 30.088991 29.70723 -0.032682396 0.07186773 0.03324736
0.04652179 0.047807284 32.177395 0.018875845 0.07108723 -0.012420379 -0.043485407 0.066818066
0.07926928 36.495224 29.022572 27.790573 25.644714 28.129366 32.957344 34.095356
22.383959 26.240095 26.470396 23.995407 26.2521 28.898235 0.0011380464 27.754015
21.64254 24.337816 28.141544 22.236702 0.018393785 0.05633203 28.205307 25.461773
22.96906 27.978176 -0.06093111 0.04149177 -0.018826328 25.269388 27.382158 26.533594
0.045952655 -0.04456822 0.0809532 -0.032882795 28.850393 29.570656 0.022507846 -0.048092633
0.059460856 -0.051780194 -0.0708731 32.231792 -0.055547982 -0.010001928 -0.06926125 0.043886326
-0.06589427 -0.016736157 36.899437 37.087276 38.33349 38.086357 36.131695 37.36916
34.22576 29.723576 38.330112 36.30533 37.91987 41.457474 39.32387 -0.042721264
38.96151 25.807177 39.169254 38.675095 33.190296 -0.07971502 -0.024522237 38.732643
36.88546 30.54033 40.593693 0.043094568 -0.049151108 -0.01446183 37.800785 37.96257
39.500214 -0.060369514 0.047507696 -0.049656212 0.02851794 35.017418 35.09593 -0.043944467
0.051331602 -0.024293285 0.06988066 0.00047232956 36.326187 0.055251263 -0.028178763 0.07218052
0.019658819 -0.04987017 0.07483802 -0.05975074 30.052608 28.895163 30.7891 25.856535
27.923592 32.252995 35.66984 22.082048 25.905865 25.706202 22.460875 26.11273
29.591743 0.059219964 27.720041 21.613531 26.57844 25.41284 22.089693 -0.052345414
0.04432819 28.401876 28.008083 20.203848 27.905785 0.0637052 -0.045582086 0.012539826
22.67836 27.082663 25.853651 0.07222245 -0.049278308 -0.010298364 0.0470298 30.027374
29.083622 -0.07763935 0.004946977 0.07638181 0.057688944 -0.06271544 32.170883 -0.019569144
0.021336727 -0.056114715 -0.07915546 -0.057075903 -0.07003241 36.51376 28.95216 27.887243
25.591173 28.034624 32.71069 33.927216 22.10744 25.822153 26.144234 23.855953
26.178484 28.616291 -0.031182207 27.572187 21.710926 24.483196 27.698528 22.119799
-0.012699783 -0.057552945 28.126692 25.127468 22.925009 27.96991 0.023154922 -0.053864807
0.019049421 25.04732 27.193281 26.326357 0.07512913 -0.05820471 -0.08208894 -0.011473477
28.936134 29.71791 0.061440162 -0.0028065369 0.024472177 0.017492592 0.07432542 32.1296
0.014936157 0.07990805 0.06518114 0.071552314 -0.012976997 -0.028782219 37.09525 36.66323
38.333504 38.101513 36.046295 37.214233 34.451916 29.84647 38.32925 36.134094
00000000: e8a7 ee41 a8e7 e741 92a3 f841 4d8f cf41
00000010: 6d88 de41 46e4 0142 8130 0f42 ae65 b041
00000020: 7141 d041 a847 cd41 9ca8 b541 ced8 d241
00000030: 0ce7 ec41 1a2f 613d 30b7 de41 05b8 ae41
00000040: 8e2f d741 c8ac cd41 9127 b141 69dd 0dbd
00000050: 0faf 8b3d 2d79 e441 7336 df41 18e1 a241
00000060: 017e e041 caa3 623d 5096 833b c7ce a53d
00000070: d81f b941 eeb5 d941 cbad d041 97f4 2abd
00000080: 0c41 183d e067 f93c 1cc5 9bbc 41b6 f041
00000090: 68a8 ed41 fadd 05bd 632f 933d 622e 083d
000000a0: a28d 3e3d 92d1 433d a7b5 0042 84a1 9a3c
000000b0: 2f96 913d d87e 4bbc c11d 32bd e9d7 883d
000000c0: ef57 a23d 1cfb 1142 3a2e e841 1853 de41
000000d0: 6028 cd41 f108 e141 52d4 0342 a561 0842
000000e0: 5912 b341 b7eb d141 5fc3 d341 98f6 bf41
000000f0: 4d04 d241 962f e741 802a 953a 3908 de41
00000100: ec23 ad41 d9b3 c241 e221 e141 c4e4 b141
00000110: 90ae 963c 6abc 663d 78a4 e141 b6b1 cb41
00000120: a3c0 b741 4ed3 df41 e692 79bd 46f3 293d
00000130: ac39 9abc b527 ca41 a90e db41 cd44 d441
00000140: da38 3c3d 2a8d 36bd cbca a53d 1cb0 06bd
00000150: 9bcd e641 b490 ec41 6062 b83c c8fc 44bd
00000160: 3a8d 733d 7817 54bd ea25 91bd 5bed 0042
00000170: 4886 63bd 20df 23bc d8d8 8dbd 26c2 333d
00000180: 93f3 86bd 441a 89bc 0699 1342 5f59 1442
00000190: 7e55 1942 6e58 1842 db86 1042 057a 1542
000001a0: 2ee7 0842 e2c9 ed41 0952 1942 a838 1142
000001b0: f2ad 1742 74d4 2542 a54b 1d42 7efc 2ebd
000001c0: 96d8 1b42 1975 ce41 51ad 1c42 4cb3 1a42
000001d0: ddc2 0442 a141 a3bd dce2 c8bc 3aee 1a42
000001e0: b68a 1342 9952 f441 f15f 2242 ee83 303d
000001f0: ac52 49bd 50f1 6cbc 0134 1742 acd9 1742
00000200: 3800 1e42 0646 77bd 6e97 423d 5064 4bbd
00000210: 749e e93c d611 0c42 3b62 0c42 1dff 33bd
00000220: 1641 523d b602 c7bc 971d 8f3d 00a3 f739
00000230: 044e 1142 264f 623d 26d7 e6bc 61d3 933d
00000240: 880b a13c aa44 4cbd ad44 993d 31bd 74bd
00000250: be6b f041 4b29 e741 1450 f641 2fda ce41
00000260: 8463 df41 1103 0142 ebad 0e42 09a8 b041
00000270: 363f cf41 4da6 cd41 dfaf b341 dfe6 d041
00000280: e4bb ec41 a290 723d a5c2 dd41 83e8 ac41
00000290: a5a0 d441 7f4d cb41 b1b7 b041 2568 56bd
000002a0: 7a91 353d 0b37 e341 8e10 e041 7ba1 a141
000002b0: 0c3f df41 df77 823d 48b4 3abd d873 4d3c
000002c0: 486d b541 4ba9 d841 47d4 ce41 5de9 933d
000002d0: 0dd8 49bd 78ba 28bc 52a2 403d 1038 f041
000002e0: 42ab e841 6101 9fbd 401a a23b 116e 9c3d
000002f0: 3e4b 6c3d f470 80bd fcae 0042 784f a0bc
00000300: 5cca ae3c 8bd8 65bd 421c a2bd 6cc8 69bd
00000310: 276d 8fbd 170e 1242 069e e741 1319 df41
00000320: b9ba cc41 e946 e041 bfd7 0242 78b5 0742
00000330: 0adc b041 c593 ce41 6427 d141 fed8 be41
00000340: 896d d141 2aee e441 d471 ffbc d793 dc41
00000350: faaf ad41 96dd c341 9696 dd41 59f5 b041
00000360: c012 50bc a3bc 6bbd 7703 e141 0e05 c941
00000370: 6b66 b741 60c2 df41 64af bd3c 58a1 5cbd
00000380: 880d 9c3c e960 c841 d78b d941 619c d241
00000390: 4ddd 993d 1068 6ebd 3f1e a8bd 40fb 3bbc
000003a0: 347d e741 48be ed41 aea8 7b3d e0ed 37bb
000003b0: e079 c83c a04c 8f3c ed37 983d b684 0042
000003c0: c8b6 743c d5a6 a33d b17d 853d 058a 923d
000003d0: 789d 54bc b0c8 ebbc 8961 1442 26a7 1242
000003e0: 8255 1942 f367 1842 682f 1042 60db 1442
000003f0: c3ce 0942 92c5 ee41 2751 1942 5089 1042

fc1.bias f4 [256]
19.880907 20.030033 19.99979 20.051779 20.033833 20.01242 20.041195 19.987665
20.07265 20.064358 20.030842 20.027739 19.946152 20.035704 20.072802 19.960527
19.985472 20.041475 19.899757 19.83979 20.003265 19.976639 20.074581 19.985052
19.902294 20.044104 -2.9442375 19.994629 19.981937 20.012672 20.015188 20.084639
19.95712 20.060875 20.06121 20.05926 20.025843 20.028847 20.041 19.885494
20.036924 20.040453 20.046442 19.952337 19.980703 -2.703151 19.978542 20.078947
20.042562 20.062304 20.058723 20.03414 20.02315 20.025576 19.869972 19.9944
19.95055 20.053862 20.061172 19.951008 19.863825 20.044325 19.979189 19.978552
19.98422 19.94119 20.008028 19.984251 19.995897 20.010864 19.833036 20.049715
19.909885 19.961174 20.018425 20.0388 20.037394 20.054722 20.00108 20.013004
20.020493 20.02165 19.988237 20.055801 20.069492 20.041594 19.988523 19.781496
20.020046 19.890003 19.947893 20.061548 20.014687 20.006481 20.058512 20.029453
19.981567 20.045252 20.031734 -2.9423227 20.01291 19.987577 20.007137 20.044634
20.057547 20.032871 20.034073 20.053694 19.815527 19.881327 -2.920933 20.013098
19.998896 19.9137 20.06281 20.001013 19.988829 20.015656 19.927994 20.005232
19.920193 19.848877 19.973581 20.061815 20.07654 19.970924 19.915255 20.049658
20.063637 20.006853 19.990942 20.010118 20.041044 19.965899 20.002398 19.913275
19.946642 20.003435 20.064686 20.002811 20.080559 20.052855 -3.0025291 19.98406
19.917439 20.020025 19.960016 20.069769 20.014698 20.07229 19.901781 20.009836
19.997816 19.867973 20.01989 19.869461 19.840044 19.995092 20.027521 -2.9323776
20.076927 20.036089 20.002016 20.05599 19.931883 20.053785 19.93822 20.01566
19.976349 20.041159 20.016283 19.987663 19.95403 19.955292 20.066492 19.908106
19.988844 20.045412 19.99116 19.998325 20.030842 20.01495 19.97648 -2.9877696
20.05367 19.985151 -2.9738276 19.9918 19.966549 19.981743 19.868654 20.081673
20.013916 19.976093 20.049747 19.959284 19.901276 20.073557 20.007488 19.928259
19.89783 20.033424 20.016842 19.914227 19.983923 19.989847 20.016808 20.036356
19.925701 20.041348 20.065626 20.029865 20.056303 -2.9321508 19.878468 20.042511
20.01469 19.940329 20.057375 19.81763 20.025934 19.945238 19.98019 20.000128
-2.999003 19.9977 -2.971067 20.013746 20.006811 20.010904 19.971947 20.033876
19.961584 20.02085 19.987453 20.023998 19.931368 19.948837 20.06552 20.079048
20.029446 19.977026 20.01088 20.045465 19.895628 20.03715 20.072935 20.045258
19.988071 20.014965 20.03379 20.061184 20.047499 20.00823 20.001202 19.959074
00000000: 190c 9f41 823d a041 92ff 9f41 0b6a a041
00000010: 4a45 a041 7019 a041 5e54 a041 bde6 9f41
00000020: ca94 a041 ce83 a041 2a3f a041 cf38 a041
00000030: b891 9f41 1f49 a041 1995 a041 29af 9f41
00000040: 3fe2 9f41 f154 a041 b432 9f41 e4b7 9e41
00000050: b006 a041 28d0 9f41 be98 a041 63e1 9f41
00000060: e637 9f41 535a a041 636e 3cc0 00f5 9f41
00000070: 02db 9f41 f419 a041 1b1f a041 57ad a041
00000080: 2fa8 9f41 ac7c a041 5c7d a041 5d79 a041
00000090: ed34 a041 143b a041 f853 a041 7e15 9f41
000000a0: 9f4b a041 d952 a041 1d5f a041 639e 9f41
000000b0: 7bd8 9f41 6d00 2dc0 0ed4 9f41 afa1 a041
000000c0: 2b57 a041 997f a041 4478 a041 eb45 a041
000000d0: 692f a041 6134 a041 b4f5 9e41 88f4 9f41
000000e0: ba9a 9f41 4f6e a041 487d a041 aa9b 9f41
000000f0: 1de9 9e41 c75a a041 61d5 9f41 13d4 9f41
00000100: afdf 9f41 8f87 9f41 7110 a041 bfdf 9f41
00000110: 99f7 9f41 4016 a041 0faa 9e41 d165 a041
00000120: 7247 9f41 7cb0 9f41 bc25 a041 764f a041
00000130: 954c a041 1270 a041 3602 a041 a21a a041
00000140: f829 a041 572c a041 e9e7 9f41 4872 a041
00000150: 528e a041 2f55 a041 7fe8 9f41 8140 9e41
00000160: 0e29 a041 ba1e 9f41 4995 9f41 0d7e a041
00000170: 141e a041 460d a041 d577 a041 523c a041
00000180: 40da 9f41 ad5c a041 fe40 a041 044f 3cc0
00000190: 711a a041 8fe6 9f41 9e0e a041 695b a041
000001a0: db75 a041 5243 a041 c845 a041 f76d a041
000001b0: 3386 9e41 f50c 9f41 91f0 3ac0 d31a a041
000001c0: bdfd 9f41 424f 9f41 a380 a041 1302 a041
000001d0: 1fe9 9f41 1020 a041 886c 9f41 b70a a041
000001e0: 8e5c 9f41 80ca 9e41 e5c9 9f41 997e a041
000001f0: c19c a041 74c4 9f41 7152 9f41 b365 a041
00000200: 5482 a041 090e a041 73ed 9f41 b914 a041
00000210: 0f54 a041 29ba 9f41 e904 a041 634e 9f41
00000220: b992 9f41 0907 a041 7a84 a041 c205 a041
00000230: fca4 a041 3f6c a041 7029 40c0 5bdf 9f41
00000240: ea56 9f41 0329 a041 1dae 9f41 e38e a041
00000250: 1a1e a041 0d94 a041 d936 9f41 2514 a041
00000260: 87fb 9f41 9cf1 9e41 bc28 a041 a8f4 9e41
00000270: 69b8 9e41 f3f5 9f41 5d38 a041 13ac 3bc0
00000280: 8c9d a041 e949 a041 2104 a041 ab72 a041
00000290: 7f74 9f41 276e a041 7981 9f41 1220 a041
000002a0: 90cf 9f41 4b54 a041 5921 a041 bce6 9f41
000002b0: daa1 9f41 70a4 9f41 2d88 a041 cd43 9f41
000002c0: 27e9 9f41 015d a041 e5ed 9f41 92fc 9f41
000002d0: 2a3f a041 9e1e a041 d5cf 9f41 9e37 3fc0
000002e0: eb6d a041 97e1 9f41 3153 3ec0 35ef 9f41
000002f0: 7ebb 9f41 9cda 9f41 01f3 9e41 44a7 a041
00000300: 801c a041 0acf 9f41 e265 a041 9dac 9f41
00000310: d035 9f41 a596 a041 560f a041 136d 9f41
00000320: c12e 9f41 7444 a041 7e22 a041 5650 9f41
00000330: 13df 9f41 35eb 9f41 6c22 a041 754a a041
00000340: d667 9f41 ae54 a041 6786 a041 2a3d a041
00000350: 4f73 a041 5ca8 3bc0 1a07 9f41 1057 a041
00000360: 161e a041 cb85 9f41 8175 a041 828a 9e41
00000370: 1d35 a041 d98f 9f41 6ed7 9f41 4300 a041
00000380: aaef 3fc0 4afb 9f41 f625 3ec0 271c a041
00000390: f30d a041 5516 a041 8cc6 9f41 6145 a041
000003a0: 53b1 9f41 b32a a041 4ee6 9f41 2631 a041
000003b0: 7173 9f41 3897 9f41 2f86 a041 e4a1 a041
000003c0: 4e3c a041 f3d0 9f41 4816 a041 1d5d a041
000003d0: 3f2a 9f41 154c a041 5f95 a041 b05c a041
000003e0: 92e7 9f41 a61e a041 3445 a041 4e7d a041
000003f0: 4761 a041 db10 a041 7602 a041 2fac 9f41

fc2.weight f4 [128, 256]
50.45983 50.736732 50.656616 50.761112 50.91435 50.692986 50.748013 50.757233
50.865013 50.779274 50.87012 50.798103 50.782494 50.73909 50.70012 50.655926
50.637936 50.803997 50.63672 50.689392 50.798916 50.733833 50.842274 50.543312
50.810093 50.831833 -10.736159 50.840546 50.77916 50.746918 50.68523 50.749954
50.7952 50.843227 50.842552 50.85233 50.944775 50.696747 50.71746 50.687107
50.896496 50.640373 50.726585 50.643837 50.817184 -9.550618 50.66336 50.761528
50.725315 50.74598 50.78467 50.698975 50.7499 50.625103 50.627117 50.519466
50.807545 50.84832 50.756596 50.824665 50.749138 50.881744 50.57009 50.74189
50.823 50.6565 50.91287 50.75992 50.72746 50.805798 50.640404 50.796085
50.702164 50.74186 50.810303 50.833225 50.705177 50.731617 50.763306 50.747223
50.73218 50.775158 50.842186 50.791286 50.72594 50.77394 50.774128 50.675938
50.838146 50.763493 50.657936 50.78739 50.825016 50.698013 50.744217 50.808987
50.705437 50.771275 50.8183 -11.031376 50.670296 50.779305 50.865086 50.950184
50.87508 50.817154 50.63284 50.72475 50.625256 50.608727 -10.863272 50.81399
50.69721 50.846092 50.702812 50.73399 50.61655 50.644005 50.711937 50.776306
50.668625 50.52898 50.723423 50.80582 50.854 50.76333 50.795326 50.8084
50.647354 50.724537 50.86044 50.796722 50.804356 50.786526 50.781693 50.65546
50.75589 50.69029 50.75021 50.644302 50.821743 50.718334 -10.762137 50.728344
50.678593 50.85188 50.829727 50.821335 50.971363 50.935753 50.780758 50.901646
50.799152 50.69299 50.831333 50.62413 50.680897 50.7613 50.791073 -10.892568
50.680298 50.583492 50.821182 50.766083 50.644356 50.781055 50.740288 50.787876
50.885094 50.6773 50.696735 50.624493 50.632996 50.81158 50.832706 50.511463
50.717648 50.770184 50.759743 50.74518 50.80605 50.862034 50.82076 -10.80223
50.854176 50.71638 -10.75302 50.831455 50.647068 50.636482 50.675533 50.883305
50.74583 50.702522 50.884644 50.82634 50.502098 50.72094 50.746567 50.65135
50.77397 50.633236 50.770195 50.738983 50.77155 50.631554 50.786877 50.84657
50.72659 50.743313 50.71034 50.66577 50.774685 -10.96933 50.64234 50.775703
50.781204 50.717583 50.790703 50.457844 50.720066 50.572315 50.821575 50.756287
-10.7625475 50.79016 -10.944239 50.748634 50.737606 50.577667 50.72729 50.73963
50.786175 50.593575 50.603237 50.72688 50.71748 50.570217 50.716423 50.73162
50.639687 50.61557 50.67887 50.866257 50.716606 50.63901 50.821815 50.852882
50.54441 50.74882 50.769825 50.754047 50.769043 50.872955 50.746967 50.820232
00000000: ded6 4942 6af2 4a42 60a0 4a42 610b 4b42
00000010: 4ba8 4b42 9ec5 4a42 f7fd 4a42 6807 4b42
00000020: c675 4b42 fa1d 4b42 017b 4b42 4231 4b42
00000030: 4621 4b42 d4f4 4a42 eccc 4a42 ab9f 4a42
00000040: 3f8d 4a42 4b37 4b42 008c 4a42 f0c1 4a42
00000050: 1732 4b42 72ef 4a42 7d5e 4b42 5a2c 4a42
00000060: 893d 4b42 cc53 4b42 4fc7 2bc1 b85c 4b42
00000070: dc1d 4b42 d8fc 4a42 adbd 4a42 f4ff 4a42
00000080: 492e 4b42 775f 4b42 c65e 4b42 c968 4b42
00000090: 73c7 4b42 78c9 4a42 aede 4a42 99bf 4a42
000000a0: 0396 4b42 be8f 4a42 06e8 4a42 4a93 4a42
000000b0: cc44 4b42 55cf 18c1 48a7 4a42 ce0b 4b42
000000c0: b9e6 4a42 e2fb 4a42 8123 4b42 c0cb 4a42
000000d0: e6ff 4a42 1b80 4a42 2b82 4a42 ef13 4a42
000000e0: ed3a 4b42 ae64 4b42 c106 4b42 754c 4b42
000000f0: 1eff 4a42 e886 4b42 c647 4a42 b2f7 4a42
00000100: c14a 4b42 42a0 4a42 c7a6 4b42 280a 4b42
00000110: ebe8 4a42 2339 4b42 c68f 4a42 312f 4b42
00000120: 04cf 4a42 aaf7 4a42 c03d 4b42 3955 4b42
00000130: 1ad2 4a42 2ded 4a42 a00d 4b42 28fd 4a42
00000140: c1ed 4a42 c319 4b42 665e 4b42 472a 4b42
00000150: 5de7 4a42 8418 4b42 b518 4b42 29b4 4a42
00000160: 435a 4b42 d10d 4b42 baa1 4a42 4a26 4b42
00000170: d14c 4b42 c4ca 4a42 14fa 4a42 673c 4b42
00000180: 5ed2 4a42 c915 4b42 f045 4b42 8480 30c1
00000190: 62ae 4a42 021e 4b42 d975 4b42 fdcc 4b42
000001a0: 1580 4b42 c444 4b42 0788 4a42 25e6 4a42
000001b0: 4380 4a42 566f 4a42 f6cf 2dc1 8741 4b42
000001c0: f1c9 4a42 6662 4b42 aecf 4a42 9bef 4a42
000001d0: 5977 4a42 7693 4a42 06d9 4a42 f01a 4b42
000001e0: acac 4a42 ad1d 4a42 c9e4 4a42 2939 4b42
000001f0: 7f6a 4b42 a60d 4b42 6a2e 4b42 cd3b 4b42
00000200: e496 4a42 ede5 4a42 1771 4b42 d82f 4b42
00000210: a937 4b42 6725 4b42 7420 4b42 319f 4a42
00000220: 0806 4b42 dbc2 4a42 3700 4b42 c493 4a42
00000230: 7749 4b42 93df 4a42 b731 2cc1 d3e9 4a42
00000240: e1b6 4a42 5368 4b42 a451 4b42 0c49 4b42
00000250: ade2 4b42 36be 4b42 7f1f 4b42 499b 4b42
00000260: 5532 4b42 9fc5 4a42 4953 4b42 1c7f 4a42
00000270: 3db9 4a42 920b 4b42 0f2a 4b42 f547 2ec1
00000280: a0b8 4a42 7f55 4a42 e448 4b42 7810 4b42
00000290: d293 4a42 cd1f 4b42 0ef6 4a42 c926 4b42
000002a0: 568a 4b42 8eb5 4a42 75c9 4a42 7b7f 4a42
000002b0: 3088 4a42 0f3f 4b42 b154 4b42 bd0b 4a42
000002c0: dfde 4a42 ab14 4b42 fa09 4b42 10fb 4a42
000002d0: 6539 4b42 b972 4b42 7548 4b42 efd5 2cc1
000002e0: ad6a 4b42 93dd 4a42 5f0c 2cc1 6953 4b42
000002f0: 9996 4a42 c28b 4a42 bfb3 4a42 8188 4b42
00000300: bbfb 4a42 62cf 4a42 e089 4b42 2c4e 4b42
00000310: 2602 4a42 3ee2 4a42 7cfc 4a42 fb9a 4a42
00000320: 8c18 4b42 6f88 4a42 ae14 4b42 b8f4 4a42
00000330: 1116 4b42 b686 4a42 c325 4b42 e362 4b42
00000340: 07e8 4a42 27f9 4a42 63d7 4a42 c0a9 4a42
00000350: 4719 4b42 6082 2fc1 c291 4a42 521a 4b42
00000360: f41f 4b42 cede 4a42 ae29 4b42 d5d4 4942
00000370: 59e1 4a42 0d4a 4a42 4b49 4b42 7006 4b42
00000380: 6533 2cc1 2029 4b42 9a1b 2fc1 9afe 4a42
00000390: 4ff3 4a42 884f 4a42 bfe8 4a42 62f5 4a42
000003a0: 0b25 4b42 d25f 4a42 b769 4a42 53e8 4a42
000003b0: b3de 4a42 e747 4a42 9edd 4a42 2eed 4a42
000003c0: 0a8f 4a42 5876 4a42 2ab7 4a42 0c77 4b42
000003d0: cedd 4a42 598e 4a42 8a49 4b42 5a69 4b42
000003e0: 7a2d 4a42 cbfe 4a42 4d14 4b42 2504 4b42
000003f0: 8013 4b42 e87d 4b42 e5fc 4a42 eb47 4b42

fc2.bias f4 [128]
49.912437 49.988613 49.965813 -0.057977986 49.98338 49.95083 50.01706 49.975975
49.93101 49.83876 50.000866 49.898323 49.961494 49.983578 -0.05928677 49.933968
49.96023 50.003048 50.054672 49.986935 50.002308 50.02309 49.934425 50.042904
49.957108 49.89521 50.053448 49.990154 49.887478 50.00298 50.013245 50.019215
49.959938 49.865944 50.02683 -0.08054943 49.97006 49.973305 50.025158 50.035217
50.03042 49.99869 49.9986 49.95953 -0.0062094135 49.968662 49.92339 49.964836
49.96767 0.001989268 49.975376 49.831463 50.04724 50.02266 49.983353 50.01165
49.84641 49.957767 49.87274 49.94638 0.014519007 49.9632 49.99621 50.05486
50.033413 49.986095 49.898182 -0.0063956683 49.981495 49.90547 49.93754 50.03054
50.021595 50.001984 50.02312 49.936108 49.99363 50.006866 49.901894 -0.021114152
49.97477 49.997383 49.9777 50.00183 50.00503 49.883125 50.0139 49.99651
49.990616 50.018425 49.98674 49.948643 50.025875 49.97846 -0.09618589 50.03269
49.941616 49.926514 50.05954 50.001083 50.005394 49.895607 49.938896 49.9733
49.958786 50.01436 50.03651 -0.047310192 0.013025145 50.006344 49.969 50.04376
49.979885 50.033157 50.048462 49.936153 49.951065 49.986095 49.872894 50.024124
49.978336 49.899834 49.98833 49.950684 49.99914 -0.012350689 50.02164 49.964043
00000000: 56a6 4742 57f4 4742 fedc 4742 537a 6dbd
00000010: fbee 4742 a6cd 4742 7811 4842 66e7 4742
00000020: 5bb9 4742 e45a 4742 e300 4842 e297 4742
00000030: 92d8 4742 2fef 4742 afd6 72bd 62bc 4742
00000040: 47d7 4742 1f03 4842 fc37 4842 9ff2 4742
00000050: 5d02 4842 a517 4842 dabc 4742 ef2b 4842
00000060: 14d4 4742 b294 4742 bb36 4842 ebf5 4742
00000070: c78c 4742 0d03 4842 900d 4842 ad13 4842
00000080: fad6 4742 ba76 4742 791b 4842 19f7 a4bd
00000090: 57e1 4742 aae4 4742 c319 4842 1024 4842
000000a0: 261f 4842 a9fe 4742 91fe 4742 8fd6 4742
000000b0: 5678 cbbb e9df 4742 8db1 4742 fedb 4742
000000c0: e5de 4742 615e 023b c9e6 4742 6b53 4742
000000d0: 6030 4842 3417 4842 f4ee 4742 ee0b 4842
000000e0: b962 4742 c1d4 4742 b07d 4742 18c9 4742
000000f0: 21e1 6d3c 51da 4742 1efc 4742 2d38 4842
00000100: 3722 4842 c3f1 4742 bd97 4742 c192 d1bb
00000110: 0ded 4742 349f 4742 0ac0 4742 461f 4842
00000120: 1d16 4842 0802 4842 ad17 4842 93be 4742
00000130: 7af9 4742 0807 4842 8a9b 4742 96f7 acbc
00000140: 2ae6 4742 52fd 4742 2ae9 4742 e001 4842
00000150: 2705 4842 5288 4742 3c0e 4842 6dfc 4742
00000160: 64f6 4742 de12 4842 6cf2 4742 69cb 4742
00000170: 7f1a 4842 f1e9 4742 1cfd c4bd 7921 4842
00000180: 37c4 4742 c0b4 4742 f83c 4842 1c01 4842
00000190: 8605 4842 1a95 4742 6ec1 4742 a9e4 4742
000001a0: ccd5 4742 b40e 4842 6325 4842 55c8 41bd
000001b0: 6b67 553c 7f06 4842 42e0 4742 cf2c 4842
000001c0: 67eb 4742 f421 4842 a031 4842 9fbe 4742
000001d0: e4cd 4742 c3f1 4742 d87d 4742 b418 4842
000001e0: d1e9 4742 6e99 4742 0df4 4742 80cd 4742
000001f0: 1fff 4742 8b5a 4abc 2916 4842 2edb 4742

fc3.weight f4 [64, 128]
22.43043 22.240961 22.422514 -0.05254393 22.419184 22.320503 22.513016 22.318468
22.440657 22.234495 22.35716 22.213108 22.399244 22.413498 -0.04184394 22.46409
22.365252 22.472057 22.407696 22.329723 22.292086 22.318382 22.300238 22.31486
22.39889 22.470802 22.412655 22.43142 22.31938 22.289078 22.328749 22.495028
22.376017 22.364222 22.383564 0.09739889 22.310513 22.440956 22.467375 22.327856
22.352919 22.390154 22.362461 22.483292 0.087016284 22.433025 22.415817 22.450516
22.37098 0.044951342 22.347 22.281624 22.480738 22.398178 22.496586 22.409525
22.482256 22.402645 22.44346 22.41555 0.079088874 22.497272 22.456425 22.3517
22.375963 22.455942 22.47818 -0.15264328 22.459023 22.384176 22.459787 22.46526
22.4652 22.36678 22.377234 22.487818 22.4075 22.477814 22.299086 0.033465628
22.410063 22.499002 22.378231 22.387926 22.457169 22.390903 22.507378 22.427538
22.515106 22.517313 22.480986 22.33678 22.52065 22.388401 -0.97954226 22.46786
22.322468 22.467402 22.434862 22.476864 22.306341 22.401583 22.517138 22.508766
22.464375 22.46528 22.320787 0.07615801 0.06286187 22.533197 22.521606 22.407927
22.433144 22.369902 22.404137 22.417915 22.57756 22.47153 22.39772 22.413183
22.42077 22.490705 22.349878 22.326084 22.29133 0.08682857 22.490572 22.35815
0.018714778 0.003468338 0.041516576 0.012622401 0.06475768 0.044343285 -0.08348408 -0.038776197
-0.03435225 -0.011985123 -0.070931494 0.068045266 0.08775445 0.018616958 -0.07953068 -0.078641824
0.012388328 -0.061168842 -0.064416096 -0.05869559 0.009970161 0.06428964 0.020896932 0.023213794
0.040703423 0.07806281 -0.0104868235 -0.05051675 0.055058796 -0.09446995 0.047967173 -0.054900818
-0.007096506 -0.009823196 -0.03273533 -0.08073584 0.045828782 -0.06315252 0.027523102 -0.051730104
0.015621086 0.05342208 -0.08385979 -0.027647695 -0.076844916 -0.036036883 -0.059752412 -0.043246016
0.039943404 0.07113924 0.05517066 0.07660439 -0.044400353 0.008895017 0.053213127 0.0100250635
-0.019943722 -0.07318624 0.017186577 -0.024315124 0.0073894784 -0.019362012 0.07234599 0.0639994
-0.08576215 -0.048525266 0.05915747 0.005677104 0.019563079 0.014089694 -0.021497324 0.017086726
-0.05924377 0.032072835 0.005136303 -0.0033634678 -0.0063448106 -0.038810346 0.043199115 0.06570005
-0.057189077 -0.052318506 -0.01584969 0.002432932 0.04395043 0.0011624917 -0.057272397 -0.06284977
0.025126547 0.024124881 -0.05912928 0.022881316 0.07755744 -0.003056556 0.07282103 0.04864089
-0.041437138 0.036665 0.036699176 -0.090165466 -0.04405136 -0.07036861 0.0647248 -0.07629219
-0.05030287 0.06679643 -0.0062142084 -0.05856217 0.0831769 0.08390608 0.044436418 -0.009710292
0.01652294 0.057333216 -0.008623733 -0.030264635 0.05445846 0.024518415 -0.08637498 -0.08526095
-0.09513697 -0.04740694 -0.052464616 -0.07726093 0.07550898 -0.048071545 -0.045073558 0.023814626
00000000: 8571 b341 7ded b141 4f61 b341 4e38 57bd
00000010: 7d5a b341 6490 b241 a81a b441 398c b241
00000020: 7786 b341 3fe0 b141 77db b241 72b4 b141
00000030: a731 b341 d84e b341 8d64 2bbd 75b6 b341
00000040: 09ec b241 c6c6 b341 f642 b341 46a3 b241
00000050: 3156 b241 0c8c b241 e366 b241 d584 b241
00000060: ed30 b341 34c4 b341 1e4d b341 8c73 b341
00000070: 178e b241 0850 b241 47a1 b241 d1f5 b341
00000080: 1502 b341 ede9 b241 8a11 b341 1279 c73d
00000090: ee7b b241 1487 b341 2fbd b341 739f b241
000000a0: c7d2 b241 091f b341 52e6 b241 c8dd b341
000000b0: 9835 b23d d676 b341 9853 b341 a89a b341
000000c0: c4f7 b241 e61e 383d a8c6 b241 c440 b241
000000d0: 8dd8 b341 782f b341 02f9 b341 b546 b341
000000e0: a9db b341 9e38 b341 358c b341 0c53 b341
000000f0: 59f9 a13d 6afa b341 c2a6 b341 48d0 b241
00000100: f901 b341 c5a5 b341 50d3 b341 854e 1cbe
00000110: 14ac b341 cb12 b341 a5ad b341 dab8 b341
00000120: bbb8 b341 2aef b241 9304 b341 0de7 b341
00000130: 8f42 b341 90d2 b341 8764 b241 4113 093d
00000140: cf47 b341 f5fd b341 9e06 b341 791a b341
00000150: 48a8 b341 9220 b341 1c0f b441 996b b341
00000160: f01e b441 7523 b441 0fd9 b341 bab1 b241
00000170: 4b2a b441 721b b341 48c3 7abf 2dbe b341
00000180: 6a94 b241 3dbd b341 997a b341 9ed0 b341
00000190: 6373 b241 7136 b341 1923 b441 f411 b441
000001a0: 0ab7 b341 e5b8 b341 f990 b241 bbf8 9b3d
000001b0: b9bd 803d fd43 b441 402c b441 6f43 b341
000001c0: 1477 b341 8ff5 b241 ac3b b341 e457 b341
000001d0: d89e b441 b2c5 b341 882e b341 334e b341
000001e0: bd5d b341 f7ec b341 8dcc b241 d29b b241
000001f0: a554 b241 2dd3 b13d b1ec b341 7edd b241
00000200: bc4f 993c 0e4d 633b 490d 2a3d 30ce 4e3c
00000210: ad9f 843d 4ea1 353d b4f9 aabd cad3 1ebd
00000220: f2b4 0cbd 405d 44bc 8844 91bd 515b 8b3d
00000230: 9bb8 b33d 9782 983c fbe0 a2bd f70e a1bd
00000240: 6af8 4a3c 2e8c 7abd 96ec 83bd c96a 70bd
00000250: e359 233c 49aa 833d 0b30 ab3c db2a be3c
00000260: a2b8 263d 65df 9f3d edd0 2bbc a7ea 4ebd
00000270: 5585 613d 7679 c1bd 3a79 443d aedf 60bd
00000280: cf89 e8bb 78f1 20bc 7b15 06bd d558 a5bd
00000290: f6b6 3b3d 1c56 81bd 2178 e13c f2e2 53bd
000002a0: 95ef 7f3c 1cd1 5a3d aebe abbd 6b7d e2bc
000002b0: de60 9dbd 699b 13bd f2be 74bd bc22 31bd
000002c0: b29b 233d 73b1 913d a1fa 613d c3e2 9c3d
000002d0: 25dd 35bd 68bc 113c 02f6 593d 2a40 243c
000002e0: 0461 a3bc abe2 95bd ddca 8c3c 8330 c7bc
000002f0: 7023 f23b 159d 9ebc 222a 943d 1e12 833d
00000300: 11a4 afbd 6ec2 46bd 1a4f 723d 0007 ba3b
00000310: c042 a03c 76d8 663c 281b b0bc 76f9 8b3c
00000320: 98a9 72bd ce5e 033d 6f4e a83b a06d 5cbb
00000330: 21e8 cfbb 99f7 1ebd 8ef1 303d bf8d 863d
00000340: 183f 6abd ee4b 56bd 36d7 81bc d371 1f3b
00000350: 5e05 343d c05e 983a 7696 6abd 61b7 80bd
00000360: 30d6 cd3c 8ba1 c53c 8b31 72bd 9971 bb3c
00000370: 6fd6 9e3d 8050 48bb 3123 953d ab3b 473d
00000380: fdb9 29bd 0a2e 163d e051 163d aca8 b8bd
00000390: 336f 34bd 6b1d 90bd 708e 843d 143f 9cbd
000003a0: 620a 4ebd 91cc 883d 8fa0 cbbb e3de 6fbd
000003b0: a758 aa3d f3d6 ab3d f602 363d eb17 1fbc
000003c0: 1e5b 873c 3cd6 6a3d 8f4a 0dbc 8aed f7bc
000003d0: d60f 5f3d d8da c83c 5ee5 b0bd 4b9d aebd
000003e0: 2cd7 c2bd c82d 42bd 23e5 56bd fa3a 9ebd
000003f0: 74a4 9a3d abe6 44bd 0d9f 38bd e416 c33c

fc3.bias f4 [64]
48.791668 -0.083817184 48.723137 -0.020642089 48.81285 48.660423 48.867817 -0.063746914
48.971294 48.88175 -0.034391105 0.066150814 48.984634 48.733826 48.70534 48.768658
48.741226 0.061727267 48.772152 48.906933 48.921844 -0.094957 48.93178 48.827736
48.884533 48.8259 48.805836 48.788822 48.966434 48.873726 48.936478 48.839256
48.837925 48.875248 48.8033 48.880188 48.838474 48.85203 48.85123 48.82673
48.91613 -0.0713197 49.030132 48.71424 -0.09318416 -0.018355582 -0.035949796 -0.008942019
48.69623 48.90255 48.77896 48.858334 -0.049969155 48.957233 -0.070807524 48.89195
48.837753 48.85357 48.90197 48.910206 -0.05543284 48.90662 -0.113107346 48.95668
00000000: ab2a 4342 58a8 abbd 7ee4 4242 9919 a9bc
00000010: 5c40 4342 46a4 4242 a578 4342 be8d 82bd
00000020: 9be2 4342 e986 4342 b0dd 0cbd 147a 873d
00000030: 44f0 4342 70ef 4242 45d2 4242 1b13 4342
00000040: 04f7 4242 bbd5 7c3d af16 4342 b3a0 4342
00000050: f8af 4342 d178 c2bd 25ba 4342 9a4f 4342
00000060: c389 4342 b94d 4342 2d39 4342 c127 4342
00000070: a1dd 4342 b27e 4342 f4be 4342 665b 4342
00000080: 095a 4342 4180 4342 9436 4342 5085 4342
00000090: 995a 4342 7b68 4342 a967 4342 924e 4342
000000a0: 1eaa 4342 1010 92bd db1e 4442 62db 4242
000000b0: 56d7 bebd 725e 96bc 1840 13bd 8c81 12bc
000000c0: f1c8 4242 369c 4342 a81d 4342 ef6e 4342
000000d0: 75ac 4cbd 35d4 4342 8903 91bd 5b91 4342
000000e0: dc59 4342 0e6a 4342 9e9b 4342 0da4 4342
000000f0: 8c0d 63bd 61a0 4342 d3a4 e7bd a4d3 4342

fc4.weight f4 [49, 64]
0.8859817 0.0054086745 0.8363355 -0.021092739 1.0701603 0.54563874 1.1187533 0.043225214
1.1726004 1.1131824 0.09711464 -0.042258084 1.0922961 0.7131263 0.9654468 0.7356217
0.7830523 0.020462243 0.88130605 1.2146116 0.92929703 0.12436657 1.1238365 0.9019348
1.040325 0.9222 0.7913873 0.833108 1.08705 0.75790906 1.0970968 1.1909171
0.8954525 1.1789598 0.99877554 1.1461537 0.97886133 1.0710905 1.0682651 1.0530982
1.1575075 -0.084542975 0.9737428 0.98905754 -0.002447188 0.0882556 -0.032479294 -0.10994327
0.8622298 1.190508 0.79676133 1.0008125 0.021730512 1.1674657 0.07784412 0.8029266
0.77027744 0.65499306 0.93002343 1.2643365 -0.01609458 1.084326 0.09003569 1.1785442
4.7904387 -0.019186854 4.824197 0.054649536 4.8661294 4.7316117 4.834688 0.058808997
4.8969593 4.901462 -0.021268604 0.09895673 4.7771335 4.790024 4.6655602 4.7661757
4.700305 -0.08305417 4.8894515 4.87405 4.925364 0.02736865 4.909867 4.832989
4.810096 4.764202 4.872002 4.8215885 4.8119154 4.7039156 4.748145 4.8425326
4.7698274 4.703375 4.731632 4.869818 4.7713776 4.727634 4.794299 4.7916617
4.8997464 0.054208055 4.790133 4.683538 0.12301296 -0.020395279 -0.11020516 0.10053988
4.708104 4.9301 4.747736 4.7664237 0.03826551 4.776377 0.0728939 4.8749685
4.715424 4.845858 4.821318 4.763776 -0.015424982 4.9139132 0.02555573 4.799682
8.396563 0.07645598 8.289453 0.06556284 8.388394 8.471006 8.295632 -0.06530662
8.423988 8.469457 0.0070496723 0.04348779 8.316995 8.411353 8.255556 8.424179
8.4901495 0.12121617 8.334112 8.427145 8.331324 0.07868232 8.48304 8.42961
8.301934 8.345669 8.382527 8.342482 8.271949 8.428247 8.451618 8.460166
8.486414 8.316327 8.394446 8.4330635 8.480033 8.325261 8.317753 8.330869
8.354735 -0.0151774585 8.445195 8.464996 -0.08475517 -0.06907211 0.13568285 -0.097853005
8.339217 8.356457 8.256967 8.3529 -0.032135785 8.387536 -0.0114877075 8.378376
8.450304 8.331009 8.459957 8.410392 0.090804055 8.419115 -0.066380344 8.309716
11.538619 0.03255652 11.474118 -0.014414082 11.528881 11.45801 11.597311 0.04514098
11.548874 11.422952 -0.04564959 -0.10219127 11.305052 11.135683 11.202283 11.457729
11.549446 -0.10704301 11.362672 11.462334 11.481547 -0.06204854 11.460032 11.598253
11.5934725 11.329952 11.537474 11.351194 11.428219 11.414177 11.390809 11.384339
11.571451 11.317557 11.326377 11.511826 11.381313 11.499302 11.591277 11.39256
11.364834 0.05928132 11.406263 11.566124 0.0779663 0.020046175 0.06034341 -0.09805678
11.41285 11.475113 11.189749 11.356107 -0.093447015 11.452918 -0.07745625 11.404322
11.508408 11.525862 11.485441 11.409759 -0.057366 11.573752 -0.0041260123 11.255207
00000000: b2cf 623f 403b b13b 151a 563f aeca acbc
00000010: 03fb 883f fbae 0b3f 4f33 8f3f ec0c 313d
00000020: c517 963f c37c 8e3f 0ae4 c63d d016 2dbd
00000030: 5cd0 8b3f 728f 363f 8627 773f b451 3c3f
00000040: 1e76 483f 6fa0 a73c 469d 613f 6578 9b3f
00000050: 69e6 6d3f e6b3 fe3d e0d9 8f3f 33e5 663f
00000060: 5f29 853f 4d15 6c3f 5c98 4a3f 9146 553f
00000070: 7424 8b3f 5406 423f ab6d 8c3f f96f 983f
00000080: 603c 653f 28e8 963f c1af 7f3f 2ab5 923f
00000090: a896 7a3f 7e19 893f e9bc 883f eccb 863f
000000a0: 3529 943f de24 adbd 3547 793f e032 7d3f
000000b0: 0061 20bb 5abf b43d 0209 05bd f029 e1bd
000000c0: 18bb 5c3f 9162 983f 8df8 4b3f a01a 803f
000000d0: 3004 b23c 846f 953f bd6c 9f3d 998c 4d3f
000000e0: e730 453f a0ad 273f 0416 6e3f c7d5 a13f
000000f0: c8d8 83bc 32cb 8a3f a264 b83d 89da 963f
00000100: 464b 9940 c02d 9dbc d25f 9a40 31d8 5f3d
00000110: 55b7 9b40 5d69 9740 c4b5 9a40 b4e1 703d
00000120: e4b3 9c40 c7d8 9c40 7f3b aebc d3a9 ca3d
00000130: 47de 9840 e047 9940 454c 9540 8384 9840
00000140: e668 9640 4e18 aabd 6376 9c40 38f8 9b40
00000150: 959c 9d40 3834 e03c a11d 9d40 d9a7 9a40
00000160: 4eec 9940 5874 9840 71e7 9b40 744a 9a40
00000170: 36fb 9940 7a86 9640 cef0 9740 07f6 9a40
00000180: 6da2 9840 0c82 9640 8869 9740 8dd5 9b40
00000190: 20af 9840 c748 9740 e66a 9940 4b55 9940
000001a0: b9ca 9c40 4409 5e3d c548 9940 8bdf 9540
000001b0: 38ee fb3d 0014 a7bc 3eb3 e1bd dae7 cd3d
000001c0: caa8 9640 61c3 9d40 74ed 9740 8b86 9840
000001d0: 4cbc 1c3d 15d8 9840 6649 953d beff 9b40
000001e0: c1e4 9640 4511 9b40 3d48 9a40 da70 9840
000001f0: 10b9 7cbc c73e 9d40 405a d13c ff96 9940
00000200: 5258 0641 f494 9c3d 99a1 0441 cf45 863d
00000210: dd36 0641 3e89 0741 e9ba 0441 7abf 85bd
00000220: a8c8 0641 e582 0741 f000 e73b 4120 323d
00000230: 6912 0541 e794 0641 c216 0441 70c9 0641
00000240: a7d7 0741 2f40 f83d 8658 0541 96d5 0641
00000250: 1a4d 0541 3224 a13d 88ba 0741 afdf 0641
00000260: b9d4 0441 dc87 0541 d51e 0641 ce7a 0541
00000270: e759 0441 1ada 0641 d439 0741 d75c 0741
00000280: 5ac8 0741 ad0f 0541 a74f 0641 d4ed 0641
00000290: 37ae 0741 4534 0541 8415 0541 3d4b 0541
000002a0: ffac 0541 e0aa 78bc 851f 0741 a070 0741
000002b0: 1e94 adbd ae75 8dbd 72f0 0a3e 2867 c8bd
000002c0: 6f6d 0541 0cb4 0541 891c 0441 7aa5 0541
000002d0: d0a0 03bd 5933 0641 f036 3cbc d40d 0641
000002e0: 7234 0741 d04b 0541 fc5b 0741 f790 0641
000002f0: 7af7 b93d b2b4 0641 6bf2 87bd 99f4 0441
00000300: 2f9e 3841 fc59 053d fd95 3741 0b29 6cbc
00000310: 4c76 3841 0254 3741 968e 3941 c0e5 383d
00000320: 30c8 3841 69c4 3641 11fb 3abd a849 d1bd
00000330: 7ee1 3441 c22b 3241 8d3c 3341 dc52 3741
00000340: 88ca 3841 5e39 dbbd 81cd 3541 b865 3741
00000350: 6bb4 3741 9c26 7ebd 4b5c 3741 7292 3941
00000360: dd7e 3941 7c47 3541 7e99 3841 7e9e 3541
00000370: fcd9 3641 78a0 3641 c140 3641 4126 3641
00000380: aa24 3941 b714 3541 d738 3541 7030 3841
00000390: dc19 3641 24fd 3741 df75 3941 ed47 3641
000003a0: 5cd6 3541 f8d0 723d 0e80 3641 d80e 3941
000003b0: ccac 9f3d e037 a43c a72a 773d fed1 c8bd
000003c0: 099b 3641 109a 3741 3609 3341 9db2 3541
000003d0: 2661 bfbd 273f 3741 62a1 9ebd 1a78 3641
000003e0: 7022 3841 ee69 3841 5ec4 3741 5f8e 3641
000003f0: 9cf8 6abd 172e 3941 8033 87bb 5415 3441

fc4.bias f4 [49]
1.0566753 13.229653 31.914223 41.15745 4.2166142 36.572903 -6.414296 44.76552
40.941635 9.634514 44.069298 37.35981 15.448621 0.063793555 14.175467 44.89499
28.18847 23.797127 44.981766 -0.10701452 -0.108802676 18.568066 24.843815 44.64191
14.385156 0.069845825 -0.077116966 0.11628334 42.865753 35.901382 39.508392 0.1001261
0.057656795 0.022673815 -0.11888981 15.811221 30.85929 0.09879975 -0.06672661 -0.029653281
-0.10995205 0.0856815 -4.0533533 0.017595395 -0.042501405 -0.055622026 0.04340005 0.019322485
-0.047856882
00000000: 2341 873f a9ac 5341 5450 ff41 3ba1 2442
00000010: 81ee 8640 a74a 1242 ea41 cdc0 e40f 3342
00000020: 3cc4 2342 f826 1a41 f646 3042 7270 1542
00000030: 8d2d 7741 32a6 823d b6ce 6241 7894 3342
00000040: fd81 e141 8460 be41 54ed 3342 6e2a dbbd
00000050: f0d3 debd 668b 9441 22c0 c641 5191 3242
00000060: 9929 6641 540b 8f3d 80ef 9dbd f625 ee3d
00000070: 8876 2b42 049b 0f42 9808 1e42 ea0e cd3d
00000080: 8829 6c3d 70be b93c 807c f3bd c3fa 7c41
00000090: d3df f641 8657 ca3d f6a7 88bd 70eb f2bc
000000a0: 8a2e e1bd c879 af3d 12b5 81c0 3824 903c
000000b0: f415 2ebd ecd3 63bd 40c4 313d 304a 9e3c
000000c0: 9405 44bd
