trike2/models/trainied against random/DQN_Agent_800ep.pt/DQN_Agent.pt (torch, 333080 bytes, 8 tensors)

fc1.weight f4 [256, 148]
00000000: 79a7 2241 5d2a 5541 5232 4841 be57 3041
00000010: 3887 4841 2415 2a41 ba22 4641 4f90 1e41
00000020: 701c 4a41 accf 1d41 6158 1641 655d 3b41
00000030: ce2e 1c41 005f 8bb9 dd2b 4941 b133 4641
00000040: edea 3241 8da4 1541 328d 4241 f0e8 413c
00000050: 8a5c edbc b8ed 3041 3806 5341 bef3 5941
00000060: 6bf2 4441 b43f 923c d205 713d bc14 e5bc
00000070: b898 3741 9baa 3a41 5c6d 3a41 6206 99bd
00000080: 4dec 9f3d b19a 9c3d 78b6 c63c 8f39 3041
00000090: 7681 2341 47df 903d 01db 993d 2144 3abd
000000a0: 8226 d1bc 68b3 acbc e477 2941 08c3 ca3c
000000b0: 0e9e 623d 3022 26bc d8ce 9ebc 6931 3abd
000000c0: 5033 2b3d 26d3 2a41 9b56 5241 8c89 4f41
000000d0: 07a3 2341 891a 4041 f02c 3541 917c 4541
000000e0: ee7b 2941 98d2 4841 d788 3141 9349 2041
000000f0: 4eb9 3341 e385 1a41 f71f 943d 6c0c 4341
00000100: 1a0a 3541 f5cd 3241 fcfc 1641 ecd3 3d41
00000110: bf66 16bd 6870 70bd 7172 3b41 6c2e 4a41
00000120: 6ec1 4341 a2c9 2a41 d289 0b3d 860b 7f3d
00000130: 7d73 9d3d 025b 3541 3e66 3541 292e 4741
00000140: 5087 eebb 3b69 9a3d 3002 9a3b e034 75bd
00000150: f670 1741 e84f 3841 5a0c 723d 205d 90bc
00000160: 473a a23d b83e 5a3c 60dd 1f3c 3cb1 0e41
00000170: d4cf 40bd e900 a6bd dea1 773d aa75 553d
00000180: 951d a43d e0c4 7c3b 4a3a 1641 35c4 0e41
00000190: 5aec 2941 653c 1041 72a7 2841 7262 0441
000001a0: 5cfd 1841 94ac 0341 82da 2741 fc31 1941
000001b0: 51cc 0a41 cc8a 2a41 7816 f240 12d7 a9bc
000001c0: 9eae 1f41 e3a1 3341 34bd 2b41 2100 0c41
000001d0: 9244 1441 7a10 603d 073e 45bd d002 2941
000001e0: 739b 2341 6981 0941 09a2 1d41 22cd 553d
000001f0: e6c3 f9bc b6e0 4b3d 4e6d 0641 b142 2341
00000200: 68d5 1941 9aff 5f3d d070 91bd cdb6 3ebd
00000210: 1079 163c 2115 1341 5942 1941 38b0 72bc
00000220: 9091 a83b 8ead 70bd 3e58 61bd 9864 173c
00000230: 48e4 2441 904a 043d 38d8 4cbc 8841 f53c
00000240: a80f 2cbd b13f 8ebd c997 913d aa45 a5bc
00000250: ba5b 2441 9a09 5441 3d6f 4541 0705 2f41
00000260: 84d8 4941 463d 2841 dcbb 4a41 913e 1e41
00000270: 1e46 4b41 cd43 2341 e8b5 1341 7016 3c41
00000280: 00f4 1941 a253 4c3d 0805 4941 66b8 4741
00000290: 798f 3141 ee70 1641 3c2a 4041 404f 1d3c
000002a0: ea92 9dbd f2bc 2d41 cbce 5241 36b7 5841
000002b0: b250 4441 1277 533d 8048 b5bb f067 80bd
000002c0: 2aee 3641 7c60 3e41 deed 4241 d0dc a43b
000002d0: 3f86 04bd 2ad9 383d 8966 9cbd 8763 3341
000002e0: ff2a 2141 72de 473d ff4a 8dbd 0a78 133d
000002f0: 58b5 78bc 20c4 ad3b 54d1 2941 f0d4 ef3c
00000300: 754a 983d eb52 6cbd fa63 553d 2ef4 d4bc
00000310: 8da5 a03d b7e6 2e41 2864 5341 0669 5041
00000320: d836 2641 5ff2 4041 30a1 3241 e7e3 4441
00000330: 01af 2b41 838a 4a41 3ed9 2f41 873d 2141
00000340: 1e50 3741 6bac 2341 56c6 2c3d e7ec 4441
00000350: f0f7 3741 82d1 2f41 391f 1541 2df6 3d41
00000360: 14f1 53bd aa8c 7bbd 6500 3b41 d900 4b41
00000370: c367 4741 026b 2c41 11da 913d a465 72bd
00000380: a076 4dbc 0000 3441 bdd5 3541 86fb 4341
00000390: 87f5 3ebd 36fb 3c3d 3aec 50bd d6ef 69bd
000003a0: e520 1141 6000 3941 70c4 55bc 7c27 e0bc
000003b0: 4dea 84bd 318b a0bd 71fc 1cbd 31da 0a41
000003c0: b09d f3bb f14c 9abd 6aca b3bc f895 813c
000003d0: 8c91 81bd 8d1d 63bd 88a4 1e41 cf49 0e41
000003e0: f6b1 2b41 e40a 0e41 7802 2c41 c554 0541
000003f0: 1112 1b41 5712 0241 f96d 2841 44b5 1b41
10.165887 13.322843 12.512285 11.021421 12.533012 10.630161 12.383478 9.910232
12.631943 9.863201 9.396577 11.710301 9.761427 -0.00026582927 12.573209 12.38762
11.182355 9.352674 12.1594715 0.011835322 -0.02897479 11.058037 13.189018 13.622007
12.309184 0.017852642 0.05884344 -0.027963988 11.474785 11.666652 11.651699 -0.074719205
0.07808743 0.076466925 0.02425693 11.014052 10.219107 0.07073837 0.07512475 -0.04547513
-0.025531057 -0.021081641 10.59177 0.024751201 0.055326514 -0.010139987 -0.01938574 -0.045457277
0.041796982 10.67655 13.146144 12.971081 10.227302 12.006478 11.323471 12.342912
10.592756 12.5514145 11.095908 10.017962 11.23274 9.657687 0.07232659 12.190533
11.314966 11.1752825 9.436764 11.864239 -0.03671908 -0.05870095 11.71544 12.636333
12.234724 10.674227 0.034066983 0.06226685 0.07688043 11.334719 11.337461 12.44877
-0.007279314 0.07539602 0.004699968 -0.05986488 9.465078 11.519508 0.05909381 -0.01762253
0.07921272 0.013320617 0.00975737 8.91827 -0.0470732 -0.08105642 0.060457103 0.052114166
0.08013455 0.0038569495 9.389231 8.922902 10.620203 9.014745 10.54088 8.2740345
9.561855 8.229633 10.490847 9.574703 8.674882 10.658886 7.565243 -0.020732436
9.980131 11.227023 10.733692 8.750031 9.266741 0.054703213 -0.048154857 10.563187
10.225451 8.594094 9.852059 0.052197583 -0.03048892 0.049774848 8.401686 10.203782
9.614601 0.05468712 -0.071015954 -0.04656105 0.009184137 9.192658 9.578698 -0.014812522
0.0051443055 -0.058759265 -0.055015795 0.009240292 10.305733 0.03229767 -0.012502722 0.029938474
-0.04200712 -0.06945742 0.07109029 -0.02017482 10.272394 13.252344 12.339658 10.938727
12.61536 10.514959 12.670864 9.890275 12.704618 10.204053 9.231911 11.755478
9.62207 0.049884446 12.563728 12.482519 11.0975275 9.402571 12.010311 0.009601414
-0.07694037 10.858629 13.175487 13.544729 12.269701 0.051627226 -0.0055323243 -0.062698245
11.4331455 11.898556 12.183073 0.0050312057 -0.03235459 0.04512898 -0.076367445 11.211799
10.072997 0.048796125 -0.0689907 0.03600315 -0.0151799545 0.005302921 10.6136055 0.029276341
0.074360766 -0.057696264 0.0520973 -0.02599534 0.07844076 10.931327 13.211952 13.0256405
10.38839 12.059173 11.164352 12.30564 10.730226 12.658816 10.990538 10.077521
11.45706 10.229594 0.042181335 12.3078375 11.498032 10.988649 9.320123 11.8726015
-0.051743582 -0.061413445 11.687596 12.687707 12.462832 10.776125 0.07121671 -0.059178963
-0.012540489 11.25 11.364682 12.248907 -0.046620872 0.04613801 -0.051006533 -0.05711349
9.070531 11.562592 -0.013047323 -0.027362578 -0.06490002 -0.07839049 -0.038326684 8.678269
-0.0074345693 -0.07534207 -0.021947104 0.015818581 -0.06326589 -0.055448104 9.915169 8.89302
10.7309475 8.877659 10.750603 8.333196 9.691911 8.1294775 10.526849 9.731754

fc1.bias f4 [256]
00000000: abfc 6041 0a7c 6341 c5b3 6241 39bc 6341
00000010: 6515 6441 513b 6341 086d 6441 958f 6341
00000020: 16cd 6341 e88d 6341 3874 6341 f60e 6341
00000030: a759 cebf dbb0 6241 ebc9 6341 1e33 6441
00000040: 9851 6041 0385 6441 8fc3 6341 ee0b 6341
00000050: 424b 6241 7478 6241 ec2b 6241 d23d 6141
00000060: c4a9 6341 3bb3 6041 91ec 6041 12bc 6141
00000070: 1051 6441 6e90 6341 a122 6441 e293 6141
00000080: 7c2f 6341 8c0f 6341 0c57 6341 d87a d6bf
00000090: fbaa 6241 4716 6441 8201 6341 cbe0 f7bf
000000a0: 8962 6341 19ae c2bf f94e 6341 65b7 6441
000000b0: ea68 6441 fff6 6341 84f5 6241 f369 6441
000000c0: 5b94 6341 3e02 c7bf 148a 6341 4f9e 6141
000000d0: b410 6141 9d0a 6341 f27f 6341 da65 6341
000000e0: 0bc1 6041 1e5a 6341 fa1f 6441 2996 6441
000000f0: 5902 6441 8970 6341 a0c5 6341 1ac1 6341
00000100: 7572 6441 77a0 6341 e509 6241 1d14 6441
00000110: d5da 6341 c992 6441 ae56 6241 0dc1 6341
00000120: 7d61 6341 ce30 aabf 3035 6141 3d41 6341
00000130: eb21 ecbf 42b0 6141 aa01 c5bf fb3f cfbf
00000140: 16f8 6241 66f0 6041 57b2 6441 22db 6241
00000150: 03bd 6341 1119 6241 040c 6441 3b66 6241
00000160: 28d8 cabf 3893 6341 3233 6441 71e2 6041
00000170: ee51 6441 c598 6241 5f28 6141 27f2 e0bf
00000180: dc2b 6341 cdf7 6341 3739 6141 4f2f 6441
00000190: 227c 6441 047c 6441 ef62 6341 ea26 6441
000001a0: f116 6441 3f5c 6441 ef82 6341 07f3 6441
000001b0: a260 6141 1245 6041 ddde 6141 b7d1 6241
000001c0: 2301 6441 a044 6341 ba08 6341 0a3d 6341
000001d0: d8a9 6341 ea7c 6341 8cc2 6441 7020 6441
000001e0: cd3e c2bf 6407 6441 2368 6341 b7de dbbf
000001f0: 2b37 e6bf 0600 cbbf 2e8d 6441 2ce0 6441
00000200: addb 6241 3b0b 6441 c85e 6241 7f98 6441
00000210: b547 5f41 12b5 6341 91fd 6041 7a0f 6341
00000220: 5304 6141 b9ce 6141 497e 6141 ba97 6241
00000230: 0639 6141 780d 6241 313f 6241 3a60 6341
00000240: 7bfc 6441 76ee 6341 5fe8 6341 4444 6341
00000250: 5b86 6341 d5bf 6441 c078 6341 a519 6341
00000260: fedd 6341 13f4 6341 9c2a 6041 16ae 6241
00000270: fc1b 6441 e74a 6441 88be 6241 866e 6141
00000280: 176d 6441 3521 6341 0420 6441 0335 6341
00000290: 24d7 6341 d376 6241 9b5d 6141 0ce5 6341
000002a0: a27b 6441 2bdd 6341 5d03 6241 3de4 6341
000002b0: 414f dbbf 2e82 6441 20fe 6341 de97 6441
000002c0: aec3 6041 3da6 6341 e473 6341 44fa 6241
000002d0: 8365 6441 e4e8 6341 a0ce 6241 0347 6341
000002e0: 2c7b 6341 205a 6341 c515 b0bf 7a87 6041
000002f0: 727e 6441 ed09 6441 dfff 6341 15d9 d0bf
00000300: 8aee 6341 e76b 6341 de14 6441 2513 6441
00000310: f77b 6441 7659 6441 bb02 6441 222a dfbf
00000320: 6045 6441 f6f9 6041 9e78 6141 50c0 d2bf
00000330: 1283 5f41 e7d1 6141 55aa 6341 60dd 6341
00000340: d31f 6441 3d5d 6041 722a 6441 9e73 6441
00000350: 324a 6141 1abb 6241 30a5 6141 3d95 cebf
00000360: 02d2 6341 2990 6341 656b 6441 c659 6141
00000370: f89d 6441 1887 6341 83c8 6341 045b 6241
00000380: 89a4 6341 9121 6341 3e18 e4bf b4de 6341
00000390: c3c4 6141 1079 ccbf 179b 6241 3a2f 6341
000003a0: 8e59 6441 bcb4 6241 4b31 6441 c01f e7bf
000003b0: 385d 6241 bb49 cbbf 3c22 6241 a713 6441
000003c0: 1e03 6141 ae60 6341 92e8 6241 0de1 6441
000003d0: 6f23 6341 8d96 6441 394a 6441 126a 6441
000003e0: 7e5a 6341 a94b 6141 d20a 6341 00f3 6341
000003f0: 98da 6341 9331 6341 7b6a 6141 716a 6141
14.0616865 14.217783 14.168889 14.233453 14.255223 14.201982 14.276619 14.222554
14.23757 14.222145 14.215874 14.191153 -1.612111 14.168178 14.236796 14.26248
14.01992 14.282474 14.235244 14.1904125 14.1433735 14.1544075 14.135723 14.077593
14.228947 14.043757 14.057755 14.108416 14.269791 14.222761 14.258454 14.098604
14.199093 14.191296 14.208752 -1.6756239 14.166743 14.255439 14.187868 -1.9365476
14.211556 -1.520938 14.20678 14.294774 14.275614 14.247802 14.18494 14.2758665
14.22372 -1.5547559 14.2212105 14.10115 14.066578 14.190091 14.218737 14.212366
14.04713 14.209501 14.257807 14.28666 14.250573 14.214974 14.235748 14.234644
14.277944 14.226676 14.127416 14.25491 14.240926 14.285836 14.146162 14.234632
14.211301 -1.3296144 14.075485 14.203427 -1.8447851 14.105532 -1.5391133 -1.61914
14.185568 14.058691 14.29354 14.178499 14.233645 14.13112 14.2529335 14.149959
-1.5847216 14.223442 14.262499 14.055284 14.270002 14.162297 14.072356 -1.7573899
14.198208 14.247998 14.076468 14.26155 14.280306 14.280277 14.211654 14.2595005
14.255601 14.272521 14.219466 14.309333 14.086092 14.016863 14.11691 14.1762
14.2502775 14.204254 14.1896305 14.202402 14.228966 14.217997 14.297497 14.257919
-1.5175415 14.251804 14.212924 -1.7177342 -1.7985586 -1.5859382 14.284468 14.304729
14.178632 14.252742 14.14814 14.2872305 13.955007 14.231707 14.061906 14.191278
14.063556 14.112969 14.093331 14.162043 14.076422 14.128288 14.140428 14.210993
14.311641 14.245718 14.244231 14.204166 14.220302 14.296834 14.21698 14.193761
14.241697 14.247088 14.010403 14.167501 14.256832 14.268287 14.171516 14.089483
14.276633 14.195607 14.257816 14.200442 14.240025 14.15401 14.085353 14.24342
14.280184 14.241496 14.125821 14.243222 -1.7133561 14.281782 14.249542 14.287077
14.047773 14.2280855 14.215794 14.1861 14.274783 14.244358 14.175446 14.204837
14.217571 14.209503 -1.3756644 14.033075 14.28087 14.252423 14.249969 -1.6316248
14.245737 14.213843 14.255095 14.254674 14.280265 14.271841 14.250667 -1.7434733
14.266937 14.061026 14.091948 -1.6464939 13.9695 14.113746 14.229085 14.241547
14.25777 14.022763 14.260363 14.278227 14.080614 14.170679 14.102829 -1.6139294
14.238771 14.222695 14.276219 14.084417 14.288567 14.220482 14.236453 14.147221
14.22767 14.195695 -1.7819898 14.241871 14.110538 -1.5974445 14.162864 14.19903
14.271864 14.169125 14.262034 -1.8056564 14.1477585 -1.5881876 14.133358 14.254798
14.063261 14.211103 14.18178 14.304944 14.196151 14.286756 14.268121 14.275896
14.209593 14.080972 14.190142 14.246826 14.240868 14.199603 14.088496 14.088487

fc2.weight f4 [128, 256]
00000000: 33df 5d41 6803 6041 d763 5e41 3267 5f41
00000010: 6185 5f41 ff36 5e41 7ff8 5e41 34e4 5d41
00000020: 242f 6141 919b 5e41 d0f1 5f41 8d4f 5e41
00000030: 4db8 92c0 44b5 5941 2629 5e41 7cec 5c41
00000040: b4ae 5f41 8dbd 6141 6cd5 5f41 b1e8 6041
00000050: 97d6 5a41 c8fa 5c41 017b 5f41 d222 5f41
00000060: 4e1c 5d41 4b8e 5741 6a56 5f41 dc93 5c41
00000070: fdd9 5d41 c4b4 5e41 6e87 5f41 3754 5e41
00000080: 1d10 5d41 3c63 5d41 6d8f 5f41 365b a2c0
00000090: b705 5f41 f496 5d41 310b 6041 84b9 92c0
000000a0: cc59 6041 9456 9fc0 0f6c 6041 8526 5f41
000000b0: 5f4a 5f41 2d1f 5e41 20ea 5e41 67e5 6141
000000c0: 1951 5c41 49ae b0c0 0054 5e41 11f3 5a41
000000d0: 1d10 5e41 f900 5f41 74c3 6041 3c7a 5f41
000000e0: 818c 6041 deb3 5f41 b6ed 5f41 3201 6241
000000f0: 5ce7 5e41 7ad0 5d41 c034 5e41 4cd1 6041
00000100: 5f48 6041 9fb5 5e41 f6ca 5c41 3760 5e41
00000110: 4971 5f41 7032 5f41 3709 5f41 5d8d 6041
00000120: 4674 5d41 71d7 93c0 ebae 5e41 ff91 5d41
00000130: 14c9 a1c0 55e1 5e41 6826 a2c0 39b0 91c0
00000140: 7419 5e41 9d0d 5d41 cb4d 6041 008e 5d41
00000150: 90fd 5f41 ca73 5f41 112f 6141 396d 6041
00000160: 630c a4c0 9358 6041 62ac 5f41 c951 5b41
00000170: 94f1 5d41 ccb7 5f41 3b16 6041 96b6 94c0
00000180: 5089 5e41 23ea 6041 2f50 5f41 b256 6141
00000190: f4af 5f41 c624 5e41 4888 6041 b8b2 5e41
000001a0: 3f42 5d41 eea7 6041 2aa8 5e41 29b4 5e41
000001b0: 62c9 6041 b007 5f41 8909 6041 ee12 5f41
000001c0: 95cb 5f41 5b24 5b41 56db 5f41 f18a 5e41
000001d0: f096 5f41 e80b 5d41 5298 5e41 d1d9 5e41
000001e0: cb83 a2c0 3669 5f41 a8c3 5d41 adad 93c0
000001f0: 9d07 9cc0 1138 a2c0 26ab 6141 2e58 6041
00000200: f4ba 5e41 4e95 5f41 71bb 6041 45d0 5d41
00000210: 1098 5e41 6749 5d41 5a69 5f41 5bae 5d41
00000220: be1f 5d41 0d48 5f41 d045 5941 f851 5c41
00000230: 704c 5f41 3cc6 5c41 4402 5d41 7c8d 5f41
00000240: 8ab7 6041 7657 5f41 b581 5d41 bc39 5e41
00000250: ce98 5c41 b461 6141 3ed5 5e41 cc21 5e41
00000260: fe53 5d41 71b0 5e41 30f4 5a41 c670 5d41
00000270: ac01 5e41 cec6 5f41 721f 5f41 4dc7 5e41
00000280: c1d3 5f41 1b78 6041 0eed 5f41 e5a3 5c41
00000290: 696a 5e41 7747 5e41 3b12 5b41 5bed 5e41
000002a0: 2fd9 5f41 78f4 5f41 61ed 5b41 ed15 5e41
000002b0: 60aa 9bc0 5330 6041 5d38 5f41 18e4 5f41
000002c0: e8de 5f41 f1be 5e41 39d3 5e41 4881 5d41
000002d0: 7130 6041 bcc7 5f41 a6de 5e41 efd7 5d41
000002e0: 1228 5f41 98d9 5d41 06d7 95c0 4b39 5e41
000002f0: 3478 6141 9556 6041 bf3d 5e41 2c4e acc0
00000300: 0837 6041 0136 6141 67b9 5d41 df5c 5f41
00000310: d1b3 5f41 527d 5e41 c710 6041 d144 98c0
00000320: 93ac 5f41 ea6d 5a41 dbac 5e41 4e4d a5c0
00000330: 43ec 5541 ed67 5b41 0a27 6041 534d 5e41
00000340: 0365 5f41 cbd3 5c41 d299 5d41 9066 6141
00000350: 164e 5e41 752d 6141 1b7d 5f41 389d 85c0
00000360: 7e0f 5e41 38d8 5e41 a2f3 5d41 ca38 5e41
00000370: fd38 5f41 5605 5e41 3da6 5d41 75c5 5d41
00000380: 9d9a 5f41 3ca2 5f41 1a55 92c0 0c6d 5f41
00000390: 508d 5c41 8832 a6c0 a61d 6141 3a98 5f41
000003a0: 7802 5f41 de29 6241 51f3 5e41 87cc 9bc0
000003b0: 98a1 5f41 011d a1c0 4065 5e41 6339 6241
000003c0: 7543 5e41 c8ac 5e41 533b 6141 6f1d 6141
000003d0: 0cdc 5c41 abed 6141 542d 5e41 399a 5f41
000003e0: 8c95 5f41 c475 5d41 98bf 6141 8ce8 5f41
000003f0: 8e0b 6041 5df6 5e41 daa9 5b41 be82 5d41
13.866992 14.000832 13.899375 13.962694 13.970063 13.888427 13.935668 13.868214
14.074009 13.91298 13.996536 13.894422 -4.5849977 13.606754 13.885046 13.807735
13.980152 14.108777 13.989605 14.056809 13.67739 13.811226 13.96753 13.946001
13.81941 13.4722395 13.958597 13.7860985 13.86572 13.919132 13.970564 13.89556
13.816434 13.836727 13.972516 -5.073634 13.938895 13.849354 14.002732 -4.585146
14.021923 -4.9793186 14.0263815 13.946904 13.955657 13.882611 13.932159 14.118506
13.769799 -5.521275 13.895508 13.684342 13.878934 13.937737 14.047718 13.967342
14.034303 13.981413 13.995535 14.125292 13.931484 13.863398 13.887878 14.051098
14.017669 13.919341 13.799551 13.89849 13.9651575 13.949814 13.93975 14.0345125
13.840887 -4.620049 13.917705 13.848144 -5.0557957 13.930013 -5.0671883 -4.5527616
13.881214 13.815824 14.018992 13.847168 13.999405 13.965769 14.073991 14.026666
-5.126512 14.021625 13.979586 13.707467 13.871479 13.982372 14.005427 -4.6472883
13.908524 14.057162 13.957076 14.083666 13.980457 13.883978 14.033272 13.9186325
13.828673 14.040998 13.916056 13.918984 14.049166 13.939377 14.002328 13.9421215
13.987203 13.696376 13.991049 13.908921 13.97435 13.815407 13.912188 13.928178
-5.078588 13.963186 13.860268 -4.6149507 -4.8759294 -5.069344 14.104284 14.021528
13.920643 13.973951 14.045762 13.863347 13.912125 13.8304205 13.963221 13.855067
13.82025 13.9550905 13.579544 13.770012 13.9561615 13.798397 13.813053 13.972042
14.044809 13.958853 13.844167 13.889095 13.787306 14.086353 13.927061 13.883251
13.833006 13.9180765 13.684616 13.840033 13.875408 13.986036 13.945177 13.923657
13.989198 14.029323 13.995375 13.790013 13.900979 13.892447 13.691951 13.932948
13.990523 13.997185 13.745454 13.880353 -4.8645477 14.011798 13.951261 13.993187
13.99192 13.921617 13.926568 13.844063 14.0118265 13.986263 13.929358 13.865218
13.947283 13.865623 -4.682498 13.888988 14.091846 14.021138 13.890075 -5.3845425
14.013435 14.075685 13.857764 13.960174 13.9814005 13.905596 14.004096 -4.7584004
13.979632 13.6518345 13.917201 -5.1656866 13.370181 13.7128725 14.009531 13.893878
13.962161 13.801707 13.850054 14.08754 13.894064 14.073598 13.968043 -4.1754417
13.878782 13.927788 13.871981 13.8888645 13.951413 13.876303 13.8530855 13.860707
13.975247 13.977108 -4.5728884 13.964123 13.7845 -5.1936684 14.069738 13.974665
13.938103 14.1352215 13.934403 -4.8687167 13.976952 -5.0347905 13.899719 14.13901
13.891469 13.917183 14.076983 14.069686 13.803722 14.120524 13.886066 13.975152
13.97401 13.841251 14.109276 13.994274 14.002821 13.935147 13.728968 13.8444195

fc2.bias f4 [128]
00000000: 2568 5741 3e66 5741 08ce 5641 2f33 5841
00000010: 7a7b 5841 b03c 5741 a5e6 5741 3532 5941
00000020: 47e7 5841 f663 5841 e0c3 5741 79bb 5841
00000030: 5bdd 5741 4ede 5741 9e21 5841 5aea 5741
00000040: 27f7 5641 2276 a6bd 4726 5941 e2ff 353b
00000050: 4819 5841 6a2c 5941 d8c8 5741 a714 5841
00000060: efb9 5741 3e6c 76bd 7a09 5941 0b81 5841
00000070: bcb5 87bd 5116 5841 cc24 5841 3e04 5941
00000080: af70 5541 0245 5841 a47d 5841 ebfc 5841
00000090: 8fbb 5841 f598 5741 b150 5641 69c3 5741
000000a0: aa9f 74bd fcb2 5841 fb22 5841 dd20 5941
000000b0: 99d2 5741 139e 5741 d61f 5841 7257 5841
000000c0: be5b 5841 9239 5741 90fb 5741 b0dd 5841
000000d0: e465 70bd cf6c 5841 5be0 5741 e8ce 5841
000000e0: 0149 5741 a33d 5841 ea38 77bd c6c7 5741
000000f0: ed70 5741 8c4f 5841 b1c7 5741 9e3b 5841
00000100: 26b7 5841 32a3 5841 15d4 5641 2055 d7bd
00000110: b85f 5841 09cc aebd 083a 5741 0f18 5741
00000120: 2735 5741 cf54 5841 3402 5941 e6a1 5841
00000130: 529f 77bd 6f9c 5841 ae28 5841 ff0d 5841
00000140: 3b1e 5941 6ed3 5741 b47b 5941 a6a8 14bd
00000150: b8cc 5841 8d21 5741 deca 5841 b0af 5841
00000160: 8d5a 8abd c8e5 5841 3df3 5741 ccde 32bd
00000170: 04fa 5841 a110 5841 539a 5841 17b4 5741
00000180: 86be 60bc 569a 253a abce 5641 5574 5741
00000190: 8007 5941 1c54 5841 c448 5741 f7c9 41bd
000001a0: 8deb 5841 9e69 5741 f0d6 5841 e404 dfbd
000001b0: ee14 5941 c350 5741 bfb7 5841 8c6a 5741
000001c0: 8c91 5841 2ffb 5741 58a9 5841 6e3b 5941
000001d0: e56b 5841 2533 56bd e1e2 5841 94b2 5741
000001e0: 90a0 5741 fe64 5741 cc2d fdbc e265 5741
000001f0: ef9a 5741 2d13 8dbc 3b5b 5841 42d7 5dbb
13.462926 13.462461 13.425301 13.512496 13.530146 13.452316 13.49381 13.574758
13.556464 13.524405 13.485321 13.54577 13.491542 13.491774 13.508207 13.494715
13.43534 -0.08128001 13.571845 0.0027770926 13.506172 13.573343 13.486534 13.505042
13.482894 -0.06016182 13.564814 13.531505 -0.0662646 13.505448 13.508984 13.563536
13.340011 13.516848 13.530674 13.561748 13.545791 13.474843 13.3947 13.485208
-0.05972258 13.543697 13.50854 13.570523 13.488915 13.476092 13.507772 13.521349
13.522398 13.451555 13.498917 13.554123 -0.05869092 13.526565 13.492274 13.550514
13.455323 13.515048 -0.06035701 13.486273 13.46507 13.519421 13.486253 13.514555
13.544714 13.539843 13.426778 -0.10514283 13.523369 -0.0853501 13.451668 13.443374
13.450477 13.520705 13.563038 13.539526 -0.060454674 13.538192 13.509932 13.503417
13.5698805 13.489119 13.592701 -0.03629365 13.54998 13.445691 13.549528 13.542892
-0.067555524 13.556099 13.496884 -0.043669507 13.561039 13.50406 13.537677 13.481467
-0.013717299 0.00063172483 13.425456 13.465901 13.564331 13.5205345 13.455265 -0.04731175
13.5575075 13.463285 13.552475 -0.10889605 13.56761 13.457217 13.54486 13.463512
13.535534 13.498824 13.541344 13.577009 13.526341 -0.05229487 13.55539 13.481098
13.4767 13.462156 -0.030905627 13.462374 13.475326 -0.017221058 13.522273 -0.0033850227

fc3.weight f4 [64, 128]
00000000: 515a ae3b 1523 1d3d 3ecd 42bd e5a1 cdbd
00000010: bb50 55bd 2961 1d3d 7b89 b5bd 3967 36bd
00000020: 9145 d2bc db90 97bd 7e3a 4e3d e2e4 65bd
00000030: 6502 50bc d292 94bd 3a13 61bd 0661 ebbc
00000040: 8ee8 84bd 1d24 65bd 612d 0abb 7ec5 be3b
00000050: 0003 51bc 5993 00bd fd10 633d 4fcf 003d
00000060: 0a14 f3bc 8788 97bc b397 4dbd 0212 2abd
00000070: 3acd 543d 3ae2 eebd f724 813d 88a5 533d
00000080: 023c 203c a399 413d bdb0 18bd 6a05 823c
00000090: 7702 e6bc 3f38 9dbb c6a4 5a3c 356e 9c3c
000000a0: 3b78 87bd 4663 ec3c 1ab2 a43c 3fdd 9cbd
000000b0: aa9d 6c3d 8456 81bd 4183 c4ba 0dcb 95bd
000000c0: 0b1b c43c d255 9abd 6135 843d d758 b03c
000000d0: 275e 47bd f4e9 773c af43 f4bd a0ac 88bc
000000e0: 1f8f f83c ecaa 093d 40c0 e3bb 02f4 f8bd
000000f0: 9fac 983d c852 c0bd 8626 4bbd bbfe 97bd
00000100: fe22 d0bc 24c0 963b 58ac 683d 4c76 0a3d
00000110: c9bf 8bbb da70 0b3c b30a 303d 3aa7 583d
00000120: 689f fbbd 3e1b fabd 3a33 bebd 947c 87bd
00000130: 1587 473b 93e6 1d3d b055 923d ee12 9ebd
00000140: 8c11 bcbd 024b c43d 0d48 e8bd ef9f b23d
00000150: 1d0a 8c3d 8372 93bd f206 d7bc 95bb ffbd
00000160: 12a5 893d 9d36 df3c 8adb 34bd f527 01bd
00000170: 75aa c9bd 3559 1cbd a80e c8bc c773 8fbc
00000180: 54d4 afbd 3ea5 e1bd f058 90bd 729d 14bd
00000190: 3014 c53c 8407 dfbd b9b5 69bd 7f70 65bd
000001a0: 737b 963c 6aa7 05be d525 15bd 770c 32bd
000001b0: 0463 2ebb 7fce d7bd e054 c6bc 24f0 d1bd
000001c0: 58dd 013d eb3f 933b b385 153c cc05 1bbc
000001d0: 7962 bcbc 64c8 013d 6571 bcbd c19f 5f3d
000001e0: 26e5 b93c d1eb d2bd e548 703d a43b 90bc
000001f0: 85b7 5cbd 879f 383c 3e22 533d c308 a3bc
00000200: 75a0 09bd 28fe 203c 7ef1 93bd 3891 8a3c
00000210: ca61 c5b9 f78e 9cbd 0913 f93c 9e5a 1ebd
00000220: 50fd 94bd ae7f 5a3c 045a a23c c29f afbd
00000230: 8cc9 a3bc 475f f7bc 7c7b a6bd 323c 26bd
00000240: 844c c23c 6e8a 5bbd 0763 943d f5c1 6d3d
00000250: 43b9 c73b 380b edbc 44cf 103d 40cc 823b
00000260: be0c 433d eb86 19bd cc42 3cbd 9976 9abc
00000270: 2b7a 8f3d efc0 b4bd 8959 8e3d a0f8 a63c
00000280: 405d d2bd a22a 183d 3a4c 633d 7774 9abd
00000290: b2d0 603d 4b6f 92bd 836a 103b 1f62 843d
000002a0: 6e1f afbd 78cd 1abd d2b8 0dbd 51b9 86bd
000002b0: 4b7f 193d c0a9 a23a 7d8e 95bd 1c7b f63c
000002c0: 480b 52bc 3303 33bc fd99 d23c a08b e33c
000002d0: d23c 2bbd 7bb4 1a3c 57e4 aabd 4d68 b43d
000002e0: a33b 1cbd d87a 0bbd 001a 04bd c978 adbd
000002f0: c024 b23b e223 6cbd 269f 383d 6045 513b
00000300: 001d 203c 6da0 a6bd 8735 07bd 6c20 88bc
00000310: 160c 343d e870 c23c f00d 0ebc 7bd0 ebbc
00000320: 27b1 af3d cd68 36bd 8513 abbd c64f 663d
00000330: f715 c8bb 0324 34bd 222a 1c3d 1b63 9b3d
00000340: 4ca3 053d 786b 043d f444 91bc d08e d53b
00000350: f894 3fbd a789 0f3d c879 ccbc 008a 3c3b
00000360: d0cc 123c 6625 703d 5dc9 9dbd 2053 1abc
00000370: 7420 c63c 8e3f 45bd 1a01 073d 4537 bdbd
00000380: 2779 84ba f5de 313d 4030 85bd 1d9c 3abd
00000390: 8aef 79bd 30f2 a83c 3abd 623d 21b6 aebd
000003a0: 499f 963d 008e 1eba 54fe a73c 63ad b73a
000003b0: 47dc 11bd f6f8 003d 767b 583d 6073 5c3b
000003c0: 00db a0bd b96a 29bd dcc1 873c 0ed4 09bd
000003d0: c04d a4bd 09f6 88bd 4561 4fbd 1903 bf3c
000003e0: f625 abbc 150e a0bd e06f 4d3d a8bc 07bc
000003f0: 11d1 a7bd 7e11 433d ca6a 673d 9e99 4b3d
0.005320825 0.038363535 -0.047559015 -0.100406446 -0.052078944 0.038422737 -0.08864113 -0.044532035
-0.025667937 -0.07400676 0.05034875 -0.056126483 -0.012695883 -0.07254566 -0.054949977 -0.028732788
-0.06489669 -0.055942643 -0.0021084177 0.0058218827 -0.012757063 -0.03139052 0.055436123 0.031447705
-0.029672641 -0.018497718 -0.0501935 -0.04152108 0.05195353 -0.11664243 0.063058786 0.051671535
0.009779932 0.04726566 -0.037277926 0.015871722 -0.028077347 -0.004797965 0.013344949 0.01909552
-0.06614729 0.028855931 0.020104457 -0.07659387 0.057767548 -0.0631533 -0.001499273 -0.073141195
0.023938676 -0.075359 0.06455494 0.021526737 -0.048673775 0.015131462 -0.11926972 -0.016683877
0.030341683 0.03361027 -0.006950408 -0.12155916 0.074548 -0.09390789 -0.049597286 -0.07421633
-0.02540731 0.0046005417 0.056804985 0.033804223 -0.004264806 0.008510793 0.042978954 0.052893855
-0.12286264 -0.12212227 -0.092871144 -0.06615558 0.0030445505 0.03854997 0.0714525 -0.07718454
-0.09183034 0.09584619 -0.113418676 0.08721911 0.068378665 -0.07199576 -0.026248429 -0.1248695
0.06720938 0.027247721 -0.04415468 -0.031532247 -0.09846965 -0.038171012 -0.024421051 -0.017511262
-0.0858542 -0.110178456 -0.070482135 -0.036282964 0.024057478 -0.10890105 -0.05705807 -0.056015488
0.018369412 -0.13052145 -0.036413033 -0.04346892 -0.002660931 -0.10537433 -0.024210393 -0.10250881
0.03170523 0.0044937036 0.009126115 -0.009461831 -0.022996174 0.031685248 -0.09201316 0.054595713
0.022692274 -0.10298885 0.058663268 -0.017606564 -0.053885955 0.011268503 0.051546328 -0.019901639
-0.03360029 0.009826221 -0.07223795 0.016914949 -0.00037647627 -0.07644456 0.030404584 -0.038660638
-0.07274878 0.013336105 0.019818313 -0.08575393 -0.019993566 -0.030196799 -0.081290215 -0.04058475
0.023718126 -0.053598814 0.072454505 0.0580463 0.006095083 -0.028936014 0.035353914 0.0039916337
0.047619574 -0.037482183 -0.04596214 -0.01885538 0.070057236 -0.08825862 0.06950671 0.020382226
-0.10271692 0.037150033 0.055492617 -0.07541745 0.054886527 -0.07150134 0.0022036142 0.064640276
-0.085509166 -0.037793607 -0.034600087 -0.06578315 0.03747491 0.0012410209 -0.07302568 0.030088
-0.0128200725 -0.010926056 0.025708193 0.02777654 -0.04180605 0.009442444 -0.083443336 0.08808956
-0.03814281 -0.0340527 -0.032251358 -0.084703036 0.00543651 -0.057651408 0.04507365 0.003193222
0.009772539 -0.081360675 -0.033010032 -0.016617022 0.04395684 0.023735479 -0.008670315 -0.028785935
0.08578711 -0.04453354 -0.083533324 0.05622842 -0.006106134 -0.043979656 0.03812612 0.07587262
0.032626435 0.032329053 -0.017733075 0.0065172687 -0.046772927 0.035043385 -0.024960414 0.0028768778
0.008959964 0.058629416 -0.077044226 -0.009419233 0.024185397 -0.048156314 0.032960035 -0.092390575
-0.0010106907 0.04342552 -0.065033436 -0.045559037 -0.061019458 0.020623296 0.05535624 -0.08530832
0.073546 -0.00060483813 0.020507015 0.0014013465 -0.035610463 0.031487428 0.052852117 0.0033638105
-0.07854271 -0.041361544 0.016571932 -0.033649497 -0.08022642 -0.066875525 -0.050629873 0.023316907
-0.020892125 -0.07815186 0.05015552 -0.008284725 -0.08194173 0.047624104 0.056498326 0.049707048

fc3.bias f4 [64]
00000000: fe3f f7bc 2fd3 bdbd b33e 7ebd 2a67 4c41
00000010: aed1 4b41 1c28 c3bd c450 4d41 6b16 1abd
00000020: 58fe 4741 864e e63d cde0 4c41 f4bf 4d41
00000030: 5694 4b41 fb7a cbbd fbcb 76bd 1ca4 4c41
00000040: ca2e 4c41 6ce3 4d41 9199 4b41 9e6a 4b41
00000050: 61f1 d1bd 88ac cebd 30b9 9f3d 6fc3 4b41
00000060: ff41 4b41 6508 babd d53c 4d41 137a 4a41
00000070: 1fdc 4b41 187f d2bd 1590 4c41 eedf 4a41
00000080: 7233 4d41 2dd4 4c41 8e96 4d41 d489 4c41
00000090: 5c53 3abd dca4 abbd 400c 4c41 01cd 4941
000000a0: 1606 4c41 f393 4c41 ef29 4d41 49f1 4d41
000000b0: 58f2 4b41 823c 4c41 892c 4c41 d817 4d41
000000c0: 2be8 4c41 c0d7 60bd 38a3 4c41 6cfb 4841
000000d0: 6e1d 4c41 a627 4d41 f4c8 4b41 c269 4a41
000000e0: d7b7 4c41 5ec8 4c41 42f2 4b41 ca4c f3bd
000000f0: 7871 f8bc 1ef1 4c41 8584 87bd df65 4c41
-0.030181881 -0.09268796 -0.062071513 12.775187 12.738691 -0.09529135 12.832218 -0.037619036
12.499596 0.11245446 12.804883 12.859364 12.723715 -0.09935566 -0.060253125 12.790066
12.761423 12.868023 12.724992 12.71353 -0.102511175 -0.100915015 0.077989936 12.735213
12.703612 -0.090836324 12.827352 12.654803 12.7412405 -0.102781475 12.785176 12.67967
12.82506 12.801801 12.8492565 12.783649 -0.045489654 -0.08381054 12.752991 12.61255
12.751486 12.78612 12.822738 12.8714075 12.746666 12.764772 12.760873 12.818321
12.806682 -0.054893255 12.789848 12.561382 12.757185 12.82218 12.736561 12.65082
12.794883 12.798918 12.746645 -0.11879881 -0.030327544 12.8088665 -0.06617073 12.774871

fc4.weight f4 [49, 64]
00000000: 425e 113e e452 eb3d 007d 8d3d d4eb f63f
00000010: 1423 0640 4831 b2bd 4383 fd3f bc17 eebd
00000020: fa06 f43f e660 1fbe 1230 c33f 7915 fd3f
00000030: ecae 0640 191b ecbd 20e7 abbb c3fe 0140
00000040: 4df2 f33f 4088 0140 054d 0240 d08e 0440
00000050: f2a0 a13d 6065 43bc 3d4a 063e 1b69 f43f
00000060: 81d0 da3f a235 91bd 64bd 0540 7793 0440
00000070: 63c6 d23f b8ad d7bc 2c38 0540 04f0 0440
00000080: 4f74 0540 e629 c93f 1026 0340 53a0 d53f
00000090: c488 8c3d f92f 943d c91e 0340 1c62 f13f
000000a0: 0528 f33f fa63 f03f 6f6f f73f 814a f43f
000000b0: 121e ff3f ef62 0440 8b87 f13f 2c92 0140
000000c0: 5f2a f63f e6ef 0cbd bc22 ed3f db9f 0240
000000d0: 2866 ff3f 5287 fa3f 4db1 0340 7f72 f93f
000000e0: a80e f33f 1bde fc3f 42e6 0540 0039 363d
000000f0: 4068 e43b c78a f93f 16dc 9cbd b44b f93f
00000100: f114 0eba fae9 943d b4fc 1abd 7dda 4c41
00000110: a601 4c41 0c01 31bb 7ccc 4d41 30f2 48bd
00000120: 10cf 4a41 7236 1b3e fcad 4b41 9863 4c41
00000130: c09b 4e41 f797 933d 8ecb 933d b07f 4f41
00000140: 250f 4c41 ca8d 4d41 75c9 4d41 03b5 4d41
00000150: 4018 543b 8413 493d 15b4 11bd dc65 4f41
00000160: bdb2 4b41 fe8f 3b3d 3ecc 4e41 96f0 4d41
00000170: 5c7e 4941 168b f0bd 996e 4f41 07ca 4b41
00000180: 0e0a 4c41 42d1 4a41 1e59 4e41 f6c5 4b41
00000190: 3a88 d73d 6a4b c2ba cb35 4e41 6775 4b41
000001a0: ba18 4f41 d67c 4c41 85f2 4c41 a546 4f41
000001b0: f844 4c41 45b9 4d41 c824 4d41 eee4 4d41
000001c0: 546b 4c41 e4d1 7abd a857 4d41 b3d4 4d41
000001d0: 6626 4e41 276b 4d41 0f99 4e41 98b6 4e41
000001e0: e4ce 4b41 8462 4d41 929c 4c41 febf 9f3d
000001f0: 28e4 3c3d 3418 4e41 2cbc 3e3d f0a3 4b41
00000200: b562 8f3d 2656 84bd 58af 2fbd 39fc 0141
00000210: 164a 0241 5ca2 97bd 9698 0241 168e f8bd
00000220: d09b fc40 359a 63bd 775d ff40 729a 0241
00000230: 7b2d 0441 24c3 e5bd d0ae 7d3c 0c9a 0341
00000240: 1129 0341 f826 0441 8050 0441 15b1 0141
00000250: 1e9e edbd bade 83bd 28ab a83d fe09 0441
00000260: d1cb 0041 606b 463c d970 0341 a34c 0141
00000270: 1cc2 0141 5ce0 b03d aa3f 0241 573c ff40
00000280: 5b39 0441 6107 ff40 9c87 0241 4e4f fd40
00000290: c003 17bd 11b3 cb3d 9f4d 0341 9c62 fd40
000002a0: 06bf 0441 d397 0241 4d6e 0141 73cc 0441
000002b0: 5eea 0341 6d3f 0341 f479 0441 a195 0341
000002c0: 4fba 0241 90ef acbc 9023 0341 1e8e 0141
000002d0: 46a8 fe40 831e 0541 ce43 0241 6ec7 0141
000002e0: 0be8 0341 fa07 0441 a8fe 0141 a4eb 853d
000002f0: 6c2e 60bd 13c0 0441 9852 613d 87b7 0341
00000300: 6def 283d 3896 0abd c8f5 a8bc a925 1041
00000310: de8b 1241 bec7 c13b c867 0f41 6289 ddbd
00000320: f5d2 0e41 5922 6a3d 2e04 1141 e694 1141
00000330: ebf3 1141 c122 b4bd 567a 8bbd a7a7 0f41
00000340: ed9e 1041 d4b7 1241 540e 1141 2d67 1141
00000350: caf0 a33d 8a9a a53d f164 95bc 71c5 1041
00000360: c8fa 1241 ba31 643c 8192 0f41 aaed 1141
00000370: a7cd 1041 40d0 57bd 0dd2 1041 7a02 1141
00000380: 9658 1241 8a6b 1141 a8fc 1041 8291 1041
00000390: 9478 58bd 9d84 db3d ff05 1041 7f98 1141
000003a0: cf2a 1241 9e29 1141 1fcf 1241 904c 0f41
000003b0: 9359 0f41 e63b 1241 9477 1141 adcc 1241
000003c0: 578b 1041 906b c23c 2467 1141 fda7 1041
000003d0: c783 1241 5791 1241 3da8 1241 fe68 1141
000003e0: 9718 1141 8425 1141 6b6b 0f41 c0f8 3dbd
000003f0: f0b3 943d fc34 1241 885c c8bd a574 1241
0.14196113 0.114904195 0.069086075 1.9290719 2.095891 -0.08700806 1.9805683 -0.11625621
1.9064629 -0.15564308 1.5249045 1.9772178 2.1044264 -0.11528606 -0.005246058 2.0311744
1.9058319 2.023941 2.035951 2.0712166 0.07892026 -0.011926025 0.13114257 1.9094576
1.709488 -0.07090308 2.0896845 2.0715005 1.6466793 -0.026327953 2.0815535 2.0771494
2.085224 1.5715911 2.0491982 1.6689552 0.068620235 0.072357126 2.048754 1.8858066
1.8996588 1.878051 1.9330882 1.9085237 1.9931052 2.0685384 1.886949 2.0245466
1.9231681 -0.034408472 1.8526225 2.0410068 1.9953051 1.9572546 2.0576966 1.9488066
1.8988848 1.9755281 2.0921788 0.044487953 0.0069704354 1.9495476 -0.076591656 1.9476228
-0.00054199906 0.0727119 -0.037838653 12.803342 12.750402 -0.002700868 12.862423 -0.049059093
12.675552 0.15157488 12.729977 12.774315 12.913025 0.07206719 0.07216559 12.968674
12.753697 12.847116 12.861684 12.856692 0.0032363087 0.049090877 -0.03557213 12.962368
12.731137 0.04579162 12.924864 12.871237 12.593349 -0.117452785 12.964501 12.736823
12.752455 12.676088 12.896757 12.73583 0.1052403 -0.00148235 12.888133 12.716163
12.943537 12.780478 12.809209 12.954747 12.766838 12.857732 12.82148 12.868391
12.776203 -0.061235324 12.8339 12.8644285 12.884375 12.83866 12.912368 12.919579
12.73801 12.836552 12.788225 0.078002915 0.046116024 12.880909 0.046566173 12.727524
0.07001249 -0.06461744 -0.04289183 8.124078 8.143087 -0.074040145 8.162252 -0.12136476
7.89402 -0.055566985 7.9801593 8.162706 8.261104 -0.11218861 0.015483573 8.225109
8.197526 8.259514 8.269653 8.105733 -0.11602424 -0.06438966 0.082357705 8.2524395
8.04976 0.012110561 8.215051 8.08121 8.10989 0.08636543 8.140543 7.9761157
8.264003 7.9696507 8.158108 7.9159307 -0.03686881 0.099462636 8.20645 7.9182873
8.296637 8.162066 8.089429 8.299914 8.244719 8.202985 8.279774 8.2240305
8.1704855 -0.021110326 8.196182 8.097197 7.958041 8.319949 8.141554 8.111189
8.244151 8.251947 8.124672 0.065390855 -0.05473177 8.296893 0.05501041 8.2323065
0.04124396 -0.033834666 -0.02062501 9.009194 9.159147 0.0059137037 8.962837 -0.10817219
8.926503 0.057161663 9.06352 9.098852 9.12205 -0.08795691 -0.06810443 8.978431
9.0388 9.16988 9.065998 9.087689 0.08004911 0.080861166 -0.01823661 9.048203
9.186226 0.013927871 8.973268 9.120523 9.050208 -0.052688837 9.051282 9.063105
9.146627 9.088755 9.061684 9.035524 -0.052849367 0.10718653 9.001464 9.0997305
9.135451 9.07266 9.175567 8.956192 8.959369 9.139624 9.091694 9.17497
9.0340185 0.02373293 9.087681 9.041013 9.157172 9.160483 9.166074 9.088133
9.068503 9.071659 8.963725 -0.046379805 0.07260883 9.137936 -0.09783274 9.153478

fc4.bias f4 [49]
00000000: e79f ab3f 71ef 3141 e313 1341 8627 0341
00000010: 6000 1241 ac0b 5d40 24b2 0141 ff1f 6540
00000020: 621e 2f41 f187 ab40 50bf e840 aba5 2541
00000030: 05c4 9a40 0834 d5bd e0d9 2e41 c28f 0641
00000040: 2fd2 a740 41b5 7d40 1ff4 1a41 9ed4 e7bd
00000050: 760a b73d 123d b240 94e5 2e41 85f6 3341
00000060: b46d d340 0078 a838 da0a adbd ec45 603d
00000070: c3be b640 3490 b240 73db 2741 fa5d 9a3d
00000080: 6091 953c a097 133c f887 e3bc f641 0d41
00000090: 9976 8c40 9820 25bd f004 09bc b005 afbc
000000a0: 8892 c53c c69f a8bd 5c75 1e40 3471 b83d
000000b0: 3835 d53c 0882 6abd a4d5 373d 0afa e23d
000000c0: 30de 863d
1.3408173 11.120957 9.192355 8.197149 9.125092 3.4538374 8.105991 3.580078
10.944918 5.3603444 7.2733536 10.352946 4.836428 -0.10410315 10.928192 8.410097
5.244407 3.9641879 9.6846 -0.113198504 0.08937542 5.569955 10.931049 11.247685
6.6071415 8.033216e-05 -0.084493354 0.054754183 5.7107863 5.580103 10.491076 0.07537456
0.018257797 0.009008318 -0.027774796 8.828604 4.3894773 -0.040314287 -0.008362994 -0.021365017
0.024117723 -0.08233599 2.475913 0.09005967 0.026026353 -0.057252914 0.044881478 0.110828474
0.06585348
