trike2/models/DQN_Agent.pt (torch, 333080 bytes, 8 tensors)

fc1.weight f4 [256, 148]
000000 b8 1b 67 41 b1 31 5b 41 5f 6e 58 41 e0 26 61 41
       14.444267 13.699632 13.526946 14.071991
000010 f4 3a 56 41 ce e4 41 41 84 94 6f 41 44 b3 5e 41
       13.389393 12.1183605 14.973759 13.918766
000020 c1 8e 50 41 b6 70 60 41 84 3e 53 41 d3 f9 68 41
       13.034852 14.027517 13.202763 14.560992
000030 c3 16 1a 41 e8 c2 79 bd 07 d7 5c 41 38 66 66 41
       9.630557 -0.060976893 13.802497 14.399956
000040 5b 66 5e 41 6d 51 7a 41 10 3c 57 41 db d6 47 bd
       13.899989 15.644879 13.452164 -0.048788887
000050 a4 87 6e bd 72 c9 7c 41 aa 2b 53 41 d9 4c 73 41
       -0.058234826 15.799181 13.19816 15.206262
000060 3c c7 65 41 0e a0 47 3d 3e 2f af bc c0 cc e2 ba
       14.361141 0.048736624 -0.021384832 -0.0017303452
000070 7d b2 78 41 ef f0 50 41 33 a5 4b 41 d4 da 85 bd
       15.543576 13.058822 12.727832 -0.06535879
000080 b4 d2 bd 3c 7e 8a c2 bc c0 46 8b bd c2 7b 5f 41
       0.02317176 -0.023747679 -0.06800604 13.967714
000090 dd c8 35 41 e2 77 59 3d 24 89 ac 3c 38 d4 42 3c
       11.361539 0.053092845 0.021061487 0.011891417
0000a0 3a b6 46 3d 8c d6 ee bc 4c 3f 5c 41 dc 09 bf 3c
       0.04851363 -0.029155038 13.765453 0.023320131
0000b0 c0 c9 fa bb ba 75 62 bd 41 5f a4 bd a8 1f 88 bd
       -0.007653445 -0.055288054 -0.08025981 -0.06646663
0000c0 20 01 3d 3b f1 ed 69 41 a6 ea 26 41 7d 81 3b 41
       0.0028839782 14.620591 10.432287 11.719113
0000d0 0c 0c 66 41 d9 d3 56 41 06 7d 2c 41 b8 5e 63 41
       14.377941 13.426721 10.780523 14.210625
0000e0 62 aa 4f 41 be 0c 61 41 4c 7b 51 41 47 d1 53 41
       12.979097 14.065611 13.092602 13.238593
0000f0 ca 82 6f 41 e5 7e 3c 41 f0 b9 9b bb e6 b5 4c 41
       14.969431 11.78098 -0.00475239 12.794409
000100 d4 d1 64 41 9b c3 61 41 a4 a9 6c 41 81 6f 55 41
       14.301228 14.110255 14.791416 13.339723
000110 8e 2e dc bc 40 16 90 ba 97 66 76 41 e0 6a 4c 41
       -0.026877668 -0.0010992959 15.400046 12.776093
000120 36 fb 5c 41 ea 01 41 41 22 a0 ec bc 9c d0 37 bd
       13.811331 12.062967 -0.028884951 -0.04487668
000130 cc 90 0d 3d db 6e 73 41 57 65 53 41 34 8b 54 41
       0.034561917 15.214564 13.212241 13.283985
000140 f5 6d a3 bd 50 68 92 bb 3a 2d 0d bd 40 55 87 3b
       -0.07979957 -0.0044680014 -0.03446696 0.0041300356
000150 e4 c6 5c 41 c2 67 24 41 40 0d b5 3a 79 e7 39 bd
       13.798557 10.2753315 0.0013813153 -0.045386765
000160 7c 08 36 bd 28 ae 7a 3c 41 ea 0e bd e9 5c 54 41
       -0.044441685 0.015300311 -0.03489137 13.272683
000170 0a cc 4d 3d d2 98 44 3d 00 36 dc ba c0 da 01 3b
       0.050243415 0.047997303 -0.0016800761 0.0019814223
000180 d0 49 89 bb fa 99 6a 3d 52 da 2c 41 8f 95 22 41
       -0.0041897073 0.05727575 10.803301 10.161513
000190 20 cf 48 41 1d 80 50 41 41 d7 3f 41 aa fb 1e 41
       12.550568 13.031278 11.990052 9.936441
0001a0 f8 59 2c 41 a9 9e 19 41 94 e0 32 41 b2 82 43 41
       10.771965 9.601235 11.179829 12.219408
0001b0 87 cd 39 41 8c 2f 33 41 fd 21 bf 40 4d 25 83 3d
       11.612678 11.199108 5.972899 0.06403599
0001c0 23 60 33 41 42 35 42 41 ec 6b 3c 41 94 0c 34 41
       11.210971 12.138002 11.776348 11.253071
0001d0 27 73 3a 41 bc 3e ca 3c f6 10 7b 3d c0 b0 30 41
       11.653113 0.024688117 0.061295472 11.043152
0001e0 07 38 38 41 1b f7 41 41 e0 45 3f 41 80 bc 7d ba
       11.513679 12.1228285 11.954559 -0.0009679273
0001f0 64 81 9e bd f4 17 81 3c dd 3d 2f 41 77 0e 4b 41
       -0.07739523 0.015758492 10.952603 12.691031
000200 53 26 4c 41 2c 49 fc bc 4c de 0f 3d 40 a7 89 3b
       12.7593565 -0.03079661 0.03512411 0.004200846
000210 b0 25 1e 3d 98 22 3c 41 36 fc 0e 41 aa 55 45 3d
       0.03861016 11.758446 8.936575 0.0481774
000220 9e 7b 76 bd 10 3b b6 3c c0 dc 4d bb 05 25 5f bd
       -0.060176484 0.02224496 -0.0031412095 -0.054478664
000230 49 63 3e 41 da 96 7d 3d 7b 78 1c bd 60 0c 3b bb
       11.89924 0.06191144 -0.038200837 -0.0028541312
000240 75 5a 3b bd 40 a3 a5 bd c0 23 45 bb 4c ba f6 bc
       -0.045740563 -0.08087778 -0.0030081123 -0.03011813
000250 5f 7a 68 41 97 37 56 41 7e 84 54 41 1e 7c 64 41
       14.529876 13.388572 13.282347 14.280302
000260 bc 22 5c 41 b6 85 45 41 11 a4 6c 41 97 bf 5f 41
       13.75848 12.345144 14.790055 13.984275
000270 bc 9d 54 41 03 90 5e 41 87 c0 52 41 45 7f 66 41
       13.288509 13.910159 13.172004 14.406072
000280 e4 49 1c 41 8a 09 00 bd 03 80 59 41 80 1a 67 41
       9.76804 -0.031259097 13.593753 14.44397
000290 16 85 5f 41 97 a7 75 41 88 18 56 41 30 78 0c 3c
       13.969992 15.3534155 13.380989 0.008573577
0002a0 ec 25 94 bc 3e 56 7c 41 c2 ad 54 41 cf 45 73 41
       -0.018084489 15.771055 13.292421 15.204543
0002b0 73 6c 68 41 3e 22 75 3d 58 91 cb 3c 96 b4 81 bd
       14.526477 0.05984711 0.024849579 -0.06333272
0002c0 4e 38 76 41 07 25 51 41 65 c7 50 41 33 eb 19 bd
       15.388746 13.07154 13.04868 -0.03757782
0002d0 f4 06 15 3d 06 fe 1a 3d 28 a4 0f 3d 00 90 63 41
       0.036383584 0.037839912 0.03506866 14.222656
0002e0 90 1e 39 41 b8 48 77 bc 24 b6 18 bd c2 d4 08 bd
       11.569962 -0.015093021 -0.037283078 -0.033406027
0002f0 f7 0f a5 bd 40 68 e2 3b 21 d7 5b 41 f0 28 07 3c
       -0.08059686 0.0069094 13.740022 0.008249506
000300 c4 45 26 3d 30 89 4d bd 90 b8 20 3d 58 7d a2 bd
       0.040593877 -0.05017966 0.039238513 -0.07934064
000310 dc 1e a7 bd 71 e4 66 41 01 df 26 41 ba be 36 41
       -0.08160183 14.430772 10.429444 11.421564
000320 2b 89 61 41 5e 1e 59 41 b8 6a 2c 41 92 fb 64 41
       14.095988 13.569914 10.776054 14.311419
000330 82 f9 4f 41 87 2f 5d 41 95 c1 51 41 df 27 51 41
       12.998415 13.824103 13.109761 13.072234
000340 98 06 6e 41 12 8a 3c 41 9e 2f 04 3d 7c 78 4d 41
       14.87661 11.783709 0.032271974 12.841915
000350 4a 26 63 41 12 7e 63 41 c9 bd 70 41 b0 cf 55 41
       14.196848 14.218279 15.046334 13.363205
000360 f4 1d 81 3c 22 be 71 3d 21 2c 79 41 97 f0 4b 41
       0.015761353 0.059019215 15.573274 12.746238
000370 b8 7b 5d 41 74 22 40 41 f0 15 53 bc 00 bd 4d bc
       13.842705 12.008411 -0.012883648 -0.012557268
000380 c1 07 16 bd d2 77 75 41 55 39 55 41 aa 2a 53 41
       -0.03662849 15.341753 13.326497 13.197916
000390 a5 3e 3a bd 1a 8f 73 bd 74 ed ac 3c 40 0e 87 bd
       -0.0454699 -0.059462644 0.02110932 -0.06594515
0003a0 b3 8e 59 41 3f 08 26 41 60 8c 28 3c 10 3c c9 bb
       13.597339 10.377013 0.010287374 -0.006141193
0003b0 ca c6 44 3d 44 f9 d2 3c f0 67 02 3d 44 e0 55 41
       0.048041143 0.025753625 0.031837404 13.367252
0003c0 d8 6e a2 bd 80 3c a2 ba d2 8b 5c 3d 00 8f 11 bc
       -0.07931298 -0.001237765 0.05384428 -0.0088841915
0003d0 94 24 6b bd 80 9f 91 bc 48 0c 2a 41 b2 45 1e 41
       -0.05740793 -0.01777625 10.627998 9.892015
0003e0 cc 0a 45 41 1a 76 4d 41 7e 77 41 41 12 34 23 41
       12.315136 12.841333 12.091673 10.2002125
0003f0 af 50 2a 41 fc f4 1b 41 0d b2 31 41 96 76 45 41
       10.644698 9.747311 11.105969 12.341452

fc1.bias f4 [256]
000000 dc a3 86 41 23 94 86 41 4b 80 84 41 69 38 82 41
       16.83001 16.822332 16.562643 16.277544
000010 d6 0e b6 be 7b 0c 82 41 11 33 87 41 4e 4a 87 41
       -0.35558194 16.256094 16.899935 16.911282
000020 53 a6 87 41 df 0c 87 41 26 18 87 41 4d 5c 87 41
       16.956213 16.881285 16.886791 16.920069
000030 2f 4c 87 41 f7 88 08 c0 db 0a 87 41 0f 50 87 41
       16.912199 -2.1333597 16.8803 16.914091
000040 78 94 86 41 76 fd 86 41 b8 3f 87 41 c8 e2 81 41
       16.822495 16.87376 16.906113 16.235733
000050 c7 40 06 c0 b7 46 87 41 09 18 f8 bf 12 02 86 41
       -2.0977037 16.909529 -1.9382335 16.75101
000060 25 69 0c c0 26 f2 85 41 ca 21 85 41 ef 11 87 41
       -2.1939175 16.743237 16.641499 16.883757
000070 8c 0a 87 41 86 a1 85 41 30 19 87 41 1d 86 85 41
       16.88015 16.703869 16.887299 16.690485
000080 01 68 87 41 bf b0 04 c0 ee 54 86 41 60 36 85 41
       16.925783 -2.0732877 16.79147 16.65155
000090 e5 17 87 41 a3 3f 87 41 b2 1b 87 41 2d d6 85 41
       16.886667 16.906073 16.888523 16.729578
0000a0 c2 08 87 41 17 5c 87 41 5b a6 86 41 b7 fa 14 c0
       16.879276 16.919966 16.831228 -2.3278024
0000b0 3b ce 01 c0 89 06 85 41 1b c3 86 41 74 50 87 41
       -2.0282123 16.628191 16.845266 16.914284
0000c0 c4 75 87 41 27 6c 87 41 c7 3a 85 41 cb c4 85 41
       16.932503 16.927809 16.6537 16.72109
0000d0 a8 eb 05 c0 ed ea 86 41 9f 1e 87 41 f7 5a 87 41
       -2.0925083 16.86471 16.889952 16.919416
0000e0 fb 86 87 41 22 f1 86 41 78 d3 85 41 09 d9 86 41
       16.940908 16.86774 16.728256 16.855974
0000f0 3a f4 85 41 f3 46 85 41 7b 25 85 41 39 ac 02 c0
       16.744251 16.659643 16.643301 -2.0417616
000100 de 7a 87 41 be 3f 87 41 de 15 05 c0 c6 02 85 41
       16.934994 16.906124 -2.0794597 16.626354
000110 f9 66 87 41 4a e6 84 41 0a 1f 87 41 fa 86 87 41
       16.92528 16.612446 16.890156 16.940907
000120 00 6a fd bf ce 87 86 41 b9 8e 04 c0 ab 18 87 41
       -1.9797974 16.81631 -2.071211 16.887045
000130 5c 58 85 41 9d f2 84 41 20 60 87 41 13 10 87 41
       16.668144 16.618464 16.921936 16.882849
000140 fc 1b 87 41 e1 2d 87 41 f8 20 85 41 ae 64 87 41
       16.888664 16.897402 16.641098 16.92416
000150 28 ae 87 41 8b 5c 87 41 71 76 87 41 7b 90 87 41
       16.960037 16.920187 16.932833 16.945547
000160 89 09 87 41 20 54 87 41 c5 e8 a1 be 10 f7 86 41
       16.879656 16.916077 -0.31622902 16.870636
000170 fb 16 87 41 83 c7 84 41 f0 2b 87 41 96 71 87 41
       16.88622 16.597418 16.896454 16.930462
000180 77 c8 85 41 61 5b 87 41 98 59 87 41 67 03 10 c0
       16.722883 16.919619 16.918747 -2.2502077
000190 28 39 87 41 74 0c 87 41 29 d0 86 41 da de 85 41
       16.902908 16.88108 16.85164 16.733814
0001a0 c0 68 87 41 ac ec 01 c0 b8 ac 01 c0 e1 f6 86 41
       16.926147 -2.0300703 -2.026167 16.870546
0001b0 c4 5d eb bf 38 d4 86 41 33 7f 86 41 4a 4f 87 41
       -1.838799 16.853622 16.812109 16.913715
0001c0 19 68 02 c0 31 1e 87 41 b1 0a 87 41 66 f5 84 41
       -2.0376036 16.889742 16.88022 16.619823
0001d0 38 64 85 41 64 33 87 41 79 a8 83 41 58 01 85 41
       16.673935 16.900093 16.457262 16.625656
0001e0 0c ff 84 41 7a b5 86 41 e7 e7 86 41 c4 e9 85 41
       16.624535 16.838612 16.863234 16.739143
0001f0 1f 45 85 41 a8 42 87 41 ff cb 86 41 cc 30 fd bf
       16.65875 16.907547 16.849607 -1.9780517
000200 dc 21 87 41 6e 08 87 41 d7 cc fd bf 65 c0 84 41
       16.891533 16.879116 -1.9828137 16.593943
000210 34 9e 86 41 2d 43 87 41 86 bf 86 41 b6 28 86 41
       16.827248 16.9078 16.843517 16.769878
000220 aa 77 87 41 06 d1 86 41 9e 7d 87 41 5d 8b 03 c0
       16.93343 16.852062 16.936337 -2.055381
000230 a6 9a 85 41 a4 8e 86 41 5f 41 87 41 d3 92 86 41
       16.700512 16.819649 16.90692 16.821692
000240 fd 38 87 41 d6 69 86 41 2b dc 11 c0 35 28 87 41
       16.902826 16.801678 -2.279063 16.894632
000250 29 15 85 41 01 11 87 41 ef 87 84 41 b7 ef 86 41
       16.635332 16.883303 16.566374 16.867048
000260 c9 5b 87 41 8f 1e 85 41 3c 2f 85 41 74 f2 84 41
       16.919817 16.639921 16.648064 16.618385
000270 3d ec 86 41 74 ea 04 c0 92 62 85 41 39 8f 86 41
       16.86535 -2.07681 16.67313 16.819933
000280 d7 de 86 41 55 82 85 41 59 79 85 41 73 93 87 41
       16.858809 16.688639 16.684252 16.946997
000290 0e 3d 87 41 2d 3d 87 41 bb 82 87 41 8a f5 85 41
       16.904812 16.904871 16.938833 16.744892
0002a0 c0 0f 87 41 45 c7 86 41 73 2e 87 41 be 2e 85 41
       16.88269 16.8473 16.89768 16.647823
0002b0 e8 5e 85 41 1a 2c 87 41 91 37 86 41 5c 4f 87 41
       16.67134 16.896534 16.777132 16.91375
0002c0 5b 2e 87 41 43 b3 04 c0 a6 36 86 41 57 1f 87 41
       16.897635 -2.0734413 16.776684 16.890303
0002d0 73 30 85 41 ba e5 86 41 45 f6 86 41 6c ee 86 41
       16.648657 16.862171 16.870249 16.866417
0002e0 82 8f 87 41 45 92 85 41 9b ec 84 41 13 59 03 c0
       16.945072 16.69642 16.61553 -2.0523117
0002f0 8d 3d 87 41 39 1d 87 41 d6 fd 86 41 9c 3f 85 41
       16.905054 16.889269 16.873943 16.65606
000300 ba 3d 85 41 f2 08 87 41 29 63 87 41 32 95 85 41
       16.65514 16.879368 16.923418 16.69785
000310 a0 8a 87 41 61 69 87 41 9f a5 86 41 a2 43 85 41
       16.942688 16.926455 16.83087 16.658024
000320 3d f0 86 41 e1 e3 86 41 89 a0 85 41 60 de fa bf
       16.867304 16.861269 16.703386 -1.9599113
000330 49 1a 87 41 6f 87 87 41 c0 bf 0a c0 c6 5d 87 41
       16.887835 16.94113 -2.1679535 16.920788
000340 3a b4 ff bf a2 ea 86 41 fb 78 f7 bf e2 da 86 41
       -1.9976876 16.864567 -1.9333795 16.856876
000350 92 d8 86 41 8f 18 87 41 ce 84 86 41 a7 64 87 41
       16.855747 16.886992 16.814846 16.924147
000360 2c ee 86 41 93 fc 85 41 3f 71 87 41 55 2d 87 41
       16.866295 16.748327 16.930296 16.897135
000370 ad 4a 87 41 83 29 87 41 72 0f 87 41 1c 3a 85 41
       16.911463 16.89527 16.882542 16.653374
000380 19 d7 04 c0 9e 02 85 41 73 05 09 c0 fc 9f 86 41
       -2.0756285 16.626278 -2.1409576 16.828117
000390 75 62 87 41 5e 7d 05 c0 7d 4e 87 41 35 0d 87 41
       16.923075 -2.0857768 16.913324 16.881449
0003a0 d3 58 03 c0 b2 53 87 41 c2 51 02 c0 99 08 87 41
       -2.0522964 16.915867 -2.03624 16.879198
0003b0 dd 38 87 41 d0 38 87 41 4b 5c 87 41 a2 31 86 41
       16.902765 16.90274 16.920065 16.774235
0003c0 c2 5f 87 41 e8 1d 88 41 47 ac 87 41 02 13 87 41
       16.921757 17.014603 16.95912 16.884281
0003d0 22 22 87 41 80 19 87 41 c4 1a 05 c0 2a 02 87 41
       16.891666 16.887451 -2.0797586 16.876057
0003e0 21 44 87 41 3d 1b 87 41 6c cc 81 41 1e e4 86 41
       16.908266 16.8883 16.224815 16.861385
0003f0 c8 e6 85 41 c4 8a 04 c0 ae 4f ff bf 9f f1 86 41
       16.737686 -2.0709696 -1.9946191 16.86798

fc2.weight f4 [128, 256]
000000 82 a4 4d 3d 18 ab 4f 3c 20 46 7b bd cc 97 b2 bc
       0.050205715 0.012675069 -0.061346173 -0.021800898
000010 60 55 5f bc 40 7d 2d bc 66 1a 09 3d 3a 10 2e bd
       -0.013631195 -0.010588944 0.03347244 -0.042495944
000020 d4 48 3a bd b0 b0 16 3d 99 1c b2 bc 7c f7 62 bd
       -0.04547961 0.036789596 -0.021742152 -0.0554118
000030 79 57 1f bd 5c a4 cd bb bf 8e 54 bc be b7 68 3d
       -0.03890178 -0.0062756967 -0.012973486 0.056815855
000040 a4 01 3d bc 80 73 40 bd a8 7d 30 bb 58 fc 31 3c
       -0.011536036 -0.04698515 -0.0026930366 0.010863386
000050 11 e8 15 bd d5 b0 27 bd c7 bb 66 3d f8 c1 92 bc
       -0.03659827 -0.040940125 0.056331422 -0.017914757
000060 64 cb 99 bd 76 13 6f 3d a2 12 a1 3b 24 b3 6b bb
       -0.07509497 0.05836817 0.0049155513 -0.003596493
000070 64 84 d3 3c 3f c3 83 bd 60 42 fd 3c 40 8b a0 3c
       0.025819965 -0.064337246 0.03091544 0.01959765
000080 f5 17 d6 bc 0b 4a 5b bb be eb 1b bd 74 a0 3e 3d
       -0.02613447 -0.003346088 -0.03806662 0.04653974
000090 da 14 4f 3d 0d 93 bf bc fd d5 29 bd f0 f4 96 bc
       0.050556995 -0.023385549 -0.04146384 -0.018427342
0000a0 32 22 3f bd d3 c3 89 bd 6f ed 16 3d a2 f2 48 bd
       -0.04666347 -0.06726804 0.036847528 -0.049059518
0000b0 4d 78 33 bd bc 76 c6 3c 99 3f f0 bc 89 89 65 bd
       -0.0438159 0.024226539 -0.0293272 -0.056039367
0000c0 47 6d b7 3c 8c 53 fb bc eb ba d0 bb 91 fe 72 bd
       0.022390975 -0.030679487 -0.0063699386 -0.059324805
0000d0 46 18 be bc 28 1d 83 bc ac 4a 1e bd 3e d8 27 3d
       -0.023204934 -0.016005114 -0.03864543 0.04097771
0000e0 c2 3e 0d bd 5e 6a 08 bd d2 9f a8 bc 94 50 0c 3d
       -0.03448368 -0.033304565 -0.02058402 0.034256533
0000f0 70 c3 8e bc 41 44 03 bd 71 72 09 bd 0a d6 bb 3c
       -0.017427176 -0.032047514 -0.033556405 0.02292921
000100 ab 80 33 bd 8c 22 87 3c 09 16 68 3c 31 f3 14 3c
       -0.04382388 0.016495965 0.01416541 0.0090911845
000110 a2 65 00 bd b2 62 0e 3d be 49 7c 3c 88 d0 5a bd
       -0.031346925 0.034762092 0.015398441 -0.053421527
000120 50 87 dd bc 20 7f d1 3c 1a da 16 3c 32 3f 0f 3d
       -0.027042061 0.025573313 0.009207273 0.034972377
000130 39 08 22 3c da 62 4e bd ac b1 93 bd 60 8d 7f bd
       0.009889656 -0.05038724 -0.072116226 -0.062390685
000140 84 6a a0 bd 1e f2 18 3d 8f 9b dc 3c a6 bf fc bc
       -0.07832816 0.037340276 0.026929645 -0.030853104
000150 10 27 0e 3c 80 be 10 bd 4a 06 8a bd d4 45 69 bc
       0.008676305 -0.035337925 -0.06739481 -0.01423784
000160 e8 b4 09 3c 52 f4 63 bd 4a e1 3a bd d0 63 45 bd
       0.008404948 -0.055652924 -0.04562501 -0.04819089
000170 a0 39 92 bd c5 06 ba ba f0 3a 99 3b 7b a5 fa 3c
       -0.07139897 -0.0014192691 0.0046762154 0.030596485
000180 46 21 8b bc 1f bd 76 bc 1d 3d 59 bd f7 3c 15 bc
       -0.01698364 -0.015059738 -0.053036798 -0.009108773
000190 6d bd be 3c d1 53 1f bd bb 00 71 bd 9a 15 9f bc
       0.023283685 -0.038898293 -0.058838587 -0.01941948
0001a0 ec a1 dc bb 28 31 bf bc a2 be 05 bd 52 75 50 bd
       -0.00673317 -0.02333887 -0.032652505 -0.050893135
0001b0 67 20 f3 bc 78 85 6e 3c 88 33 8b 3c a0 e7 23 bd
       -0.029678537 0.014558189 0.016992345 -0.040015817
0001c0 c9 f1 d4 3c a4 54 96 bd 8b 2b 5f ba ba 77 e5 bc
       0.025994198 -0.07340363 -0.00085132633 -0.028011192
0001d0 0a e0 c2 3c 1f 6f 47 bd 8b 3c 3a bc 32 1f 67 bd
       0.02378847 -0.048689958 -0.011366974 -0.056426235
0001e0 a4 f1 cd bc 74 0c f4 3c f9 bf bd 3c 84 45 7c bd
       -0.025139637 0.029791094 0.023162829 -0.061589733
0001f0 a8 30 3d bd 78 fe 53 bd f5 70 49 bc e0 64 19 3b
       -0.04618898 -0.051756352 -0.012294997 0.0023406073
000200 99 1e 86 3b 82 d9 4e bd 9d 70 f0 3c 48 c3 83 bd
       0.004093003 -0.0505004 0.029350573 -0.06433731
000210 d0 56 83 3b 23 43 85 bd 53 f6 d7 3c 20 dd b5 bb
       0.0040081516 -0.06506946 0.026362574 -0.005550042
000220 b8 53 71 bd 21 3b 0e 3d 94 f5 0e bd 88 a0 2a bc
       -0.05891773 0.03472436 -0.03490217 -0.01041425
000230 c4 2b 38 bd 6f 52 25 bb 11 05 56 bd 25 c5 2f 3d
       -0.044963613 -0.0025226136 -0.052250925 0.04291262
000240 fe 87 13 bd 7f 94 5e 3a b4 43 7f 3c 36 a0 0b 3b
       -0.036018364 0.00084907556 0.0155801065 0.002130521
000250 3c 93 94 3c 47 ba 3d 3d e9 76 d8 3c fa f7 76 bd
       0.018136613 0.046320226 0.026423888 -0.060295083
000260 c9 bf eb 3c ba 65 37 bd dd e5 ab 3c a0 69 91 bc
       0.028777974 -0.04477475 0.02098363 -0.017750561
000270 99 f1 29 3d c3 ab 11 bd bb 62 b2 3b 4c 8a cd 3c
       0.04149017 -0.035564195 0.0054438985 0.02509036
000280 24 5e 51 3d 68 ce 2a 3d 68 b5 46 bc 38 95 5b 3c
       0.05111517 0.04170075 -0.012128212 0.013402276
000290 79 cc 24 3d d2 fe da bc c0 3c 3c 3b 4d 30 4f bd
       0.040234063 -0.026732836 0.0028722733 -0.050583173
0002a0 54 b8 a5 bc ec 41 63 bc 10 a1 85 bd 79 6b b7 bc
       -0.020229496 -0.0138706975 -0.06524861 -0.022390114
0002b0 17 4c ed bc c0 50 06 bc 5d 83 8f 3c ea 30 5b 3c
       -0.028966947 -0.008197963 0.017518694 0.013378361
0002c0 35 d4 fe bc a2 4c 58 bb 0e e9 45 3c a0 a3 25 3d
       -0.031107048 -0.003300466 0.01207949 0.040439248
0002d0 27 b4 1b bd bc 0e 66 bd 16 5c a9 bb be fc 21 3d
       -0.038013604 -0.056166396 -0.005168448 0.039547674
0002e0 47 01 f1 bc 75 b8 b2 3a 2d 86 65 bc 22 93 f6 bc
       -0.029419554 0.0013635295 -0.014009041 -0.030099455
0002f0 cd d1 79 bc e5 15 76 bd 4c 99 4c bd 30 37 86 3c
       -0.015247774 -0.060079474 -0.049950883 0.016383737
000300 db 26 85 3c 2a 7e 5d 3d 68 a1 3d bd f8 a2 7e bd
       0.01625388 0.054075398 -0.046296507 -0.062167138
000310 fa 40 00 bd 18 62 db 3c b8 31 4f bb b4 7c 30 bd
       -0.031311966 0.026780173 -0.0031615328 -0.043087676
000320 43 55 46 bc 2f 44 24 bd aa 99 37 bd 7f 62 4c bc
       -0.012105289 -0.040104087 -0.04482428 -0.012474655
000330 30 04 6f bd da c4 49 3d c3 b7 bf 3c fe 34 0e bd
       -0.058353603 0.049259998 0.023403054 -0.034718506
000340 f8 81 9a bc a0 a3 36 3c f5 d5 7d 3c c5 66 74 bd
       -0.018860802 0.01114741 0.015492906 -0.05966832
000350 c1 d0 65 bd 97 06 98 bd 1a d4 8d bb 5b a9 9b bc
       -0.056107286 -0.07423132 -0.004328263 -0.019001653
000360 2b fb cd 3b 9f 1b 55 bc b7 43 45 bc d1 60 a6 bd
       0.006286045 -0.013007074 -0.01204007 -0.08123935
000370 30 79 b1 bd 7e 9f e8 bc 9a ba 9b bd 30 fe 16 3b
       -0.08665693 -0.028396364 -0.07603951 0.002303969
000380 21 26 30 3d 28 18 d9 3c 78 b9 2a 3d 05 4b 94 bd
       0.043005113 0.026500776 0.041680783 -0.07240871
000390 e8 ca c1 bc 2a 41 98 bd 60 31 92 bd 6b 3c 81 bd
       -0.023656324 -0.07434304 -0.07138324 -0.06310352
0003a0 ec 43 6c 3c 4c 4a 24 bd 68 ca 67 bc bd a2 34 3d
       0.014420491 -0.040109918 -0.0141473785 0.04410051
0003b0 de fd 74 3d c1 49 0e bc f5 db ae bc 40 e8 56 bc
       0.05981242 -0.0086845765 -0.021345118 -0.013116896
0003c0 dc 76 22 bd c4 c2 3c 3d fc 57 99 bd bb 61 6f bb
       -0.039664134 0.04608418 -0.07487485 -0.0036526758
0003d0 f0 18 60 3b 92 71 46 bd b2 b6 1b bc b8 53 27 bd
       0.0034194551 -0.048448153 -0.009504007 -0.040851325
0003e0 92 fe dd 3c 4b dc d3 bc 36 71 62 bd cb dd 40 bd
       0.027098928 -0.02586188 -0.055283748 -0.04708652
0003f0 df 9d 84 bc 9a 15 a1 bd 72 f6 19 bd 44 9b 9e bd
       -0.01618856 -0.07865448 -0.037588544 -0.07744458

fc2.bias f4 [128]
000000 6e 06 58 bd 07 0b 2a 3d b2 8a 22 bb b0 7b 80 41
       -0.052740507 0.041514423 -0.0024801907 16.060394
000010 f6 40 80 41 2b c6 80 41 cf 49 80 41 e3 01 80 41
       16.03172 16.096762 16.03604 16.000921
000020 cd 53 80 41 a0 67 7f 41 51 77 80 41 9a 9a 80 41
       16.040918 15.962799 16.05826 16.075489
000030 3d 8a 80 41 16 76 80 41 c9 57 80 41 47 e2 7f 41
       16.0675 16.05766 16.042864 15.9927435
000040 03 22 80 41 eb 46 80 41 98 a9 80 41 e7 6f 80 41
       16.016607 16.034628 16.08281 16.05464
000050 dd 78 80 41 a5 de 7f 41 94 6b 26 bd 1b 9c 80 41
       16.059015 15.991857 -0.04062994 16.076223
000060 e5 4e 80 41 16 80 80 41 0e 43 97 3c 7b a8 7f 41
       16.038523 16.062542 0.018464591 15.978633
000070 b4 58 7e 41 7e b7 7f 41 66 d8 80 41 6f 81 80 41
       15.896656 15.982298 16.105663 16.0632
000080 f0 94 80 41 88 14 79 bd d9 cf 2b 3d 65 71 80 41
       16.072723 -0.060810596 0.041946266 16.055368
000090 9d 17 80 41 d8 01 80 41 fd 4f 80 41 d8 85 7f 41
       16.01153 16.0009 16.039057 15.970177
0000a0 74 6b 80 41 b7 3a 80 41 ad 43 80 41 db 4d 80 41
       16.052467 16.02867 16.033045 16.038015
0000b0 26 8b 80 41 a5 33 6d bd 69 4a 80 41 6f 3a 7f 41
       16.067944 -0.05791058 16.036333 15.951766
0000c0 c8 0c 80 41 df 03 80 41 0b e8 78 3d 03 9c 80 41
       16.00624 16.00189 0.06076817 16.076178
0000d0 bd 5a 34 bd b5 27 80 41 be 5c 9e bd 1d be 80 41
       -0.044031847 16.019388 -0.07732533 16.092829
0000e0 14 30 48 3d 4e ee b0 bd 0d 61 80 41 aa ce 7f 41
       0.048873976 -0.08639203 16.047388 15.987955
0000f0 5d 0a 80 41 ed 7c 86 3d 3b 73 80 41 86 98 80 41
       16.00506 0.065667965 16.056265 16.074474
000100 65 09 57 bd 03 32 80 41 8b 41 b0 3d 40 13 80 41
       -0.052499194 16.02442 0.08606251 16.0094
000110 eb 79 80 41 cf 18 80 41 83 87 80 41 19 3d 80 41
       16.05953 16.012114 16.066168 16.029833
000120 8f 91 80 41 e5 0e 82 bd 5b 85 80 41 39 fb 7e 41
       16.071074 -0.06350497 16.065115 15.936334
000130 21 af 80 41 36 43 80 41 62 fe 7c bd f5 36 7f 41
       16.085512 16.032818 -0.061766036 15.950917
000140 3e 52 7b 41 4d 89 7f 41 4d 28 80 41 c8 b6 80 41
       15.707579 15.971021 16.019678 16.089249
000150 ad 36 80 41 63 40 80 41 51 5a 80 41 41 7c 80 41
       16.026697 16.031439 16.0441 16.06067
000160 37 b9 80 41 72 c5 80 41 27 35 80 41 d0 0d 80 41
       16.090437 16.096409 16.025953 16.006744
000170 26 85 90 bd 24 6b 7f 41 3d 9e 80 41 4d ae 80 41
       -0.07056646 15.963657 16.077265 16.085108
000180 b9 cf 7e 41 b6 bd 80 41 ba a9 80 41 0e 12 80 41
       15.925714 16.092632 16.082874 16.008816
000190 b8 ae 7e 41 eb 62 7f 41 9b 9c 7f 41 56 94 80 41
       15.917656 15.96165 15.975734 16.07243
0001a0 0d 19 80 41 b2 8a 80 41 b8 b6 80 41 95 d0 80 41
       16.012232 16.067722 16.089218 16.101847
0001b0 43 9c ae bb 20 d7 80 41 66 9c 7f 41 67 7a 80 41
       -0.0053286864 16.105042 15.975683 16.059767
0001c0 a3 73 80 41 92 73 80 41 ee 76 80 41 92 ea 7d 41
       16.056463 16.05643 16.058071 15.869768
0001d0 e8 be 80 41 04 8b 80 41 6e dc 68 bc d5 cc 80 41
       16.093216 16.067879 -0.014212711 16.100016
0001e0 d3 c5 80 41 c3 74 80 41 bb ce 50 bc ec c6 80 41
       16.096594 16.057013 -0.012744601 16.09713
0001f0 63 9b 7f 41 e4 1f 7f 41 fc 10 80 41 8d 7f f0 bb
       15.975436 15.945286 16.008293 -0.007339424

fc3.weight f4 [64, 128]
000000 c2 b6 f5 bc 2b 17 23 3d 3c 1e b2 bd ba 3f 14 3c
       -0.029994372 0.039817017 -0.08697173 0.009048397
000010 09 dc b2 3d 19 ba 04 3d c8 7b 73 bd d5 8a b9 ba
       0.087333746 0.03240404 -0.05944422 -0.0014155755
000020 ea f8 4a bd 51 ae 62 3d 97 b7 48 3d bd 61 b3 bd
       -0.04955379 0.055342022 0.04900321 -0.087588765
000030 25 00 08 3d 42 a2 a1 bc 3b d2 83 bd be 34 18 bd
       0.033203263 -0.01973069 -0.06436583 -0.037159674
000040 96 f0 8e 3d c6 4c 8e 3d 13 bd 27 3c f4 a2 b5 bd
       0.06979482 0.06948237 0.01023795 -0.088689715
000050 07 23 8c bd 40 1b 13 bd 25 33 9f 3d b7 c6 41 bd
       -0.068426184 -0.03591466 0.07773427 -0.04730865
000060 32 5a 17 3d c9 86 47 3d 1e 8f a1 bd 93 5b d9 bd
       0.03695125 0.048712526 -0.078886256 -0.106131695
000070 b6 3b 4d 3d 29 30 0c bb 95 75 7d bd ad ca 07 bd
       0.050105773 -0.002139101 -0.061879713 -0.03315227
000080 2b 76 5f bd 11 43 c8 3c a6 46 a1 bd 31 6c 2f 3d
       -0.054556053 0.024446042 -0.07874803 0.04282779
000090 45 a0 27 bd ba 5f 7c 3d 1a ba b9 bd 1a 65 39 bb
       -0.04092433 0.06161473 -0.09068699 -0.002828902
0000a0 9b 42 88 bc c5 94 3d 3d bf fd 8a 3d 17 76 a2 bc
       -0.016633322 0.046284456 0.067866795 -0.0198317
0000b0 f8 bb a9 bd b8 8b 89 3d bc d0 8f 3d c8 72 2b 3d
       -0.08287805 0.06716102 0.07022235 0.04185751
0000c0 d0 59 63 3d 40 62 22 bd 8c 2f 64 3d 19 6c 4f bd
       0.055505574 -0.03964448 0.055709407 -0.0506402
0000d0 2f 75 a5 bc 0d 10 34 3d 72 e5 5a bc e2 fc b9 bd
       -0.020197479 0.04396062 -0.013360368 -0.09081437
0000e0 02 4c 50 3d 70 3b dc bc e9 f9 96 3d eb 1d 1a 3c
       0.050853737 -0.02688381 0.07371885 0.009406547
0000f0 7b de 4c bd 3c b1 ca bd 80 39 9c bd 96 31 2f 3d
       -0.05001686 -0.09897086 -0.07628155 0.0427719
000100 0f a6 8d bd cd 72 4d 3d 65 3e c6 bd 97 ef 60 bd
       -0.06916439 0.05015831 -0.096798696 -0.05491599
000110 47 0a 8d 3d 76 4d 7c bd b7 c3 9a 3c a1 61 b6 bd
       0.06886726 -0.06159731 0.018892152 -0.0890534
000120 c9 78 97 3c e8 60 6e bd ea be 97 3d 0f 54 f5 bc
       0.018490212 -0.058197886 0.07409461 -0.029947309
000130 6b e1 c3 bd 48 5a 00 bd cb 46 ac bd 8e 09 8b 3d
       -0.095644794 -0.0313361 -0.0841194 0.06788932
000140 de d4 1c 3d cb 55 7e 3d e5 7c 16 bd 57 0e 79 bd
       0.038288943 0.062093537 -0.036740202 -0.06080469
000150 47 84 a7 3b f6 b0 04 bd 65 fc 92 bb ca 16 8b bd
       0.0051122042 -0.032395326 -0.004485654 -0.06791456
000160 07 4c 99 bd b7 87 8e bd 02 0f 81 3d f5 c1 a5 bd
       -0.07485204 -0.06959479 0.06301691 -0.08093635
000170 81 65 4b 3b 87 68 80 bd e9 29 d4 bb ae e0 aa 3d
       0.0031035843 -0.06269937 -0.0064747226 0.083436355
000180 b3 63 b4 bd f5 f5 70 bc d8 0d f5 3c b0 24 b6 bd
       -0.088080786 -0.014707078 0.029913828 -0.08893716
000190 c6 de ae bd 7e e5 06 bd 95 b2 dd 3c 54 a8 24 3d
       -0.085385844 -0.032933705 0.027062694 0.040199593
0001a0 e8 96 35 3d d1 01 66 bd a8 1a fa bb 25 6e 92 3d
       0.04433337 -0.056154076 -0.007632572 0.07149915
0001b0 d5 b6 93 3d 83 13 8c 3d 3b 7b af bd 62 ef 11 3d
       0.07212607 0.06839659 -0.08568426 0.035628684
0001c0 0c 2b 09 3d 6c e1 35 3d 4c fb ac bb ee 07 ac bd
       0.03348832 0.044404432 -0.0052789804 -0.0839995
0001d0 8b f1 ac bd 96 4a 19 3d e4 12 34 3d 36 9c 4a bd
       -0.08444508 0.037424646 0.043963328 -0.04946538
0001e0 65 e5 a0 bd b2 01 8c 3d b9 48 d0 3c b9 bd bf bd
       -0.078562535 0.06836261 0.025425302 -0.093623586
0001f0 33 37 90 bd 04 b0 12 bc 60 b0 18 3c 9a 23 91 bd
       -0.070417784 -0.008953098 0.009319395 -0.070868686
000200 6f 78 94 3d f8 69 a5 3c c1 5e e9 bc 7d 16 21 3b
       0.072495334 0.020192131 -0.028487565 0.0024580054
000210 00 96 96 3c f9 b7 77 3d f8 9f 5c 3c 50 41 be ba
       0.018382072 0.060478184 0.013465874 -0.0014515314
000220 2a e3 6d 3c 78 15 84 bc a0 fd 2d bd 70 03 13 bd
       0.014519492 -0.016123518 -0.042478204 -0.03589195
000230 07 c4 11 3d 0e 60 36 3d be 10 64 bc ea 27 9f bd
       0.035587337 0.0445252 -0.013920007 -0.07771285
000240 c6 ad 89 3d 4d 6b 6b 38 f9 1d 3c bc 11 bf 6c 3d
       0.06722598 5.6128298e-05 -0.011481755 0.057799403
000250 30 56 5d bd 61 ef 5e 3d 12 38 5c 3d 5c 94 22 bd
       -0.054037273 0.05442751 0.05376441 -0.039692268
000260 09 f4 e6 bc 25 a9 fd bb 20 f1 25 3c f2 ac bd bd
       -0.028192537 -0.007741111 0.010128289 -0.09261502
000270 c8 de 26 3c 2d 38 3b 3d 2b 17 48 bc f6 9b 53 3d
       0.010184951 0.04570787 -0.012212555 0.051662408
000280 b6 dc b0 3c bd c9 9b bd 1e 38 07 3d bd e1 76 bd
       0.021589618 -0.07606838 0.033012502 -0.060273875
000290 ee 3c d3 bc 7a c9 a4 bd 85 4c 42 bd 78 dd 87 bd
       -0.02578589 -0.08046241 -0.047436256 -0.06634039
0002a0 08 40 06 bd bf 73 a2 3c ed 2e 2a bd 26 db b3 bc
       -0.03277591 0.019830583 -0.04154866 -0.021955084
0002b0 2f c7 b5 bd 5f 74 2b bd ac d2 f0 bc c0 e4 d3 3a
       -0.08875882 -0.041859027 -0.029397331 0.0016166195
0002c0 44 7b 24 3d d0 57 d7 bc e8 c4 38 bc 8f 69 1c 3d
       0.040156618 -0.02628699 -0.011277415 0.038186606
0002d0 80 47 fa bb 8a e5 cc bd 3a 4b 68 bd 42 b4 39 bc
       -0.007637918 -0.100047186 -0.056712367 -0.011334481
0002e0 2a 64 53 bd be 9f 55 3d 6c c6 f8 bc aa 70 18 3d
       -0.051609196 0.052154295 -0.030368052 0.03721682
0002f0 b4 81 8e bd 13 ea 33 3d d2 cd 19 3d 0f e6 89 bd
       -0.06958333 0.043924402 0.0375498 -0.06733333
000300 9f ef a5 3d a5 ad fd bb f0 84 0a 3d 02 32 19 3d
       0.08102345 -0.0077416473 0.033818185 0.037401207
000310 a2 86 c0 bd c1 c1 aa bd 4c 63 a2 bd 31 e2 c7 bd
       -0.09400679 -0.08337737 -0.079290956 -0.097599395
000320 85 b1 ad 3b ea 17 88 bd cb d0 a7 3c 3d 3f 83 bd
       0.005300703 -0.06645186 0.020485302 -0.06408546
000330 ce db 43 bb f2 e8 45 3d 36 83 34 3d 72 8b 2e bd
       -0.0029885652 0.048317857 0.044070445 -0.042613454
000340 2f 92 dc bd 51 66 36 bd 5f 63 96 3d e7 6b 15 bd
       -0.1077007 -0.04453117 0.07343172 -0.036479857
000350 c6 21 a1 3b e0 36 93 3c 26 80 16 3d fd 78 84 bd
       0.004917356 0.017970502 0.036743306 -0.06468389
000360 95 15 a2 bd 6b c6 d4 3c 41 6f 8b b8 53 2a 4e bd
       -0.07914273 0.02597352 -6.648759e-05 -0.050333332
000370 2d 30 b3 bd 2d f7 ae bc 7d be a0 bd 3c 00 a9 bd
       -0.08749423 -0.021358097 -0.07848833 -0.08251998
000380 79 e2 57 3d 70 15 b9 bd 3a 51 7d bd f6 f4 ec 3c
       0.052706216 -0.09037292 -0.06184504 0.0289254
000390 42 cb 9e bd a4 04 3d bd 07 8a 8f 3d e2 81 61 3c
       -0.07753612 -0.046147004 0.070087485 0.013763877
0003a0 12 5d 9c bd d9 19 bc 3c 42 ab 1d bd 5e bb 5e 3d
       -0.07634939 0.022961544 -0.038493402 0.054377906
0003b0 46 3e 1e 3d 43 48 ac bd c7 b0 a8 3d 76 f8 84 bd
       0.038633607 -0.0841222 0.082368426 -0.06492703
0003c0 2b cd 87 bd 48 0b 4f bd 32 63 24 3d 16 24 38 3d
       -0.066309296 -0.050547868 0.040133663 0.04495629
0003d0 9c bc bd bd 42 20 cd bc b8 aa 0e 3d e3 3e c3 bd
       -0.0926449 -0.025039796 0.03483078 -0.09533479
0003e0 6c 1d cc 3c 41 8c 86 3d 5f 45 24 bd 2a 5a 9b bd
       0.024916373 0.0656972 -0.04010522 -0.07585557
0003f0 ec 92 35 3d a0 f0 92 3c c2 b4 a0 bd 80 36 74 3c
       0.04432957 0.017937005 -0.07846977 0.014905572

fc3.bias f4 [64]
000000 c0 fe 56 3c f8 3a 3a bd a6 d2 d0 bb d0 03 74 41
       0.013122261 -0.045466393 -0.0063727675 15.250931
000010 da 43 ba bd de 4e 61 bd de 32 73 41 9a 6b 72 41
       -0.09094973 -0.055006854 15.199919 15.15127
000020 99 76 73 41 c0 0a 73 41 74 72 74 41 6b 76 72 41
       15.2164545 15.1901245 15.277943 15.153911
000030 5f 67 32 3d b6 5e 73 41 d7 e4 73 41 60 70 73 41
       0.043555614 15.210623 15.243369 15.214935
000040 f8 22 73 41 d9 d8 99 bd 5f 59 95 bd cb d9 6f 41
       15.196037 -0.075120635 -0.07292437 14.990672
000050 b5 7f 72 41 ab 9c 73 41 23 f3 73 41 94 ca 71 41
       15.156178 15.225749 15.24686 15.111958
000060 de 8b 72 41 a8 7e 71 41 2e f2 73 41 c9 16 70 41
       15.159147 15.093422 15.246626 15.005563
000070 c8 f0 73 41 07 02 73 41 6f 8a 74 41 24 35 ad bd
       15.2462845 15.187995 15.283797 -0.084574014
000080 f8 3a 74 41 37 46 73 41 f7 ab 71 41 46 e0 71 41
       15.264397 15.204642 15.104484 15.117254
000090 95 a1 73 41 0d 0a 74 41 e5 00 fa 3a ee 3c 72 41
       15.226949 15.252454 0.0019073753 15.139875
0000a0 42 2c 8c bd fa ba 71 41 a1 23 73 41 de bf 72 41
       -0.06844379 15.108149 15.196198 15.171843
0000b0 29 2c 72 41 11 81 72 41 52 41 73 41 04 c3 72 41
       15.135781 15.15651 15.203447 15.172611
0000c0 52 0d de bc 08 67 73 41 d1 50 72 41 f8 6b 73 41
       -0.027105961 15.212654 15.144731 15.21386
0000d0 5a 3b 74 41 2d 27 73 41 1b c3 72 41 39 86 72 41
       15.26449 15.197064 15.172633 15.157769
0000e0 c0 3e 71 41 f4 33 73 41 2f 82 72 41 65 26 4e bd
       15.07782 15.200184 15.156783 -0.050329585
0000f0 69 e0 72 41 6b 08 00 bd 95 5c 73 41 0b c6 72 41
       15.179788 -0.031258028 15.210103 15.17335

fc4.weight f4 [49, 64]
000000 4c e0 c9 bd 7a d8 f2 3d 49 ad 08 3e 76 2d 26 41
       -0.09857234 0.11857696 0.13347353 10.386099
000010 24 12 d1 3d f3 dd 8d 3c 92 bb 27 41 10 19 25 41
       0.10208538 0.017317748 10.483294 10.318619
000020 cf 22 25 41 45 5c 26 41 68 b1 28 41 46 bf 25 41
       10.320998 10.397527 10.543312 10.359198
000030 34 38 b0 3d 19 a9 25 41 17 ad 28 41 3b a9 27 41
       0.0860447 10.353784 10.542258 10.478816
000040 57 58 26 41 b0 ce 70 3d 54 58 36 3d e6 b2 23 41
       10.396567 0.058790863 0.04451783 10.231176
000050 64 fd 25 41 ef 42 24 41 c9 3b 26 41 7f 3c 27 41
       10.374363 10.266341 10.389596 10.45227
000060 92 15 26 41 2d f8 23 41 ad 8e 28 41 d3 56 26 41
       10.380266 10.24809 10.534833 10.396197
000070 88 9b 27 41 a7 c9 25 41 d5 e8 25 41 03 ad 32 3d
       10.4754715 10.361732 10.369344 0.043622028
000080 0e 30 26 41 b8 e1 25 41 24 9a 24 41 9a 97 26 41
       10.386732 10.367607 10.287632 10.412012
000090 22 fb 26 41 d8 8f 27 41 ac fa bb bd 8a e6 27 41
       10.436312 10.472618 -0.09178671 10.493784
0000a0 e2 c6 00 3e 0f a0 27 41 97 c8 27 41 db 0c 28 41
       0.12575868 10.476577 10.486472 10.503139
0000b0 3f 95 27 41 09 82 28 41 f3 82 26 41 37 09 27 41
       10.473937 10.531747 10.40697 10.43975
0000c0 74 fd 4b bd b2 5f 26 41 30 19 24 41 f9 a3 28 41
       -0.04980226 10.398363 10.256149 10.540032
0000d0 01 59 27 41 99 77 24 41 8a 8d 27 41 4b 1b 28 41
       10.459229 10.279199 10.472055 10.506663
0000e0 46 14 27 41 2e 74 26 41 9b b0 26 41 4a 27 ad 3d
       10.44245 10.403364 10.418117 0.084547594
0000f0 e5 47 27 41 00 6d 09 3b 1a 36 27 41 75 de 27 41
       10.455052 0.002096951 10.450708 10.491811
000100 90 31 a1 bd 62 1b e0 3d eb ea 70 bd 28 54 8e 40
       -0.078707814 0.10942723 -0.058817785 4.447773
000110 ce f1 b5 3d d7 82 5a 3d 1c f9 90 40 76 ce 92 40
       0.08884011 0.053347435 4.530409 4.5877028
000120 92 88 8e 40 f2 ed 91 40 30 ef 92 40 e8 03 8e 40
       4.454171 4.560296 4.5916977 4.437977
000130 0b e1 a7 bc f0 f3 93 40 02 57 8f 40 30 16 87 40
       -0.020493051 4.6235275 4.479371 4.2214584
000140 39 6f 93 40 68 01 39 bd 18 ac 2e bd 3c 06 8a 40
       4.607327 -0.045167357 -0.04264459 4.313261
000150 af 29 8f 40 bc d5 93 40 a2 40 8d 40 4d dc 8f 40
       4.4738383 4.6198406 4.4141397 4.495642
000160 05 1f 8f 40 51 28 8d 40 44 9b 8c 40 92 e1 8b 40
       4.4725366 4.4111714 4.3939533 4.3712854
000170 c6 40 94 40 77 8a 92 40 f7 4e 8e 40 b3 af 47 bd
       4.632907 4.5794024 4.4471393 -0.048751544
000180 16 7c 8d 40 31 89 94 40 94 12 92 40 50 0d 93 40
       4.421397 4.641747 4.564768 4.595375
000190 b4 69 8e 40 d5 bf 94 40 b8 3c 60 bd 5b 70 91 40
       4.450403 4.648417 -0.054745406 4.5449653
0001a0 86 45 ca 3d 60 38 93 40 0f d5 8e 40 49 ca 8f 40
       0.09876542 4.6006317 4.463508 4.493443
0001b0 27 36 90 40 21 fd 93 40 80 74 94 40 88 b7 92 40
       4.5066104 4.6246495 4.639221 4.5849037
0001c0 00 6b f7 3b a3 08 92 40 9c 0b 94 40 fc 8c 8f 40
       0.007550597 4.5635543 4.626417 4.48596
0001d0 de 8e 8f 40 b2 1f 92 40 52 51 8e 40 4d a0 90 40
       4.48619 4.566369 4.447427 4.519568
0001e0 50 82 8d 40 91 0c 91 40 57 27 91 40 7e 92 5e 3d
       4.4221573 4.532784 4.536052 0.054338925
0001f0 10 bf 87 40 e1 c3 c9 bd 73 3f 93 40 28 3a 94 40
       4.242073 -0.09851814 4.6014953 4.632099
000200 fb 04 09 3d 5a 9b f9 3d b0 c2 ad bd e3 c2 bb 40
       0.033452015 0.12187834 -0.08484399 5.86754
000210 e7 0c c0 bb 51 fe 84 3d 93 15 b9 40 68 84 b5 40
       -0.005860913 0.064938195 5.7838836 5.672413
000220 d6 0e bd 40 61 f5 bb 40 b9 0d b4 40 ca 54 bd 40
       5.908061 5.8737035 5.626675 5.9166
000230 42 67 19 3d 7d d0 b3 40 18 11 b9 40 c1 d1 bf 40
       0.03745199 5.6192 5.7833366 5.9943547
000240 d4 bc b4 40 4c cb 8a 3d bb 6f 27 3d 40 5e b1 40
       5.6480503 0.06777057 0.04087804 5.542755
000250 65 83 b7 40 fb d8 b4 40 5e 84 b7 40 99 16 b6 40
       5.7347894 5.651487 5.734908 5.6902585
000260 bb 40 ba 40 25 a9 b9 40 4f a5 b0 40 e3 3a bd 40
       5.8204017 5.8018975 5.5201793 5.9134383
000270 af 81 b6 40 73 b9 b6 40 e3 80 bd 40 da 04 58 3d
       5.7033305 5.710138 5.9219832 0.052739
000280 27 48 b6 40 3f 36 b4 40 3b f4 ba 40 6c 66 bb 40
       5.6963077 5.631622 5.8423133 5.8562527
000290 7e 50 b6 40 e3 98 b7 40 3e 96 d6 bd d2 de b7 40
       5.6973257 5.737413 -0.10477875 5.7459497
0002a0 ef da 52 bd 70 b8 b8 40 f2 ac b5 40 ae 94 b4 40
       -0.051478323 5.7725143 5.6773615 5.6431494
0002b0 bc e8 b7 40 53 07 b7 40 5b d1 ba 40 08 81 bd 40
       5.74716 5.719644 5.838056 5.922001
0002c0 a0 90 1c 3d fe 39 b0 40 8f 18 bb 40 c8 fc b7 40
       0.038223863 5.507079 5.846748 5.749607
0002d0 df cd bd 40 f8 73 b8 40 e2 ff b7 40 4c 24 b5 40
       5.9313807 5.7641563 5.7499857 5.660681
0002e0 f5 d5 b8 40 21 87 b6 40 5c dc b4 40 36 c3 38 bd
       5.776118 5.703995 5.6518993 -0.045108043
0002f0 ab af b4 40 e5 19 ea 3c 6b 34 bd 40 d3 dd b7 40
       5.646444 0.0285768 5.9126487 5.745828
000300 80 77 08 3d 30 d1 ae 3d 8e 80 87 3d 8f 41 4f 41
       0.03331709 0.08535993 0.06616317 12.9535055
000310 64 80 fb bd b6 fa c2 bd c0 74 4f 41 06 94 51 41
       -0.12280348 -0.095204756 12.966003 13.098639
000320 1f 83 51 41 20 02 51 41 1f 54 51 41 62 92 51 41
       13.094512 13.063019 13.083037 13.098238
000330 98 03 c1 bd 3f ae 50 41 ec f2 4f 41 03 48 4f 41
       -0.094245136 13.042541 12.996807 12.955081
000340 d8 11 51 41 9c 98 8b 3d c0 68 07 3b 3f 61 4d 41
       13.066856 0.06816217 0.00206618 12.836242
000350 cd 05 50 41 d4 e0 4e 41 cd f2 51 41 4a 18 50 41
       13.001416 12.92989 13.121778 13.00593
000360 7c 79 52 41 92 a5 51 41 64 f2 4d 41 bb c3 50 41
       13.154659 13.102922 12.871677 13.047786
000370 0e 2a 51 41 c9 b1 52 41 74 bc 52 41 5d d2 1c bb
       13.072767 13.168405 13.171009 -0.0023929097
000380 72 f0 4f 41 d5 6a 4f 41 77 56 52 41 ed e0 4e 41
       12.996202 12.963582 13.14611 12.9299135
000390 ff c1 50 41 0c 08 51 41 c8 50 bc bc 59 ce 4f 41
       13.047362 13.064465 -0.022987738 12.987878
0003a0 ed 89 78 bd 2d 9d 4e 41 d0 bb 52 41 8f 3a 4f 41
       -0.06067841 12.913373 13.170853 12.951797
0003b0 e8 5b 51 41 b2 ea 51 41 d0 82 4f 41 56 4d 52 41
       13.084938 13.119799 12.969437 13.143881
0003c0 c0 b8 94 3b cd 81 50 41 99 48 50 41 be 06 52 41
       0.0045386255 13.03169 13.017724 13.126646
0003d0 19 d6 51 41 19 07 52 41 a8 e5 51 41 a5 a4 50 41
       13.11477 13.126733 13.118568 13.040196
0003e0 05 5c 50 41 71 22 52 41 5a 92 50 41 b9 64 53 bd
       13.022466 13.133409 13.03573 -0.05160973
0003f0 e2 1d 50 41 78 d8 6e bd 8d 76 50 41 ca c1 4f 41
       13.007296 -0.05831191 13.028943 12.984812

fc4.bias f4 [49]
000000 cf 15 2d 41 bf da a4 40 c8 f9 b2 40 26 8a 3d 41
       10.817824 5.1517024 5.592991 11.846228
000010 b3 39 18 41 58 36 9c 40 94 c0 41 41 86 52 e0 40
       9.514087 4.8816338 12.109516 7.0100737
000020 b7 41 48 41 c4 73 04 41 fa de a7 40 02 dc 50 41
       12.516044 8.278263 5.245969 13.053713
000030 5d 63 b0 40 d6 0b f1 3d 8a 66 9e 40 c6 f4 41 41
       5.5121293 0.11769836 4.950017 12.122259
000040 4b 36 0f 41 56 cd 52 41 f4 82 f8 40 ce 5e d1 3d
       8.950755 13.175131 7.7659855 0.10223161
000050 40 56 af bc 54 b6 52 41 32 60 8d 40 a6 fb 4d 41
       -0.021403432 13.169514 4.4179926 12.873938
000060 60 42 d6 40 94 00 41 bd 66 66 dc 3d 24 c5 e3 3d
       6.6956024 -0.047119692 0.107617185 0.11121586
000070 0d f6 53 41 23 a2 2c 41 92 5a bc 40 50 23 8b bc
       13.247571 10.789584 5.886056 -0.016984612
000080 b0 30 bc 3d 3e b8 82 bd 20 7e 01 3d 17 8f 03 41
       0.09188974 -0.06382798 0.031614423 8.222434
000090 8a 27 80 40 80 77 bc bb 44 49 6d 3d 40 de 3c 3c
       4.0048265 -0.00575155 0.0579312 0.011527598
0000a0 00 55 6e 3c 70 d2 e8 bc 0c ce db 40 a8 56 e9 3c
       0.014546633 -0.028420657 6.868902 0.028483704
0000b0 f2 55 c1 bd 84 58 4a 3d 60 a2 bf bd e8 04 67 3d
       -0.09440221 0.04940082 -0.093571424 0.056401163
0000c0 a8 2c 49 bd
       -0.049114853
