trike2/models/DQN_Agent.pt (torch, 333080 bytes, 8 tensors)

fc1.weight f4 [256, 148]
00000000: 2acd 4341 7dc2 7b41 40a0 6b41 62c5 5141
00000010: 18c1 6b41 9f26 4a41 9103 6841 5044 4041
00000020: aba3 6f41 044d 3e41 9d71 3441 b71e 5e41
00000030: 23ea 3941 005f 8bb9 4054 6e41 e2ba 6941
00000040: 6101 5441 8f64 3641 1462 6641 f0e8 413c
00000050: 8a5c edbc d8ec 5141 e756 7841 f4c3 8041
00000060: 9baa 6741 b43f 923c d205 713d bc14 e5bc
00000070: 24fe 5841 335f 5d41 27a3 5e41 6206 99bd
00000080: 4dec 9f3d b19a 9c3d 78b6 c63c 5e35 4f41
00000090: 3752 4441 47df 903d 01db 993d 2144 3abd
000000a0: 8226 d1bc 68b3 acbc 912e 4741 08c3 ca3c
000000b0: 0e9e 623d 3022 26bc d8ce 9ebc 6931 3abd
000000c0: 5033 2b3d 284d 4a41 a3b9 7841 cb65 7441
000000d0: a192 4141 a637 6341 b23f 5541 a9fc 6641
000000e0: c908 4841 5bdd 6d41 a681 5041 a947 3d41
000000f0: da35 5841 1d59 3741 f71f 943d 5b4c 6841
00000100: 37ef 5741 f9c5 5441 805c 3241 434b 6041
00000110: bf66 16bd 6870 70bd ed9b 5d41 dad3 7041
00000120: 5c04 6941 cf30 4a41 d289 0b3d 860b 7f3d
00000130: 7d73 9d3d b657 5441 cf18 5941 1a5b 6b41
00000140: 5087 eebb 3b69 9a3d 3002 9a3b e034 75bd
00000150: f4db 3741 1e1a 5741 5a0c 723d 205d 90bc
00000160: 473a a23d b83e 5a3c 60dd 1f3c 585b 2a41
00000170: d4cf 40bd e900 a6bd dea1 773d aa75 553d
00000180: 951d a43d e0c4 7c3b 0449 3241 cddb 2641
00000190: b637 4b41 f694 2a41 58d6 4641 c6ed 1d41
000001a0: 3408 3641 84ad 1e41 d6af 4541 65cc 3241
000001b0: d03e 2441 1783 4941 2dd9 1141 12d7 a9bc
000001c0: 0dcd 3941 d7d0 5241 4dde 4a41 4607 2841
000001d0: 14a4 2f41 7a10 603d 073e 45bd 7903 4841
000001e0: 3c45 4141 5bf4 1e41 2523 3941 22cd 553d
000001f0: e6c3 f9bc b6e0 4b3d c955 2341 858c 4141
00000200: a665 3341 9aff 5f3d d070 91bd cdb6 3ebd
00000210: 1079 163c 76b4 2e41 6a05 3441 38b0 72bc
00000220: 9091 a83b 8ead 70bd 3e58 61bd 9864 173c
00000230: 35dd 3f41 904a 043d 38d8 4cbc 8841 f53c
00000240: a80f 2cbd b13f 8ebd c997 913d aa45 a5bc
00000250: 9a80 4541 b9a0 7a41 4bdc 6841 b571 5041
00000260: 7b11 6d41 f34d 4841 e99b 6c41 b2f1 3f41
00000270: 5ecc 7041 43c0 4341 7ace 3141 ffd6 5e41
00000280: a6ae 3741 a253 4c3d 572c 6e41 bb3e 6b41
00000290: 0da5 5241 2630 3741 49fe 6341 404f 1d3c
000002a0: ea92 9dbd 2cbb 4e41 891e 7841 3a25 8041
000002b0: 0708 6741 1277 533d 8048 b5bb f067 80bd
000002c0: d052 5841 2914 6141 ca22 6741 d0dc a43b
000002d0: 3f86 04bd 2ad9 383d 8966 9cbd 775e 5241
000002e0: fcfa 4141 72de 473d ff4a 8dbd 0a78 133d
000002f0: 58b5 78bc 20c4 ad3b 2487 4741 f0d4 ef3c
00000300: 754a 983d eb52 6cbd fa63 553d 2ef4 d4bc
00000310: 8da5 a03d 0160 4e41 4cc6 7941 5744 7541
00000320: c225 4441 8a0e 6441 1eb3 5241 1f63 6641
00000330: 103b 4a41 7a94 6f41 40d1 4e41 e23a 3e41
00000340: cdcb 5b41 e77e 4041 56c6 2c3d ee2b 6a41
00000350: 38dc 5a41 bdc8 5141 0f7e 3041 b06c 6041
00000360: 14f1 53bd aa8c 7bbd 0f29 5d41 52a5 7141
00000370: b1a9 6c41 73d1 4b41 11da 913d a465 72bd
00000380: a076 4dbc c9fb 5241 8a87 5941 8527 6841
00000390: 87f5 3ebd 36fb 3c3d 3aec 50bd d6ef 69bd
000003a0: 138b 3141 b8c9 5741 70c4 55bc 7c27 e0bc
000003b0: 4dea 84bd 318b a0bd 71fc 1cbd a383 2641
000003c0: b09d f3bb f14c 9abd 6aca b3bc f895 813c
000003d0: 8c91 81bd 8d1d 63bd 7db2 3a41 cb60 2641
000003e0: 92fc 4c41 c962 2841 8730 4a41 78df 1e41
000003f0: 411c 3841 9b12 1d41 8442 4641 0b4f 3541
12.237589 15.7349825 14.726624 13.110689 14.734642 12.634429 14.500871 12.016678
14.977458 11.893803 11.277738 13.882499 11.619662 -0.00026582927 14.895569 14.608126
13.250337 11.39955 14.398945 0.011835322 -0.02897479 13.120323 15.521216 16.09568
14.479152 0.017852642 0.05884344 -0.027963988 13.562046 13.835742 13.914832 -0.074719205
0.07808743 0.076466925 0.02425693 12.950529 12.270072 0.07073837 0.07512475 -0.04547513
-0.025531057 -0.021081641 12.448869 0.024751201 0.055326514 -0.010139987 -0.01938574 -0.045457277
0.041796982 12.643837 15.545321 15.274852 12.098298 14.201086 13.328051 14.436685
12.502145 14.866542 13.031652 11.829995 13.513147 11.459256 0.07232659 14.518641
13.495902 13.298333 11.147583 14.018374 -0.03671908 -0.05870095 13.850568 15.051722
14.563564 12.636916 0.034066983 0.06226685 0.07688043 13.271414 13.568557 14.709742
-0.007279314 0.07539602 0.004699968 -0.05986488 11.4911995 13.443876 0.05909381 -0.01762253
0.07921272 0.013320617 0.00975737 10.647301 -0.0470732 -0.08105642 0.060457103 0.052114166
0.08013455 0.0038569495 11.142826 10.428662 12.701101 10.661367 12.42733 9.87055
11.377003 9.917362 12.355429 11.174901 10.265335 12.594504 9.115521 -0.020732436
11.612561 13.175986 12.679273 10.501776 10.977558 0.054703213 -0.048154857 12.500848
12.079403 9.934657 11.57108 0.052197583 -0.03048892 0.049774848 10.208444 12.096807
11.2123165 0.05468712 -0.071015954 -0.04656105 0.009184137 10.919058 11.251322 -0.014812522
0.0051443055 -0.058759265 -0.055015795 0.009240292 11.991506 0.03229767 -0.012502722 0.029938474
-0.04200712 -0.06945742 0.07109029 -0.02017482 12.343897 15.664239 14.553782 13.0277605
14.816768 12.519031 14.788064 11.996508 15.049894 12.234439 11.112909 13.927489
11.480139 0.049884446 14.885825 14.702815 13.165296 11.449255 14.249581 0.009601414
-0.07694037 12.920696 15.507455 16.018177 14.43946 0.051627226 -0.0055323243 -0.062698245
13.520218 14.067422 14.445993 0.0050312057 -0.03235459 0.04512898 -0.076367445 13.148063
12.1237755 0.048796125 -0.0689907 0.03600315 -0.0151799545 0.005302921 12.470493 0.029276341
0.074360766 -0.057696264 0.0520973 -0.02599534 0.07844076 12.898438 15.610912 15.329185
12.259218 14.25355 13.16873 14.3991995 12.63942 14.973749 12.926086 11.889376
13.737256 12.030982 0.042181335 14.635725 13.678764 13.111508 11.030776 14.026535
-0.051743582 -0.061413445 13.822524 15.102861 14.791429 12.738635 0.07121671 -0.059178963
-0.012540489 13.186471 13.595591 14.509648 -0.046620872 0.04613801 -0.051006533 -0.05711349
11.096454 13.486748 -0.013047323 -0.027362578 -0.06490002 -0.07839049 -0.038326684 10.407138
-0.0074345693 -0.07534207 -0.021947104 0.015818581 -0.06326589 -0.055448104 11.668576 10.398631
12.811663 10.524117 12.6368475 9.929558 11.506898 9.817042 12.391239 11.331798

fc1.bias f4 [256]
00000000: 7083 8441 94c2 8541 675f 8541 52e2 8541
00000010: cc0e 8641 b3a2 8541 8a3a 8641 dacc 8541
00000020: a9ea 8541 56cb 8541 7ebe 8541 f18c 8541
00000030: cb01 e5bf 0c60 8541 3aea 8541 211f 8641
00000040: dc2d 8441 1845 8641 18e6 8541 208a 8541
00000050: 862d 8541 9a41 8541 f91a 8541 30a3 8441
00000060: bada 8541 9b62 8441 a67a 8441 6ee4 8441
00000070: a82d 8641 11cd 8541 c616 8641 7ece 8441
00000080: e49c 8541 198d 8541 f0b0 8541 cd0d ecbf
00000090: 715b 8541 3411 8641 2f85 8541 cca7 04c0
000000a0: 70b5 8541 e6b6 d5bf e6ab 8541 9f5f 8641
000000b0: 3138 8641 8200 8641 2b7f 8541 6238 8641
000000c0: 39d0 8541 6129 dabf f6c9 8541 a5d5 8441
000000d0: 998d 8441 498a 8541 5bc4 8541 d5b7 8541
000000e0: a964 8441 51b1 8541 c114 8641 1b4e 8641
000000f0: 5905 8641 9fbc 8541 05e8 8541 fce4 8541
00000100: fb3c 8641 f0d4 8541 af0a 8541 610f 8641
00000110: 4ef2 8541 904e 8641 ef2f 8541 d6e4 8541
00000120: f4b5 8541 f7b8 babf 01a0 8441 dda5 8541
00000130: 383d 02c0 3edd 8441 997a d4bf 59f2 e3bf
00000140: e580 8541 ca7d 8441 5d5c 8641 9672 8541
00000150: 8be3 8541 9110 8541 ca09 8641 8537 8541
00000160: b770 ddbf 64ce 8541 b81e 8641 e477 8441
00000170: 622e 8641 9651 8541 6b98 8441 ddd2 f1bf
00000180: c99a 8541 9efe 8541 e4a0 8441 6e1b 8641
00000190: 9942 8641 6043 8641 a2b5 8541 9f18 8641
000001a0: d310 8641 2d32 8641 9cc6 8541 0e7f 8641
000001b0: 9fb4 8441 8427 8441 29f4 8441 8f6d 8541
000001c0: 5f04 8641 41a8 8541 1e89 8541 a7a3 8541
000001d0: b3d9 8541 c7c3 8541 4d66 8641 4315 8641
000001e0: 46a1 d5bf 0e08 8641 61b9 8541 3c1c efbf
000001f0: 27f2 f8bf b32c ddbf d949 8641 a173 8641
00000200: 7072 8541 fa09 8641 d732 8541 c151 8641
00000210: cfa9 8341 f1df 8541 a084 8441 fa8c 8541
00000220: 1d88 8441 3eec 8441 4ac7 8441 6951 8541
00000230: a0a1 8441 df0b 8541 b824 8541 d7b5 8541
00000240: 4f81 8641 a5fb 8541 b8f9 8541 aea6 8541
00000250: c4c8 8541 9263 8641 9bc1 8541 3892 8541
00000260: 7ff4 8541 aafe 8541 1b1c 8441 255c 8541
00000270: da12 8641 332a 8641 7463 8541 b9bc 8441
00000280: 6e3a 8641 5495 8541 b814 8641 5ea0 8541
00000290: 94f0 8541 4a40 8541 7fb5 8441 47f7 8541
000002a0: 7d42 8641 7bf2 8541 b507 8541 f9f7 8541
000002b0: fe66 eabf 8e44 8641 1b04 8641 4a50 8641
000002c0: 7566 8441 add6 8541 bebe 8541 7e82 8541
000002d0: b036 8641 edf8 8541 3b6c 8541 13a9 8541
000002e0: 77c2 8541 a0b2 8541 a25f c2bf b547 8441
000002f0: c843 8641 a609 8641 a904 8641 22d7 e3bf
00000300: 51fb 8541 43ba 8541 540f 8641 eb0d 8641
00000310: 9442 8641 0932 8641 7905 8641 058d f6bf
00000320: 2b28 8641 5283 8441 80c1 8441 dc7a e4bf
00000330: c7cb 8341 47ef 8441 fad9 8541 14f4 8541
00000340: a514 8641 dd33 8441 ae1a 8641 763d 8641
00000350: b8a9 8441 3261 8541 cfd6 8441 ffad dcbf
00000360: 37ee 8541 51cd 8541 343b 8641 3cb1 8441
00000370: 9153 8641 abc8 8541 75e9 8541 9f32 8541
00000380: 3fd7 8541 3195 8541 98ba f7bf cbf2 8541
00000390: 0be8 8441 9c04 e1bf b851 8541 d19c 8541
000003a0: c031 8641 2d5e 8541 4b1d 8641 7b46 ffbf
000003b0: d133 8541 818e e0bf af16 8541 2c0d 8641
000003c0: 8387 8441 7db4 8541 ee78 8541 bb74 8641
000003d0: af97 8541 604e 8641 492a 8641 0f3a 8641
000003e0: 2ab2 8541 21ab 8441 3688 8541 eafd 8541
000003f0: a6f1 8541 c99d 8541 c8bb 8441 ecba 8441
16.564178 16.720009 16.671583 16.735508 16.757225 16.704443 16.778584 16.725025
16.73958 16.724285 16.718014 16.693819 -1.7891172 16.671898 16.739368 16.7652
16.522392 16.783737 16.73735 16.692444 16.647228 16.657032 16.63817 16.579681
16.7318 16.548147 16.559887 16.611538 16.772293 16.72513 16.76112 16.600826
16.701607 16.693895 16.711395 -1.8441712 16.66965 16.7584 16.690031 -2.0727415
16.713593 -1.6696441 16.708935 16.79669 16.777437 16.750248 16.687094 16.77753
16.726671 -1.7043878 16.723614 16.604319 16.56914 16.692522 16.720877 16.714762
16.54915 16.71158 16.760134 16.788137 16.752611 16.7171 16.73829 16.736809
16.779776 16.728973 16.630217 16.75751 16.743313 16.78836 16.648405 16.736736
16.713844 -1.4587697 16.578127 16.705988 -2.0349865 16.608028 -1.6599914 -1.7808334
16.687937 16.56142 16.7951 16.68095 16.736105 16.63309 16.75478 16.65211
-1.7300023 16.725777 16.765 16.55854 16.772648 16.664837 16.574423 -1.8892475
16.700579 16.749325 16.57856 16.763393 16.782518 16.782898 16.713688 16.762022
16.758215 16.7745 16.721977 16.812038 16.588194 16.519295 16.619219 16.678495
16.752134 16.707155 16.691952 16.704908 16.731298 16.720594 16.799952 16.760382
-1.6689842 16.753933 16.715517 -1.8680491 -1.9448899 -1.7279266 16.786058 16.80646
16.680878 16.754871 16.649824 16.789919 16.457914 16.734346 16.564758 16.693836
16.566462 16.615353 16.59731 16.664751 16.578918 16.630796 16.64293 16.713789
16.813139 16.747873 16.746933 16.706387 16.72303 16.798618 16.719534 16.696396
16.744383 16.749348 16.513723 16.669992 16.759205 16.770605 16.673561 16.59215
16.77853 16.697914 16.760117 16.703304 16.74247 16.656391 16.588621 16.74574
16.782465 16.743399 16.628763 16.74608 -1.8312681 16.783474 16.752005 16.789204
16.550028 16.729822 16.718136 16.688717 16.776703 16.746546 16.677847 16.707556
16.719954 16.71222 -1.5185435 16.535013 16.783096 16.754711 16.752275 -1.7800028
16.747713 16.715948 16.757484 16.756796 16.782509 16.774431 16.752672 -1.9261786
16.769613 16.564121 16.594482 -1.7849994 16.4745 16.616835 16.731434 16.744179
16.76008 16.525324 16.763027 16.78001 16.58287 16.672459 16.604887 -1.7240599
16.741316 16.725252 16.778908 16.58654 16.790804 16.722982 16.738993 16.649717
16.7301 16.697847 -1.9353819 16.743551 16.613302 -1.7579532 16.664902 16.70157
16.774292 16.670984 16.764303 -1.9943384 16.650301 -1.7543489 16.636076 16.756432
16.566168 16.713129 16.684048 16.806997 16.699064 16.788269 16.770647 16.778349
16.711994 16.583559 16.69151 16.748981 16.742992 16.702044 16.59169 16.59127

fc2.weight f4 [128, 256]
00000000: dca0 8241 6ab2 8341 70e2 8241 bc64 8341
00000010: 3674 8341 41cc 8241 4e2d 8341 d0a2 8241
00000020: ac48 8441 23ff 8241 faa9 8341 71d8 8241
00000030: 79bc a2c0 af8a 8041 1ac5 8241 b726 8241
00000040: 9888 8341 8290 8441 c29b 8341 9725 8441
00000050: ef1a 8141 fa2d 8241 9d6e 8341 e742 8341
00000060: 7e3e 8241 11ed 7e41 aa5c 8341 66fa 8141
00000070: 9e9d 8241 250b 8341 4874 8341 8cdb 8241
00000080: fb38 8241 6362 8241 6c78 8341 26f2 b4c0
00000090: 5e33 8341 ae7b 8241 dcb6 8341 0328 9fc0
000000a0: f6dd 8341 c395 b2c0 f9e6 8341 be44 8341
000000b0: c356 8341 6fc0 8241 0e26 8341 f6a3 8441
000000c0: c8d8 8141 ea4f c3c0 d8da 8241 eb29 8141
000000d0: 25b9 8241 2d31 8341 c912 8441 ee6d 8341
000000e0: 01f8 8341 2f8b 8341 83a7 8341 bdb1 8441
000000f0: be24 8341 8299 8241 0fcb 8241 9a19 8441
00000100: c7d5 8341 b40b 8341 0816 8241 cce0 8241
00000110: 7a69 8341 ce49 8341 eb35 8341 b7f7 8341
00000120: cd6a 8241 d982 a8c0 2208 8341 ac79 8241
00000130: dbbe b5c0 be21 8341 5ee4 b5c0 e3e0 a4c0
00000140: 96bd 8241 7237 8241 45d8 8341 fe77 8241
00000150: 76af 8341 b96b 8341 9f48 8441 efe7 8341
00000160: 3a5e b8c0 43dd 8341 cf86 8341 3759 8141
00000170: 49a9 8241 818c 8341 d5bc 8341 4f29 a5c0
00000180: 92f5 8241 c626 8441 9859 8341 c35c 8441
00000190: c588 8341 0bc3 8241 a6f5 8341 d109 8341
000001a0: 9a51 8241 5505 8441 de04 8341 8d0a 8341
000001b0: ee15 8441 1735 8341 d2b5 8341 763a 8341
000001c0: 7097 8341 9942 8141 f69e 8341 21f6 8241
000001d0: 5d7c 8341 8236 8241 ecfc 8241 a01d 8341
000001e0: ec66 b5c0 a565 8341 6b92 8241 bb5d a3c0
000001f0: 0fb9 adc0 fd69 b5c0 fe86 8441 76dd 8341
00000200: b00e 8341 9b7b 8341 0f0f 8441 7e98 8241
00000210: 22fd 8241 5155 8241 b365 8341 e087 8241
00000220: 7740 8241 f954 8341 b652 8041 85d9 8141
00000230: 2a57 8341 4e14 8241 2932 8241 2377 8341
00000240: 3f0d 8441 b55c 8341 5871 8241 0bce 8241
00000250: e1fc 8141 3f62 8441 2f1b 8341 8dc1 8241
00000260: 845a 8241 2709 8341 892a 8141 5569 8241
00000270: bcb1 8241 3894 8341 2e41 8341 7f14 8341
00000280: 619b 8341 03ed 8341 58a7 8341 4802 8241
00000290: d6e5 8241 b7d4 8241 5b39 8141 5a27 8341
000002a0: 989d 8341 9aab 8341 0fa7 8141 59bb 8241
000002b0: 422e abc0 a0c9 8341 e64c 8341 f1a2 8341
000002c0: e7a0 8341 f810 8341 a81a 8341 5871 8241
000002d0: 5ac9 8341 b994 8341 3520 8341 8d9c 8241
000002e0: 0d45 8341 5e9d 8241 7b63 a9c0 93ce 8241
000002f0: db6c 8441 23dc 8341 b3cf 8241 bd8a bfc0
00000300: eccc 8341 044c 8441 8a8d 8241 955f 8341
00000310: ac8a 8341 17ef 8241 cbb9 8341 005c aac0
00000320: c986 8341 7ae7 8041 8b07 8341 3ed8 b8c0
00000330: b74a 7d41 3564 8141 60c4 8341 57d7 8241
00000340: 5463 8341 831b 8241 767d 8241 f864 8441
00000350: b8d8 8241 1248 8441 1370 8341 f50f 92c0
00000360: 63b8 8241 e21c 8341 41aa 8241 35ce 8241
00000370: 464d 8341 79b3 8241 c083 8241 f393 8241
00000380: 227e 8341 1182 8341 680e a2c0 2468 8341
00000390: 42f7 8141 aabf b8c0 4140 8441 b27c 8341
000003a0: ef31 8341 41c6 8441 802a 8341 703a b1c0
000003b0: 5881 8341 daba b4c0 43e3 8241 32ce 8441
000003c0: 79d2 8241 9f07 8341 774e 8441 8c3f 8441
000003d0: 6c1e 8241 eba7 8441 77c7 8241 ed7d 8341
000003e0: 937b 8341 e66b 8241 8191 8441 32a5 8341
000003f0: b6b6 8341 ff2b 8341 9a85 8141 4572 8241
16.328545 16.462116 16.360565 16.424187 16.431744 16.349733 16.397121 16.329498
16.535484 16.374578 16.457996 16.355684 -5.085507 16.067717 16.346241 16.268904
16.441696 16.57056 16.451054 16.518354 16.138151 16.27245 16.42901 16.407667
16.280514 15.932878 16.420246 16.247265 16.326962 16.380442 16.431778 16.3572
16.277822 16.29804 16.4338 -5.654559 16.400082 16.31039 16.464287 -4.9736342
16.48338 -5.5807815 16.48778 16.408566 16.417364 16.343962 16.393581 16.58006
16.23085 -6.103505 16.356857 16.145468 16.340403 16.399012 16.509172 16.428677
16.496096 16.44296 16.456793 16.586786 16.39294 16.324955 16.34915 16.5125
16.479383 16.380714 16.260757 16.359764 16.426502 16.411037 16.401327 16.495955
16.302149 -5.2659726 16.378971 16.30941 -5.679548 16.391476 -5.684127 -5.152452
16.342571 16.277073 16.4806 16.30859 16.460674 16.427599 16.53546 16.488249
-5.7615023 16.483038 16.440825 16.168562 16.332659 16.443605 16.467203 -5.1612926
16.369907 16.518932 16.418747 16.545294 16.441782 16.345236 16.494946 16.379793
16.289845 16.502604 16.377377 16.380152 16.510708 16.400923 16.46378 16.403545
16.448944 16.157518 16.452618 16.37018 16.435724 16.276615 16.373497 16.389465
-5.6688137 16.424631 16.321493 -5.1051917 -5.42884 -5.669188 16.565914 16.483135
16.382172 16.435354 16.507353 16.32446 16.3736 16.291658 16.424658 16.316345
16.281477 16.41649 16.040386 16.23121 16.41756 16.259914 16.274492 16.433172
16.506468 16.420267 16.305344 16.350607 16.248476 16.547972 16.388273 16.344507
16.294197 16.379469 16.14577 16.301432 16.336784 16.447372 16.406826 16.385008
16.450869 16.490728 16.45671 16.251114 16.362225 16.353865 16.153006 16.394215
16.45195 16.45879 16.206572 16.341478 -5.3493967 16.47345 16.412548 16.454561
16.453566 16.383286 16.388016 16.305344 16.473316 16.447618 16.390726 16.32644
16.408716 16.32684 -5.2933936 16.350866 16.553152 16.482489 16.351416 -5.985686
16.47506 16.537117 16.31911 16.42167 16.44271 16.366743 16.46572 -5.3237305
16.440813 16.113026 16.378683 -5.7763968 15.830741 16.17393 16.470886 16.355146
16.4235 16.263433 16.31126 16.549301 16.35582 16.53519 16.429724 -4.564448
16.340033 16.389103 16.333132 16.350687 16.412731 16.337633 16.314331 16.32224
16.436588 16.438509 -5.0642586 16.42585 16.245731 -5.7733965 16.531374 16.435886
16.399382 16.596804 16.395752 -5.5383835 16.438156 -5.647809 16.360968 16.600681
16.35277 16.378721 16.538313 16.531029 16.264854 16.581991 16.347395 16.436487
16.435339 16.302685 16.571047 16.455662 16.464214 16.396482 16.190235 16.305796

fc2.bias f4 [128]
00000000: e2cd 7d41 f0cc 7d41 7736 7d41 2799 7e41
00000010: c2e1 7e41 96a4 7d41 c64c 7e41 8898 7f41
00000020: 974c 7f41 e4c9 7e41 692a 7e41 6e21 7f41
00000030: 5143 7e41 4747 7e41 fb89 7e41 9850 7e41
00000040: 7f5d 7d41 2276 a6bd 028c 7f41 e2ff 353b
00000050: 0e7f 7e41 1f92 7f41 a230 7e41 c67a 7e41
00000060: 691f 7e41 3e6c 76bd 656f 7f41 5ce7 7e41
00000070: bcb5 87bd 407c 7e41 368b 7e41 f669 7f41
00000080: 5bd8 7b41 2baa 7e41 8ee3 7e41 7f63 7f41
00000090: 7a21 7f41 9afe 7d41 aab9 7c41 0b2a 7e41
000000a0: aa9f 74bd 5619 7f41 2089 7e41 6986 7f41
000000b0: 6439 7e41 7704 7e41 1e87 7e41 a6bd 7e41
000000c0: 29c2 7e41 ed9f 7d41 e861 7e41 d043 7f41
000000d0: e465 70bd d3d2 7e41 b046 7e41 fb34 7f41
000000e0: 2bb1 7d41 2aa5 7e41 ea38 77bd a12d 7e41
000000f0: 06d9 7d41 e6b5 7e41 3a2e 7e41 f5a1 7e41
00000100: fd1c 7f41 2609 7f41 4b3d 7d41 2055 d7bd
00000110: ebc5 7e41 09cc aebd 83a0 7d41 e480 7d41
00000120: 789b 7d41 d9ba 7e41 1968 7f41 4d08 7f41
00000130: 529f 77bd 8e02 7f41 648e 7e41 ee73 7e41
00000140: 4d84 7f41 433b 7e41 07e2 7f41 a6a8 14bd
00000150: 4d31 7f41 0e89 7d41 0c31 7f41 b515 7f41
00000160: 8d5a 8abd d04b 7f41 c359 7e41 ccde 32bd
00000170: 5060 7f41 b176 7e41 3d00 7f41 ce1a 7e41
00000180: 86be 60bc 569a 253a 7736 7d41 57da 7d41
00000190: 366d 7f41 8bba 7e41 d6ae 7d41 f7c9 41bd
000001a0: cc51 7f41 a4cf 7d41 943c 7f41 e404 dfbd
000001b0: 227b 7f41 48b7 7d41 071e 7f41 b5d0 7d41
000001c0: 5ff7 7e41 ab61 7e41 210f 7f41 2ea1 7f41
000001d0: acd1 7e41 2533 56bd ea48 7f41 d218 7e41
000001e0: 1109 7e41 57cb 7d41 cc2d fdbc 02cc 7d41
000001f0: ba01 7e41 2d13 8dbc cdc0 7e41 42d7 5dbb
15.862764 15.862534 15.825797 15.912391 15.930117 15.852682 15.8937435 15.974739
15.956199 15.92429 15.885354 15.945662 15.891435 15.892402 15.908687 15.894676
15.835326 -0.08128001 15.971682 0.0027770926 15.906019 15.973174 15.886873 15.904974
15.8826685 -0.06016182 15.964696 15.931484 -0.0662646 15.905334 15.908987 15.963369
15.740321 15.916545 15.930555 15.961791 15.945673 15.874659 15.795328 15.885264
-0.05972258 15.943686 15.908478 15.970315 15.889011 15.87609 15.907988 15.921301
15.922402 15.851544 15.898903 15.954056 -0.05869092 15.926471 15.892258 15.950435
15.855754 15.915323 -0.06035701 15.88614 15.865484 15.919409 15.886286 15.91454
15.944577 15.9397335 15.827464 -0.10514283 15.92332 -0.0853501 15.851687 15.843967
15.850456 15.920617 15.962914 15.939527 -0.060454674 15.938124 15.909763 15.903303
15.9698 15.889468 15.992682 -0.03629365 15.949536 15.845961 15.949474 15.9428
-0.067555524 15.956009 15.8969145 -0.043669507 15.961014 15.903977 15.937558 15.881544
-0.013717299 0.00063172483 15.825797 15.865806 15.964163 15.920543 15.855185 -0.04731175
15.95747 15.8631935 15.95229 -0.10889605 15.967562 15.857246 15.944831 15.863454
15.935393 15.898845 15.941194 15.9768505 15.926189 -0.05229487 15.955301 15.88106
15.8772135 15.8621435 -0.030905627 15.862307 15.875422 -0.017221058 15.9220705 -0.0033850227

fc3.weight f4 [64, 128]
00000000: 515a ae3b 1523 1d3d 3ecd 42bd e5a1 cdbd
00000010: bb50 55bd 2961 1d3d 7b89 b5bd 3967 36bd
00000020: 9145 d2bc db90 97bd 7e3a 4e3d e2e4 65bd
00000030: 6502 50bc d292 94bd 3a13 61bd 0661 ebbc
00000040: 8ee8 84bd 1d24 65bd 612d 0abb 7ec5 be3b
00000050: 0003 51bc 5993 00bd fd10 633d 4fcf 003d
00000060: 0a14 f3bc 8788 97bc b397 4dbd 0212 2abd
00000070: 3acd 543d 3ae2 eebd f724 813d 88a5 533d
00000080: 023c 203c a399 413d bdb0 18bd 6a05 823c
00000090: 7702 e6bc 3f38 9dbb c6a4 5a3c 356e 9c3c
000000a0: 3b78 87bd 4663 ec3c 1ab2 a43c 3fdd 9cbd
000000b0: aa9d 6c3d 8456 81bd 4183 c4ba 0dcb 95bd
000000c0: 0b1b c43c d255 9abd 6135 843d d758 b03c
000000d0: 275e 47bd f4e9 773c af43 f4bd a0ac 88bc
000000e0: 1f8f f83c ecaa 093d 40c0 e3bb 02f4 f8bd
000000f0: 9fac 983d c852 c0bd 8626 4bbd bbfe 97bd
00000100: fe22 d0bc 24c0 963b 58ac 683d 4c76 0a3d
00000110: c9bf 8bbb da70 0b3c b30a 303d 3aa7 583d
00000120: 689f fbbd 3e1b fabd 3a33 bebd 947c 87bd
00000130: 1587 473b 93e6 1d3d b055 923d ee12 9ebd
00000140: 8c11 bcbd 024b c43d 0d48 e8bd ef9f b23d
00000150: 1d0a 8c3d 8372 93bd f206 d7bc 95bb ffbd
00000160: 12a5 893d 9d36 df3c 8adb 34bd f527 01bd
00000170: 75aa c9bd 3559 1cbd a80e c8bc c773 8fbc
00000180: 54d4 afbd 3ea5 e1bd f058 90bd 729d 14bd
00000190: 3014 c53c 8407 dfbd b9b5 69bd 7f70 65bd
000001a0: 737b 963c 6aa7 05be d525 15bd 770c 32bd
000001b0: 0463 2ebb 7fce d7bd e054 c6bc 24f0 d1bd
000001c0: 58dd 013d eb3f 933b b385 153c cc05 1bbc
000001d0: 7962 bcbc 64c8 013d 6571 bcbd c19f 5f3d
000001e0: 26e5 b93c d1eb d2bd e548 703d a43b 90bc
000001f0: 85b7 5cbd 879f 383c 3e22 533d c308 a3bc
00000200: 75a0 09bd 28fe 203c 7ef1 93bd 3891 8a3c
00000210: ca61 c5b9 f78e 9cbd 0913 f93c 9e5a 1ebd
00000220: 50fd 94bd ae7f 5a3c 045a a23c c29f afbd
00000230: 8cc9 a3bc 475f f7bc 7c7b a6bd 323c 26bd
00000240: 844c c23c 6e8a 5bbd 0763 943d f5c1 6d3d
00000250: 43b9 c73b 380b edbc 44cf 103d 40cc 823b
00000260: be0c 433d eb86 19bd cc42 3cbd 9976 9abc
00000270: 2b7a 8f3d efc0 b4bd 8959 8e3d a0f8 a63c
00000280: 405d d2bd a22a 183d 3a4c 633d 7774 9abd
00000290: b2d0 603d 4b6f 92bd 836a 103b 1f62 843d
000002a0: 6e1f afbd 78cd 1abd d2b8 0dbd 51b9 86bd
000002b0: 4b7f 193d c0a9 a23a 7d8e 95bd 1c7b f63c
000002c0: 480b 52bc 3303 33bc fd99 d23c a08b e33c
000002d0: d23c 2bbd 7bb4 1a3c 57e4 aabd 4d68 b43d
000002e0: a33b 1cbd d87a 0bbd 001a 04bd c978 adbd
000002f0: c024 b23b e223 6cbd 269f 383d 6045 513b
00000300: 001d 203c 6da0 a6bd 8735 07bd 6c20 88bc
00000310: 160c 343d e870 c23c f00d 0ebc 7bd0 ebbc
00000320: 27b1 af3d cd68 36bd 8513 abbd c64f 663d
00000330: f715 c8bb 0324 34bd 222a 1c3d 1b63 9b3d
00000340: 4ca3 053d 786b 043d f444 91bc d08e d53b
00000350: f894 3fbd a789 0f3d c879 ccbc 008a 3c3b
00000360: d0cc 123c 6625 703d 5dc9 9dbd 2053 1abc
00000370: 7420 c63c 8e3f 45bd 1a01 073d 4537 bdbd
00000380: 2779 84ba f5de 313d 4030 85bd 1d9c 3abd
00000390: 8aef 79bd 30f2 a83c 3abd 623d 21b6 aebd
000003a0: 499f 963d 008e 1eba 54fe a73c 63ad b73a
000003b0: 47dc 11bd f6f8 003d 767b 583d 6073 5c3b
000003c0: 00db a0bd b96a 29bd dcc1 873c 0ed4 09bd
000003d0: c04d a4bd 09f6 88bd 4561 4fbd 1903 bf3c
000003e0: f625 abbc 150e a0bd e06f 4d3d a8bc 07bc
000003f0: 11d1 a7bd 7e11 433d ca6a 673d 9e99 4b3d
0.005320825 0.038363535 -0.047559015 -0.100406446 -0.052078944 0.038422737 -0.08864113 -0.044532035
-0.025667937 -0.07400676 0.05034875 -0.056126483 -0.012695883 -0.07254566 -0.054949977 -0.028732788
-0.06489669 -0.055942643 -0.0021084177 0.0058218827 -0.012757063 -0.03139052 0.055436123 0.031447705
-0.029672641 -0.018497718 -0.0501935 -0.04152108 0.05195353 -0.11664243 0.063058786 0.051671535
0.009779932 0.04726566 -0.037277926 0.015871722 -0.028077347 -0.004797965 0.013344949 0.01909552
-0.06614729 0.028855931 0.020104457 -0.07659387 0.057767548 -0.0631533 -0.001499273 -0.073141195
0.023938676 -0.075359 0.06455494 0.021526737 -0.048673775 0.015131462 -0.11926972 -0.016683877
0.030341683 0.03361027 -0.006950408 -0.12155916 0.074548 -0.09390789 -0.049597286 -0.07421633
-0.02540731 0.0046005417 0.056804985 0.033804223 -0.004264806 0.008510793 0.042978954 0.052893855
-0.12286264 -0.12212227 -0.092871144 -0.06615558 0.0030445505 0.03854997 0.0714525 -0.07718454
-0.09183034 0.09584619 -0.113418676 0.08721911 0.068378665 -0.07199576 -0.026248429 -0.1248695
0.06720938 0.027247721 -0.04415468 -0.031532247 -0.09846965 -0.038171012 -0.024421051 -0.017511262
-0.0858542 -0.110178456 -0.070482135 -0.036282964 0.024057478 -0.10890105 -0.05705807 -0.056015488
0.018369412 -0.13052145 -0.036413033 -0.04346892 -0.002660931 -0.10537433 -0.024210393 -0.10250881
0.03170523 0.0044937036 0.009126115 -0.009461831 -0.022996174 0.031685248 -0.09201316 0.054595713
0.022692274 -0.10298885 0.058663268 -0.017606564 -0.053885955 0.011268503 0.051546328 -0.019901639
-0.03360029 0.009826221 -0.07223795 0.016914949 -0.00037647627 -0.07644456 0.030404584 -0.038660638
-0.07274878 0.013336105 0.019818313 -0.08575393 -0.019993566 -0.030196799 -0.081290215 -0.04058475
0.023718126 -0.053598814 0.072454505 0.0580463 0.006095083 -0.028936014 0.035353914 0.0039916337
0.047619574 -0.037482183 -0.04596214 -0.01885538 0.070057236 -0.08825862 0.06950671 0.020382226
-0.10271692 0.037150033 0.055492617 -0.07541745 0.054886527 -0.07150134 0.0022036142 0.064640276
-0.085509166 -0.037793607 -0.034600087 -0.06578315 0.03747491 0.0012410209 -0.07302568 0.030088
-0.0128200725 -0.010926056 0.025708193 0.02777654 -0.04180605 0.009442444 -0.083443336 0.08808956
-0.03814281 -0.0340527 -0.032251358 -0.084703036 0.00543651 -0.057651408 0.04507365 0.003193222
0.009772539 -0.081360675 -0.033010032 -0.016617022 0.04395684 0.023735479 -0.008670315 -0.028785935
0.08578711 -0.04453354 -0.083533324 0.05622842 -0.006106134 -0.043979656 0.03812612 0.07587262
0.032626435 0.032329053 -0.017733075 0.0065172687 -0.046772927 0.035043385 -0.024960414 0.0028768778
0.008959964 0.058629416 -0.077044226 -0.009419233 0.024185397 -0.048156314 0.032960035 -0.092390575
-0.0010106907 0.04342552 -0.065033436 -0.045559037 -0.061019458 0.020623296 0.05535624 -0.08530832
0.073546 -0.00060483813 0.020507015 0.0014013465 -0.035610463 0.031487428 0.052852117 0.0033638105
-0.07854271 -0.041361544 0.016571932 -0.033649497 -0.08022642 -0.066875525 -0.050629873 0.023316907
-0.020892125 -0.07815186 0.05015552 -0.008284725 -0.08194173 0.047624104 0.056498326 0.049707048

fc3.bias f4 [64]
00000000: fe3f f7bc 2fd3 bdbd b33e 7ebd dd0f 7141
00000010: ce7b 7041 1c28 c3bd b9f9 7141 6b16 1abd
00000020: d2b2 6c41 864e e63d be95 7141 5868 7241
00000030: 593c 7041 fb7a cbbd fbcb 76bd 304d 7141
00000040: dad7 7041 748b 7241 c242 7041 de13 7041
00000050: 61f1 d1bd 88ac cebd 30b9 9f3d 7d6c 7041
00000060: 66f5 6f41 6508 babd aae7 7141 0525 6f41
00000070: 118c 7041 187f d2bd 4338 7141 888d 6f41
00000080: acdc 7141 bb87 7141 c43f 7241 3a3c 7141
00000090: 5c53 3abd dca4 abbd 37b5 7041 147f 6e41
000000a0: 7ead 7041 7b3b 7141 e5d2 7141 9198 7241
000000b0: 749b 7041 11e5 7041 86d5 7041 aabf 7141
000000c0: ff8f 7141 c0d7 60bd d14a 7141 e6a5 6d41
000000d0: c0cb 7041 9dd0 7141 cc74 7041 f312 6f41
000000e0: 7460 7141 4c72 7141 f39a 7041 ca4c f3bd
000000f0: 7871 f8bc 8b99 7141 8584 87bd 860e 7141
-0.030181881 -0.09268796 -0.062071513 15.066373 15.030226 -0.09529135 15.123467 -0.037619036
14.793657 0.11245446 15.099058 15.150475 15.014733 -0.09935566 -0.060253125 15.081345
15.052698 15.159046 15.016298 15.00485 -0.102511175 -0.100915015 0.077989936 15.026486
14.997412 -0.090836324 15.119059 14.946538 15.034196 -0.102781475 15.076236 14.972054
15.116375 15.095637 15.140568 15.077204 -0.045489654 -0.08381054 15.044242 14.906025
15.0423565 15.077022 15.113988 15.162248 15.037952 15.055924 15.05213 15.109293
15.097655 -0.054893255 15.080766 14.853003 15.049744 15.113431 15.028515 14.942126
15.086048 15.0904045 15.037829 -0.11879881 -0.030327544 15.099986 -0.06617073 15.066046

fc4.weight f4 [49, 64]
00000000: 425e 113e e452 eb3d 007d 8d3d abc8 0240
00000010: 0b76 0d40 4831 b2bd a914 0640 bc17 eebd
00000020: 9857 0140 e660 1fbe fbd9 d13f b4dd 0540
00000030: a501 0e40 191b ecbd 20e7 abbb bb51 0940
00000040: f74b 0140 38db 0840 f89f 0940 a9e1 0b40
00000050: f2a0 a13d 6065 43bc 3d4a 063e 8287 0140
00000060: 6979 e93f a235 91bd 5d10 0d40 6fe6 0b40
00000070: 756e e13f b8ad d7bc ea8a 0c40 2d43 0c40
00000080: 38c7 0c40 2cd3 d73f fe78 0a40 ca48 e43f
00000090: c488 8c3d f92f 943d a471 0a40 2a05 0040
000000a0: d5e6 0040 b109 ff3f 8a0a 0340 1f78 0140
000000b0: d2e1 0640 dbb5 0b40 c816 0040 e8e4 0840
000000c0: 2368 0240 e6ef 0cbd a1c8 fb3f e9f2 0940
000000d0: bd06 0740 be96 0440 7a04 0b40 400c 0440
000000e0: 55da 0040 edc1 0540 3939 0d40 0039 363d
000000f0: 4068 e43b 6c18 0440 16dc 9cbd aef8 0340
00000100: f114 0eba fae9 943d b4fc 1abd bd33 7241
00000110: 955b 7141 0c01 31bb e626 7341 30f2 48bd
00000120: e830 7041 7236 1b3e f814 7141 a7bd 7141
00000130: b2f4 7341 f797 933d 8ecb 933d f0d9 7441
00000140: d768 7141 d3e7 7241 6023 7341 8e0e 7341
00000150: 4018 543b 8413 493d 15b4 11bd 0ec0 7441
00000160: 4c16 7141 fe8f 3b3d 3d26 7441 ae4a 7341
00000170: 6cdf 6e41 168b f0bd bec7 7441 9625 7141
00000180: e363 7141 ed35 7041 e7b2 7341 5428 7141
00000190: 3a88 d73d 6a4b c2ba 678f 7341 bcd6 7041
000001a0: 8072 7441 c9d6 7141 2f4c 7241 8ca0 7441
000001b0: 4b9e 7141 1a13 7341 567f 7241 e33d 7341
000001c0: 76c5 7141 e4d1 7abd e7b1 7241 952f 7341
000001d0: b684 7341 fcc5 7241 a7f4 7341 dd10 7441
000001e0: 5729 7141 3cbc 7241 9ef6 7141 febf 9f3d
000001f0: 28e4 3c3d ab72 7341 2cbc 3e3d 80fd 7041
00000200: b562 8f3d 2656 84bd 58af 2fbd d5e8 0f41
00000210: f436 1041 5ca2 97bd a885 1041 168e f8bd
00000220: c63d 0c41 359a 63bd 59a0 0d41 6187 1041
00000230: fb19 1241 24c3 e5bd d0ae 7d3c 0e87 1141
00000240: d415 1141 e813 1241 5c3d 1241 c99d 0f41
00000250: 1e9e edbd bade 83bd 28ab a83d fef6 1141
00000260: 41bc 0e41 606b 463c bf5d 1141 9839 0f41
00000270: 9bb1 0f41 5ce0 b03d 3c2c 1041 ad8b 0d41
00000280: 2c26 1241 7774 0d41 6874 1041 a497 0c41
00000290: c003 17bd 11b3 cb3d 5a3a 1141 f5a0 0c41
000002a0: d0ab 1241 b384 1041 0b5b 0f41 4cb9 1241
000002b0: 00d7 1141 3e2c 1141 0f67 1241 2182 1141
000002c0: 49a7 1041 90ef acbc 9410 1141 597b 0f41
000002d0: 8f42 0d41 b70b 1341 5231 1041 74b4 0f41
000002e0: 1ed5 1141 bef4 1141 9beb 0f41 a4eb 853d
000002f0: 6c2e 60bd 26ad 1241 9852 613d 3ca4 1141
00000300: 6def 283d 3896 0abd c8f5 a8bc 59b1 2641
00000310: ed17 2941 bec7 c13b 080c 2641 6289 ddbd
00000320: 1edc 2541 5922 6a3d 336f 2841 0f21 2841
00000330: 607f 2841 c122 b4bd 567a 8bbd f333 2641
00000340: df2a 2741 f543 2941 639a 2741 0cf3 2741
00000350: caf0 a33d 8a9a a53d f164 95bc b451 2741
00000360: b710 2a41 ba31 643c a51e 2641 da79 2841
00000370: 2bd6 2741 40d0 57bd a55d 2741 5db5 2741
00000380: 96e4 2841 adab 2841 a288 2741 51a0 2741
00000390: 9478 58bd 9d84 db3d e791 2641 48a1 2841
000003a0: c7b6 2841 b0b5 2741 0f5b 2941 9ad8 2541
000003b0: 4ee5 2541 e8c7 2841 1425 2841 2458 2941
000003c0: 8a17 2741 906b c23c 72f3 2741 b155 2741
000003d0: e861 2941 fd3e 2941 225b 2941 4ff5 2741
000003e0: dbbc 2741 79b1 2741 95f7 2541 c0f8 3dbd
000003f0: f0b3 943d 40d9 2841 885c c8bd 8500 2941
0.14196113 0.114904195 0.069086075 2.0434978 2.2103298 -0.08700806 2.095011 -0.11625621
2.0209713 -0.15564308 1.6394647 2.0916567 2.2188504 -0.11528606 -0.005246058 2.1456134
2.0202615 2.13838 2.1503887 2.1856482 0.07892026 -0.011926025 0.13114257 2.0238957
1.8240176 -0.07090308 2.2041237 2.1859396 1.7611834 -0.026327953 2.1959786 2.1916
2.1996593 1.686132 2.1636348 1.7834713 0.068620235 0.072357126 2.163186 2.0003152
2.0140889 1.9924833 2.0475183 2.0229566 2.107533 2.1829746 2.0013905 2.1389713
2.037606 -0.034408472 1.9670602 2.155451 2.1097863 2.0717006 2.1721482 2.0632477
2.013326 2.0899613 2.2066176 0.044487953 0.0069704354 2.0639906 -0.076591656 2.0620532
-0.00054199906 0.0727119 -0.037838653 15.137631 15.084859 -0.002700868 15.196997 -0.049059093
15.01194 0.15157488 15.067619 15.108802 15.24724 0.07206719 0.07216559 15.303207
15.088096 15.181598 15.196136 15.191053 0.0032363087 0.049090877 -0.03557213 15.296888
15.067944 0.04579162 15.2593355 15.205732 14.929546 -0.117452785 15.298765 15.071676
15.086886 15.013165 15.231177 15.072346 0.1052403 -0.00148235 15.22251 15.052425
15.277954 15.114938 15.1435995 15.289196 15.101146 15.192163 15.156088 15.202609
15.110708 -0.061235324 15.168433 15.199117 15.2199 15.173336 15.24723 15.254117
15.072593 15.170956 15.122709 0.078002915 0.046116024 15.215495 0.046566173 15.06189
0.07001249 -0.06461744 -0.04289183 8.994344 9.013416 -0.074040145 9.032631 -0.12136476
8.765081 -0.055566985 8.851647 9.0330515 9.131343 -0.11218861 0.015483573 9.095472
9.067829 9.12986 9.13998 8.976022 -0.11602424 -0.06438966 0.082357705 9.122801
8.92096 0.012110561 9.085387 8.951561 8.980861 0.08636543 9.010799 8.846601
9.134319 8.840934 9.0284195 8.787022 -0.03686881 0.099462636 9.076746 8.789296
9.166946 9.032397 8.959727 9.1702385 9.11499 9.073301 9.150161 9.09427
9.040841 -0.021110326 9.066547 8.967614 8.82875 9.19036 9.012041 8.981556
9.114531 9.1222515 8.995021 0.065390855 -0.05473177 9.167273 0.05501041 9.102596
0.04124396 -0.033834666 -0.02062501 10.418298 10.568341 0.0059137037 10.377937 -0.10817219
10.36624 0.057161663 10.527148 10.508071 10.531097 -0.08795691 -0.06810443 10.387683
10.447967 10.579091 10.475192 10.496838 0.08004911 0.080861166 -0.01823661 10.457447
10.629081 0.013927871 10.382482 10.529749 10.489787 -0.052688837 10.460362 10.481778
10.555807 10.541913 10.470858 10.47664 -0.052849367 0.10718653 10.410621 10.539375
10.544623 10.481857 10.584731 10.365381 10.368483 10.548805 10.509052 10.584019
10.443247 0.02373293 10.496935 10.458421 10.586403 10.577878 10.584749 10.49739
10.483607 10.480828 10.372945 -0.046379805 0.07260883 10.55304 -0.09783274 10.562627

fc4.bias f4 [49]
00000000: 9f02 b43f 7133 5241 de7d 2641 eb69 1b41
00000010: 223e 2e41 107d 7540 6973 1441 3cf2 8540
00000020: b50d 4f41 ae5f cf40 a700 0841 f617 4541
00000030: ddde b040 0834 d5bd 299b 4e41 4e50 1f41
00000040: 527b bf40 806c 8c40 70b3 3641 9ed4 e7bd
00000050: 760a b73d 7d03 c940 9087 4f41 2e3e 5541
00000060: 06e1 f140 0078 a838 da0a adbd ec45 603d
00000070: 7612 d440 d6ea d240 bd9c 4641 fa5d 9a3d
00000080: 6091 953c a097 133c f887 e3bc 6315 2a41
00000090: 75af 9b40 9820 25bd f004 09bc b005 afbc
000000a0: 8892 c53c c69f a8bd bf5c 2440 3471 b83d
000000b0: 3835 d53c 0882 6abd a4d5 373d 0afa e23d
000000c0: 30de 863d
1.40633 13.137559 10.405729 9.713359 10.890169 3.8357582 9.278176 4.1858196
12.940846 6.4804296 8.500159 12.31835 5.527205 -0.10410315 12.912881 9.957106
5.9838037 4.3882446 11.418808 -0.113198504 0.08937542 6.281676 12.970596 13.327681
7.5587187 8.033216e-05 -0.084493354 0.054754183 6.6272535 6.5911665 12.413266 0.07537456
0.018257797 0.009008318 -0.027774796 10.630221 4.865168 -0.040314287 -0.008362994 -0.021365017
0.024117723 -0.08233599 2.5681608 0.09005967 0.026026353 -0.057252914 0.044881478 0.110828474
0.06585348
