trike2/models/DQN_Advanced_500ep.pt/DQN_Main.pt (torch, 333068 bytes, 8 tensors)

fc1.weight f4 [256, 148]
00000000: 7ca7 9940 e265 0941 af01 1241 0747 ff40
00000010: 291f df40 fc07 0041 8896 0d41 8d6a 0441
00000020: 7c0c 0641 cbf4 e940 4e63 fd40 0922 0341
00000030: 066d 1641 4691 06bd 3bd1 1341 e8f5 e140
00000040: 0109 0f41 986e 1341 6b72 d140 8228 6c3d
00000050: 3a02 6d3d b169 1341 70fa e540 12e0 2341
00000060: 3142 ec40 f138 38bd 236f 943d bedd a6bc
00000070: 1128 1141 6fef c040 80ed 0441 2c1f 93bd
00000080: a0a5 043b 6dbd 8e3d 32bc 493d 0b1d e940
00000090: 1705 0641 305b 5d3c 0032 41bb 3d47 9cbd
000000a0: fb46 a1bd 0034 113a 42ca f240 0033 4fbb
000000b0: 1310 8cbd e80a f93c f816 203d 40b5 79bb
000000c0: 60af 16bb 8fd3 ef40 d531 b040 5690 1841
000000d0: c712 1341 b5d7 e540 0d39 0441 7b9a 0f41
000000e0: 7c98 ba40 dbfa 0d41 0bc1 ce40 a797 db40
000000f0: a323 f840 4430 0941 2603 85bd 5763 1941
00000100: a4cf c840 6d86 1141 63f9 e640 2151 f640
00000110: 25f1 a73d 349a 8d3c 765e 1341 1f76 ed40
00000120: afea 0441 1c01 d740 347e 21bd d0b8 8f3b
00000130: 6e03 afbc 8d72 fa40 4305 0541 1762 f340
00000140: 9a01 d9bc c902 9c3d 72de 253d e6f1 763d
00000150: e735 dc40 9397 0c41 7a33 bdbc 0e21 6c3d
00000160: 856d 68bd c754 823d f484 833c ea8a f940
00000170: 60dc 643c 1552 9bbd e2f3 7f3d 378c a23d
00000180: 4817 453c 92aa 16bd 2558 ab40 e819 d340
00000190: a561 0941 0cd0 f640 1639 d240 b69d c840
000001a0: c890 f840 201e 3d40 dcd3 0841 4a1b d040
000001b0: 3ebf cd40 2b0b ea40 10da 0041 c833 98bd
000001c0: 590a fa40 920d c340 edb7 f640 97a3 ff40
000001d0: 3a4b d440 ce10 1d3d 8acf 673d 5d9a 0e41
000001e0: 8454 b440 befb 0a41 516e c140 244e 97bd
000001f0: c08c 2abc 781f 02bd de67 f340 cea9 fb40
00000200: 4d2b 0541 e079 2b3d 714b 97bd 5eae 403d
00000210: 001c 223a 8c52 6d40 b218 0341 cda2 00bd
00000220: e0ac df3b a86b 91bc 0054 88bc 16d0 3c3d
00000230: 2ee9 d140 e04f 223c e0c5 16bb 1f40 8fbd
00000240: ec7b 193d 201e 2c3c dc77 a0bd d333 a23d
00000250: f458 9940 b763 0a41 9e8e 1141 f41e fd40
00000260: 644b df40 c902 ff40 cfa4 0d41 f86b 0341
00000270: 56e0 0741 63cc e840 d984 0041 1bbf 0241
00000280: 3d36 1641 263e 9bbd 2339 1241 5317 e640
00000290: 7980 0e41 ece1 1341 32bc d340 2d9e a23d
000002a0: 1994 26bd 3276 1441 e09f e240 55f0 2141
000002b0: 97bc ea40 eb8f a3bd c09d 57bd 4002 1ebc
000002c0: a0bb 0f41 28f9 c440 cba1 0441 a852 b33c
000002d0: af56 823d 9027 8cbc e557 943d 41bd e740
000002e0: 5ac0 0741 d4db b6bc 9c82 df3c 1091 123c
000002f0: 1b40 a03d 002a c03a 530a f340 28c5 983c
00000300: 1782 3bbd 4a38 393d 50c2 e33b 0b23 88bd
00000310: 3065 dd3b 7c87 f140 6e90 af40 c106 1a41
00000320: 9afb 1341 de50 e340 cae6 0141 c789 0f41
00000330: f667 b640 90d7 0e41 16e2 d140 6444 db40
00000340: 267f f340 f3ba 0941 208e cdbc 3833 1941
00000350: a88b c840 3f38 1141 0c53 e740 8dc2 f440
00000360: b07f a6bd abc2 a63d 32c2 1241 316f ec40
00000370: 066a 0741 0658 d640 3b0f 973d 84bb e5bc
00000380: f839 6fbd 08b0 f940 1f52 0641 89f3 f740
00000390: e5ff 803d 10ed 90bb d8c9 a7bd 684d de3c
000003a0: 1cda df40 a301 0e41 8000 9bbb bcdc 27bd
000003b0: 59c3 94bd 0018 78bc def9 6bbd 02f3 f840
000003c0: fd3a 9cbd 25f6 4cbd 7bf7 39bd 2618 5b3d
000003d0: 0840 183d ca50 003d bdec b140 b23b d340
000003e0: ba06 0841 e403 fa40 2109 d040 1513 c540
000003f0: 855e f840 0cd7 3a40 8dba 0741 cf5f ce40
4.801695 8.587374 9.125411 7.9774203 6.9725537 8.001949 8.849251 8.276013
8.378048 7.311132 7.918372 8.195809 9.401617 -0.032853387 9.238582 7.061268
8.939698 9.2145 6.545217 0.05765582 0.05786345 9.213304 7.186821 10.242205
7.38308 -0.04497618 0.0724776 -0.020369407 9.072282 6.0292277 8.307983 -0.0718368
0.0020240322 0.06969724 0.049251743 7.2847953 8.376243 0.01351051 -0.0029479265 -0.07630775
-0.078748666 0.00055390596 7.5871897 -0.0031616092 -0.068390034 0.030400708 0.039084405 -0.0038102418
-0.0022992715 7.494575 5.506083 9.535238 9.192084 7.1825814 8.263928 8.975215
5.831114 8.873744 6.461065 6.8622622 7.75435 8.574284 -0.06494741 9.586753
6.2753468 9.095319 7.2179427 7.6974034 0.082002915 0.017285444 9.210562 7.420669
8.307296 6.7188854 -0.039426997 0.004386045 -0.02136394 7.8264832 8.313785 7.605724
-0.026490021 0.07617719 0.040495344 0.060289286 6.88158 8.787005 -0.023095835 0.05764871
-0.05674507 0.06363826 0.016054608 7.7982073 0.013968557 -0.07584015 0.062488444 0.079369
0.012029476 -0.036783762 5.35451 6.5969124 8.586339 7.7128963 6.5694685 6.269252
7.7676735 2.9549637 8.5517235 6.503331 6.429595 7.3138633 8.053238 -0.074317515
7.813763 6.0954065 7.709952 7.9887195 6.634183 0.038346104 0.05659441 8.912686
5.635317 8.6864605 6.0447164 -0.07387951 -0.010409534 -0.031768292 7.606429 7.864478
8.3230715 0.041864276 -0.07387436 0.04704129 0.0006183982 3.7081633 8.193529 -0.03140526
0.006826028 -0.01775153 -0.016641617 0.046096884 6.5597143 0.009906739 -0.0023006126 -0.06994652
0.037471697 0.010505229 -0.07835361 0.07920041 4.7921085 8.649344 9.097319 7.9100285
6.977953 7.96909 8.852736 8.21386 8.4922695 7.2749496 8.0324335 8.171657
9.388242 -0.07580213 9.138949 7.190347 8.906365 9.242657 6.616723 0.07940326
-0.04066858 9.278856 7.082016 10.121175 7.335521 -0.079864345 -0.052640676 -0.009644091
8.983307 6.1554146 8.2895 0.02189 0.0636419 -0.017108709 0.07243327 7.2418523
8.484461 -0.02232162 0.02728396 0.008945718 0.07824727 0.0014660954 7.5950103 0.018648699
-0.04577836 0.045219697 0.006950654 -0.06647309 0.0067564473 7.5477886 5.4863806 9.626649
9.248926 7.1036215 8.118845 8.971137 5.7001905 8.927628 6.5588484 6.8520985
7.609271 8.608142 -0.025092185 9.575005 6.267048 9.076232 7.2288876 7.648749
-0.08129823 0.08142599 9.172411 7.388573 8.463385 6.698245 0.07375952 -0.028043516
-0.058404893 7.802738 8.395049 7.7484784 0.06298808 -0.0044227913 -0.081927955 0.02713652
6.9953747 8.8754 -0.004730284 -0.040981993 -0.07263822 -0.015142441 -0.05761134 7.779664
-0.076284386 -0.05003943 -0.04540203 0.053489827 0.03717044 0.031327046 5.5601487 6.601037
8.501642 7.812975 6.5011144 6.1585793 7.761538 2.9193754 8.483045 6.4491954

fc1.bias f4 [256]
00000000: fda5 2841 a175 2641 ecdd 2641 c9b1 2741
00000010: be3b 2741 72fe 2541 bdcb 2841 7d06 2741
00000020: 7f8a 2841 621e 2841 5e11 2641 5cd8 2741
00000030: ba25 2841 6b1d 2841 2297 2841 ad28 2741
00000040: e7a3 2641 1a36 2841 466b 2841 dbc2 2541
00000050: b372 2641 6967 2741 0bf3 2741 8dd0 2741
00000060: dfc9 2541 5952 2841 4165 2841 fde0 2641
00000070: 9ba9 2741 911d 2741 2e54 2841 b4d9 2641
00000080: be29 2841 87b2 2741 bf2c 2641 6824 2741
00000090: 2c0f 2841 c2dd 2741 9449 2741 6012 2841
000000a0: 1352 2841 bc24 2641 1e83 2741 ca5f 2741
000000b0: 9e69 2841 6b91 2641 40cf 2741 a8ff 2541
000000c0: 1724 2641 1696 2741 4035 2741 6ccd 2741
000000d0: f736 2841 238b 2841 4f49 2641 e98d 2641
000000e0: be12 2841 391f 2841 1f91 2841 f67b 2641
000000f0: f11e 2641 a369 2641 39ed 2741 f454 2641
00000100: 15e6 2541 0312 2841 2fc8 2741 2107 2741
00000110: e03a 2741 4f93 2641 431c 2841 bd62 2641
00000120: 26c3 2641 1344 2741 b6ff 2741 b4fc 2641
00000130: 2ca0 2741 7cac 2741 3923 2541 27d3 2641
00000140: e6c1 2841 4a47 2841 2e78 2741 a804 2841
00000150: 8afd 2641 6743 2841 5c9d 2741 2387 2841
00000160: cf1e 2841 0bfe 2741 cb51 2741 f781 2741
00000170: 2548 2641 0b47 2741 53ae 2641 2ae2 2741
00000180: 34ee 2541 8466 2741 28e8 2641 13dd 2641
00000190: ace3 2741 0a84 2541 8505 2641 79c1 2741
000001a0: 00e0 2641 24be 2741 9dab 2641 5020 2841
000001b0: ddc7 2741 e022 2641 432c 2741 c500 2841
000001c0: 157f 2741 c236 2741 6d77 2741 660e 2841
000001d0: dd5b 2641 cb03 2741 bce1 2641 f83b 2741
000001e0: 9d90 2641 0097 2541 b970 2841 94d9 2741
000001f0: 293e 2741 9faf 2641 6f7c 2641 6d2e 2841
00000200: e489 2641 e748 2741 ec9e 2641 f594 2841
00000210: 3a0b 2641 0f97 2841 e083 2741 558a 2841
00000220: 9394 2841 624f 2641 5410 2741 063b 2841
00000230: 505d 2741 a1c2 2541 8cf6 2541 0bc0 2641
00000240: 9591 2541 9036 2641 9dc6 2741 b974 2741
00000250: 7814 2841 7bb6 2641 5320 2841 d807 2741
00000260: 0d63 2641 469d 2741 1a21 2741 157e 2641
00000270: ae30 2741 2e19 2741 dea8 2741 a914 2641
00000280: 9111 2741 d4e3 2541 7276 2641 fcf7 2741
00000290: f54b 2741 7722 2741 c62c 2841 fda8 2841
000002a0: b205 2741 c37c 2841 a76b 2741 6633 2841
000002b0: 87a5 2741 cd35 2841 b80d 2741 04cd 2541
000002c0: 1180 2841 4bfc 2641 8e76 2841 df0f 2641
000002d0: 6ba8 2641 83a6 2641 bd5e 2841 00fd 2641
000002e0: 4140 2741 19b6 2741 1d4a 2741 0bc3 2641
000002f0: ccfc 2541 b4d0 2641 9a6c 2841 b05a 2841
00000300: 5b94 2841 5e37 2641 cbb0 2741 eedb 2641
00000310: edbe 2641 1550 2741 cc75 2741 873c 2741
00000320: c77b 2841 6e7f 2641 d068 2741 e87e 2541
00000330: 7f21 2741 cc0e 2841 78e7 2741 5d74 2841
00000340: f8a2 2741 becc 2641 13ba 2641 7e35 2641
00000350: 0cc2 2841 a196 2841 8119 2641 d9ec 2741
00000360: bf02 2841 53f4 2741 6837 2641 8bd2 2641
00000370: 8d9d 2741 cfdb 2641 4ee2 2841 34dd 2641
00000380: 78c0 2641 8ea4 2541 6e85 2741 1d82 2841
00000390: c688 2841 3662 2741 a54b 2741 d33b 2641
000003a0: 5447 2641 176f 2841 de60 2841 ff2f 2741
000003b0: 6a3c 2741 61ae 2741 48a3 2841 be69 2841
000003c0: 7d7f 2741 c376 2641 21ec 2741 ab4b 2741
000003d0: baf1 2741 c7e9 2541 3a19 2741 d284 2641
000003e0: 3e42 2741 0f54 2641 3c56 2841 e33c 2841
000003f0: bada 2741 ff8a 2641 acd7 2741 77a8 2741
10.5405245 10.403718 10.42918 10.480905 10.4520855 10.37462 10.549741 10.439084
10.5338125 10.507418 10.37924 10.490322 10.509211 10.507182 10.536898 10.447431
10.415015 10.513208 10.52619 10.360072 10.403003 10.462747 10.496837 10.488416
10.361785 10.520104 10.52472 10.429929 10.478908 10.444718 10.520552 10.42815
10.510191 10.481086 10.385924 10.446388 10.503704 10.49164 10.455463 10.504486
10.520038 10.383968 10.469511 10.460886 10.525785 10.410502 10.488098 10.374916
10.383811 10.474142 10.4505005 10.487652 10.513419 10.533969 10.392898 10.409646
10.504576 10.507623 10.53543 10.405264 10.382554 10.40079 10.495416 10.3957405
10.368672 10.504397 10.486373 10.43924 10.451874 10.410964 10.5069 10.399106
10.422644 10.45412 10.499929 10.436695 10.476604 10.47961 10.321099 10.426551
10.5473385 10.517405 10.466841 10.501137 10.436899 10.516456 10.475918 10.532992
10.507522 10.499522 10.457469 10.46923 10.392613 10.454844 10.41756 10.492716
10.370655 10.462528 10.431679 10.428973 10.493084 10.344736 10.376348 10.484735
10.4296875 10.483921 10.416898 10.507889 10.486295 10.383514 10.448306 10.500188
10.468526 10.450869 10.466657 10.503515 10.397428 10.438426 10.430111 10.452141
10.410306 10.349365 10.52752 10.49062 10.452676 10.417876 10.405379 10.511334
10.408665 10.455298 10.413799 10.536366 10.377741 10.53688 10.469696 10.533772
10.536273 10.394381 10.441486 10.51441 10.460281 10.360017 10.372692 10.4218855
10.3480425 10.388321 10.48599 10.465997 10.504997 10.419551 10.507892 10.439415
10.399182 10.475897 10.445581 10.405782 10.449385 10.443647 10.478727 10.380044
10.441789 10.368122 10.403917 10.498043 10.456044 10.445914 10.510931 10.541257
10.43889 10.530459 10.463782 10.512548 10.477912 10.513135 10.440849 10.362553
10.531266 10.436595 10.528944 10.378875 10.416118 10.415652 10.523129 10.436768
10.453187 10.481957 10.455594 10.422618 10.374218 10.425953 10.526514 10.5221405
10.53622 10.388517 10.480662 10.428694 10.421613 10.457051 10.466259 10.452277
10.530219 10.406111 10.463089 10.343483 10.445678 10.5036125 10.494011 10.528409
10.477287 10.424986 10.420428 10.38806 10.547375 10.536775 10.381227 10.495324
10.50067 10.497149 10.388527 10.426402 10.475965 10.428664 10.55525 10.429005
10.421989 10.3526745 10.470076 10.531766 10.533392 10.461477 10.455968 10.3896055
10.392414 10.527122 10.523649 10.449218 10.45225 10.480073 10.539864 10.525816
10.468625 10.403995 10.495149 10.455974 10.496515 10.369575 10.443659 10.407427
10.453672 10.395522 10.521053 10.514865 10.4909 10.408935 10.490154 10.478629

fc2.weight f4 [128, 256]
00000000: 32f5 2341 826e 2241 53e7 2341 7087 2441
00000010: 8b37 2341 59c0 2441 f118 2541 1dc5 2441
00000020: fa3a 2341 4336 2541 8c72 2241 b5eb 2341
00000030: 5296 2441 2b7e 2341 4bad 2441 d910 2441
00000040: fdfe 2341 cbad 2341 3a42 2341 19a2 2041
00000050: 6de4 2341 6b7b 2441 8db9 2341 9810 2241
00000060: ccee 2341 2e73 2441 4379 2441 278c 2441
00000070: c5b4 2341 7032 2341 22ae 2241 21a2 2541
00000080: dbb8 2341 c413 2441 ac6c 2341 7a4d 2741
00000090: 67fa 2441 1568 2541 4228 2341 7479 2541
000000a0: a440 2441 8427 2341 4c39 2441 5d29 2441
000000b0: 5b3e 2541 917b 2441 c261 2341 883e 2241
000000c0: 543d 2141 8732 2441 f7eb 1e41 b12a 2441
000000d0: 89f6 2341 392f 2441 f85a 2541 7d31 2341
000000e0: 6b57 2341 7484 2341 9cd8 2441 6b6f 2241
000000f0: 3a5d 2441 77ce 2341 1a0d 2541 6715 2441
00000100: c1ce 2241 2f09 2441 52f5 2341 b38b 2241
00000110: fb16 2441 0af9 2541 ec54 2341 749f 2341
00000120: 1539 2341 1faa 2441 3c09 2441 6987 2241
00000130: f3bd 2441 404b 2441 52b1 2341 9f0b 2441
00000140: 0f43 2441 98c5 2341 c53b 2641 cbc7 2341
00000150: 088e 2241 6374 2341 c56f 2341 b0c5 2241
00000160: 379a 2341 0297 2541 ea13 2341 6ac7 2441
00000170: c55a 2341 1e01 2641 5b8e 2441 5bde 2341
00000180: 2197 2341 e3d4 2241 4975 2341 693d 2441
00000190: ace5 2341 bd1c 2741 09c4 2241 6e26 2441
000001a0: 19e1 2341 2e2b 2441 5230 2441 d443 2541
000001b0: 9993 2241 8369 2441 e7eb 2341 cd6b 2441
000001c0: 70bb 2341 355f 2541 d4f1 2241 2bbc 2441
000001d0: abfa 2241 0f09 2441 edb7 2341 0d54 2341
000001e0: 0e2e 2441 a464 2541 d93d 2441 80ef 2341
000001f0: 8906 2341 cd24 2141 6bb9 2441 e175 2241
00000200: f64d 2341 890b 2541 f501 2641 1f1f 2541
00000210: c54d 2441 5f3a 2441 5975 2341 e7c5 2341
00000220: 075e 2441 c283 2441 de37 2441 be94 2241
00000230: af89 2241 0892 2241 e1b2 2341 2e4e 2541
00000240: e93b 2441 7f06 2541 b82e 2441 631c 2441
00000250: fec2 2441 233f 2341 a515 2541 59c2 2441
00000260: 1d1d 2541 2af5 2241 bc0f 2441 534b 2241
00000270: effc 2341 8ad4 2241 aac9 2341 61d9 2341
00000280: 39ca 2441 85bf 2541 b647 2441 a03a 2541
00000290: 3094 2441 cfd0 2541 e966 2441 ecde 2341
000002a0: 94d3 2341 b4fe 2241 2881 2341 9b26 2441
000002b0: e6b2 2441 fb9b 2241 8417 2241 9089 2141
000002c0: 05b2 2241 dd14 2441 54e3 2241 1797 2141
000002d0: 3e95 2341 020b 2441 65b9 2341 5eb0 2141
000002e0: e9c1 2241 92df 2241 531c 2441 39e3 2541
000002f0: 3949 2441 f4d9 2341 e03b 2441 3389 2441
00000300: 7039 2341 7d66 2141 2a81 2341 8004 2441
00000310: 797b 2441 bd96 2541 69a6 2241 0b7f 2541
00000320: b5c9 2441 f830 2341 7aa7 2341 2115 2541
00000330: 7a3f 2441 bba8 2441 15bd 2341 8bf5 2241
00000340: 34cc 2441 9f07 2341 f329 2341 3bad 2341
00000350: 0e23 2341 7892 2341 62e8 2241 31e9 2341
00000360: 07b0 2441 7ce8 2241 29fa 2341 3b8f 2441
00000370: 7c0f 2541 ed7e 2441 c186 2341 0253 2441
00000380: f8d7 2341 db32 2541 e8eb 2441 7bb4 2241
00000390: 40da 2341 07ca 2241 0082 2441 f13c 2441
000003a0: 7a67 2541 ccde 2441 a55c 2341 34cc 2341
000003b0: e365 2341 663c 2341 0ee9 2341 85bf 2341
000003c0: 91ec 2341 cedc 2241 6250 2341 1289 2441
000003d0: a405 2241 6a2d 2341 3c06 2341 6597 2241
000003e0: bad7 2641 d406 2341 a8aa 2441 7a6f 2441
000003f0: af22 2441 292d 2441 2540 2441 5125 2541
10.247362 10.151979 10.243976 10.283066 10.20106 10.29696 10.318589 10.298123
10.201899 10.3257475 10.152966 10.245046 10.286699 10.218303 10.292308 10.254113
10.249753 10.22993 10.203669 10.039575 10.243268 10.280131 10.2328005 10.129051
10.2458 10.27812 10.279605 10.284217 10.231633 10.199814 10.167513 10.352082
10.232631 10.254826 10.214031 10.456415 10.311133 10.337911 10.197329 10.342152
10.265781 10.197147 10.2639885 10.260098 10.3277235 10.280168 10.211367 10.140266
10.077473 10.262336 9.932609 10.260423 10.247689 10.261529 10.334709 10.199582
10.208842 10.219837 10.302883 10.152202 10.27276 10.237906 10.315699 10.255225
10.175477 10.252242 10.247393 10.159106 10.25561 10.373301 10.208233 10.226429
10.201436 10.291533 10.2522545 10.158059 10.296374 10.268372 10.230791 10.252837
10.266372 10.235741 10.389592 10.236278 10.159676 10.215915 10.2147875 10.173264
10.22515 10.349367 10.192362 10.298685 10.209661 10.375273 10.284755 10.241786
10.224397 10.176974 10.216134 10.264993 10.243572 10.444516 10.17286 10.259382
10.2424555 10.260542 10.261797 10.32906 10.161035 10.27576 10.245093 10.276319
10.233261 10.335744 10.18404 10.295939 10.186198 10.252212 10.232404 10.20802
10.261244 10.33707 10.2651 10.245972 10.1890955 10.071485 10.295268 10.153779
10.206533 10.315316 10.375478 10.320098 10.268987 10.264251 10.216149 10.235816
10.272956 10.282167 10.263639 10.161314 10.158614 10.160652 10.231172 10.331587
10.2646265 10.314086 10.261406 10.25693 10.2976055 10.202914 10.317784 10.297448
10.319608 10.1848545 10.253841 10.14339 10.249251 10.176889 10.236734 10.240571
10.299371 10.359258 10.267508 10.326813 10.286179 10.363479 10.275125 10.241924
10.239155 10.187183 10.219032 10.259425 10.293676 10.163081 10.130741 10.096085
10.168462 10.255094 10.1805 10.099387 10.223936 10.252687 10.232762 10.105558
10.172341 10.179583 10.256915 10.367974 10.267877 10.240711 10.264618 10.283496
10.201523 10.087522 10.219034 10.251099 10.280145 10.349301 10.1656275 10.343516
10.299245 10.199455 10.228388 10.317658 10.265497 10.291194 10.233663 10.184947
10.299854 10.189361 10.1977415 10.229793 10.196058 10.223259 10.181734 10.2444315
10.292975 10.181759 10.248574 10.284968 10.31628 10.280988 10.220399 10.270266
10.240227 10.324916 10.307594 10.169063 10.240784 10.174323 10.281738 10.264878
10.337763 10.304394 10.210118 10.237354 10.212375 10.202246 10.244398 10.234258
10.245255 10.178907 10.207125 10.283464 10.126377 10.198587 10.189022 10.161962
10.427668 10.189167 10.291664 10.277216 10.258468 10.261025 10.26566 10.32161

fc2.bias f4 [128]
00000000: c057 2041 a591 1e41 4dd0 1f41 379d 1e41
00000010: d947 1f41 e8d5 1f41 7735 1f41 2643 1f41
00000020: f98d 1f41 1106 2041 a7ce 1e41 63c5 1f41
00000030: 120a 2041 711c 1f41 a301 1f41 182f a5bc
00000040: e663 1f41 d5de 1f41 7c60 2041 8fe1 1f41
00000050: cb2e 2041 ba0d 1f41 b5c4 91bc 4b8f 853d
00000060: 911f 1f41 9613 1f41 5115 2041 3456 78bd
00000070: 2e1f e6bc cfe2 1f41 dfa9 89bd b5a2 1f41
00000080: dc8d 1e41 24b7 1f41 8ca5 1e41 4de2 1d41
00000090: 0cdf 1e41 40d0 1e41 dfd5 953c 6cde 233c
000000a0: a94a 1f41 76c3 38bd 13da 1c41 6ca6 1e41
000000b0: 89ec 1f41 7263 61bd 1547 1f41 3803 a4bc
000000c0: 5638 1f41 5502 1f41 7db4 64bd 9992 823c
000000d0: 04e5 1f41 921d 1f41 1a43 1f41 74de 1e41
000000e0: 7124 2041 f7bc 1e41 47ef 1d41 32cb 1f41
000000f0: da0d 35bd 9340 1f41 16f5 1f41 d0ef a6bc
00000100: 5697 1e41 cc7c 1f41 d342 1f41 584e 1e41
00000110: 4ef5 1f41 fe87 1d41 9ae8 1e41 2649 1f41
00000120: c426 1d41 6210 2041 2f41 1f41 2841 1f41
00000130: 4dc6 1e41 896c 1f41 cdfa 9fbc e50b 1e41
00000140: 4fab 1f41 98c7 1f41 7f82 1e41 eae9 1f41
00000150: 11c5 9abd 633d 1f41 951d 1e41 510d 1e41
00000160: 7c18 2041 6c0f 1e41 56b4 1f41 a82b 1f41
00000170: 9f03 cd3c 617b 1d41 fb87 1e41 f75a 1e41
00000180: 797a 1e41 d9ec 1e41 4cbb 1f41 e991 1d41
00000190: acd3 1e41 5871 1e41 d6f7 1e41 8fab 1f41
000001a0: d302 1e41 8afd 1e41 af87 1f41 42a8 1f41
000001b0: ede2 1f41 1c7a 1e41 9461 1e41 c0be 1f41
000001c0: b1f7 1f41 d3f8 1e41 402c 1f41 1323 1f41
000001d0: a4a7 61bd d82a 1f41 d7b9 1f41 3dfd 1f41
000001e0: 0e2d 1e41 d3b9 1e41 feb8 1e41 16cc 1f41
000001f0: d60f 2041 62e5 1e41 8033 1f41 3938 1f41
10.021423 9.910558 9.988355 9.913383 9.955041 9.989723 9.950553 9.953894
9.972161 10.001481 9.925452 9.98569 10.002459 9.944444 9.9379 -0.020164058
9.961889 9.991902 10.023556 9.992568 10.011424 9.940851 -0.017793993 0.065214716
9.945207 9.942282 10.005204 -0.060629085 -0.02809104 9.992873 -0.067218535 9.977223
9.909634 9.982212 9.915417 9.867749 9.929455 9.925842 0.018290458 0.01000176
9.955728 -0.04510828 9.803241 9.91563 9.995248 -0.05502648 9.954854 -0.020021066
9.951254 9.938069 -0.05583619 0.015939044 9.993412 9.944719 9.953882 9.92931
10.008897 9.921134 9.870917 9.987108 -0.044202663 9.953265 9.997335 -0.020378023
9.911947 9.967968 9.9538145 9.894127 9.997389 9.845701 9.9317875 9.9553585
9.821964 10.004 9.953414 9.953407 9.923413 9.963998 -0.01952877 9.877904
9.979323 9.986229 9.906859 9.994608 -0.07557119 9.952487 9.882222 9.878251
10.005978 9.878765 9.981527 9.948158 0.02502614 9.842622 9.908198 9.897208
9.904901 9.932824 9.983227 9.848123 9.926678 9.902672 9.935507 9.979384
9.8756895 9.936899 9.970626 9.978579 9.992902 9.904812 9.898823 9.98407
9.997972 9.935748 9.948303 9.946063 -0.055091515 9.94796 9.982871 9.999326
9.886 9.920367 9.920164 9.987326 10.003866 9.931002 9.950073 9.951226

fc3.weight f4 [64, 128]
00000000: 82e7 2241 35ec 2441 240f 2441 66ba 2341
00000010: c5ea 2241 4416 2541 8b3d 2241 833e 2541
00000020: 4f4f 2241 8646 2341 c1c6 2441 23f8 2341
00000030: 237f 2241 09a5 2341 142c 2541 6aa8 8abd
00000040: eb9b 2441 5421 2341 cded 2241 2c05 2341
00000050: f81c 2541 6e28 2441 ac6a 343d cfff b5bd
00000060: df26 2441 d731 2541 2565 2341 dc82 cebc
00000070: a496 f63c 9056 2341 a763 9abd 0e56 2341
00000080: 093e 2241 0cd9 2341 651b 2341 970c 2441
00000090: 7db1 2341 5c6d 2241 23d8 8fbd 08c6 3dbd
000000a0: 6094 2341 0469 8b3d 1a4e 2341 b309 2541
000000b0: fd06 2441 37e4 6c3d 7e31 2441 09d8 97bd
000000c0: 98ae 2341 5bf5 2441 25c6 48bd 33eb e13c
000000d0: 70c6 2241 39a3 2341 855f 2341 aa5d 2441
000000e0: f0a7 2241 1275 2341 6bbd 2241 70f5 2241
000000f0: 064e 04bb d3ef 2341 e591 2441 0024 78bc
00000100: 596f 2341 5df8 2441 0fd0 2341 ac4e 2241
00000110: 9883 2441 998c 2141 ffbb 2441 d805 2341
00000120: 18f6 2141 b88b 2241 b435 2241 10de 2241
00000130: 4708 2441 c96f 2241 8f04 9e3d 2089 2341
00000140: 9aa3 2441 8155 2441 a09b 2441 65f0 2441
00000150: a58d ae3b 1815 2341 3420 2541 6ab4 2441
00000160: 5c65 2241 e832 2441 e8ef 2241 a5cc 2441
00000170: fe72 91bd cb6d 2341 222a 2441 bf73 2441
00000180: 05d2 2141 82ca 2341 415c 2441 f8a9 2241
00000190: e649 2141 1baf 2341 a90f 2341 e08d 2241
000001a0: dc33 2541 e5a4 2241 b2a1 2441 5ff9 2241
000001b0: df76 2241 e53c 2441 20e7 2341 62be 2341
000001c0: 1fde 2241 1a60 2441 c5d3 2341 d003 2541
000001d0: e37c a93d 4e06 2441 b7fa 2241 a898 2441
000001e0: 3b21 2341 d8bf 2341 83fb 2241 91f8 2341
000001f0: e360 2241 89cd 2241 6dba 2441 6dee 2241
00000200: 0786 9dbd 1688 423d e987 da3c 2841 223d
00000210: 30d8 6cbc fb94 8fbd 9004 e6bc 9817 40bd
00000220: 599b a2bd 7659 ecbc 3528 8ebd c8f5 8eba
00000230: 744d 9cbc 880c e53c de9a 9cbd c53f 7838
00000240: 6022 cc3c 9606 77bd dd21 5bbd 75bd 88bd
00000250: 3732 b8bd 0924 433c 2f24 963d bb26 62bd
00000260: d778 8fbd a4d6 99bd fa0c 5d3d d82d df3c
00000270: 6ea3 aabd a80a dd3c d8f7 853b baef 503d
00000280: 1ea5 4ebc 6432 01bd d13a 943d 1132 7ebc
00000290: a58a 8d3d e2fb 85bd a979 0ebd 7d9b 683c
000002a0: 6e17 6ebd a187 2d3d 1dc8 9b3d 674b 21bd
000002b0: 30f0 f7bc fad7 ea3c 912f e5bb 2e2d 6a3d
000002c0: 6dbd 463d 7f1f 00bd 8179 b4bd 006f b93c
000002d0: fe03 8c3d 7af9 2a3d 5735 35bd 85fc 00bd
000002e0: f2c9 08bd efed 1f3d 1fd0 13bd a2f3 9fbd
000002f0: 7ca8 c73c 0a3a 8f3d 92a9 743d 46d2 5c3d
00000300: 86d5 e63c 9af7 c1bc 4997 f13b 36db fdbc
00000310: ce13 a7bd f454 b8bd b531 9a3c c782 c3bd
00000320: facd 4a3d 821f ba3c 3084 1fbb 64a0 f5bc
00000330: 77de 7abc d08f 85bd 62ed 963d 252e 6d3c
00000340: 818c 8e3d b5b8 803d e0ad 60bc c341 733d
00000350: 7e8f c13b ae9c ecbc f244 503c 75d2 87bd
00000360: 3ecc c2bd 9244 8fbb 5120 613d 3ae5 86bd
00000370: 9fb5 243c 978b b93d 182d a1bc 7955 32bd
00000380: 7fb6 403d 17f3 6f3d d72d 883d 96ed 363d
00000390: 5692 c0bd 75d5 c5bd d544 c2bd 12de 613d
000003a0: 3e0b 073d a982 853c 1fe4 a7bd b77a 60ba
000003b0: 0271 44bd 5cd3 acbc 0045 35bc 3442 91bd
000003c0: 6335 a7bd 3743 763c ef9e 5abd c840 b83d
000003d0: 3130 aabd 8477 8d3a 7622 23bd c116 a4bd
000003e0: 295a a2bd e09f 703d d6f2 693d a0cb 09bd
000003f0: 29e7 8a3d 8fd0 4c3d 9862 31bd cfa8 7a3c
10.18152 10.307668 10.253696 10.233007 10.182317 10.317936 10.140025 10.327762
10.144362 10.204718 10.298524 10.24808 10.156039 10.227792 10.323261 -0.06770404
10.288066 10.195637 10.183057 10.188763 10.319572 10.259871 0.044047043 -0.08886682
10.25949 10.324668 10.2121935 -0.025208883 0.030101128 10.208633 -0.075385384 10.208509
10.140145 10.24049 10.194188 10.253074 10.230832 10.151699 -0.07023647 -0.046331435
10.223724 0.068071395 10.206568 10.314868 10.251706 0.05783483 10.262083 -0.07414252
10.230125 10.309901 -0.04901709 0.027577972 10.173447 10.227349 10.21082 10.272867
10.166 10.216082 10.171245 10.184921 -0.0020188107 10.246051 10.285619 -0.015145302
10.2146845 10.310636 10.238296 10.144207 10.282127 10.096826 10.2958975 10.188927
10.1225815 10.159111 10.138111 10.1792145 10.252021 10.152291 0.07715713 10.220978
10.289942 10.270875 10.287994 10.30869 0.005326944 10.19265 10.320362 10.294046
10.149746 10.262428 10.183571 10.299962 -0.07102011 10.214305 10.260286 10.278258
10.113774 10.23694 10.272523 10.166496 10.080542 10.23025 10.191323 10.159637
10.325161 10.165257 10.289476 10.185882 10.154021 10.264867 10.243927 10.23398
10.179229 10.273462 10.239202 10.313431 0.082757734 10.251539 10.18621 10.28727
10.195613 10.234337 10.186404 10.248185 10.148654 10.1751795 10.295514 10.183209
-0.07691579 0.047493063 0.026676135 0.03961292 -0.01445584 -0.07010838 -0.028078347 -0.0468975
-0.079397865 -0.028851252 -0.06941263 -0.0010906989 -0.019079901 0.027960077 -0.07646726 5.9187198e-05
0.024918735 -0.060309015 -0.05349909 -0.06676761 -0.08993953 0.011910447 0.0733112 -0.055212718
-0.0700547 -0.075116426 0.053967454 0.02724354 -0.08331953 0.02698262 0.004088383 0.05100987
-0.012612609 -0.031542197 0.07237781 -0.015514866 0.0691121 -0.065421835 -0.034783993 0.014197228
-0.058127813 0.042365674 0.07606528 -0.03937855 -0.030265898 0.028667439 -0.0069941957 0.057171993
0.048520494 -0.031280037 -0.088122375 0.022635937 0.06836699 0.041741826 -0.044240322 -0.03149082
-0.033395715 0.03904527 -0.03608715 -0.07810141 0.024372332 0.06993492 0.059732027 0.05391147
0.028177988 -0.023677636 0.007372771 -0.030988317 -0.08158074 -0.090005785 0.01882253 -0.09546428
0.04951284 0.022720102 -0.0024340264 -0.029983707 -0.015311829 -0.06521571 0.07369496 0.014476334
0.06960393 0.0628523 -0.01371333 0.059388887 0.005906998 -0.028883304 0.01271175 -0.06631938
-0.09511612 -0.004372188 0.05496246 -0.0658669 0.0100530675 0.09059828 -0.019674823 -0.043538544
0.04704904 0.058581438 0.06649368 0.044660173 -0.09402911 -0.09659854 -0.09485785 0.055143423
0.032969706 0.016297655 -0.081978075 -0.0008563208 -0.047959335 -0.021096878 -0.011063814 -0.07092705
-0.081644796 0.015030674 -0.053374227 0.08996731 -0.08309973 0.0010793065 -0.039827786 -0.080121525
-0.07927353 0.05874622 0.057116352 -0.033641458 0.067823716 0.050003584 -0.043306917 0.015299036

fc3.bias f4 [64]
00000000: b46e 1641 04ef 353d a42f 1541 9589 1441
00000010: 3e40 1441 df0c 1641 72d8 1641 877b 1441
00000020: 9414 1641 8cc7 1641 e083 1441 5741 1541
00000030: 0821 96bd 0b2a 1641 a1bc 2e3d 7b1d d0bd
00000040: 4712 1441 c59f 1241 cea6 1641 07fd 1641
00000050: 4e9e c2bd 5e23 1641 e4c7 1341 4a74 41bd
00000060: dd60 1741 cfad 1841 60c9 1541 2a06 fbbc
00000070: 2b49 1641 75ae 1541 25f4 1441 3b1f 1341
00000080: f02f aebd deb3 1741 c9b0 acbd e6f4 b63b
00000090: 678f 1641 2e11 1641 e8e0 1741 5bc0 1541
000000a0: 423c 1641 4ffb aebd e180 1641 8050 ee3c
000000b0: 104d 1741 139b 1441 fb87 c43c 3001 1641
000000c0: 84af 1441 6c5f 1741 34fb 1441 db4c 1741
000000d0: 1c2f 1541 3f18 b1bd ca32 55bd 4b59 1541
000000e0: 984b 1341 f5bf 1641 9b22 92bd b8ed 1541
000000f0: dfc7 1741 83a7 b4bd c5a8 1b3d 3069 823d
9.402027 0.044417396 9.324131 9.283589 9.265684 9.378142 9.427843 9.280158
9.380024 9.4237175 9.282196 9.328452 -0.07330519 9.385264 0.04266036 -0.10161873
9.254462 9.164006 9.415724 9.436774 -0.095028505 9.383635 9.236301 -0.047230043
9.461148 9.542434 9.361664 -0.030642588 9.392863 9.355092 9.309606 9.195125
-0.08505237 9.481413 -0.084321566 0.0055833934 9.41001 9.379194 9.492409 9.359462
9.389711 -0.08544027 9.406465 0.02909112 9.456314 9.28786 0.023990622 9.37529
9.2928505 9.460796 9.311329 9.456264 9.324001 -0.08647203 -0.05205039 9.3343
9.2059555 9.4218645 -0.07135507 9.370537 9.486297 -0.08821013 0.038002748 0.06367719

fc4.weight f4 [49, 64]
00000000: 1704 0140 1adc 073d af58 e23f 2e33 e93f
00000010: d1e8 ee3f 27d2 f53f ca1b ff3f 270c fc3f
00000020: 874f fe3f 466f ec3f 6892 f23f 44c3 ff3f
00000030: 9a6f ad3d 3920 f33f dcfa f53d 5b8d c23c
00000040: c433 f93f a7c9 f93f e430 ea3f 2c14 e53f
00000050: 5ce2 9dbd c7b7 0140 d4f6 ea3f 9495 f5bd
00000060: 0adf e13f d71f e33f ddfd f53f d64d ed3d
00000070: 8f14 fd3f 90a8 f83f 9c98 ee3f edd9 ec3f
00000080: cf14 4d3d 1a28 ed3f e4fd b5bd 8bc5 5bbd
00000090: be43 e73f 157c fa3f 37a9 e83f d05a f83f
000000a0: ee38 0040 808e 083b 8094 ff3f 761e e6bd
000000b0: c677 f33f 96d1 0140 bc4b 103d 4e0f fe3f
000000c0: f7c9 fb3f 2bab fc3f 4f14 e23f c5c4 f33f
000000d0: 9f5c ff3f 00ab babd 0c8b 49bd e38d f93f
000000e0: f774 e93f 2acb f93f 2de1 9dbd 6da6 e23f
000000f0: 2bc8 f33f 28d4 ab3c 3c47 ebbc 6ef6 c8bd
00000100: e87d 5040 fe23 07bd 0e2b 4640 e94b 4b40
00000110: 9c5c 4840 b4f3 4f40 07fc 4740 b3a7 5140
00000120: dde4 5040 a8c3 4e40 8da0 4740 44f3 4640
00000130: 14ee e83d 030d 4340 bc6e f03d 2e73 a43d
00000140: 4a61 4440 860e 4940 077b 4640 8f35 5640
00000150: b698 8bbd 87d0 4a40 5d01 4f40 58d9 933c
00000160: cf22 5840 db01 5140 d53b 4f40 e8b6 5a3d
00000170: 2996 4240 ec8c 4740 b425 4c40 acd3 3840
00000180: 488b f73d 310f 5340 b064 ef3c f8f7 9e3d
00000190: 26a6 5340 b743 4240 8ac3 4540 7ff5 4f40
000001a0: c20f 5040 6cb2 3cbd 92dc 5140 ea03 edbc
000001b0: bb77 4540 3a38 4340 2c26 e0bd 6f95 4b40
000001c0: 66b9 4f40 89d9 5540 8ad6 5040 fb3d 4a40
000001d0: be6b 4940 160b f6bd 8833 163d a99a 4840
000001e0: db38 4b40 a423 4d40 5bfc 7bbc d094 4d40
000001f0: 910a 4340 b82d bb3d 1d27 b13c 66ab d23d
00000200: bb64 1041 d65f 1dbd 9f18 0f41 dced 0e41
00000210: fb65 1041 2cea 1041 0689 0e41 7f77 0e41
00000220: 3681 0f41 b650 1041 3acd 0f41 ee56 0f41
00000230: c08e 62bb 5803 0e41 ee4e fd3d 346b 6e3d
00000240: 2ae0 0e41 7dc6 0e41 4d0b 1041 8d61 1041
00000250: e41a 823d 5b6d 0e41 2f34 0e41 d850 dbbd
00000260: b751 0f41 eb4e 1141 72ea 1041 bc2f 64bd
00000270: a22e 0f41 43a0 0e41 7300 1141 5514 1141
00000280: ebb0 77bd b6dc 1041 c08e 6cbd b584 853c
00000290: fc19 0f41 b043 0e41 e1c1 0f41 6b8b 0f41
000002a0: dac7 0d41 708f 603c d81d 1141 cdb8 2d3d
000002b0: 9334 0e41 d0a7 0f41 97d2 ed3d fa58 0e41
000002c0: 9e36 1041 5177 0f41 cd96 0d41 8ce5 0f41
000002d0: 3299 0c41 901e b63d 9684 dd3d 5109 1041
000002e0: 0c91 0d41 fd00 1141 05b9 1a3d 2538 1141
000002f0: f19d 1141 2c64 9c3d ad37 c33d bf1b 943d
00000300: 0fe3 e840 d28e 843d 9276 e740 9390 e740
00000310: 74da e640 2990 e540 42a2 e840 4e6b e240
00000320: d8cd e340 4161 e640 e13c e840 430f e540
00000330: f473 6d3d a02f e840 176e b2bd 0e0f 6ebd
00000340: a0cd e340 fac5 e140 df36 e740 a9e0 e140
00000350: 70fd 46bd 5195 e240 050b e640 2019 80bb
00000360: 1e0b e240 14f2 e840 9290 e540 708d b0bc
00000370: 1ed8 e740 3d6e e640 13ce e140 0eab e040
00000380: 50ed 7b3d d972 e740 285a 8d3d bee2 46bd
00000390: ee84 e540 93d9 e140 4739 e940 223e e440
000003a0: 952d e740 c6c9 e33d ff21 e840 7df3 dabd
000003b0: e1b5 e840 9fda e540 dfa2 e43d 3c3a e440
000003c0: 8dde e140 9eac e740 40c2 e840 efb6 e740
000003d0: 56e7 e340 1caa fdbd e869 aabc 3250 e840
000003e0: 3130 e640 57bc e440 a9a9 11bd 3b7a e940
000003f0: 084e e940 cc27 c93d 5db6 263c 3056 dd3c
2.0158746 0.03316889 1.7683314 1.8218744 1.86648 1.9204758 1.9930356 1.9691209
1.986802 1.8471458 1.895093 1.9981465 0.08468552 1.8994209 0.12010738 0.023749044
1.9468923 1.9514664 1.829617 1.7896781 -0.0770919 2.0268419 1.8356576 -0.119914204
1.7646191 1.7744092 1.9218098 0.11587112 1.9771899 1.9426441 1.8640323 1.8504006
0.050068673 1.8527863 -0.088863164 -0.05365519 1.8067548 1.9569117 1.817664 1.9402714
2.0034747 0.002083689 1.9967194 -0.11236279 1.9020927 2.028417 0.035228476 1.9848421
1.967101 1.9739736 1.7662448 1.9044424 1.9950141 -0.09114647 -0.04920487 1.9496425
1.823882 1.9515126 -0.077089645 1.7707039 1.9045461 0.020975187 -0.02872049 -0.09812628
3.2576847 -0.03299331 3.0963778 3.1765082 3.1306524 3.2492495 3.1247575 3.2758605
3.2639687 3.230692 3.1191742 3.1085978 0.11373535 3.0476692 0.11739871 0.08029781
3.068438 3.1415114 3.101259 3.347019 -0.06816237 3.1689775 3.2344582 0.018047974
3.3771245 3.2657382 3.2380269 0.05339709 3.040415 3.1179762 3.1898012 2.8879194
0.12087113 3.2978022 0.029222816 0.0776214 3.307016 3.035383 3.0900598 3.249359
3.2509618 -0.046068594 3.2790875 -0.02893253 3.0854328 3.0503068 -0.10944781 3.1809957
3.2456908 3.3414023 3.2630944 3.160033 3.147201 -0.12013833 0.036670238 3.1344397
3.1753452 3.2053003 -0.01537999 3.2122078 3.04752 0.091395795 0.021625096 0.10286598
9.024592 -0.038421474 8.943511 8.933071 9.024898 9.057171 8.908453 8.904174
8.969046 9.019705 8.987604 8.958723 -0.003456995 8.875816 0.1236857 0.058207706
8.929728 8.923459 9.002759 9.023816 0.06352785 8.901698 8.88774 -0.10708779
8.95745 9.081767 9.057238 -0.055709586 8.948885 8.914126 9.06261 9.067464
-0.060471456 9.0538845 -0.057753325 0.016298631 8.943844 8.891525 8.984834 8.971538
8.861292 0.013706073 9.069786 0.042412568 8.8878355 8.97847 0.116124325 8.896723
9.013334 8.96663 8.849317 8.993542 8.787401 0.08892548 0.108163044 9.0022745
8.847912 9.062741 0.037774105 9.076207 9.10106 0.07636294 0.09532104 0.07231855
7.277717 0.06472553 7.233224 7.236398 7.2141666 7.1738477 7.269807 7.0755987
7.1188774 7.199372 7.2574315 7.158113 0.05797191 7.2558136 -0.08712404 -0.058119826
7.1188507 7.055417 7.225448 7.0586743 -0.04858154 7.080727 7.188845 -0.003909245
7.063857 7.2795506 7.1738977 -0.021551818 7.2451315 7.200957 7.0564055 7.0208807
0.061505616 7.2327695 0.069019616 -0.048556082 7.172477 7.0578094 7.288242 7.1325846
7.224314 0.111224696 7.25415 -0.10690973 7.272202 7.182937 0.11163878 7.1321087
7.058417 7.2398214 7.273712 7.2410808 7.1219893 -0.123859614 -0.020802453 7.2597895
7.1933827 7.1479907 -0.03556219 7.2961707 7.2907753 0.09822044 0.010175315 0.027018636

fc4.bias f4 [49]
00000000: d08c 2140 2bd9 7740 2831 fd40 feee d340
00000010: e9e2 7e40 7030 d140 56ab bc40 d3c6 9640
00000020: 27ce da40 a802 8f40 1a2a c040 0f73 cb40
00000030: 4926 fe40 bc9e b33d dc49 dc40 8e6e bf40
00000040: 55ec d740 71d5 f140 6b0b 8f40 bca1 2ebd
00000050: d600 a83d 520f e640 cd29 8640 6638 fc40
00000060: 5ddb 3040 e84e 0e3d fcab 1ebd 70b8 7cbd
00000070: 4de1 d540 5275 ba40 8334 cc40 404f dc3d
00000080: 5adc 82bd e622 9abd c074 f03c 1b6c 9740
00000090: e6e3 db40 f090 b13c 605f 86bc a0e5 4ebc
000000a0: 5063 d83d 146d 9c3d 1ba6 5b40 3884 803d
000000b0: 5067 f93d d0ca 2cbc 10be 51bd ecbb 0dbd
000000c0: 84ff f7bd
2.5242195 3.87263 7.9122505 6.622924 3.9825995 6.537163 5.895915 4.7117705
6.837665 4.4690742 6.0051394 6.3577952 7.9421735 0.087705106 6.884016 5.9822454
6.747599 7.557305 4.470144 -0.04263471 0.082032844 7.18937 4.1926026 7.8818846
2.7633889 0.03474322 -0.038738236 -0.06169933 6.6837525 5.8268213 6.38141 0.10757303
-0.06389685 -0.075261876 0.029352546 4.7319465 6.8715696 0.021675557 -0.0164029 -0.012627989
0.10565817 0.076379925 3.4320133 0.06275219 0.121779084 -0.010546401 -0.05120665 -0.034603044
-0.121092826
