trike2/models/trainied against random/DQN_Agent_100ep.pt/DQN_Agent.pt (torch, 333080 bytes, 8 tensors)

fc1.weight f4 [256, 148]
0.23488814 1.1085567 1.017825 0.8655563 1.2930677 0.42605487 1.1344306 -0.024858758
0.88723785 0.007850184 0.44176868 0.781774 0.33722922 -0.00026582927 0.9716602 1.1594782
0.6595862 0.05765546 1.1708478 0.011835322 -0.02897479 0.687624 1.3027747 1.2798069
1.2016785 0.017852642 0.05884344 -0.027963988 0.6736224 0.5654759 0.3119094 -0.074719205
0.07808743 0.076466925 0.02425693 0.68479496 0.25374183 0.07073837 0.07512475 -0.04547513
-0.025531057 -0.021081641 0.5733426 0.024751201 0.055326514 -0.010139987 -0.01938574 -0.045457277
0.041796982 0.7594531 1.1614739 1.2537265 0.8415669 0.8160457 0.9380069 1.3186591
0.58734554 1.0230844 0.7908511 1.1019857 0.2529433 0.20043135 0.07232659 0.46841365
0.589909 0.38200018 0.787685 0.9230171 -0.03671908 -0.05870095 0.81687915 0.70363635
0.5761258 0.7177402 0.034066983 0.06226685 0.07688043 1.0700881 0.51549727 0.9941716
-0.007279314 0.07539602 0.004699968 -0.05986488 -0.039880477 1.1064739 0.05909381 -0.01762253
0.07921272 0.013320617 0.00975737 0.7292071 -0.0470732 -0.08105642 0.060457103 0.052114166
0.08013455 0.0038569495 0.5505398 1.1211274 0.8091288 0.8815946 0.707541 0.5656073
0.6361676 0.5748663 1.0401314 0.9837955 0.68687546 0.83008265 0.44869107 -0.020732436
1.246725 1.1373774 0.9385522 0.424855 0.6436218 0.054703213 -0.048154857 0.9811274
0.991462 1.2232553 0.81464297 0.052197583 -0.03048892 0.049774848 0.7056281 0.73749596
1.2295915 0.05468712 -0.071015954 -0.04656105 0.009184137 0.63930917 1.0263855 -0.014812522
0.0051443055 -0.058759265 -0.055015795 0.009240292 1.1231531 0.03229767 -0.012502722 0.029938474
-0.04200712 -0.06945742 0.07109029 -0.02017482 0.34487084 1.0423703 0.8494151 0.7864535
1.3795768 0.3144306 1.4260367 -0.041555483 0.9639717 0.35197398 0.2802933 0.8308687
0.2012242 0.049884446 0.9662589 1.2584914 0.57849747 0.11053189 1.0255965 0.009601414
-0.07694037 0.49195606 1.2934276 1.20688 1.1662849 0.051627226 -0.0055323243 -0.062698245
0.63583577 0.8013152 0.84716684 0.0050312057 -0.03235459 0.04512898 -0.076367445 0.8864278
0.1110973 0.048796125 -0.0689907 0.03600315 -0.0151799545 0.005302921 0.59866107 0.029276341
0.074360766 -0.057696264 0.0520973 -0.02599534 0.07844076 1.0177552 1.2314763 1.3126746
1.0061355 0.8726208 0.78266424 1.2855024 0.7284001 1.1346867 0.6891359 1.1647588
0.48095357 0.77561396 0.042181335 0.58970225 0.77672994 0.19919884 0.6740153 0.9352914
-0.051743582 -0.061413445 0.79297227 0.7591495 0.8082647 0.82328635 0.07121671 -0.059178963
-0.012540489 0.98915046 0.546429 0.79832155 -0.046620872 0.04613801 -0.051006533 -0.05711349
-0.4313265 1.1535158 -0.013047323 -0.027362578 -0.06490002 -0.07839049 -0.038326684 0.4921822
-0.0074345693 -0.07534207 -0.021947104 0.015818581 -0.06326589 -0.055448104 1.0797569 1.0941741
0.92326957 0.74737275 0.920715 0.62753695 0.76904225 0.47735417 1.0796387 1.1439381
00000000: 8486 703e 30e5 8d3f 1748 823f 1995 5d3f
00000010: 3e83 a53f dd23 da3e 0635 913f 98a4 cbbc
00000020: 0522 633f 0f9e 003c 812f e23e 5722 483f
00000030: 4fa9 ac3e 005f 8bb9 b9be 783f c869 943f
00000040: a4da 283f 2228 6c3d 57de 953f f0e8 413c
00000050: 8a5c edbc 2008 303f 52c1 a63f b6d0 a33f
00000060: 9ad0 993f b43f 923c d205 713d bc14 e5bc
00000070: 8572 2c3f 07c3 103f 97b2 9f3e 6206 99bd
00000080: 4dec 9f3d b19a 9c3d 78b6 c63c b94e 2f3f
00000090: 73ea 813e 47df 903d 01db 993d 2144 3abd
000000a0: 8226 d1bc 68b3 acbc 95c6 123f 08c3 ca3c
000000b0: 0e9e 623d 3022 26bc d8ce 9ebc 6931 3abd
000000c0: 5033 2b3d 856b 423f 2dab 943f 1c7a a03f
000000d0: ee70 573f 5fe8 503f 3821 703f d2c9 a83f
000000e0: 475c 163f 6ef4 823f 3875 4a3f de0d 8d3f
000000f0: c981 813e e03d 4d3e f71f 943d ead3 ef3e
00000100: 4704 173f 8795 c33e b9a5 493f d94a 6c3f
00000110: bf66 16bd 6870 70bd fe1e 513f 8321 343f
00000120: fb7c 133f d2bd 373f d289 0b3d 860b 7f3d
00000130: 7d73 9d3d a6f8 883f a1f7 033f 0882 7e3f
00000140: 5087 eebb 3b69 9a3d 3002 9a3b e034 75bd
00000150: b659 23bd f0a0 8d3f 5a0c 723d 205d 90bc
00000160: 473a a23d b83e 5a3c 60dd 1f3c 51ad 3a3f
00000170: d4cf 40bd e900 a6bd dea1 773d aa75 553d
00000180: 951d a43d e0c4 7c3b 2df0 0c3f 1a81 8f3f
00000190: 1123 4f3f 2fb0 613f 6821 353f a4cb 103f
000001a0: e1db 223f 702a 133f 0723 853f 06da 7b3f
000001b0: 12d7 2f3f 4c80 543f d6ba e53e 12d7 a9bc
000001c0: af94 9f3f 9595 913f f544 703f 9886 d93e
000001d0: 66c4 243f 7a10 603d 073e 45bd 2a2b 7b3f
000001e0: 74d0 7d3f a193 9c3f 718c 503f 22cd 553d
000001f0: e6c3 f9bc b6e0 4b3d 0ba4 343f 89cc 3c3f
00000200: 4163 9d3f 9aff 5f3d d070 91bd cdb6 3ebd
00000210: 1079 163c c4a9 233f 9a60 833f 38b0 72bc
00000220: 9091 a83b 8ead 70bd 3e58 61bd 9864 173c
00000230: 7bc3 8f3f 904a 043d 38d8 4cbc 8841 f53c
00000240: a80f 2cbd b13f 8ebd c997 913d aa45 a5bc
00000250: e992 b03e 646c 853f 4573 593f 0455 493f
00000260: f995 b03f 0cfd a03e 5f88 b63f 1536 2abd
00000270: d9c6 763f ef35 b43e 9a82 8f3e d0b3 543f
00000280: b70d 4e3e a253 4c3d be5c 773f 3f16 a13f
00000290: 6918 143f 8b5e e23d bf46 833f 404f 1d3c
000002a0: ea92 9dbd aae1 fb3e 098f a53f 0b7b 9a3f
000002b0: d348 953f 1277 533d 8048 b5bb f067 80bd
000002c0: 22c6 223f fe22 4d3f eddf 583f d0dc a43b
000002d0: 3f86 04bd 2ad9 383d 8966 9cbd efec 623f
000002e0: fb86 e33d 72de 473d ff4a 8dbd 0a78 133d
000002f0: 58b5 78bc 20c4 ad3b da41 193f f0d4 ef3c
00000300: 754a 983d eb52 6cbd fa63 553d 2ef4 d4bc
00000310: 8da5 a03d cd45 823f 04a1 9d3f b905 a83f
00000320: 0cc9 803f 1464 5f3f af5c 483f 588b a43f
00000330: 6e78 3a3f 6a3d 913f 366b 303f d116 953f
00000340: 8c3f f63e a38e 463f 56c6 2c3d baf6 163f
00000350: c6d7 463f c8fa 4b3e 448c 2c3f 426f 6f3f
00000360: 14f1 53bd aa8c 7bbd 3b00 4b3f 9f57 423f
00000370: 6fea 4e3f e5c2 523f 11da 913d a465 72bd
00000380: a076 4dbc f738 7d3f c5e2 0b3f cd5e 4c3f
00000390: 87f5 3ebd 36fb 3c3d 3aec 50bd d6ef 69bd
000003a0: d4d6 dcbe 68a6 933f 70c4 55bc 7c27 e0bc
000003b0: 4dea 84bd 318b a0bd 71fc 1cbd 4eff fb3e
000003c0: b09d f3bb f14c 9abd 6aca b3bc f895 813c
000003d0: 8c91 81bd 8d1d 63bd 7935 8a3f e60d 8c3f
000003e0: 655b 6c3f d253 3f3f fab3 6b3f 43a6 203f
000003f0: f4df 443f c467 f43e 9a31 8a3f 906c 923f

fc1.bias f4 [256]
1.41132 1.571955 1.5153062 1.5905025 1.612778 1.5522302 1.6351655 1.5727378
1.5952704 1.5773232 1.5712899 1.5379462 -0.4617548 1.4960065 1.5853004 1.6083788
1.3697568 1.6514115 1.5914667 1.547621 1.469369 1.5019076 1.4862139 1.4335195
1.572614 1.3597405 1.4126487 1.447246 1.6197613 1.574689 1.605413 1.4522146
1.5485146 1.5390877 1.5559189 -0.4590725 1.50945 1.5972265 1.5426613 -0.4620726
1.5688077 -0.55610996 1.5618604 1.6537503 1.6358718 1.5985593 1.5400617 1.6388164
1.5656083 -0.49550104 1.5724196 1.4391428 1.4148856 1.5410055 1.5741733 1.5639079
1.4041642 1.5660723 1.6105802 1.6527452 1.6077397 1.5704285 1.5848519 1.5897431
1.6381844 1.5796148 1.4716657 1.6029406 1.5926507 1.6352526 1.4997098 1.590785
1.5601752 -0.40848935 1.4226449 1.5519706 -0.4796029 1.4552141 -0.4708064 -0.47869602
1.5374055 1.4040868 1.6583772 1.5287964 1.584114 1.4891475 1.6130594 1.5051509
-0.57458884 1.5759262 1.6125947 1.3913833 1.6172049 1.511544 1.4286003 -0.48400873
1.5499854 1.6159623 1.4324737 1.6215748 1.6346185 1.6278535 1.5686548 1.6092353
1.6034057 1.6305037 1.5690831 1.6556185 1.4422023 1.3674054 1.4695222 1.5292472
1.6099962 1.546927 1.5418965 1.552224 1.5814972 1.5660387 1.6479552 1.6083002
-0.51554286 1.6074476 1.5610648 -0.43872994 -0.50060624 -0.53190637 1.6486543 1.6665245
1.5320389 1.6083436 1.5107813 1.6337138 1.2969167 1.5790111 1.4051245 1.5397956
1.4059548 1.4646549 1.416945 1.5081935 1.4261507 1.4775015 1.4899707 1.5554855
1.6775533 1.6009368 1.5905286 1.5580797 1.5658492 1.6576633 1.5657219 1.5410924
1.588311 1.6006935 1.3450334 1.5173602 1.6087885 1.621269 1.5284582 1.43606
1.6359074 1.5484957 1.611065 1.543924 1.5909158 1.5056906 1.4212239 1.5962988
1.633435 1.6007286 1.4675374 1.5867823 -0.4495543 1.6443145 1.5999221 1.6428537
1.4007696 1.5896207 1.5679631 1.5337636 1.6339575 1.5992424 1.5267268 1.5508949
1.5692688 1.5555917 -0.34980294 1.3911359 1.6350482 1.6057788 1.6028715 -0.5510194
1.6038505 1.5699662 1.6066798 1.6103365 1.6341548 1.620158 1.608142 -0.48504418
1.6137129 1.400396 1.4408917 -0.49553674 1.2738566 1.4532491 1.5811863 1.5890425
1.6108228 1.3705251 1.6072446 1.6389031 1.4337324 1.5315568 1.4592643 -0.44780153
1.5877682 1.5712346 1.6226829 1.439503 1.6424834 1.5702587 1.585652 1.4966726
1.5785728 1.5509156 -0.55050963 1.6044971 1.4552917 -0.54683334 1.519905 1.548094
1.6229302 1.5288992 1.6156409 -0.5404792 1.4968517 -0.41275105 1.4790852 1.6180711
1.4056196 1.5683933 1.5353521 1.6620369 1.5386407 1.6525354 1.6174027 1.6265284
1.5610484 1.4289547 1.5575763 1.6020492 1.5966201 1.5503296 1.4256922 1.4327228
00000000: 22a6 b43f d235 c93f 8ef5 c13f 9695 cb3f
00000010: 826f ce3f 7baf c63f 1a4d d13f 794f c93f
00000020: d231 cc3f bae5 c93f 0720 c93f 6cdb c43f
00000030: 206b ecbe 247d bf3f 20eb ca3f 5bdf cd3f
00000040: 3154 af3f 7461 d33f 2eb5 cb3f 7218 c63f
00000050: 4914 bc3f 823e c03f 423c be3f 917d b73f
00000060: 6a4b c93f fa0b ae3f acd1 b43f 5b3f b93f
00000070: 5754 cf3f 698f c93f 2c7e cd3f 2be2 b93f
00000080: ba35 c63f d300 c53f 5a28 c73f 8d0b ebbe
00000090: a835 c13f eb71 cc3f ed75 c53f c894 ecbe
000000a0: b1ce c83f 395d 0ebf 0beb c73f 17ae d33f
000000b0: 3f64 d13f 979d cc3f be20 c53f bcc4 d13f
000000c0: da65 c83f 50b2 fdbe 0c45 c93f d535 b83f
000000d0: f91a b53f ab3f c53f 837e c93f 222e c83f
000000e0: a7bb b33f 0f75 c83f 7e27 ce3f 288d d33f
000000f0: 6aca cd3f cd03 c93f 6ddc ca3f b47c cb3f
00000100: 07b0 d13f d130 ca3f 8b5f bc3f 282d cd3f
00000110: fadb cb3f f54f d13f 7ef6 bf3f d89e cb3f
00000120: d2b3 c73f 8425 d1be 3a19 b63f f9a6 c63f
00000130: 838e f5be 7544 ba3f 890d f1be a517 f5be
00000140: b4c9 c43f 1eb9 b33f b445 d43f 9aaf c33f
00000150: 3fc4 ca3f 639c be3f bb78 ce3f c9a8 c03f
00000160: 4118 13bf f3b7 c93f 8169 ce3f d918 b23f
00000170: 9200 cf3f 467a c13f 60dc b63f fecf f7be
00000180: ec65 c63f dad7 ce3f 4c5b b73f c38f cf3f
00000190: 2e3b d13f 815d d03f aec9 c83f 6cfb cd3f
000001a0: 663c cd3f 58b4 d03f b7d7 c83f 4feb d33f
000001b0: 169a b83f 2407 af3f 4e19 bc3f 5fbe c33f
000001c0: 5b14 ce3f b401 c63f dd5c c53f 47af c63f
000001d0: 806e ca3f f573 c83f 32f0 d23f c8dc cd3f
000001e0: 9efa 03bf d8c0 cd3f f9d0 c73f 36a1 e0be
000001f0: bb27 00bf 042b 08bf 1b07 d33f ad50 d53f
00000200: da19 c43f 34de cd3f 4861 c13f 891d d13f
00000210: 5e01 a63f 091d ca3f 1fdb b33f 0618 c53f
00000220: 54f6 b33f d079 bb3f 745e b53f 7c0c c13f
00000230: 1b8c b63f c51e bd3f 5cb7 be3f 261a c73f
00000240: 11ba d63f 7feb cc3f 7196 cb3f 286f c73f
00000250: bf6d c83f 502e d43f 9369 c83f 8442 c53f
00000260: c64d cb3f 86e3 cc3f 0e2a ac3f dc38 c23f
00000270: c8ec cd3f be85 cf3f 85a4 c33f d0d0 b73f
00000280: 6a65 d13f 1b35 c63f 6137 ce3f 4d9f c53f
00000290: 21a3 cb3f 78ba c03f aaea b53f 8553 cc3f
000002a0: 6614 d13f ade4 cc3f 44d8 bb3f af1b cb3f
000002b0: fb2b e6be e678 d23f 3fca cc3f 0849 d23f
000002c0: 6b4c b33f b178 cb3f 04b3 c83f 5e52 c43f
000002d0: 8525 d13f fab3 cc3f c96b c33f b983 c63f
000002e0: cddd c83f a11d c73f 5f19 b3be be10 b23f
000002f0: 4249 d13f 298a cd3f e52a cd3f 9b0f 0dbf
00000300: f94a cd3f a7f4 c83f afa7 cd3f 821f ce3f
00000310: fc2b d13f 5661 cf3f 99d7 cd3f b657 f8be
00000320: 258e ce3f 2d40 b33f 246f b83f feb6 fdbe
00000330: bc0d a33f 1104 ba3f 5064 ca3f bf65 cb3f
00000340: 712f ce3f 5e6d af3f 31ba cd3f 94c7 d13f
00000350: 8b84 b73f 0e0a c43f 2cc9 ba3f 3e46 e5be
00000360: fd3b cb3f 371e c93f 13b4 cf3f a241 b83f
00000370: e53c d23f 3dfe c83f a5f6 ca3f f892 bf3f
00000380: ac0e ca3f 6784 c63f 33ee 0cbf 2960 cd3f
00000390: 0047 ba3f 45fd 0bbf 3f8c c23f f227 c63f
000003a0: 2dbc cf3f f8b2 c33f 52cd ce3f d85c 0abf
000003b0: d698 bf3f 1b54 d3be aa52 bd3f f41c cf3f
000003c0: 58eb b33f 1dc1 c83f 6b86 c43f a0bd d43f
000003d0: 2ef2 c43f 4886 d33f 0d07 cf3f 1532 d03f
000003e0: 6fd0 c73f fde7 b63f a95e c73f f30f cd3f
000003f0: 0c5e cc3f 3371 c63f 157d b63f 7663 b73f

fc2.weight f4 [128, 256]
1.4041526 1.5436699 1.4435819 1.5026175 1.5054665 1.4314696 1.4754109 1.4114554
1.6134677 1.4499484 1.5366019 1.4373643 -0.84746313 1.1540011 1.4292948 1.3524671
1.517714 1.642539 1.5300386 1.5938672 1.2288501 1.3541598 1.5073113 1.4799045
1.3642428 1.0252525 1.4924635 1.3311485 1.409814 1.4606059 1.5145651 1.4322824
1.3576648 1.3784109 1.5146155 -0.87614304 1.4829031 1.3952215 1.5402025 -0.8198609
1.5620832 -0.7978361 1.5660641 1.482879 1.4912708 1.4241822 1.4722326 1.6559997
1.316347 -0.8412655 1.4366719 1.2296661 1.4177709 1.480554 1.5874755 1.5094061
1.5678775 1.520264 1.5385259 1.6633266 1.4713516 1.4008361 1.4314021 1.5922449
1.5540447 1.4600209 1.3439741 1.4415238 1.5074053 1.493181 1.4765157 1.574616
1.3839737 -0.75017333 1.4603119 1.3913325 -0.8889772 1.4690545 -0.73079103 -0.8087426
1.4228982 1.3589766 1.5559558 1.3873316 1.5426166 1.4980843 1.6130385 1.5645595
-0.75631714 1.5625901 1.5239154 1.2537864 1.4157823 1.525507 1.5385654 -0.7386842
1.4499923 1.589476 1.4922622 1.6205231 1.5230019 1.4264483 1.5690746 1.4633886
1.3733116 1.5766417 1.4586228 1.4631633 1.5870548 1.4762666 1.5403047 1.4823518
1.5228251 1.2408286 1.5270996 1.4521303 1.5157008 1.3599396 1.4541904 1.4711103
-0.67115384 1.5032918 1.4045163 -0.6163189 -0.65347725 -0.7243615 1.6408726 1.5589484
1.4585998 1.5148083 1.5822773 1.4086039 1.4485067 1.37394 1.5008626 1.3975992
1.3634182 1.4952484 1.1296068 1.314351 1.4970474 1.3366617 1.3521172 1.5161518
1.5823125 1.50024 1.3898782 1.4282238 1.331834 1.6235269 1.4709959 1.426504
1.3770351 1.4588608 1.228871 1.3812512 1.4166971 1.5284755 1.4816903 1.4636985
1.5254775 1.5699811 1.5377879 1.3359903 1.4446024 1.4330906 1.2386557 1.4761921
1.5316571 1.5343587 1.290344 1.424677 -0.6839378 1.5491235 1.4946876 1.5352207
1.5260731 1.4576308 1.4662812 1.3861248 1.551286 1.5278946 1.4703145 1.4088303
1.4882251 1.4085466 -0.80966127 1.4202218 1.6339288 1.5628017 1.4305087 -0.73573416
1.550391 1.616088 1.3992435 1.4985646 1.5241331 1.4509406 1.5401183 -0.81332433
1.5233903 1.1966534 1.4556454 -0.95375603 0.9239444 1.2590263 1.5500104 1.4370025
1.5043768 1.3353235 1.3939131 1.6214846 1.4289794 1.6096905 1.5017716 -0.9099488
1.4222009 1.470235 1.4172559 1.4220331 1.4933664 1.4186773 1.3964626 1.3979115
1.516457 1.5183885 -0.5797761 1.4992284 1.327493 -0.75247717 1.6068782 1.5177178
1.4819512 1.6720911 1.475565 -0.6880835 1.5203899 -0.90081424 1.4425552 1.6733057
1.4327753 1.4553316 1.6187551 1.6117048 1.3484803 1.6598132 1.4272019 1.5175478
1.5168382 1.3805808 1.6422924 1.5359347 1.5431991 1.4771441 1.2705027 1.3845662
00000000: 46bb b33f fa96 c53f 4bc7 b83f c555 c03f
00000010: 20b3 c03f 653a b73f 44da bc3f 92aa b43f
00000020: 1c86 ce3f e997 b93f 5faf c43f 8efb b73f
00000030: 58f3 58bf 4fb6 933f 22f3 b63f a41d ad3f
00000040: 7444 c23f b83e d23f 4ed8 c33f d703 cc3f
00000050: f64a 9d3f 1c55 ad3f 94ef c03f 836d bd3f
00000060: 829f ae3f 793b 833f 0b09 bf3f 1363 aa3f
00000070: c974 b43f 22f5 ba3f 45dd c13f 0855 b73f
00000080: f6c7 ad3f c56f b03f ecde c13f e94a 60bf
00000090: c5cf bd3f 9e96 b23f 5b25 c53f 67e2 51bf
000000a0: 58f2 c73f fd3e 4cbf ca74 c83f fbce bd3f
000000b0: f6e1 be3f 9a4b b63f 1e72 bc3f ccf7 d33f
000000c0: 0f7e a83f 2d5d 57bf dde4 b73f b365 9d3f
000000d0: 8479 b53f cb82 bd3f 6632 cb3f 3834 c13f
000000e0: 36b0 c83f 0398 c23f 6bee c43f e3e7 d43f
000000f0: 4055 bc3f 994e b33f 2f38 b73f aece cb3f
00000100: f0ea c63f f7e1 ba3f 5807 ac3f da83 b83f
00000110: a8f2 c03f 8e20 bf3f 77fe bc3f 048d c93f
00000120: 0d26 b13f 5c0b 40bf 80eb ba3f 2f17 b23f
00000130: 0394 63bf fa09 bc3f 1f15 3bbf c109 4fbf
00000140: 8721 b63f f2f2 ad3f 8f29 c73f 1594 b13f
00000150: 7674 c53f 3ac1 bf3f 0c78 ce3f 7c43 c83f
00000160: 009e 41bf f402 c83f a90f c33f 137c a03f
00000170: 5b38 b53f d043 c33f b6ef c43f 681a 3dbf
00000180: 5999 b93f f373 cb3f 7302 bf3f 4d6d cf3f
00000190: baf1 c23f dc95 b63f 70d7 c83f 5150 bb3f
000001a0: adc8 af3f 65cf c93f 27b4 ba3f ef48 bb3f
000001b0: 9d24 cb3f 4ef6 bc3f b428 c53f b4bd bd3f
000001c0: efeb c23f 79d3 9e3f 0078 c33f 68df b93f
000001d0: 7c02 c23f 8012 ae3f e922 ba3f 584d bc3f
000001e0: bdd0 2bbf de6b c03f 31c7 b33f 13c7 1dbf
000001f0: 494a 27bf c16f 39bf 1d08 d23f 9f8b c73f
00000200: 66b3 ba3f 3de5 c13f 1088 ca3f 224d b43f
00000210: ab68 b93f 44dd af3f 441c c03f 88e4 b23f
00000220: 7d84 ae3f 4d64 bf3f f596 903f a73c a83f
00000230: 409f bf3f bb17 ab3f 2d12 ad3f 4311 c23f
00000240: 3789 ca3f dd07 c03f 87e7 b13f 0ad0 b63f
00000250: 8979 aa3f bbcf cf3f 9849 bc3f af97 b63f
00000260: b042 b03f f3bb ba3f a54b 9d3f d7cc b03f
00000270: 5556 b53f 16a5 c33f 07a8 bd3f 795a bb3f
00000280: d942 c33f 24f5 c83f 3cd6 c43f bb01 ab3f
00000290: bbe8 b83f 836f b73f 458c 9e3f ddf3 bc3f
000002a0: 570d c43f de65 c43f fe29 a53f d15b b63f
000002b0: 8c16 2fbf ae49 c63f ec51 bf3f 1d82 c43f
000002c0: 5d56 c33f a593 ba3f 1aaf bb3f 8a6c b13f
000002d0: 8a90 c63f 0d92 c33f 4433 bc3f 8d54 b43f
000002e0: 297e be3f 414b b43f f645 4fbf d4c9 b53f
000002f0: 9424 d13f e309 c83f e91a b73f 1359 3cbf
00000300: 3673 c63f f9db ce3f 691a b33f f7d0 bf3f
00000310: cb16 c33f 6cb8 b93f 9922 c53f 0636 50bf
00000320: 74fe c23f f02b 993f 9752 ba3f 5b29 74bf
00000330: 9f87 6c3f c627 a13f be66 c63f b3ef b73f
00000340: 6b8f c03f e1eb aa3f bf6b b23f cf8c cf3f
00000350: cce8 b63f 570a ce3f 0d3a c03f 68f2 68bf
00000360: ae0a b63f a930 bc3f a468 b53f 2e05 b63f
00000370: a126 bf3f 3897 b53f 49bf b23f c4ee b23f
00000380: 431b c23f 8e5a c23f 356c 14bf b7e6 bf3f
00000390: 4aeb a93f 58a2 40bf 2fae cd3f 9444 c23f
000003a0: 94b0 bd3f 1507 d63f 50df bc3f 3e26 30bf
000003b0: 239c c23f c39b 66bf a6a5 b83f e22e d63f
000003c0: 2e65 b73f 4e48 ba3f 5e33 cf3f 584c ce3f
000003d0: 019b ac3f c274 d43f 8dae b63f 023f c23f
000003e0: c127 c23f dfb6 b03f a336 d23f 8299 c43f
000003f0: 8c87 c53f 0f13 bd3f d59f a23f 7739 b13f

fc2.bias f4 [128]
1.4423683 1.4379113 1.3922094 1.4910382 1.5072167 1.4212055 1.4715763 1.552041
1.5379521 1.5029726 1.4614064 1.524032 1.4698366 1.4560373 1.4753054 1.4720002
1.4121948 -0.08128001 1.5516042 0.0027771266 1.4856454 1.5531892 1.4571689 1.4830432
1.4635538 -0.06016182 1.5436547 1.5079154 -0.0662646 1.4842373 1.4856992 1.5430421
1.3097887 1.4988642 1.5095464 1.5375099 1.5245945 1.4545826 1.3578514 1.4606569
-0.05972255 1.5205978 1.48609 1.5507897 1.4632056 1.4530369 1.480229 1.4991494
1.4991884 1.4282371 1.4756898 1.5319821 -0.05869092 1.5047594 1.4692158 1.528523
1.4241028 1.4867483 -0.06035701 1.4651332 1.4339776 1.496416 1.4621505 1.4919498
1.523886 1.5184356 1.3898487 -0.10514283 1.5011253 -0.0853501 1.428001 1.4082258
1.4274169 1.4988462 1.5418915 1.5162448 -0.060454655 1.5157151 1.4894649 1.4821687
1.5482881 1.4594429 1.5697653 -0.03629365 1.5348921 1.4175214 1.5274073 1.5212108
-0.067555524 1.5343055 1.4728295 -0.043669507 1.5384002 1.482262 1.5163877 1.456507
-0.013717272 0.0006317572 1.3960438 1.4439926 1.5440179 1.4971924 1.4335123 -0.04731175
1.5350584 1.4416153 1.5322922 -0.10889605 1.5452845 1.4333087 1.5222994 1.4409502
1.5145435 1.4749238 1.5208594 1.5565671 1.5057727 -0.052294858 1.5334979 1.458667
1.4433374 1.4391602 -0.030905597 1.4398383 1.450405 -0.017221058 1.5026729 -0.0033850227
00000000: 869f b83f 7a0d b83f eb33 b23f 57da be3f
00000010: 7aec c03f 10ea b53f 9d5c bc3f 48a9 c63f
00000020: 9ddb c43f 6861 c03f 5d0f bb3f 7b13 c33f
00000030: 9b23 bc3f 6e5f ba3f cfd6 bc3f 816a bc3f
00000040: cdc2 b43f 2276 a6bd f79a c63f 7400 363b
00000050: a129 be3f e7ce c63f 8384 ba3f 5cd4 bd3f
00000060: bb55 bb3f 3e6c 76bd 7a96 c53f 5f03 c13f
00000070: bcb5 87bd 7dfb bd3f 642b be3f 6782 c53f
00000080: 28a7 a73f c8da bf3f d138 c13f 20cd c43f
00000090: ea25 c33f c32f ba3f 13ce ad3f cef6 ba3f
000000a0: a29f 74bd f3a2 c23f 3238 be3f 4780 c63f
000000b0: 524a bb3f 1dfd b93f 2578 bd3f 21e4 bf3f
000000c0: 68e5 bf3f 79d0 b63f 67e3 bc3f fd17 c43f
000000d0: e465 70bd f59b c03f 430f bc3f a4a6 c33f
000000e0: 0049 b63f c54d be3f ea38 77bd 7c89 bb3f
000000f0: 948c b73f 8f8a bf3f bf27 bb3f 36f8 be3f
00000100: b20e c33f 195c c23f 90e6 b13f 2055 d7bd
00000110: e024 c03f 09cc aebd bdc8 b63f be40 b43f
00000120: 99b5 b63f 31da bf3f b35c c53f 4f14 c23f
00000130: 4d9f 77bd f402 c23f c9a6 be3f b4b7 bd3f
00000140: 4e2e c63f 06cf ba3f 12ee c83f a6a8 14bd
00000150: 5877 c43f 5771 b53f 1582 c33f 09b7 c23f
00000160: 8d5a 8abd 1f64 c43f ad85 bc3f ccde 32bd
00000170: 4cea c43f c3ba bd3f fe18 c23f d26e ba3f
00000180: 69be 60bc 829c 253a 90b1 b23f c0d4 b83f
00000190: 61a2 c53f 00a4 bf3f 557d b73f f7c9 41bd
000001a0: cb7c c43f da86 b83f 2722 c43f e404 dfbd
000001b0: e2cb c53f a976 b73f b5da c23f 0e71 b83f
000001c0: 90dc c13f 4eca bc3f 85ab c23f 973d c73f
000001d0: 29bd c03f 2233 56bd a949 c43f 9ab5 ba3f
000001e0: 48bf b83f 6736 b83f bc2d fdbc 9f4c b83f
000001f0: dfa6 b93f 2d13 8dbc 9657 c03f 42d7 5dbb

fc3.weight f4 [64, 128]
0.005320825 0.038363535 -0.047559015 -0.100406446 -0.052078944 0.038422737 -0.08864113 -0.044532035
-0.025667937 -0.07400676 0.05034875 -0.056126483 -0.012695883 -0.07254566 -0.054949977 -0.028732788
-0.06489669 -0.055942643 -0.0021084177 0.0058218827 -0.012757063 -0.03139052 0.055436123 0.031447705
-0.029672641 -0.018497718 -0.0501935 -0.04152108 0.05195353 -0.11664243 0.063058786 0.051671535
0.009779932 0.04726566 -0.037277926 0.015871722 -0.028077347 -0.004797965 0.013344949 0.01909552
-0.06614729 0.028855931 0.020104457 -0.07659387 0.057767548 -0.0631533 -0.001499273 -0.073141195
0.023938676 -0.075359 0.06455494 0.021526737 -0.048673775 0.015131462 -0.11926972 -0.016683877
0.030341683 0.03361027 -0.006950408 -0.12155916 0.074548 -0.09390789 -0.049597286 -0.07421633
-0.02540731 0.0046005417 0.056804985 0.033804223 -0.004264806 0.008510793 0.042978954 0.052893855
-0.12286264 -0.12212227 -0.092871144 -0.06615558 0.0030445505 0.03854997 0.0714525 -0.07718454
-0.09183034 0.09584619 -0.113418676 0.08721911 0.068378665 -0.07199576 -0.026248429 -0.1248695
0.06720938 0.027247721 -0.04415468 -0.031532247 -0.09846965 -0.038171012 -0.024421051 -0.017511262
-0.0858542 -0.110178456 -0.070482135 -0.036282964 0.024057478 -0.10890105 -0.05705807 -0.056015488
0.018369412 -0.13052145 -0.036413033 -0.04346892 -0.002660931 -0.10537433 -0.024210393 -0.10250881
0.03170523 0.0044937036 0.009126115 -0.009461831 -0.022996174 0.031685248 -0.09201316 0.054595713
0.022692274 -0.10298885 0.058663268 -0.017606564 -0.053885955 0.011268503 0.051546328 -0.019901639
-0.03360029 0.009826221 -0.07223795 0.016914949 -0.00037647627 -0.07644456 0.030404584 -0.038660638
-0.07274878 0.013336105 0.019818313 -0.08575393 -0.019993566 -0.030196799 -0.081290215 -0.04058475
0.023718126 -0.053598814 0.072454505 0.0580463 0.006095083 -0.028936014 0.035353914 0.0039916337
0.047619574 -0.037482183 -0.04596214 -0.01885538 0.070057236 -0.08825862 0.06950671 0.020382226
-0.10271692 0.037150033 0.055492617 -0.07541745 0.054886527 -0.07150134 0.0022036142 0.064640276
-0.085509166 -0.037793607 -0.034600087 -0.06578315 0.03747491 0.0012410209 -0.07302568 0.030088
-0.0128200725 -0.010926056 0.025708193 0.02777654 -0.04180605 0.009442444 -0.083443336 0.08808956
-0.03814281 -0.0340527 -0.032251358 -0.084703036 0.00543651 -0.057651408 0.04507365 0.003193222
0.009772539 -0.081360675 -0.033010032 -0.016617022 0.04395684 0.023735479 -0.008670315 -0.028785935
0.08578711 -0.04453354 -0.083533324 0.05622842 -0.006106134 -0.043979656 0.03812612 0.07587262
0.032626435 0.032329053 -0.017733075 0.0065172687 -0.046772927 0.035043385 -0.024960414 0.0028768778
0.008959964 0.058629416 -0.077044226 -0.009419233 0.024185397 -0.048156314 0.032960035 -0.092390575
-0.0010106907 0.04342552 -0.065033436 -0.045559037 -0.061019458 0.020623296 0.05535624 -0.08530832
0.073546 -0.00060483813 0.020507015 0.0014013465 -0.035610463 0.031487428 0.052852117 0.0033638105
-0.07854271 -0.041361544 0.016571932 -0.033649497 -0.08022642 -0.066875525 -0.050629873 0.023316907
-0.020892125 -0.07815186 0.05015552 -0.008284725 -0.08194173 0.047624104 0.056498326 0.049707048
00000000: 515a ae3b 1523 1d3d 3ecd 42bd e5a1 cdbd
00000010: bb50 55bd 2961 1d3d 7b89 b5bd 3967 36bd
00000020: 9145 d2bc db90 97bd 7e3a 4e3d e2e4 65bd
00000030: 6502 50bc d292 94bd 3a13 61bd 0661 ebbc
00000040: 8ee8 84bd 1d24 65bd 612d 0abb 7ec5 be3b
00000050: 0003 51bc 5993 00bd fd10 633d 4fcf 003d
00000060: 0a14 f3bc 8788 97bc b397 4dbd 0212 2abd
00000070: 3acd 543d 3ae2 eebd f724 813d 88a5 533d
00000080: 023c 203c a399 413d bdb0 18bd 6a05 823c
00000090: 7702 e6bc 3f38 9dbb c6a4 5a3c 356e 9c3c
000000a0: 3b78 87bd 4663 ec3c 1ab2 a43c 3fdd 9cbd
000000b0: aa9d 6c3d 8456 81bd 4183 c4ba 0dcb 95bd
000000c0: 0b1b c43c d255 9abd 6135 843d d758 b03c
000000d0: 275e 47bd f4e9 773c af43 f4bd a0ac 88bc
000000e0: 1f8f f83c ecaa 093d 40c0 e3bb 02f4 f8bd
000000f0: 9fac 983d c852 c0bd 8626 4bbd bbfe 97bd
00000100: fe22 d0bc 24c0 963b 58ac 683d 4c76 0a3d
00000110: c9bf 8bbb da70 0b3c b30a 303d 3aa7 583d
00000120: 689f fbbd 3e1b fabd 3a33 bebd 947c 87bd
00000130: 1587 473b 93e6 1d3d b055 923d ee12 9ebd
00000140: 8c11 bcbd 024b c43d 0d48 e8bd ef9f b23d
00000150: 1d0a 8c3d 8372 93bd f206 d7bc 95bb ffbd
00000160: 12a5 893d 9d36 df3c 8adb 34bd f527 01bd
00000170: 75aa c9bd 3559 1cbd a80e c8bc c773 8fbc
00000180: 54d4 afbd 3ea5 e1bd f058 90bd 729d 14bd
00000190: 3014 c53c 8407 dfbd b9b5 69bd 7f70 65bd
000001a0: 737b 963c 6aa7 05be d525 15bd 770c 32bd
000001b0: 0463 2ebb 7fce d7bd e054 c6bc 24f0 d1bd
000001c0: 58dd 013d eb3f 933b b385 153c cc05 1bbc
000001d0: 7962 bcbc 64c8 013d 6571 bcbd c19f 5f3d
000001e0: 26e5 b93c d1eb d2bd e548 703d a43b 90bc
000001f0: 85b7 5cbd 879f 383c 3e22 533d c308 a3bc
00000200: 75a0 09bd 28fe 203c 7ef1 93bd 3891 8a3c
00000210: ca61 c5b9 f78e 9cbd 0913 f93c 9e5a 1ebd
00000220: 50fd 94bd ae7f 5a3c 045a a23c c29f afbd
00000230: 8cc9 a3bc 475f f7bc 7c7b a6bd 323c 26bd
00000240: 844c c23c 6e8a 5bbd 0763 943d f5c1 6d3d
00000250: 43b9 c73b 380b edbc 44cf 103d 40cc 823b
00000260: be0c 433d eb86 19bd cc42 3cbd 9976 9abc
00000270: 2b7a 8f3d efc0 b4bd 8959 8e3d a0f8 a63c
00000280: 405d d2bd a22a 183d 3a4c 633d 7774 9abd
00000290: b2d0 603d 4b6f 92bd 836a 103b 1f62 843d
000002a0: 6e1f afbd 78cd 1abd d2b8 0dbd 51b9 86bd
000002b0: 4b7f 193d c0a9 a23a 7d8e 95bd 1c7b f63c
000002c0: 480b 52bc 3303 33bc fd99 d23c a08b e33c
000002d0: d23c 2bbd 7bb4 1a3c 57e4 aabd 4d68 b43d
000002e0: a33b 1cbd d87a 0bbd 001a 04bd c978 adbd
000002f0: c024 b23b e223 6cbd 269f 383d 6045 513b
00000300: 001d 203c 6da0 a6bd 8735 07bd 6c20 88bc
00000310: 160c 343d e870 c23c f00d 0ebc 7bd0 ebbc
00000320: 27b1 af3d cd68 36bd 8513 abbd c64f 663d
00000330: f715 c8bb 0324 34bd 222a 1c3d 1b63 9b3d
00000340: 4ca3 053d 786b 043d f444 91bc d08e d53b
00000350: f894 3fbd a789 0f3d c879 ccbc 008a 3c3b
00000360: d0cc 123c 6625 703d 5dc9 9dbd 2053 1abc
00000370: 7420 c63c 8e3f 45bd 1a01 073d 4537 bdbd
00000380: 2779 84ba f5de 313d 4030 85bd 1d9c 3abd
00000390: 8aef 79bd 30f2 a83c 3abd 623d 21b6 aebd
000003a0: 499f 963d 008e 1eba 54fe a73c 63ad b73a
000003b0: 47dc 11bd f6f8 003d 767b 583d 6073 5c3b
000003c0: 00db a0bd b96a 29bd dcc1 873c 0ed4 09bd
000003d0: c04d a4bd 09f6 88bd 4561 4fbd 1903 bf3c
000003e0: f625 abbc 150e a0bd e06f 4d3d a8bc 07bc
000003f0: 11d1 a7bd 7e11 433d ca6a 673d 9e99 4b3d

fc3.bias f4 [64]
-0.030181881 -0.09268796 -0.062071513 1.4432662 1.4044279 -0.09529135 1.4992976 -0.037619036
1.1088017 0.11245446 1.3938729 1.5288205 1.3982029 -0.09935566 -0.060253125 1.4563289
1.4254447 1.5371246 1.3923676 1.3782475 -0.102511175 -0.100915015 0.077989936 1.3992149
1.3099167 -0.090836324 1.4879311 1.3153429 1.3679974 -0.102781475 1.4593569 1.3308475
1.4916376 1.4040456 1.5169734 1.3998652 -0.045489654 -0.08381054 1.4212548 1.2299094
1.4234054 1.4603399 1.4894791 1.5429766 1.4109491 1.4327338 1.4281595 1.4891958
1.4805199 -0.054893255 1.4624802 1.2231116 1.4009913 1.4868698 1.3922461 1.3177238
1.461403 1.4628268 1.4156203 -0.11879881 -0.030327544 1.477473 -0.06617073 1.4432498
00000000: fe3f f7bc 2fd3 bdbd b33e 7ebd f2bc b83f
00000010: 4bc4 b33f 1c28 c3bd fce8 bf3f 6b16 1abd
00000020: 37ed 8d3f 864e e63d 6d6a b23f 64b0 c33f
00000030: 50f8 b23f fb7a cbbd fbcb 76bd fc68 ba3f
00000040: f974 b63f 80c0 c43f 1a39 b23f 6a6a b03f
00000050: 61f1 d1bd 88ac cebd 30b9 9f3d 7919 b33f
00000060: 5aab a73f 6508 babd 8774 be3f 285d a83f
00000070: 8a1a af3f 187f d2bd 35cc ba3f 3659 aa3f
00000080: fbed be3f c4b7 b33f 2f2c c23f c82e b33f
00000090: 5c53 3abd dca4 abbd adeb b53f ac6d 9d3f
000000a0: 2632 b63f 6bec ba3f 40a7 be3f 4280 c53f
000000b0: fb99 b43f d263 b73f eecd b63f f89d be3f
000000c0: ad81 bd3f c0d7 60bd 8d32 bb3f ec8e 9c3f
000000d0: af53 b33f c051 be3f 1f35 b23f 2cab a83f
000000e0: 410f bb3f e93d bb3f 0c33 b53f ca4c f3bd
000000f0: 7871 f8bc d61d bd3f 8584 87bd 69bc b83f

fc4.weight f4 [49, 64]
0.14196113 0.114904195 0.069086075 0.66956913 0.83605 -0.08700806 0.72026515 -0.11625621
0.63979334 -0.15564308 0.25311363 0.7172426 0.84526706 -0.11528606 -0.005246058 0.77100956
0.6460097 0.7639112 0.77606684 0.8115067 0.07892026 -0.011926025 0.13114257 0.6492566
0.44127032 -0.07090308 0.82963055 0.8114188 0.38095126 -0.026327953 0.8222908 0.8159704
0.8254111 0.30227935 0.78942555 0.40204218 0.068620235 0.072357126 0.7890672 0.6197208
0.63989675 0.6182057 0.6733392 0.64865595 0.73350847 0.8087015 0.62656593 0.76526546
0.6632322 -0.034408472 0.5925267 0.7804237 0.732132 0.69668406 0.7965452 0.6886484
0.6385416 0.71573853 0.8322383 0.044487953 0.0069704354 0.68926764 -0.076591656 0.68795973
-0.00054199906 0.0727119 -0.037838653 1.1695174 1.114281 -0.002700868 1.2238219 -0.049059093
1.001508 0.15157488 1.0295256 1.1375489 1.2810332 0.07206719 0.07216559 1.3308855
1.1180187 1.21019 1.2254755 1.221663 0.0032363087 0.049090877 -0.03557213 1.3244398
1.0488327 0.04579162 1.2877355 1.2338094 0.92419344 -0.117452785 1.3318565 1.0929489
1.1166818 0.9881456 1.2611591 1.0603586 0.1052403 -0.00148235 1.2530965 1.0451275
1.3081219 1.1444794 1.1738274 1.318682 1.1325523 1.2218899 1.1822712 1.2357819
1.1394752 -0.061235324 1.1963972 1.2241061 1.2288784 1.1984142 1.2685448 1.2816949
1.0991952 1.2009425 1.151607 0.078002915 0.046116024 1.2423425 0.046566173 1.0926065
0.07001249 -0.06461744 -0.04289183 1.1280427 1.1455303 -0.074040145 1.1628941 -0.12136476
0.86949 -0.055566985 0.9362201 1.1646789 1.2663752 -0.11218861 0.015483573 1.2263215
1.2001742 1.2613318 1.2720331 1.1088269 -0.11602424 -0.06438966 0.082357705 1.2535543
1.0192766 0.012110561 1.2167509 1.082702 1.0889615 0.08636543 1.1453943 0.9731726
1.2666379 0.93499357 1.1609024 0.890442 -0.03686881 0.099462636 1.2096028 0.8959321
1.2995019 1.1645923 1.0923172 1.3023744 1.2483352 1.2055445 1.2800711 1.2288475
1.1725346 -0.021110326 1.1976418 1.0967011 0.94696444 1.3194951 1.13867 1.1123652
1.2446529 1.2546992 1.126769 0.065390855 -0.05473177 1.2976024 0.05501041 1.2355598
0.04124396 -0.033834666 -0.02062501 0.8453527 0.99371755 0.0059137037 0.79566425 -0.10817219
0.73489606 0.057161663 0.853815 0.93298167 0.9594536 -0.08795691 -0.06810443 0.81181204
0.8736854 1.0039041 0.9005158 0.9230144 0.08004911 0.080861166 -0.01823661 0.8814812
0.9888982 0.013927871 0.80715936 0.9541885 0.8619527 -0.052688837 0.88825226 0.8922864
0.98143655 0.8875839 0.8966139 0.8428897 -0.052849367 0.10718653 0.83679503 0.9101543
0.9705021 0.90731585 1.0106418 0.79080814 0.795204 0.9743839 0.9240938 1.0119696
0.86816716 0.02373293 0.92125946 0.87267005 0.9783005 0.9921775 0.99527305 0.92144424
0.90115845 0.90657175 0.79796976 -0.046379805 0.07260883 0.97077596 -0.09783274 0.9888882
00000000: 425e 113e e452 eb3d 007d 8d3d e268 2b3f
00000010: 5f07 563f 4831 b2bd 4c63 383f bc17 eebd
00000020: 7fc9 233f e660 1fbe 1c98 813e 369d 373f
00000030: 6c63 583f 191b ecbd 20e7 abbb e260 453f
00000040: e460 253f af8f 433f 51ac 463f e7be 4f3f
00000050: f2a0 a13d 6065 43bc 3d4a 063e ae35 263f
00000060: 2fee e13e a235 91bd ab62 543f 24b9 4f3f
00000070: 0b0c c33e b8ad d7bc a681 523f 70e3 503f
00000080: 244e 533f 5cc4 9a3e cb17 4a3f 79d8 cd3e
00000090: c488 8c3d f92f 943d 4f00 4a3f 06a6 1e3f
000000a0: 46d0 233f bb42 1e3f f55f 2c3f 510e 263f
000000b0: 36c7 3b3f 1007 4f3f a066 203f 70e8 433f
000000c0: 96c9 293f e6ef 0cbd d4af 173f d9c9 473f
000000d0: 016d 3b3f e359 323f 63ea 4b3f 434b 303f
000000e0: 7677 233f a43a 373f 920d 553f 0039 363d
000000f0: 4068 e43b d873 303f 16dc 9cbd 211e 303f
00000100: f114 0eba fae9 943d b4fc 1abd bfb2 953f
00000110: c3a0 8e3f 0c01 31bb 32a6 9c3f 30f2 48bd
00000120: 6a31 803f 7236 1b3e 7fc7 833f 349b 913f
00000130: e5f8 a33f f797 933d 8ecb 933d 755a aa3f
00000140: 3d1b 8f3f 82e7 9a3f 62dc 9c3f 745f 9c3f
00000150: 4018 543b 8413 493d 15b4 11bd 3e87 a93f
00000160: 2640 863f fe8f 3b3d 84d4 a43f 77ed 9d3f
00000170: f197 6c3f 168b f0bd 467a aa3f c0e5 8b3f
00000180: 6eef 8e3f 1cf7 7c3f a96d a13f d5b9 873f
00000190: 3a88 d73d 6a4b c2ba 7765 a03f bdc6 853f
000001a0: 8a70 a73f 4d7e 923f fa3f 963f 92ca a83f
000001b0: 79f7 903f e366 9c3f aa54 973f 1a2e 9e3f
000001c0: 53da 913f e4d1 7abd 8b23 993f 82af 9c3f
000001d0: e34b 9d3f a365 993f ad5f a23f 940e a43f
000001e0: 6eb2 8c3f 7cb8 993f dc67 933f febf 9f3d
000001f0: 28e4 3c3d 1405 9f3f 2cbc 3e3d 88da 8b3f
00000200: b562 8f3d 2656 84bd 58af 2fbd b463 903f
00000210: bda0 923f 5ca2 97bd b7d9 943f 168e f8bd
00000220: e696 5e3f 359a 63bd 1fac 6f3f 3314 953f
00000230: 9518 a23f 24c3 e5bd d0ae 7d3c 1af8 9c3f
00000240: 4f9f 993f 5273 a13f fbd1 a23f 0aee 8d3f
00000250: 1e9e edbd bade 83bd 28ab a83d 7874 a03f
00000260: a877 823f 606b 463c 7ebe 9b3f fb95 8a3f
00000270: 1763 8b3f 5ce0 b03d 489c 923f d721 793f
00000280: 3121 a23f bd5b 6f3f 7398 943f 02f4 633f
00000290: c003 17bd 11b3 cb3d 44d4 9a3f ce5b 653f
000002a0: 1456 a63f 5c11 953f 0dd1 8b3f 34b4 a63f
000002b0: 73c9 9f3f 484f 9a3f 5fd9 a33f e04a 9d3f
000002c0: 9d15 963f 90ef acbc 544c 993f b460 8c3f
000002d0: 436c 723f 37e5 a83f f0bf 913f fc61 8e3f
000002e0: c950 9f3f fc99 a03f f739 903f a4eb 853d
000002f0: 6c2e 60bd d617 a63f 9852 613d d326 9e3f
00000300: 6def 283d 3896 0abd c8f5 a8bc 0969 583f
00000310: 4664 7e3f bec7 c13b a7b0 4b3f 6289 ddbd
00000320: 2622 3c3f 5922 6a3d 9f93 5a3f e3d7 6e3f
00000330: c09e 753f c122 b4bd 567a 8bbd ead2 4f3f
00000340: d9a9 5f3f ee7f 803f 3488 663f ac4a 6c3f
00000350: caf0 a33d 8a9a a53d f164 95bc c0a8 613f
00000360: 6f28 7d3f ba31 643c ffa1 4e3f b345 743f
00000370: efa8 5c3f 40d0 57bd 8064 633f e26c 643f
00000380: 6d3f 7b3f b338 633f 7d88 653f 9fc7 573f
00000390: 9478 58bd 9d84 db3d 3338 563f dfff 683f
000003a0: d372 783f da45 683f b65c 813f 6772 4a3f
000003b0: 7d92 4b3f 3971 793f 6991 6c3f 3888 813f
000003c0: 3440 5e3f 906b c23c a9d7 6b3f 4e67 5f3f
000003d0: e771 7a3f 58ff 7d3f 37ca 7e3f c5e3 6b3f
000003e0: 52b2 663f 1615 683f bf47 4c3f c0f8 3dbd
000003f0: f0b3 943d c684 783f 885c c8bd c727 7d3f

fc4.bias f4 [49]
0.3934747 1.1327829 1.2616585 1.0628136 0.8106635 0.5784981 1.39629 0.4375471
1.2018068 0.49737972 0.82169455 0.9376081 0.3246726 -0.10410315 1.0951928 0.899285
0.7506915 0.550993 1.0553879 -0.113198504 0.08937542 0.85890037 1.0247781 1.230593
0.9244092 8.033216e-05 -0.084493354 0.054754183 0.65779936 0.67562354 1.0061831 0.07537456
0.018257797 0.009008318 -0.027774796 0.5333345 0.6670315 -0.040314287 -0.008362994 -0.021365017
0.024117723 -0.08233599 0.36899644 0.09005967 0.026026353 -0.057252914 0.044881478 0.110828474
0.06585348
00000000: 8475 c93e 08ff 903f 077e a13f 470a 883f
00000010: a587 4f3f 7418 143f a1b9 b23f 2c06 e03e
00000020: ced4 993f 8ea8 fe3e 935a 523f 1607 703f
00000030: 7d3b a63e 0834 d5bd 472f 8c3f 8b37 663f
00000040: 512d 403f e10d 0d3f f316 873f 9ed4 e7bd
00000050: 760a b73d e5e0 5b3f ee2b 833f 1284 9d3f
00000060: 15a6 6c3f 0078 a838 da0a adbd ec45 603d
00000070: 8a65 283f aaf5 2c3f 9cca 803f fa5d 9a3d
00000080: 6091 953c a097 133c f887 e3bc 9c88 083f
00000090: 94c2 2a3f 9820 25bd f004 09bc b005 afbc
000000a0: 8892 c53c c69f a8bd 1aed bc3e 3471 b83d
000000b0: 3835 d53c 0882 6abd a4d5 373d 0afa e23d
000000c0: 30de 863d
