trike2/models/DQN_SelfPlay_500ep.pt/DQN_Main.pt (torch, 333068 bytes, 8 tensors)

fc1.weight f4 [256, 148]
0	0x40f24bce	7.5717535
1	0x40bd851c	5.9224987
2	0x40f01639	7.5027127
3	0x40f4479d	7.633742
4	0x410220ff	8.133056
5	0x410f7d61	8.96811
6	0x40bc8ca2	5.892167
7	0x40cbfa6c	6.374319
8	0x40db4284	6.8518696
9	0x410682ea	8.406961
10	0x40e09a7f	7.0188594
11	0x4114fc56	9.311605
12	0x40ca7aba	6.3274813
13	0xbd2447ee	-0.04010766
14	0x40ee276f	7.4423137
15	0x410cd057	8.800864
16	0x40c411dc	6.12718
17	0x410c4c99	8.768701
18	0x40dc9d77	6.894222
19	0x3d9a38d5	0.07530371
20	0x3c9db0a4	0.019249268
21	0x410b476c	8.704937
22	0x40ef7cf2	7.484002
23	0x410971ca	8.590281
24	0x41012b72	8.073107
25	0xbd0e7831	-0.034782592
26	0x3c9b3e98	0.018950745
27	0xbd4b1532	-0.04958076
28	0x40fb0c52	7.845254
29	0x4106feea	8.437235
30	0x40970070	4.7188034
31	0x3d766ea2	0.0601641
32	0xbd14408e	-0.036194377
33	0x3cbb88dc	0.022892408
34	0x3d2c5414	0.04207237
35	0x4102e49b	8.180812
36	0x40b56564	5.668627
37	0xbd2116b4	-0.039328292
38	0xbd66ea40	-0.056375742
39	0xbb2fc580	-0.00268206
40	0xbd11779b	-0.035514455
41	0x3da43be1	0.080192335
42	0x4105ac9d	8.354642
43	0x3cf31c28	0.029676512
44	0x3d67df96	0.056609713
45	0xbbdf84b0	-0.0068212375
46	0xbd4fed25	-0.050763268
47	0xbd0b7a52	-0.0340522
48	0xbd973134	-0.073824316
49	0x41024d25	8.143834
50	0x40f590da	7.673932
51	0x40db802c	6.859396
52	0x40eeb216	7.459239
53	0x41065c77	8.397574
54	0x4103ec9b	8.245265
55	0x40d1e8b5	6.5596566
56	0x40fdb7da	7.928693
57	0x40a6c39e	5.211379
58	0x410c26ae	8.759443
59	0x40e6e57a	7.2155123
60	0x410a16b9	8.630548
61	0x40fe0e9d	7.939284
62	0xbc9a593c	-0.018841378
63	0x40d181c9	6.547093
64	0x410ad822	8.677767
65	0x40d55096	6.666087
66	0x4105c851	8.361405
67	0x40cb54fe	6.354125
68	0xbd4d18ea	-0.050072588
69	0xbcf81222	-0.030282084
70	0x411248e2	9.142794
71	0x40c43368	6.131275
72	0x40e8adcb	7.271215
73	0x40d3b986	6.616397
74	0xbd4fba33	-0.050714683
75	0xbc94fe00	-0.018187523
76	0xbda01276	-0.07816021
77	0x40df1dfc	6.97241
78	0x40f38f53	7.6112456
79	0x40e88e90	7.2674026
80	0xbd0d2722	-0.034461148
81	0xbd0a9bbe	-0.033839934
82	0x3d27c4d8	0.04095921
83	0xbd093572	-0.033498235
84	0x4085b180	4.1779175
85	0x40ea1465	7.3149896
86	0xbc0b06c0	-0.008485496
87	0x3d192b66	0.037394904
88	0x3cdf3180	0.027245283
89	0xbd4181ad	-0.04724281
90	0x3d65ea5e	0.056131713
91	0x40f451e6	7.6349974
92	0x3d053998	0.03252563
93	0xbd1bccce	-0.038037114
94	0xbd8d9477	-0.06913083
95	0xb9cd7000	-0.00039184093
96	0xbc891508	-0.016733661
97	0x3d06c9ec	0.03290741
98	0x41072974	8.44762
99	0x40745016	3.817388
100	0x40da282f	6.817405
101	0x40d2439f	6.5707545
102	0x40fd9ba2	7.925248
103	0x40f221a1	7.566605
104	0x407a8e37	3.91493
105	0x407f566f	3.9896505
106	0xbf8363aa	-1.026479
107	0x410a9cd3	8.663287
108	0x4022b596	2.5423331
109	0x4106316e	8.387068
110	0x40270733	2.6098144
111	0x3d93e7a7	0.072219186
112	0x40bfe70a	5.996953
113	0x40f66f33	7.701074
114	0x3f604690	0.8760767
115	0x4106ffea	8.437479
116	0x4078abd0	3.8854866
117	0x3ca5404c	0.02017226
118	0xbb88bd10	-0.0041729286
119	0x41091a5b	8.568934
120	0x408246d7	4.0711474
121	0x40c7e0f4	6.24621
122	0x40ca42ca	6.320653
123	0xbd8aec9a	-0.067834094
124	0x3d63c0da	0.05560384
125	0xbd245cab	-0.040127438
126	0x40ab7617	5.3581653
127	0x40fd279d	7.9110856
128	0x40a62bfc	5.192869
129	0x3d0bc1a8	0.034120232
130	0x3c377c40	0.011199057
131	0xbb0f1980	-0.0021835268
132	0x3d9090c3	0.07058861
133	0x408f091d	4.4698625
134	0x402bdc49	2.6853201
135	0xbd86fb0f	-0.065908544
136	0x3d1d7bc0	0.038448095
137	0x3c92fd9c	0.017943196
138	0xbd6b80ce	-0.057495885
139	0x3d3ebb6e	0.046565466
140	0x40f3a0a0	7.6133575
141	0xbc000918	-0.007814668
142	0x3d80330b	0.06259736
143	0xbceef622	-0.0291701
144	0xbd5938ec	-0.0530328
145	0xbc3d2ff0	-0.011547074
146	0xbd8f3b89	-0.06993777
147	0x3c5b0dc8	0.013369985
148	0x40f0c09b	7.5235114
149	0x40bebf22	5.9608316
150	0x40ef4fe4	7.4785023
151	0x40f0e298	7.5276604
152	0x41029e4e	8.163649
153	0x410ed693	8.927386
154	0x40b9c736	5.8055677
155	0x40cd0213	6.406503
156	0x40db507f	6.853576
157	0x410712e9	8.442117
158	0x40df4112	6.976693
159	0x411503fc	9.313473
160	0x40c7f120	6.248184
161	0xbd797fb2	-0.060912795
162	0x40f05872	7.5107965
163	0x410d7ba9	8.84269
164	0x40c2d6f9	6.088742
165	0x410c0900	8.752197
166	0x40e1b2f9	7.0530972
167	0x3bcbad40	0.0062157214
168	0xbc66b528	-0.014081277
169	0x410cbcf9	8.796136
170	0x40ed21c0	7.41037
171	0x41079a11	8.475114
172	0x41013211	8.074723
173	0x3d968ff9	0.07351679
174	0xbc85d93c	-0.016338937
175	0xbd655fc6	-0.05599954
176	0x40fbaf55	7.865153
177	0x4107e504	8.493412
178	0x4091a682	4.5515757
179	0xbcbd426a	-0.023102958
180	0x3d91b3a7	0.07114344
181	0x3c88d7c8	0.016704455
182	0x3cca669c	0.024707131
183	0x41034cc6	8.2062435
184	0x40b48791	5.6415486
185	0xbd93d02c	-0.0721744
186	0xbd9c14b6	-0.07621138
187	0x3d56b52e	0.05241888
188	0x3d9c6609	0.07636649
189	0xbc6b38b0	-0.014356777
190	0x4102eee9	8.183328
191	0x3d64ba9e	0.055842035
192	0xbda4317c	-0.08017251
193	0x3be67450	0.0070329085
194	0xbd534e82	-0.051588543
195	0x3ccb5b70	0.024823874
196	0xbd150e79	-0.036390755
197	0x4102928d	8.160779
198	0x40f3c6d7	7.6180224
199	0x40dc8321	6.891007
200	0x40f2be6e	7.585746
201	0x4108767d	8.528928
202	0x4103ce8b	8.237926
203	0x40d3b0a9	6.615315
204	0x40ff4bc1	7.9779973
205	0x40aa6a94	5.32551
206	0x41097e93	8.593402
207	0x40e491ed	7.142813
208	0x410a471b	8.64236
209	0x40fbe501	7.8717046
210	0xbcb04030	-0.021514982
211	0x40d2e78f	6.5907664
212	0x41094592	8.579485
213	0x40d32576	6.598323
214	0x4105f170	8.371445
215	0x40cd43ad	6.414511
216	0xbd9fd8b3	-0.07805004
217	0xbd1e91ee	-0.03871339
218	0x411175f4	9.091297
219	0x40c2a578	6.082699
220	0x40e607d0	7.1884537
221	0x40d1372d	6.5379853
222	0xbcbd4840	-0.02310574
223	0xbd0c72f6	-0.034289323
224	0x3c085558	0.008321129
225	0x40ded665	6.963671
226	0x40f33488	7.6001625
227	0x40e6417d	7.195494
228	0x3d734a5e	0.059397094
229	0x3d1707fe	0.036872856
230	0x3d5eea56	0.0544227
231	0x3cf93198	0.030419156
232	0x40890283	4.2815566
233	0x40ea5052	7.3223047
234	0x3c8061f4	0.015671708
235	0xbd8658e2	-0.06559922
236	0xbcb6ba30	-0.022305578
237	0xbd694fa2	-0.05696071
238	0xbd109139	-0.035294745
239	0x40f6bec1	7.7107854
240	0xbd1f7fe1	-0.038940314
241	0xbd191de0	-0.037382007
242	0x3d656712	0.0560065
243	0xbc860528	-0.01635988
244	0x3d8db521	0.06919313
245	0x3d2829c2	0.04105545
246	0x4105407d	8.328244
247	0x40776be6	3.8659606
248	0x40d7a0c9	6.738377
249	0x40d0b292	6.521798
250	0x40fbf9c3	7.8742385
251	0x40f101e4	7.531481
252	0x4082b721	4.0848546
253	0x408191ba	4.049039
254	0xbf860004	-1.0468755
255	0x410aa985	8.666387

fc1.bias f4 [256]
0	0x411cf926	9.810827
1	0x411e18bf	9.881042
2	0x411d9e49	9.851144
3	0x411f12e9	9.942117
4	0x411eebda	9.932581
5	0x411f6590	9.962296
6	0x411edbe2	9.928682
7	0x411e9792	9.912004
8	0x411f315b	9.94955
9	0x411edf93	9.929584
10	0x411f240a	9.946299
11	0x411f3c0f	9.952163
12	0x411ec09b	9.922023
13	0x411e76f9	9.904046
14	0x411dfc76	9.874136
15	0x411f2451	9.946366
16	0x411cdccb	9.803905
17	0x411df9a3	9.873446
18	0x411d99d1	9.850053
19	0x411f3e58	9.952721
20	0x411f3143	9.949527
21	0x411cc25f	9.797454
22	0x411d6573	9.837268
23	0x411e9f20	9.913849
24	0x411ebd7d	9.921262
25	0x411c75c5	9.778752
26	0x411d10b4	9.816578
27	0x411d1612	9.817888
28	0x411edb5f	9.928557
29	0x411cf0fb	9.808833
30	0x411d9bf6	9.850576
31	0x411f67e0	9.96286
32	0x411d87c9	9.845651
33	0x411cc7fa	9.798822
34	0x411c8c98	9.784325
35	0x411e5864	9.89658
36	0x411e2929	9.885049
37	0x411ef3e8	9.934547
38	0x411eb534	9.919239
39	0x411dd638	9.8647995
40	0x411c6a53	9.775958
41	0x411e71c8	9.902779
42	0x411dc866	9.861425
43	0x411d9762	9.849459
44	0x411c9b16	9.787863
45	0x411e9ecb	9.913768
46	0x411f38cc	9.951366
47	0x411dc4ed	9.860578
48	0x411f4086	9.953253
49	0x411d29e2	9.822725
50	0x411cf430	9.809616
51	0x411ce120	9.804962
52	0x411e5099	9.894677
53	0x411f343f	9.950255
54	0x411cec23	9.807651
55	0x411f0018	9.937523
56	0x411f1176	9.941763
57	0x411e6dc8	9.901802
58	0x411f256e	9.946638
59	0x411cceea	9.800516
60	0x411f470c	9.954845
61	0x411ea308	9.914803
62	0x411e6d5f	9.901702
63	0x411ec433	9.9229
64	0x411d5f5c	9.835781
65	0x411f3278	9.949821
66	0x411d59eb	9.834453
67	0x411efbe8	9.936501
68	0x411eae2f	9.917525
69	0x411ea64b	9.915599
70	0x411d999f	9.850005
71	0x411ebaf0	9.920639
72	0x411edaa5	9.92838
73	0x411dac37	9.854545
74	0x411e9916	9.9123745
75	0x411d56a1	9.83365
76	0x411ea1b0	9.9144745
77	0x411f4338	9.953911
78	0x411cb0f0	9.793198
79	0x411ee1dc	9.930141
80	0x411eb157	9.918296
81	0x411e14cd	9.880078
82	0x411dd24d	9.863843
83	0x411d8541	9.845033
84	0x411eff3b	9.937312
85	0x411ce4aa	9.805826
86	0x411dc352	9.860186
87	0x411f2d2d	9.948529
88	0x411cf6a1	9.810212
89	0x411d4276	9.828726
90	0x411f1fd3	9.94527
91	0x411da6ff	9.853271
92	0x411f3413	9.950213
93	0x411d03ce	9.813429
94	0x411e9302	9.910891
95	0x411cab9b	9.791896
96	0x411c9e09	9.788583
97	0x411dc3f3	9.860339
98	0x411ee01b	9.929713
99	0x411d75da	9.841272
100	0x411db471	9.856553
101	0x411d936c	9.848492
102	0x411e7dd4	9.90572
103	0x411dc5f0	9.860825
104	0x411c85a2	9.782625
105	0x411dd31c	9.86404
106	0x411e95d5	9.91158
107	0x411e8a65	9.908788
108	0x411f19e3	9.94382
109	0x411f1e80	9.944946
110	0x411e0da5	9.878331
111	0x411f5398	9.957909
112	0x411d83da	9.84469
113	0x411f5ec9	9.960641
114	0x411df744	9.872868
115	0x411e21ac	9.883221
116	0x411d2983	9.822635
117	0x411cfc3b	9.81158
118	0x411cbac7	9.7956
119	0x411dc6c9	9.861032
120	0x411ec993	9.924212
121	0x411d1d7f	9.819701
122	0x411f2913	9.947528
123	0x411f1472	9.942492
124	0x411e1a61	9.88144
125	0x411e7bbf	9.905211
126	0x411dffb2	9.874926
127	0x411f317e	9.949583
128	0x411f38b9	9.951348
129	0x411da7b8	9.853447
130	0x411d11e9	9.816873
131	0x411d869e	9.845366
132	0x411c877b	9.783076
133	0x411ee3f1	9.93065
134	0x411e0910	9.877213
135	0x411e8a90	9.908829
136	0x411df345	9.871892
137	0x411dd92b	9.86552
138	0x411d5add	9.834683
139	0x411e4198	9.891014
140	0x411dd9fc	9.865719
141	0x411dbeaa	9.859049
142	0x411ddf23	9.866977
143	0x411dd4a4	9.864414
144	0x411ce0a6	9.804846
145	0x411c5177	9.769889
146	0x411df9a3	9.873446
147	0x411e249b	9.883937
148	0x411f089e	9.939604
149	0x411f6837	9.962943
150	0x411e9d6d	9.913434
151	0x411ddc55	9.866292
152	0x411d5226	9.832556
153	0x411f3c36	9.9522
154	0x411ede03	9.929202
155	0x411f2d19	9.94851
156	0x411e9ba1	9.912995
157	0x411ddbc6	9.866156
158	0x411e2168	9.883156
159	0x411c6f6f	9.777205
160	0x411cb95b	9.795253
161	0x411ee87c	9.931759
162	0x411ee3e9	9.930642
163	0x411f5ea1	9.960603
164	0x411e8f5c	9.91
165	0x411cb127	9.79325
166	0x411d691b	9.8381605
167	0xc0065999	-2.0992186
168	0x411c5a7a	9.772089
169	0x411e78ca	9.9044895
170	0x411dffca	9.8749485
171	0x411d8821	9.845735
172	0x411e3c17	9.88967
173	0x411db9cc	9.857861
174	0x411ef97a	9.935907
175	0x411dd9ce	9.865675
176	0x411f5006	9.957037
177	0x411c7f18	9.781029
178	0x411cb94f	9.795241
179	0x411ca574	9.790394
180	0x411dbd90	9.85878
181	0x411f05f3	9.938952
182	0x411c4288	9.766243
183	0x411cfba1	9.811433
184	0x411d778a	9.841684
185	0x411e4bec	9.893536
186	0x411e8c67	9.909278
187	0x411f265f	9.946868
188	0x411e513a	9.894831
189	0x411ed860	9.927826
190	0x411f471b	9.95486
191	0x411d627b	9.836543
192	0x411cb23b	9.793513
193	0x411e9175	9.910512
194	0x411dc591	9.860734
195	0x411d1179	9.816766
196	0x411d7a57	9.842368
197	0x411ee0ed	9.9299135
198	0x411ec7a6	9.923742
199	0x411e35a9	9.888101
200	0x411e5c8b	9.8975935
201	0x411bee4c	9.745678
202	0x411ea972	9.9163685
203	0x411e1d35	9.882131
204	0x411f1016	9.941427
205	0x411db8e9	9.857644
206	0x411e69f0	9.900864
207	0x411de5b7	9.868583
208	0x411e5d98	9.89785
209	0x411e4d3a	9.893854
210	0x411f0a90	9.940079
211	0x411dd121	9.863557
212	0x411c5883	9.771609
213	0x411f3496	9.950338
214	0x411ed489	9.926888
215	0x411eef92	9.933489
216	0x411cd7e6	9.80271
217	0x411cac94	9.792133
218	0x411ebf97	9.921775
219	0x411e40cd	9.8908205
220	0x411e30f4	9.886951
221	0x411dd38c	9.864147
222	0x411f3451	9.950273
223	0x411de518	9.868431
224	0x411d663b	9.837459
225	0x411dd62e	9.86479
226	0x411dc668	9.860939
227	0x411e9f6f	9.913924
228	0x411d209f	9.820464
229	0x411e6cad	9.901532
230	0x411d65df	9.837371
231	0x411f0e0e	9.940931
232	0x411f5606	9.958502
233	0x411c3000	9.761719
234	0x411d2821	9.822297
235	0x411f473a	9.954889
236	0x411f433e	9.953917
237	0x411e36aa	9.888346
238	0x411e4bff	9.893554
239	0x411f1a2d	9.943891
240	0x411ec50f	9.92311
241	0x411f2d93	9.9486265
242	0x411caaff	9.791747
243	0x411e4692	9.892229
244	0x411d1fa4	9.820225
245	0x411f4d12	9.956316
246	0x411d131d	9.817166
247	0x411c71e5	9.777806
248	0x411d0a39	9.814996
249	0x411e6226	9.898962
250	0x411cdd61	9.804048
251	0x411d8502	9.844973
252	0x411dab9a	9.854395
253	0x411c96df	9.786834
254	0x411d1626	9.817907
255	0x411e3ba4	9.889561

fc2.weight f4 [128, 256]
0	0x3b070d0e	0.0020607146
1	0xbc2e07a8	-0.010621943
2	0xba6e5f80	-0.000909321
3	0xbd6377f1	-0.055534307
4	0xbd33f59c	-0.043935403
5	0xbd63be5e	-0.05560147
6	0xbd22fbc4	-0.039790884
7	0xbd030dc1	-0.03199554
8	0xbbe176e7	-0.0068806293
9	0xbd5dc6a2	-0.05414451
10	0xbc462fff	-0.012096404
11	0x3d54da15	0.05196579
12	0xbc87482a	-0.016513903
13	0x3d314175	0.043275315
14	0x3cd64f2d	0.0261608
15	0x3d5c1e81	0.05374003
16	0x3d202ba8	0.039104134
17	0xbd842ae1	-0.06453491
18	0xbbb743b9	-0.00559279
19	0xbd852214	-0.065006405
20	0xbd5bf8d4	-0.053704098
21	0xbd129da4	-0.03579487
22	0x3d7358aa	0.05941073
23	0xbd824c23	-0.06362178
24	0x3d2f1fe6	0.04275503
25	0xbd3db772	-0.046317525
26	0x3c377000	0.0111961365
27	0x3d22f2c1	0.03978229
28	0x3cf4f17a	0.029900301
29	0xbcdab511	-0.026697667
30	0x3c787bf1	0.015166269
31	0xbd0dc11f	-0.034608003
32	0xbd8328b0	-0.06404245
33	0xbc6fbc4d	-0.014632297
34	0x3d560c47	0.052257802
35	0xbd71179c	-0.058860406
36	0x3d3fc4a1	0.04681838
37	0x3c27786f	0.010221585
38	0x3cd026f5	0.025409201
39	0xbb806363	-0.003918098
40	0xbcff7db0	-0.031187862
41	0xbd842afc	-0.06453511
42	0x3d409dff	0.047025677
43	0x3d09473e	0.033515207
44	0xbbd2e9f0	-0.006436579
45	0x3cc58101	0.024109365
46	0xbcd85199	-0.026406096
47	0x3781aba2	1.5457921e-05
48	0x3cb1edec	0.021719895
49	0xbc8be220	-0.017075598
50	0x3cc5c40c	0.024141334
51	0x3c83595c	0.01603382
52	0xbd8dc39b	-0.069220744
53	0xbd828c36	-0.06374399
54	0xbbf8486c	-0.0075769927
55	0x3c4fbb1d	0.012678889
56	0xbd8135cb	-0.06309088
57	0xbd819ff2	-0.06329335
58	0x3bc8bbe1	0.0061259125
59	0xbd3615f4	-0.04445453
60	0x3b13c3df	0.0022547168
61	0x3cbe8b3f	0.023259757
62	0x3c4b3776	0.01240336
63	0x3cf79f9f	0.03022748
64	0x3cf50e79	0.029914128
65	0x3765ee8e	1.37050065e-05
66	0x3d46177f	0.04836225
67	0x3d2a24e8	0.041539103
68	0xbca6d6ae	-0.02036604
69	0xbd4f9ea4	-0.0506884
70	0xbd8e2170	-0.069399714
71	0xbd8a9e6c	-0.06768498
72	0x3d2a118d	0.041520644
73	0xbc88d550	-0.016703278
74	0xbca7fccc	-0.020506285
75	0xbd4783e7	-0.048709776
76	0xbc4ffee9	-0.012695053
77	0xbd288f83	-0.04115249
78	0xbd5d65bd	-0.054052103
79	0xbd6dafdf	-0.058029052
80	0xbd81f433	-0.063454054
81	0xbc5a7510	-0.013333574
82	0xbd7d9d7a	-0.06191776
83	0xbb7c583b	-0.0038504738
84	0x3c003539	0.007825189
85	0xbd6422fb	-0.055697422
86	0xbc4107e8	-0.01178167
87	0xbd0eded3	-0.03488047
88	0xbd0dd8f4	-0.03463073
89	0xbc86f4f3	-0.016474223
90	0x3cd19eff	0.02558851
91	0xbd0918df	-0.033470985
92	0x3d506d3f	0.050885435
93	0x3d147cf8	0.036251992
94	0x3a53565a	0.00080618786
95	0xbcba15f0	-0.022715539
96	0xbcc2643c	-0.023729436
97	0x3c45f360	0.012081951
98	0x3d2f4972	0.042794652
99	0x3d546ae3	0.051859748
100	0xbd6ce99d	-0.05783998
101	0xbd674e09	-0.056470904
102	0xbd604d66	-0.054761313
103	0xbd2a0c3e	-0.04151558
104	0x3cd451e8	0.025917962
105	0xbd14d4fd	-0.036335934
106	0xbd4655f0	-0.0484218
107	0xbd7b8fc1	-0.06141639
108	0xbd44877a	-0.047980763
109	0x3d5b7391	0.05357701
110	0x3ab8d6f4	0.0014102147
111	0x3c449f94	0.012000937
112	0x3c03be00	0.008040905
113	0xbd3535a6	-0.044240616
114	0x3d40387e	0.046928875
115	0xba57e500	-0.0008235723
116	0xbd3762a1	-0.044771794
117	0xbcd9325c	-0.026513271
118	0x3d09246c	0.033482
119	0x3c8b2e9d	0.01699
120	0xbbc2fb92	-0.0059503997
121	0x3c72cdb8	0.014819555
122	0xbb0db399	-0.002162194
123	0xbd4697cf	-0.04848462
124	0xbd89db1f	-0.06731247
125	0x3d40d516	0.047078215
126	0x3d5264d7	0.0513657
127	0xbd558243	-0.05212618
128	0xbc3bfb1c	-0.011473443
129	0xbd6bf266	-0.057604216
130	0x3cab6f1f	0.02092701
131	0xbd400532	-0.046879955
132	0x3d56bf71	0.052428667
133	0xbd83c012	-0.06433119
134	0xbd6d4b00	-0.057932854
135	0xbd65b7d0	-0.0560835
136	0x3d010004	0.031494156
137	0x3c439dbd	0.011939463
138	0x3d52a0da	0.05142293
139	0x3d0c196f	0.034203943
140	0xbd24051e	-0.040043943
141	0xbcbfebe0	-0.023427904
142	0x3c9a23ed	0.018815959
143	0x3acfd440	0.0015856102
144	0x3d4d37e4	0.05010213
145	0xbc96b870	-0.018398494
146	0x3ccd8afd	0.025090689
147	0xbd8e92b3	-0.069615744
148	0xbc771bb0	-0.015082285
149	0x3d4dd847	0.050255086
150	0xba9a7cc0	-0.0011786446
151	0xbc89b0be	-0.01680791
152	0x3ca52e04	0.020163544
153	0xbd2e0577	-0.04248568
154	0xbd5cf7ce	-0.053947262
155	0xbcab1e30	-0.020888418
156	0x3d2d7efa	0.042357422
157	0xbd7ddb1a	-0.06197653
158	0x3b79ba03	0.0038105256
159	0x3d755d7c	0.059903607
160	0xbd06ab78	-0.03287837
161	0xbd421e94	-0.047392443
162	0x3c30c553	0.010789233
163	0xbcd20532	-0.025637243
164	0xbd8d8020	-0.069092035
165	0x3d349b39	0.044093344
166	0x3d621626	0.055196904
167	0x3d47f62e	0.04881876
168	0x3d6114a8	0.05495134
169	0xbd1c009d	-0.038086522
170	0xbd6403fd	-0.055667866
171	0x3d210eed	0.039320875
172	0x3d544f3c	0.051833376
173	0xbd388185	-0.045045394
174	0xbd918b4c	-0.07106647
175	0xbcc8b70b	-0.024501344
176	0xbc235cf1	-0.009970889
177	0x3d00509a	0.031326868
178	0x3ce4b903	0.027920252
179	0xbc9a3100	-0.018822193
180	0xbd03543b	-0.03206275
181	0x3d4a816a	0.049439825
182	0xbcd668d8	-0.02617304
183	0xbd50f3de	-0.05101382
184	0xbc801c24	-0.015638418
185	0xbb9cd90b	-0.0047866157
186	0xbd2998ae	-0.041405372
187	0xbd914c60	-0.070946455
188	0xbd245e93	-0.040129256
189	0x3cdc97c5	0.026927838
190	0x3c33f92e	0.010984702
191	0xbd5469fa	-0.05185888
192	0xbd56265a	-0.05228267
193	0xbd6ad27d	-0.057329644
194	0xbce2a683	-0.02766729
195	0xbd34344a	-0.04399518
196	0xbcade26d	-0.021226132
197	0x3c51f3ee	0.012814505
198	0x3d1842f8	0.03717324
199	0x3d1d56af	0.038412746
200	0x3d425a4f	0.047449406
201	0x3d7b1fb2	0.061309524
202	0xbd5be59b	-0.053685766
203	0x3d26cb7c	0.0407214
204	0xbd79254c	-0.060826585
205	0x3cc25063	0.023719972
206	0x3c11ee59	0.008906924
207	0xbcfbeecd	-0.030753518
208	0x3a477700	0.000760898
209	0x3cffb5b4	0.031214572
210	0x3d479abb	0.048731547
211	0xbd8e3041	-0.069427975
212	0xbce9cd88	-0.028540388
213	0xbc05450b	-0.008134137
214	0x3c9ff5aa	0.019526321
215	0x3b28a2fb	0.002573191
216	0x3c4d143f	0.012517034
217	0xbcd87cc8	-0.026426688
218	0xbd21d071	-0.039505426
219	0xbd1eb013	-0.038742136
220	0xbcf8ac66	-0.030355643
221	0xbd892456	-0.06696384
222	0x3d0e8bd2	0.03480131
223	0xbd69c625	-0.05707373
224	0xbd8afb5c	-0.06786224
225	0xbcbf71b0	-0.02336964
226	0x3cff4403	0.03116036
227	0x3cb12ce7	0.021627856
228	0x3ce5cb4c	0.028051041
229	0xbd32ed47	-0.043683317
230	0xbd652420	-0.055942655
231	0x3d258d56	0.04041799
232	0xbd7845d9	-0.060613487
233	0xbcd74af4	-0.026280858
234	0xbc855f93	-0.016280925
235	0xb9e1be00	-0.00043056905
236	0xbd87aa80	-0.06624317
237	0x3d48c63f	0.049017187
238	0x3d4cfd3b	0.050046187
239	0x3c936610	0.017993003
240	0xbc9c0652	-0.019045983
241	0x3d427ee1	0.047484282
242	0xbd7361f3	-0.059419584
243	0xbb3fb55a	-0.002925238
244	0xbd17745e	-0.03697621
245	0xbcbeed7e	-0.023306604
246	0xbd844704	-0.06458858
247	0x3cef340a	0.029199619
248	0x3cb75707	0.022380365
249	0x3c0ed698	0.008718155
250	0x3ce94f5b	0.028480222
251	0xbd751114	-0.05983074
252	0x3cb73534	0.022364236
253	0x3d30b804	0.04314424
254	0xbc0f360b	-0.008740912
255	0x3a183472	0.0005806155

fc2.bias f4 [128]
0	0xbd88b0d7	-0.066743545
1	0x4115cc68	9.362404
2	0x41161ece	9.382521
3	0x4115d66b	9.364848
4	0x41170dd6	9.440878
5	0x41154302	9.328859
6	0x4116b006	9.417974
7	0xbd23ad5f	-0.03996026
8	0x41160da3	9.378329
9	0x4116264c	9.38435
10	0x41171674	9.442982
11	0x41156c0d	9.33888
12	0xbc0ea5fd	-0.008706567
13	0x41153bb2	9.327074
14	0xbced411b	-0.028961709
15	0x4115af6a	9.355326
16	0x3d31b55d	0.043385852
17	0x4116c2f7	9.422599
18	0x4116d78a	9.427622
19	0x4115e9c6	9.369574
20	0x4116b253	9.418536
21	0x4115aca3	9.354648
22	0x4116ebf7	9.432609
23	0x4115f24e	9.371656
24	0x41165303	9.395267
25	0x3cfb4af5	0.03067539
26	0x411601fa	9.375483
27	0xbd8f7952	-0.07005562
28	0x4116735a	9.403162
29	0x4115f387	9.371955
30	0x4116245f	9.38388
31	0x41153b1f	9.326934
32	0xbd22785e	-0.039665572
33	0xbcbd20e6	-0.023086976
34	0xbcca8821	-0.024723114
35	0x41167425	9.403356
36	0x4115c8bc	9.361507
37	0x41165bcd	9.397412
38	0x411716b8	9.443047
39	0x41158da2	9.347078
40	0x4115a400	9.352539
41	0x3a116d66	0.00055476127
42	0x4116d3f7	9.426749
43	0x411545b6	9.329519
44	0x4115848f	9.344863
45	0x41162078	9.382927
46	0x411562c3	9.336612
47	0xbc825653	-0.015910303
48	0x411635fb	9.388179
49	0x41169a1c	9.412624
50	0x41168381	9.407105
51	0xbc84a800	-0.01619339
52	0x4115dafd	9.365964
53	0x4116da0e	9.428236
54	0x41151847	9.318427
55	0x41165871	9.396592
56	0x411569ba	9.338312
57	0x4116e00c	9.429699
58	0xbd0853ae	-0.03328293
59	0x411621a0	9.383209
60	0xbb903171	-0.004400425
61	0x4117196c	9.4437065
62	0x4115e3e5	9.368138
63	0x41166648	9.399971
64	0x3c1103a5	0.008850967
65	0x4115ebea	9.370096
66	0x411565bf	9.33734
67	0x4115d6a1	9.3649
68	0xbd10a1e0	-0.035310626
69	0x4116a56f	9.415389
70	0x4116e206	9.4301815
71	0x411664d1	9.399613
72	0x41161d68	9.382179
73	0x41170563	9.438815
74	0x411663a8	9.39933
75	0xbd91ecd4	-0.071252495
76	0x41159c75	9.3506975
77	0x41161d39	9.382134
78	0x411580f5	9.343984
79	0xbd5840ef	-0.0527963
80	0x4114f67e	9.310179
81	0x4116959d	9.411527
82	0x41153463	9.32529
83	0x4115de07	9.366706
84	0x411543c5	9.329045
85	0x41154266	9.328711
86	0x4115bcd1	9.358598
87	0x41162a97	9.385398
88	0x411522a6	9.320959
89	0x4115e9a9	9.369546
90	0x41169458	9.411217
91	0xbd706a0f	-0.058694895
92	0x411533cc	9.325146
93	0x411690f8	9.410393
94	0x41173471	9.450303
95	0x41166bd1	9.401322
96	0x4116fa35	9.436086
97	0x411550a7	9.3321905
98	0xbcd0adc0	-0.025473475
99	0xbd116ea3	-0.035505902
100	0x41162484	9.383915
101	0x41158bf1	9.346665
102	0x4115b0c7	9.355659
103	0x4115c3f6	9.360342
104	0x4115a3d7	9.3525
105	0x4116a3d3	9.414996
106	0x4115ff91	9.374894
107	0xbd4fe578	-0.050755948
108	0xbd680363	-0.056643855
109	0xbd89ec9b	-0.06734582
110	0x3d4dc19e	0.050233476
111	0x4115b0b1	9.355638
112	0x4115c795	9.361226
113	0x41154a24	9.330601
114	0x4116d3a5	9.426671
115	0xbd7b66e2	-0.061377414
116	0x4115ad4e	9.354811
117	0x41164ab4	9.393238
118	0x4115abab	9.354411
119	0x41163c22	9.389681
120	0x41151d6a	9.319681
121	0x411632b4	9.387379
122	0x4116358d	9.388074
123	0x41173017	9.449241
124	0x4116a242	9.414614
125	0x4115d0b7	9.363456
126	0x4116d91d	9.428006
127	0x411583f7	9.344718

fc3.weight f4 [64, 128]
0	0xbd9498d3	-0.072557114
1	0x41176547	9.462226
2	0x41182baa	9.51066
3	0x411938c1	9.576356
4	0x41196057	9.58602
5	0x411923f6	9.57128
6	0x4119357b	9.575557
7	0x3d83d336	0.0643677
8	0x4116f521	9.434846
9	0x411749e9	9.455544
10	0x41173947	9.451484
11	0x4117893f	9.471007
12	0x3d3df898	0.046379656
13	0x41180415	9.500997
14	0xbd112f02	-0.03544522
15	0x41188147	9.531562
16	0xbc7f41b0	-0.015579626
17	0x41180bc8	9.502876
18	0x41192bbe	9.573179
19	0x4118d26f	9.551375
20	0x41189860	9.537201
21	0x41177ecc	9.468456
22	0x4118a573	9.540393
23	0x41194f15	9.581807
24	0x411773e5	9.465795
25	0xbd875547	-0.06608062
26	0x4118096b	9.502299
27	0xbd3bc0e1	-0.04583824
28	0x4118dd1b	9.553981
29	0x41193fd1	9.57808
30	0x411930fa	9.574457
31	0x411931f6	9.5746975
32	0x3c8eb084	0.017418154
33	0xbccbfa37	-0.024899585
34	0x3c12ecd1	0.008967594
35	0x4118321b	9.512233
36	0x41199a33	9.600146
37	0x41191ab6	9.569021
38	0x4118021c	9.500515
39	0x411844a5	9.516759
40	0x41196f4b	9.589671
41	0x3d1ec3aa	0.03876082
42	0x41189fe2	9.539034
43	0x4116c3e3	9.422824
44	0x4119b470	9.606552
45	0x41196281	9.586549
46	0x41178ee3	9.472384
47	0xbd9a053b	-0.07520529
48	0x4119b000	9.605469
49	0x41199647	9.599189
50	0x411952f3	9.582751
51	0xbd7d4e85	-0.06184246
52	0x4116dcc9	9.428903
53	0x41182ccd	9.510938
54	0x4117e28b	9.492808
55	0x4116f53b	9.434871
56	0x4116c0c7	9.422065
57	0x411842f2	9.516344
58	0x3d26f29e	0.04075872
59	0x4117e39a	9.493067
60	0x3daaac60	0.08333659
61	0x4116b071	9.4180765
62	0x4117690a	9.463144
63	0x4118f4fe	9.559813
64	0xbd38db46	-0.04513099
65	0x4117e28c	9.492809
66	0x4117532a	9.457804
67	0x4118afcc	9.542919
68	0x3d98ee07	0.07467275
69	0x41180dd4	9.503376
70	0x411857f7	9.521476
71	0x41195225	9.582555
72	0x41171c6e	9.444441
73	0x4117de09	9.491708
74	0x41197e9e	9.593412
75	0xbd4b559c	-0.04964219
76	0x4117fe92	9.499651
77	0x41175593	9.458392
78	0x4119b889	9.607553
79	0xbd3b897a	-0.045785405
80	0x411877b1	9.529222
81	0x4117c7bd	9.486264
82	0x41192b64	9.573093
83	0x41195bcb	9.58491
84	0x41180833	9.502002
85	0x41193ea3	9.577792
86	0x4117f1f8	9.496574
87	0x4117b74e	9.482252
88	0x41169817	9.412131
89	0x411773ef	9.465804
90	0x41175676	9.458609
91	0xbc0db249	-0.0086484635
92	0x411697a1	9.412019
93	0x4119a139	9.601861
94	0x4117cf6a	9.488138
95	0x411848d6	9.517782
96	0x4117ed51	9.495439
97	0x41176fd3	9.464801
98	0x3cd5bf90	0.02609232
99	0x3d90df1a	0.07073803
100	0x411733ff	9.450194
101	0x41187a8d	9.52992
102	0x4116dd55	9.429036
103	0x41168f43	9.409976
104	0x41199738	9.599419
105	0x4117c6fc	9.48608
106	0x4118618e	9.523817
107	0xbd998c55	-0.07497469
108	0x3cac4ab9	0.021031724
109	0xbd89eb8e	-0.067343816
110	0xbd065814	-0.03279884
111	0x41172e96	9.4488735
112	0x4117678e	9.462782
113	0x4119874d	9.595532
114	0x4117cdbd	9.487729
115	0x3da535d9	0.08066911
116	0x4116c868	9.423927
117	0x4118f603	9.560061
118	0x4116eb1d	9.432401
119	0x4117a44d	9.4776125
120	0x41172272	9.4459095
121	0x41196d35	9.589162
122	0x4118cff6	9.550772
123	0x4118a46b	9.540141
124	0x41195b62	9.58481
125	0x41180456	9.501059
126	0x4118a3c0	9.539978
127	0x4118514f	9.519851
128	0xbd816264	-0.06317595
129	0x3cf95476	0.030435782
130	0xbe024284	-0.12720686
131	0xbd68d710	-0.056845725
132	0xbd38a799	-0.04508171
133	0xbca29a07	-0.019848837
134	0x3d92b864	0.07164076
135	0xbd9de531	-0.077097304
136	0x3d13ad7d	0.036054123
137	0xbd90ea13	-0.07075896
138	0xbc15705a	-0.009121025
139	0xbdc7ef18	-0.097624004
140	0x3db82132	0.089907065
141	0x3d0ad1c2	0.033891447
142	0xbcb1accc	-0.021688841
143	0xbc23a0bf	-0.009987055
144	0x3dc7e8d1	0.09761203
145	0x3cb36e68	0.021903232
146	0xbc3cc31e	-0.011521129
147	0xbd441fdd	-0.04788195
148	0x3d90e232	0.07074393
149	0x3cfe87b4	0.031070568
150	0xbdb3e6a1	-0.08784223
151	0x3d327e68	0.04357758
152	0xbd800913	-0.06251731
153	0x3dc02cc3	0.093835376
154	0x3cde7477	0.027155144
155	0xbc96dbbd	-0.018415326
156	0xbd3960ae	-0.045258217
157	0xbda02858	-0.07820195
158	0x3d74777a	0.059684254
159	0x3c79d81e	0.01524928
160	0x3cfe1ce4	0.031019635
161	0xbd0d17a7	-0.034446385
162	0xbd2ab230	-0.04167384
163	0xbd874e42	-0.06606723
164	0x3c4107d3	0.011781651
165	0xbd77f80c	-0.06053929
166	0xbce937dd	-0.02846902
167	0x3d6e65d9	0.0582026
168	0xbd9ca641	-0.07648898
169	0xbbde2b61	-0.0067800735
170	0xbc837aab	-0.016049704
171	0x3af80565	0.0018922506
172	0x3d6e7556	0.05821737
173	0x3d90c7b7	0.070693426
174	0x3cf9e831	0.030506225
175	0xbc3b9f17	-0.011451504
176	0xbd00a8f4	-0.031411126
177	0xbc4b4218	-0.012405895
178	0x3d2a72da	0.041613437
179	0xbd1288f6	-0.035775147
180	0xbb8f57f5	-0.004374499
181	0x3d40dfbc	0.04708837
182	0xba6d9fee	-0.0009064664
183	0x3c7e0453	0.015503961
184	0xbd4fa3d1	-0.050693337
185	0x3d3ed3e7	0.046588805
186	0xbcabbb31	-0.020963283
187	0x3d287b9d	0.04113351
188	0xbbb9eedd	-0.0056742267
189	0xbb832ee9	-0.004003395
190	0xbd54509a	-0.05183468
191	0x3c9a7578	0.018854842
192	0xbb86f785	-0.004118862
193	0x3c08bdee	0.008346064
194	0xbd81908b	-0.063263975
195	0xbdf44621	-0.119274385
196	0x3cc083b0	0.023500293
197	0x3ce7422a	0.028229792
198	0xbc00c218	-0.007858776
199	0xbd96474a	-0.07337816
200	0xbcbf6134	-0.02336178
201	0xbbddaaf8	-0.006764766
202	0x3c782870	0.01514636
203	0xbc8e4edb	-0.017371586
204	0xbdc1bb1c	-0.094595164
205	0x3c236219	0.009972119
206	0x3c9c17b5	0.019054273
207	0x3d231dd6	0.039823376
208	0xbd52b278	-0.051439732
209	0xbcf12bc6	-0.029439818
210	0x3d678059	0.056518886
211	0xbc6fcc6d	-0.014636141
212	0x3d347e2a	0.044065632
213	0xbd0c6ea9	-0.03428522
214	0x3c361323	0.011112961
215	0xbd40733c	-0.046984896
216	0x3d8b1e25	0.06792859
217	0xbd4db2f5	-0.050219495
218	0x3c7a2688	0.015267976
219	0x3d3c590e	0.045983367
220	0xbb331850	-0.0027327724
221	0x3c21cff7	0.009876243
222	0xbdc467f7	-0.09590142
223	0xbdc75c26	-0.09734373
224	0x3cd40075	0.025879124
225	0xbc393536	-0.01130419
226	0x3d7dbfff	0.06195068
227	0xbd8c714c	-0.06857547
228	0x3d8b3d2d	0.06798778
229	0x3c2b86d9	0.010469162
230	0xbd6f5d08	-0.05843833
231	0xbdc0a9ee	-0.094074115
232	0x3d5555f3	0.05208392
233	0xbdfa9063	-0.12234571
234	0x3d92d403	0.07169344
235	0xbd34692a	-0.044045605
236	0xbc524ec0	-0.012836158
237	0xbd1a125e	-0.037615173
238	0x3ca3a1ec	0.019974671
239	0x3d638ce5	0.05555429
240	0x3ce6f850	0.028194577
241	0x3d5739d6	0.05254539
242	0x3d51743b	0.051136237
243	0xbd4ddeaa	-0.050261177
244	0x3c17df5e	0.0092695635
245	0xbd8c350b	-0.06846055
246	0x3d020844	0.031746164
247	0x3d0d33d1	0.034473244
248	0x3d5cdfdf	0.053924438
249	0x3bf1302c	0.007360479
250	0xbd255887	-0.04036763
251	0xbda5d90b	-0.08098038
252	0xbd3da610	-0.046300948
253	0x3d2a44ea	0.041569628
254	0xbc884e95	-0.016639033
255	0x3d95ea01	0.07320023

fc3.bias f4 [64]
0	0x410d7db4	8.843189
1	0x3cd57c0b	0.026060125
2	0x410e2a13	8.885272
3	0xbd8ca015	-0.06866471
4	0x410d81c1	8.844178
5	0x3d10703c	0.035263285
6	0x410d579f	8.833892
7	0x410cb6f1	8.794663
8	0xbd84f5c5	-0.06492189
9	0xbdb80959	-0.08986158
10	0x410bbc3a	8.733454
11	0x410e9a6f	8.9127035
12	0x410cdeda	8.804407
13	0x410d9901	8.849854
14	0x410d2c70	8.823349
15	0x410e4a2a	8.893106
16	0x410d9c3b	8.850642
17	0x410deab1	8.869798
18	0x410dcb6e	8.862165
19	0x410dc0b8	8.85955
20	0x410c1108	8.754158
21	0x410c4a5b	8.768153
22	0x410cd2c9	8.801461
23	0x3c02ac13	0.007975596
24	0x410dcea4	8.862949
25	0x410e0fe5	8.8788805
26	0x410d188d	8.818494
27	0x410d0beb	8.81541
28	0x3c639ea0	0.0138928
29	0x410e18d3	8.881061
30	0x410bdddb	8.741664
31	0xbdab505b	-0.08364936
32	0x410c3907	8.763923
33	0xbcedc1e7	-0.029023124
34	0xbda7199b	-0.08159181
35	0x410d926e	8.848249
36	0x410c08a4	8.75211
37	0x410cd84c	8.802807
38	0x410cb431	8.793992
39	0x410e5008	8.894539
40	0x3dc99097	0.098420314
41	0x3db136cd	0.086530305
42	0xbd95c03a	-0.07312055
43	0x410c7014	8.777363
44	0x410c97ef	8.787093
45	0xbd8208ab	-0.063493095
46	0x3cf2662a	0.029589731
47	0xbd8a8d78	-0.06765264
48	0x3cb44216	0.022004168
49	0x410bac2f	8.729537
50	0x410d8db9	8.8471
51	0x410e949c	8.911282
52	0x410e6753	8.900226
53	0x410e5e7d	8.898068
54	0x410eaabc	8.916683
55	0x410e39ee	8.889143
56	0x410d0846	8.81452
57	0xbdd59546	-0.10428862
58	0x410b789e	8.716948
59	0x410d6abe	8.83856
60	0x410b0275	8.6881
61	0x410d3b0a	8.826914
62	0x410d83f8	8.844719
63	0xbd904de2	-0.07046105

fc4.weight f4 [49, 64]
0	0x40e3ea2b	7.122335
1	0x3e09627a	0.13416472
2	0x40e3b958	7.116375
3	0x3d3aaf0e	0.0455771
4	0x40e28c62	7.0796366
5	0x3c05a977	0.008158079
6	0x40e33691	7.100411
7	0x40e49a32	7.1438227
8	0xbacc46c1	-0.0015585051
9	0x3d07a050	0.03311187
10	0x40dd4b54	6.9154453
11	0x40e0a661	7.02031
12	0x40e2bd43	7.085603
13	0x40de4c63	6.9468246
14	0x40e18f3e	7.0487356
15	0x40de75ac	6.9518642
16	0x40e0ada4	7.0211964
17	0x40e2cf9c	7.087843
18	0x40e1837a	7.0472994
19	0x40e1d463	7.057176
20	0x40dd3621	6.9128575
21	0x40e1e2c0	7.0589294
22	0x40e0ecd7	7.028911
23	0x3cb87591	0.022516998
24	0x40e351f0	7.103752
25	0x40e2fa62	7.0930643
26	0x40e499d5	7.1437783
27	0x40e440af	7.132896
28	0x3dbe029e	0.09277843
29	0x40dd8c1c	6.923353
30	0x40dfb4e7	6.990833
31	0x3d50c79c	0.050971612
32	0x40e16b7e	7.0443716
33	0x3d7f044a	0.06225995
34	0x3d33a958	0.04386267
35	0x40e16835	7.0439706
36	0x40df7ee3	6.984239
37	0x40e3c0de	7.1172934
38	0x40dfad1e	6.9898825
39	0x40e1d5d2	7.057351
40	0x3d1980d6	0.037476383
41	0x3dd9324f	0.10605299
42	0x3dbada74	0.09123698
43	0x40e511e9	7.1584363
44	0x40e476b5	7.1394906
45	0x3dc8f536	0.09812395
46	0x3cd896a8	0.026439026
47	0x3d6d3ba0	0.05791819
48	0x3dd9ef17	0.10641306
49	0x40de8650	6.9538956
50	0x40e133fa	7.037595
51	0x40e1f236	7.060817
52	0x40e3101d	7.095717
53	0x40e12f8f	7.0370555
54	0x40dfb5a2	6.990922
55	0x40df4d4f	6.978187
56	0x40e5135e	7.158614
57	0x3c6a5cb0	0.014304325
58	0x40de6379	6.9496427
59	0x40e0ed55	7.028971
60	0x40dff87e	6.9990835
61	0x40dfea80	6.9973755
62	0x40dffee1	6.999863
63	0x3c7e7784	0.015531424
64	0x40c2464c	6.071081
65	0xbd8a1f9d	-0.06744311
66	0x40c20629	6.063252
67	0xbdd01b04	-0.10161403
68	0x40c2b61a	6.084729
69	0x3dd9ecb6	0.10640852
70	0x40bf0d46	5.9703703
71	0x40bccaee	5.8997717
72	0x3e19f9a2	0.15036634
73	0x3dc266fa	0.094922975
74	0x40bf2b22	5.974015
75	0x40beb28f	5.9592967
76	0x40bcbafb	5.897825
77	0x40c06feb	6.013662
78	0x40bc28db	5.8799872
79	0x40be0827	5.938495
80	0x40c19403	6.049318
81	0x40c02c52	6.00541
82	0x40bfd72e	5.995017
83	0x40c105e5	6.0319695
84	0x40bdf7c8	5.9364967
85	0x40b96d04	5.7945576
86	0x40c14cfd	6.040648
87	0xbda60a50	-0.08107436
88	0x40ba964e	5.8308477
89	0x40bf78ce	5.9834967
90	0x40bd06fd	5.907103
91	0x40c20919	6.0636106
92	0x3d888828	0.06666595
93	0x40c0f9a0	6.030472
94	0x40c0bcc8	6.0230446
95	0x3daec19c	0.08533022
96	0x40bd09e5	5.907458
97	0xbd107d34	-0.035275653
98	0x3d5311bc	0.051530585
99	0x40bdb3b4	5.9281864
100	0x40bedb86	5.9642973
101	0x40c26e08	6.0759315
102	0x40bc7bf3	5.8901305
103	0x40c1f912	6.061654
104	0x3e0f9574	0.14021856
105	0x3d6c3b02	0.05767346
106	0xbd8d0a94	-0.06886783
107	0x40c0a629	6.020283
108	0x40bdbac6	5.9290495
109	0x3a881f80	0.0010385364
110	0xbd8f3cc8	-0.06994015
111	0xbdd060b4	-0.10174695
112	0x3d4caf71	0.049972
113	0x40be30a9	5.94344
114	0x40c13ca0	6.0386505
115	0x40c20144	6.0626545
116	0x40bf2720	5.973526
117	0x40bc7ffd	5.8906236
118	0x40bcc853	5.8994536
119	0x40bfc8ff	5.9932857
120	0x40c23001	6.06836
121	0x3d465dac	0.048429176
122	0x40bc718b	5.88886
123	0x40c0583b	6.0107703
124	0x40c16521	6.043595
125	0x40bc6b0b	5.888067
126	0x40bf0d9c	5.9704113
127	0x3c98d560	0.018656433
128	0x40d4831d	6.641005
129	0x3d84d376	0.064856455
130	0x40ce7286	6.45148
131	0xbb460e00	-0.0030220747
132	0x40cfa527	6.48891
133	0xbcb0dc93	-0.021589553
134	0x40d2379f	6.5692897
135	0x40d06b36	6.5130873
136	0xbdd5c292	-0.10437502
137	0x3d0ba804	0.03409578
138	0x40d3229b	6.5979743
139	0x40d109a6	6.532428
140	0x40d32f75	6.599543
141	0x40cf61e2	6.4806986
142	0x40d4c0de	6.6485434
143	0x40ceda76	6.4641676
144	0x40d3a72d	6.614157
145	0x40ccfaa0	6.405594
146	0x40d219f9	6.5656705
147	0x40d0b4bb	6.522062
148	0x40cd8fb8	6.423794
149	0x40d10905	6.532351
150	0x40d0b5db	6.522199
151	0xbc7c9fad	-0.015418929
152	0x40d02564	6.5045643
153	0x40ce7fc2	6.4530954
154	0x40d3357d	6.6002793
155	0x40d48426	6.6411314
156	0xbcc16030	-0.023605436
157	0x40d49eb5	6.6443734
158	0x40d356a5	6.6043267
159	0x3dd25790	0.102706075
160	0x40d2c1cb	6.5861564
161	0xbc70ad0a	-0.014689693
162	0xbd830fc6	-0.06399493
163	0x40d4db44	6.651766
164	0x40d45914	6.635874
165	0x40d1a7b6	6.5517225
166	0x40ce4659	6.4460874
167	0x40d3eb49	6.6224713
168	0xbdc34a6c	-0.09535679
169	0xbd6aa784	-0.05728866
170	0xbcd08420	-0.025453627
171	0x40d50273	6.656549
172	0x40d17002	6.544923
173	0x3dbfc39a	0.0936348
174	0x3def8e34	0.11697045
175	0xbc840390	-0.01611498
176	0xbd6551a3	-0.055986058
177	0x40cfd0d9	6.494244
178	0x40d1d61d	6.557387
179	0x40cd9e33	6.4255614
180	0x40d11440	6.533722
181	0x40cef93a	6.467923
182	0x40d11888	6.5342445
183	0x40d14366	6.5394773
184	0x40d089bc	6.5168133
185	0x3d2a0144	0.041505113
186	0x40d03c16	6.5073347
187	0x40d33676	6.600398
188	0x40d2a230	6.5822983
189	0x40d41eac	6.628744
190	0x40d13f8e	6.539008
191	0x3d04e8a0	0.03244841
192	0x40c6bbeb	6.210439
193	0x3df45b03	0.119314216
194	0x40c3697e	6.1066275
195	0xbd8a414a	-0.06750734
196	0x40c4f5ab	6.154989
197	0xbd9b452e	-0.07581554
198	0x40c8fe19	6.281018
199	0x40c6422d	6.195578
200	0xbd9e2e69	-0.07723696
201	0xbd640d38	-0.05567667
202	0x40c89e0a	6.269292
203	0x40c5754a	6.1705675
204	0x40c1a6e3	6.051622
205	0x40c241b2	6.0705194
206	0x40c39f31	6.1131825
207	0x40c5beb7	6.1795306
208	0x40c14555	6.0397134
209	0x40c7c940	6.2433167
210	0x40c90cc4	6.2828083
211	0x40c731d0	6.2248306
212	0x40c7c919	6.243298
213	0x40c1871f	6.0477443
214	0x40c2a3e9	6.0825086
215	0xbd2fb0ed	-0.04289334
216	0x40c283dc	6.078596
217	0x40c4c96a	6.1495867
218	0x40c5c572	6.180352
219	0x40c10f58	6.033123
220	0xbdbe38ac	-0.09288153
221	0x40c773b0	6.232872
222	0x40c801db	6.2502265
223	0x3d4005b4	0.04688044
224	0x40c5caf1	6.181023
225	0xbd93cd3f	-0.07216882
226	0x3ce9d090	0.028541833
227	0x40c8c813	6.274423
228	0x40c51dcb	6.159887
229	0x40c441fa	6.133054
230	0x40c77f1c	6.2342663
231	0x40c34f0d	6.1033998
232	0x3de935a7	0.113871865
233	0xbcc1bd1a	-0.023649741
234	0xbc413320	-0.011791974
235	0x40c65c7c	6.1987896
236	0x40c4fdb8	6.1559715
237	0xbde44928	-0.11146766
238	0xbcdda71d	-0.027057225
239	0x3da4ec6a	0.08052905
240	0xbcc7e4c8	-0.024401084
241	0x40c3ea63	6.1223617
242	0x40c66542	6.1998606
243	0x40c41cb3	6.1285033
244	0x40c5d738	6.182522
245	0x40c1f6ff	6.061401
246	0x40c66379	6.1996427
247	0x40c537b8	6.1630516
248	0x40c3c6ca	6.1180162
249	0xbdc166d2	-0.094434395
250	0x40c898d1	6.2686543
251	0x40c2b510	6.0846024
252	0x40c383b7	6.1098285
253	0x40c5c4a4	6.180254
254	0x40c8e3bc	6.2777996
255	0x3c841bd0	0.016126543

fc4.bias f4 [49]
0	0x40cd2cc0	6.4117126
1	0x40b2c78d	5.586859
2	0x40bb168d	5.846503
3	0x40c6669d	6.200026
4	0x40a7be4b	5.241979
5	0x40d6c5f0	6.7116623
6	0x4096f32a	4.717183
7	0x40a6aa95	5.208323
8	0x409789ec	4.735586
9	0x40e0ca99	7.024731
10	0x40a6a70b	5.207891
11	0x40e51978	7.159359
12	0x409b4c15	4.8530374
13	0x3ddcbede	0.107785925
14	0x40a76176	5.230647
15	0x40e04963	7.0089583
16	0x40abdf7e	5.3710318
17	0x40dce960	6.903488
18	0x40a9ab82	5.302186
19	0xbd6dca08	-0.058054
20	0xbd3af39c	-0.04564248
21	0x40e0c661	7.024216
22	0x40ab49bc	5.352751
23	0x40d3d3a7	6.6195865
24	0x40b926ba	5.7859774
25	0x3cb81560	0.02247113
26	0x3d1f4480	0.038883686
27	0xbd194184	-0.037415996
28	0x40c013dd	6.0024247
29	0x40c7ccf8	6.2437706
30	0x408d5366	4.4164305
31	0x3d5b41a0	0.05352938
32	0x3d4c02c8	0.04980734
33	0x3d3f1724	0.046652928
34	0xbd94055c	-0.07227585
35	0x40ba4075	5.8203683
36	0x40a53a97	5.163402
37	0xbc9594a0	-0.018259346
38	0xbc6afdc0	-0.014342725
39	0xbdbd4e2a	-0.09243424
40	0x3d2701b0	0.040773094
41	0x3d19628c	0.037447497
42	0x409c3cf8	4.8824425
43	0xbdf3cc04	-0.11904147
44	0xbc150b80	-0.00909698
45	0x3d49b95c	0.049249038
46	0xbdd79ab8	-0.10527557
47	0x3c4b8cd0	0.012423709
48	0x3d4e3788	0.050345927
