trike2/models/trainied against random/DQN_Agent_900ep.pt/DQN_Agent.pt (torch, 333080 bytes, 8 tensors)

fc1.weight f4 [256, 148]
0	0x4133d3c4	11.239201
1	0x4168ef7f	14.558471
2	0x415a4d1e	13.643827
3	0x4140f7d3	12.060504
4	0x415a84b3	13.657397
5	0x413a72d3	11.653033
6	0x4157da62	13.490816
7	0x41300042	11.000063
8	0x415d40c9	13.828317
9	0x412e8f8a	10.910044
10	0x41259ca4	10.350742
11	0x414cff13	12.812274
12	0x412b04c2	10.688662
13	0xb98b5f00	-0.00026582927
14	0x415c684a	13.775461
15	0x415867c2	13.5253315
16	0x4143c87a	12.236444
17	0x4126b6ea	10.419657
18	0x4154c479	13.297967
19	0x3c41e8f0	0.011835322
20	0xbced5c8a	-0.02897479
21	0x4141c09d	12.109525
22	0x41668265	14.406835
23	0x416e28f3	14.884997
24	0x415676f1	13.404038
25	0x3c923fb4	0.017852642
26	0x3d7105d2	0.05884344
27	0xbce514bc	-0.027963988
28	0x4148c7e2	12.5487995
29	0x414c5fab	12.773356
30	0x414d3191	12.824601
31	0xbd990662	-0.074719205
32	0x3d9fec4d	0.07808743
33	0x3d9c9ab1	0.076466925
34	0x3cc6b678	0.02425693
35	0x413f6e58	11.964439
36	0x4133f5fe	11.247557
37	0x3d90df47	0.07073837
38	0x3d99db01	0.07512475
39	0xbd3a4421	-0.04547513
40	0xbcd12682	-0.025531057
41	0xbcacb368	-0.021081641
42	0x4138b2ba	11.543634
43	0x3ccac308	0.024751201
44	0x3d629e0e	0.055326514
45	0xbc262230	-0.010139987
46	0xbc9eced8	-0.01938574
47	0xbd3a3169	-0.045457277
48	0x3d2b3350	0.041796982
49	0x413b4da8	11.706459
50	0x416608f3	14.377185
51	0x416278a9	14.154458
52	0x4132bf9e	11.171782
53	0x41523329	13.13749
54	0x41459317	12.348411
55	0x4156df41	13.429505
56	0x4138ec0c	11.557629
57	0x415bcdae	13.737715
58	0x41411511	12.067643
59	0x412ec75b	10.923671
60	0x41465c85	12.397588
61	0x41297da9	10.593179
62	0x3d941ff7	0.07232659
63	0x41560126	13.37528
64	0x4146fc5f	12.436614
65	0x41447bd2	12.28023
66	0x41241b70	10.256699
67	0x414fddda	12.991663
68	0xbd1666bf	-0.03671908
69	0xbd707068	-0.05870095
70	0x414d0c64	12.815525
71	0x415dc188	13.859749
72	0x41570778	13.439323
73	0x413ad422	11.67679
74	0x3d0b89d2	0.034066983
75	0x3d7f0b86	0.06226685
76	0x3d9d737d	0.07688043
77	0x41451cae	12.319502
78	0x41477b59	12.467614
79	0x41598f70	13.597519
80	0xbbee8750	-0.007279314
81	0x3d9a693b	0.07539602
82	0x3b9a0230	0.004699968
83	0xbd7534e0	-0.05986488
84	0x4128272e	10.509565
85	0x4147c081	12.484498
86	0x3d720c5a	0.05909381
87	0xbc905d20	-0.01762253
88	0x3da23a47	0.07921272
89	0x3c5a3eb8	0.013320617
90	0x3c1fdd60	0.00975737
91	0x411d088d	9.814588
92	0xbd40cfd4	-0.0470732
93	0xbda600e9	-0.08105642
94	0x3d77a1de	0.060457103
95	0x3d5575aa	0.052114166
96	0x3da41d95	0.08013455
97	0x3b7cc4e0	0.0038569495
98	0x412538ae	10.326338
99	0x411b0f63	9.6912565
100	0x413b0950	11.689774
101	0x411d3183	9.824588
102	0x41384286	11.516241
103	0x4110eccb	9.057811
104	0x4127d9f1	10.490708
105	0x41122794	9.134663
106	0x413708de	11.439665
107	0x4125a6df	10.35324
108	0x41172f40	9.449036
109	0x413a8354	11.657063
110	0x410568df	8.338103
111	0xbca9d712	-0.020732436
112	0x412d2dd1	10.823686
113	0x4143db94	12.241108
114	0x413c032c	11.750774
115	0x411a415d	9.640958
116	0x41229b0e	10.162855
117	0x3d60107a	0.054703213
118	0xbd453e07	-0.048154857
119	0x4138de9c	11.554348
120	0x41333743	11.200992
121	0x4114772d	9.279096
122	0x412c33c7	10.762641
123	0x3d55cd22	0.052197583
124	0xbcf9c3e6	-0.03048892
125	0x3d4be0b6	0.049774848
126	0x4115b382	9.356325
127	0x4132d064	11.175877
128	0x41273ffa	10.453119
129	0x3d5fff9a	0.05468712
130	0xbd9170d0	-0.071015954
131	0xbd3eb6cd	-0.04656105
132	0x3c167910	0.009184137
133	0x41216b90	10.08876
134	0x41261b71	10.3817
135	0xbc72b038	-0.014812522
136	0x3ba89190	0.0051443055
137	0xbd70ad8e	-0.058759265
138	0xbd61583e	-0.055015795
139	0x3c176498	0.009240292
140	0x4132f551	11.184892
141	0x3d044a90	0.03229767
142	0xbc4cd838	-0.012502722
143	0x3cf54188	0.029938474
144	0xbd2c0fa8	-0.04200712
145	0xbd8e3fb1	-0.06945742
146	0x3d9197c9	0.07109029
147	0xbca545aa	-0.02017482
148	0x41358798	11.345604
149	0x4167ce30	14.487839
150	0x4157898d	13.471082
151	0x413fa49d	11.977689
152	0x415bd577	13.739615
153	0x41389a7b	11.537715
154	0x415c7316	13.778097
155	0x412fae06	10.979986
156	0x415e69f9	13.900872
157	0x41340329	11.2507715
158	0x4122f9cf	10.185988
159	0x414db7ba	12.857355
160	0x4128c997	10.549216
161	0x3d4c53a2	0.049884446
162	0x415c40e4	13.765842
163	0x4159ec01	13.620118
164	0x41426c97	12.151511
165	0x412782ed	10.469464
166	0x41526114	13.148701
167	0x3c1d4f40	0.009601414
168	0xbd9d92ea	-0.07694037
169	0x413e8f5e	11.910002
170	0x41664a7f	14.3931875
171	0x416cebf5	14.807607
172	0x4155d4c9	13.3644495
173	0x3d537712	0.051627226
174	0xbbb54880	-0.0055323243
175	0xbd8067f0	-0.062698245
176	0x41481cf0	12.507065
177	0x41501512	13.005144
178	0x4155b191	13.355851
179	0x3ba4dcd0	0.0050312057
180	0xbd04863f	-0.03235459
181	0x3d38d92a	0.04512898
182	0xbd9c6689	-0.076367445
183	0x414297d4	12.162067
184	0x41319f11	11.101335
185	0x3d47de72	0.048796125
186	0xbd8d4aff	-0.0689907
187	0x3d13780a	0.03600315
188	0xbc78b558	-0.0151799545
189	0x3badc420	0.005302921
190	0x41390bb4	11.565357
191	0x3cefd4f0	0.029276341
192	0x3d984a75	0.074360766
193	0xbd6c52eb	-0.057696264
194	0x3d5563fa	0.0520973
195	0xbcd4f42e	-0.02599534
196	0x3da0a58d	0.07844076
197	0x413f60d5	11.961141
198	0x41671609	14.44288
199	0x416357a3	14.208896
200	0x41355315	11.332784
201	0x41530a77	13.190055
202	0x414306d8	12.189171
203	0x41564618	13.392113
204	0x413b1eb8	11.695
205	0x415d853c	13.845028
206	0x413f6508	11.962166
207	0x412fbaf5	10.983144
208	0x4149f2e6	12.621801
209	0x4132a3c5	11.164983
210	0x3d2cc656	0.042181335
211	0x4157e112	13.492449
212	0x4149e9b7	12.619559
213	0x41417ef4	12.093494
214	0x41223d4d	10.139966
215	0x414fffa1	12.999909
216	0xbd53f114	-0.051743582
217	0xbd7b8caa	-0.061413445
218	0x414c99da	12.787561
219	0x415e9373	13.910998
220	0x415aad43	13.6673
221	0x413c751b	11.77859
222	0x3d91da11	0.07121671
223	0xbd7265a4	-0.059178963
224	0xbc4d76a0	-0.012540489
225	0x4143c12b	12.23466
226	0x4147ea72	12.494738
227	0x41565c4e	13.397535
228	0xbd3ef587	-0.046620872
229	0x3d3cfb36	0.04613801
230	0xbd50ec3a	-0.051006533
231	0xbd69efd6	-0.05711349
232	0x4121d6b2	10.114916
233	0x4148708c	12.527477
234	0xbc55c470	-0.013047323
235	0xbce0277c	-0.027362578
236	0xbd84ea4d	-0.06490002
237	0xbda08b31	-0.07839049
238	0xbd1cfc71	-0.038326684
239	0x41193129	9.574502
240	0xbbf39db0	-0.0074345693
241	0xbd9a4cf1	-0.07534207
242	0xbcb3ca6a	-0.021947104
243	0x3c8195f8	0.015818581
244	0xbd81918c	-0.06326589
245	0xbd631d8d	-0.055448104
246	0x412da285	10.852178
247	0x411a94ac	9.661297
248	0x413cce8c	11.8004265
249	0x411affaa	9.687418
250	0x413b9d0e	11.725843
251	0x4111dec5	9.116887
252	0x4129ee4b	10.620677
253	0x41108cf1	9.0344095
254	0x41379be7	11.475562
255	0x412829d5	10.510213

fc1.bias f4 [256]
0	0x41759363	15.348483
1	0x4178122e	15.504438
2	0x41774b0b	15.455821
3	0x417851fd	15.520017
4	0x4178ab05	15.541753
5	0x4177d1f9	15.488763
6	0x41790293	15.563128
7	0x41782646	15.509344
8	0x417862bf	15.524108
9	0x417823dd	15.508756
10	0x41780a2c	15.502483
11	0x4177a625	15.478063
12	0xbfdc1bce	-1.7195985
13	0x41774a73	15.455676
14	0x417860d5	15.523641
15	0x4178ca7c	15.549435
16	0x4174e846	15.306707
17	0x41791921	15.568635
18	0x41785970	15.521835
19	0x4177a1a3	15.476962
20	0x4176e51c	15.430935
21	0x41770f86	15.44129
22	0x4176c28b	15.422496
23	0x4175d3ac	15.364178
24	0x4178416a	15.51597
25	0x41754e4f	15.331618
26	0x41758287	15.344367
27	0x41765444	15.395573
28	0x4178e7c9	15.556588
29	0x417826e6	15.509497
30	0x4178b9d0	15.545364
31	0x41762a05	15.385259
32	0x4177c63d	15.485898
33	0x4177a68a	15.478159
34	0x4177ee2d	15.495648
35	0xbfe416b5	-1.781943
36	0x417742b8	15.453789
37	0x4178ae27	15.542518
38	0x41779784	15.474491
39	0xc00157dc	-2.0209875
40	0x4177f842	15.49811
41	0xbfcd04bc	-1.601707
42	0x4177e4f6	15.493399
43	0x41794cdd	15.581265
44	0x4178fe39	15.562066
45	0x41788d9a	15.534571
46	0x41778b82	15.47156
47	0x4178fee9	15.562234
48	0x41782c37	15.510795
49	0xbfd2da16	-1.6472805
50	0x417820a1	15.507966
51	0x417636a3	15.388339
52	0x4175a798	15.353416
53	0x4177a133	15.476855
54	0x417815e7	15.505347
55	0x4177fc64	15.499119
56	0x417556be	15.333677
57	0x4177efef	15.496078
58	0x4178b651	15.544511
59	0x41792ab2	15.572924
60	0x41789813	15.5371275
61	0x41780671	15.501573
62	0x41785c77	15.522574
63	0x4178571c	15.521267
64	0x417907c8	15.5644
65	0x417836c2	15.513369
66	0x4176a172	15.414415
67	0x4178ab19	15.541772
68	0x41787154	15.527668
69	0x41792996	15.572653
70	0x4176ece0	15.432831
71	0x417856ec	15.521221
72	0x4177f857	15.49813
73	0xbfb25af1	-1.3934003
74	0x4175cc51	15.362382
75	0x4177d821	15.490266
76	0xbffaaeff	-1.9584655
77	0x417646fb	15.392329
78	0xbfceb7f9	-1.6149894
79	0xbfd8f3b3	-1.6949371
80	0x41778e8c	15.4723015
81	0x417587ca	15.345652
82	0x4179470a	15.5798435
83	0x417771c4	15.465275
84	0x417853a8	15.520424
85	0x4176ae9c	15.417629
86	0x4178a15e	15.539396
87	0x4176fc37	15.436576
88	0xbfd3d47b	-1.6549219
89	0x4178299a	15.510157
90	0x4178c9ea	15.549295
91	0x41757afe	15.342527
92	0x4178e912	15.556902
93	0x41772f99	15.4491205
94	0x4175be2b	15.358928
95	0xbfea2a90	-1.8294239
96	0x4177c253	15.484942
97	0x41788c0c	15.534191
98	0x4175cf11	15.363053
99	0x4178c4a8	15.548012
100	0x4179123b	15.566951
101	0x41791318	15.567162
102	0x4177f8a5	15.498204
103	0x4178bdb0	15.54631
104	0x4178adf9	15.542474
105	0x4178f1d2	15.559038
106	0x417819af	15.50627
107	0x41798a5f	15.596282
108	0x4175f681	15.372682
109	0x4174dba9	15.303628
110	0x4176752d	15.403607
111	0x41776802	15.462893
112	0x41789684	15.536747
113	0x4177dc5a	15.491297
114	0x41779f11	15.476335
115	0x4177d3c5	15.489202
116	0x41784035	15.515676
117	0x417813e6	15.504858
118	0x41795931	15.584275
119	0x4178b716	15.544699
120	0xbfcee722	-1.6164286
121	0x41789d4d	15.5384035
122	0x4177ff1d	15.4997835
123	0xbfe7f8cd	-1.8122803
124	0xbff0ec70	-1.8822155
125	0xbfd64321	-1.6739236
126	0x417921f6	15.570791
127	0x4179754c	15.591137
128	0x417771e0	15.4653015
129	0x4178a124	15.539341
130	0x4176f3c5	15.434514
131	0x41792fc9	15.574166
132	0x4173df75	15.242055
133	0x41784c30	15.5186
134	0x41759534	15.348927
135	0x4177a65e	15.478117
136	0x41759c12	15.350603
137	0x41766536	15.39971
138	0x41761869	15.3809595
139	0x41772f0c	15.448986
140	0x4175cfbe	15.363218
141	0x4176a438	15.415092
142	0x4176d5ec	15.427227
143	0x4177f7c4	15.49799
144	0x4179910d	15.597913
145	0x41788473	15.532336
146	0x41787faf	15.531173
147	0x4177da64	15.490818
148	0x41781dbe	15.507261
149	0x41795513	15.58327
150	0x41780fa0	15.503815
151	0x4177b0c0	15.480652
152	0x4178753e	15.528624
153	0x41788a4c	15.533764
154	0x4174c347	15.297675
155	0x417744ca	15.454294
156	0x4178b272	15.543566
157	0x4178e138	15.554985
158	0x41775448	15.4580765
159	0x417605b6	15.376394
160	0x41790282	15.563112
161	0x4177b785	15.482305
162	0x4178b64f	15.544509
163	0x4177ccad	15.48747
164	0x41786dbf	15.5267935
165	0x41770d50	15.44075
166	0x4175f62e	15.372602
167	0x41787b5e	15.530119
168	0x417911e2	15.566866
169	0x4178729a	15.527979
170	0x41769b39	15.412896
171	0x41787be6	15.530249
172	0xbfe33164	-1.7749448
173	0x41791733	15.568164
174	0x417894c6	15.536322
175	0x41792dc8	15.573677
176	0x417559ea	15.334452
177	0x41783b5d	15.514493
178	0x41780a49	15.502511
179	0x41779151	15.472978
180	0x4178fafb	15.561275
181	0x41787ef0	15.530991
182	0x4177652c	15.4622
183	0x4177de5f	15.49179
184	0x417811ab	15.504313
185	0x4177f17b	15.496455
186	0xbfba3add	-1.4549214
187	0x41751cfd	15.319577
188	0x41791494	15.567524
189	0x4178a031	15.539109
190	0x4178962d	15.536664
191	0xbfda3c78	-1.7049704
192	0x4178841d	15.532254
193	0x417801c9	15.500436
194	0x4178ab60	15.54184
195	0x4178a90a	15.541269
196	0x4179122a	15.566935
197	0x4178f06e	15.558699
198	0x4178985f	15.5372
199	0xbfecbb57	-1.8494672
200	0x4178dc9b	15.553859
201	0x41759218	15.348167
202	0x41760f72	15.378771
203	0xbfda71e7	-1.706601
204	0x41741f7a	15.257685
205	0x41766a09	15.4008875
206	0x417840bd	15.515805
207	0x41787475	15.528432
208	0x4178b621	15.544465
209	0x4174f421	15.309602
210	0x4178c1a2	15.547274
211	0x417908da	15.564661
212	0x4175e06c	15.3672905
213	0x41775052	15.457109
214	0x41763af8	15.389397
215	0xbfd73792	-1.6813834
216	0x417868d9	15.525598
217	0x4178270c	15.509533
218	0x417902ae	15.563154
219	0x4175efaf	15.3710165
220	0x41793427	15.5752325
221	0x41781dd2	15.50728
222	0x41785f57	15.523276
223	0x4176f1bc	15.434017
224	0x41783b20	15.514435
225	0x4177b78d	15.482312
226	0xbff10869	-1.8830692
227	0x417873af	15.528243
228	0x41765c3d	15.397519
229	0xbfd7bb5a	-1.685405
230	0x417730d0	15.449417
231	0x4177c611	15.485856
232	0x4178f021	15.558625
233	0x41774a1e	15.455595
234	0x4178c786	15.548712
235	0xbff6a547	-1.9269189
236	0x4176f40f	15.434585
237	0xbfda9599	-1.7076904
238	0x4176b99c	15.420315
239	0x4178a88a	15.541147
240	0x41759ade	15.350309
241	0x4177f660	15.49765
242	0x41777ecf	15.468459
243	0x417976d4	15.591511
244	0x4177bb30	15.4832
245	0x41792b25	15.573033
246	0x4178e104	15.554935
247	0x417900b2	15.56267
248	0x4177f10a	15.496347
249	0x4175e2a1	15.367829
250	0x41779f26	15.476355
251	0x417888fc	15.533443
252	0x4178707e	15.527464
253	0x4177c82f	15.486373
254	0x417602de	15.3757
255	0x417601f5	15.375478

fc2.weight f4 [128, 256]
0	0x417214e6	15.130102
1	0x417438a3	15.263827
2	0x417298cf	15.162307
3	0x41739cd8	15.225792
4	0x4173bb60	15.233246
5	0x41726c2c	15.151409
6	0x41732e1b	15.198756
7	0x4172196b	15.131206
8	0x417564cf	15.337111
9	0x4172d165	15.176122
10	0x41742765	15.259618
11	0x417284be	15.157408
12	0xc09be5d1	-4.8718038
13	0x416de9bd	14.869565
14	0x41725e15	15.147969
15	0x41712166	15.070654
16	0x4173e459	15.243249
17	0x4175f404	15.372074
18	0x41740af8	15.252678
19	0x41751e58	15.319908
20	0x416f0aa4	14.940098
21	0x41712fcf	15.074172
22	0x4173b097	15.230613
23	0x417358eb	15.2092085
24	0x4171510d	15.082288
25	0x416bc1ea	14.734842
26	0x41738c64	15.221775
27	0x4170c8c5	15.049016
28	0x41720f0e	15.128675
29	0x4172ea15	15.182149
30	0x4173bc7d	15.233518
31	0x41728a1b	15.158717
32	0x41714580	15.079468
33	0x41719872	15.099718
34	0x4173c49c	15.2355
35	0xc0ad32cc	-5.412451
36	0x41733abb	15.2018385
37	0x4171cb9a	15.112207
38	0x41744111	15.265885
39	0xc0982e0a	-4.75562
40	0x41748f53	15.284991
41	0xc0aa1212	-5.314706
42	0x4174a19a	15.2894535
43	0x41735c76	15.210073
44	0x4173806a	15.218851
45	0x41725492	15.145647
46	0x41731fad	15.195233
47	0x41761b1f	15.381621
48	0x417085c4	15.032658
49	0xc0bb91f9	-5.861569
50	0x4172895c	15.158535
51	0x416f27df	14.947234
52	0x417245a0	15.141998
53	0x4173361c	15.20071
54	0x4174f91d	15.310819
55	0x4173af81	15.230348
56	0x4174c2b0	15.297531
57	0x4173e9a0	15.244537
58	0x417422e7	15.258521
59	0x417636ec	15.388409
60	0x41731cef	15.194564
61	0x41720629	15.126504
62	0x417269dd	15.150846
63	0x417506c4	15.314152
64	0x41747e61	15.280854
65	0x4172eb08	15.182381
66	0x4170ffea	15.062479
67	0x41729568	15.161476
68	0x4173a6ae	15.228193
69	0x41736786	15.212774
70	0x41733ef9	15.202874
71	0x4174c2f4	15.297596
72	0x4171a969	15.10386
73	0xc09f9608	-4.9870644
74	0x4172e410	15.180679
75	0x4171c711	15.1111
76	0xc0acc21d	-5.3986955
77	0x417316e9	15.193093
78	0xc0ad63a9	-5.4184155
79	0xc09c671b	-4.887586
80	0x41724ed1	15.144242
81	0x417142c0	15.078796
82	0x417483d0	15.282181
83	0x4171c38f	15.110244
84	0x417432bc	15.262386
85	0x4173aa18	15.229027
86	0x417564ab	15.337077
87	0x4174a31a	15.28982
88	0xc0af66c6	-5.4812956
89	0x41748e1d	15.284696
90	0x4173e172	15.24254
91	0x416f868c	14.970348
92	0x41722696	15.13442
93	0x4173ece5	15.245336
94	0x41744c6c	15.268658
95	0xc09ddfba	-4.9335604
96	0x4172beb7	15.171561
97	0x41752097	15.3204565
98	0x41738614	15.220234
99	0x41758cb3	15.34685
100	0x4173e53d	15.243466
101	0x417259f6	15.146963
102	0x4174be32	15.296434
103	0x4172e79e	15.181547
104	0x41717723	15.091586
105	0x4174dddc	15.304165
106	0x4172dd76	15.179068
107	0x4172e924	15.181919
108	0x4174ff21	15.312287
109	0x41733d8e	15.202528
110	0x41743f29	15.26542
111	0x41734874	15.205189
112	0x417401b8	15.25042
113	0x416f593c	14.959286
114	0x41741140	15.254211
115	0x4172c013	15.171893
116	0x4173cc4e	15.237379
117	0x417140dc	15.078335
118	0x4172cda3	15.175204
119	0x41730f08	15.19117
120	0xc0ad56d9	-5.4168515
121	0x41739ed1	15.226274
122	0x4171f8b5	15.1232195
123	0xc09bcb1f	-4.868545
124	0xc0a67c5d	-5.202681
125	0xc0acc800	-5.399414
126	0x4175e13e	15.367491
127	0x41748e13	15.284686
128	0x4172f09a	15.183741
129	0x4173caba	15.236994
130	0x4174f170	15.308945
131	0x41720518	15.126244
132	0x4172cdbb	15.175227
133	0x41717e77	15.093375
134	0x41739eba	15.226252
135	0x4171e384	15.118046
136	0x417154cb	15.083201
137	0x41737d77	15.218131
138	0x416d79f3	14.842273
139	0x417086ee	15.032942
140	0x417381df	15.219207
141	0x4170fbde	15.061491
142	0x417137cf	15.076125
143	0x4173c250	15.23494
144	0x4174ed99	15.308007
145	0x41738d02	15.221926
146	0x4171b6a9	15.107095
147	0x41726f5b	15.152186
148	0x4170cdaf	15.050216
149	0x41759798	15.34951
150	0x41730a3e	15.190001
151	0x417256f1	15.146226
152	0x417188f4	15.095936
153	0x4172e5d5	15.181111
154	0x416f2912	14.947527
155	0x4171a638	15.103081
156	0x4172370e	15.138441
157	0x4173fc1c	15.24905
158	0x41735552	15.20833
159	0x4172fcb8	15.186699
160	0x417409bf	15.252379
161	0x4174ad92	15.292376
162	0x4174225a	15.258387
163	0x4170d8a6	15.052893
164	0x41729f81	15.163941
165	0x41727cf1	15.155503
166	0x416f46ea	14.954813
167	0x4173227d	15.19592
168	0x41740e9e	15.253569
169	0x41742a46	15.260321
170	0x4170223b	15.008357
171	0x41724ad5	15.14327
172	0xc0a4346b	-5.1313987
173	0x41746643	15.274966
174	0x41736d88	15.214241
175	0x41741982	15.2562275
176	0x41741502	15.255129
177	0x4172f4e3	15.184787
178	0x417308c9	15.189645
179	0x4171b684	15.1070595
180	0x4174661c	15.274929
181	0x4173fd28	15.249306
182	0x41731418	15.192406
183	0x41720cec	15.128155
184	0x41735d7a	15.210321
185	0x41720eaa	15.12858
186	0xc0a12d10	-5.036751
187	0x41726faf	15.1522665
188	0x4175ad7e	15.3548565
189	0x41748beb	15.28416
190	0x41727322	15.153109
191	0xc0b71293	-5.7210174
192	0x41746ceb	15.276591
193	0x41756b9a	15.33877
194	0x4171eeaf	15.120772
195	0x4173926f	15.22325
196	0x4173e90c	15.244396
197	0x4172b224	15.168491
198	0x4174469c	15.267239
199	0xc0a2386e	-5.0693884
200	0x4173e182	15.242556
201	0x416ea2d9	14.914758
202	0x4172e271	15.180284
203	0xc0b0bf8c	-5.523382
204	0x416a1fb6	14.632742
205	0x416f9c9c	14.975735
206	0x41745c79	15.272576
207	0x41728279	15.156854
208	0x41739a5b	15.225184
209	0x417109d6	15.064901
210	0x4171cece	15.112989
211	0x41759cbe	15.350767
212	0x41728441	15.157289
213	0x41756352	15.336748
214	0x4173b34c	15.231274
215	0xc08bbdfc	-4.3669415
216	0x41724494	15.141743
217	0x41730d7b	15.190791
218	0x4172287c	15.134884
219	0x41726f0d	15.152112
220	0x41736e47	15.214423
221	0x41723aa6	15.139318
222	0x4171db54	15.116047
223	0x4171fb16	15.1238
224	0x4173cfff	15.23828
225	0x4173d7a6	15.240149
226	0xc09b41dd	-4.85179
227	0x4173a31d	15.227323
228	0x4170c26a	15.047464
229	0xc0b11038	-5.53323
230	0x4175537d	15.332883
231	0x4173cd55	15.23763
232	0x41733798	15.201073
233	0x41765fd6	15.398397
234	0x417328af	15.1974325
235	0xc0a7bc95	-5.2417703
236	0x4173d69d	15.239896
237	0xc0ac0f0e	-5.3768377
238	0x41729a6c	15.162701
239	0x41766f98	15.402245
240	0x417278ba	15.154474
241	0x4172e28b	15.180308
242	0x417570aa	15.340006
243	0x417552af	15.332686
244	0x417110d5	15.066609
245	0x4176234e	15.383619
246	0x417262b4	15.149097
247	0x4173cf8e	15.238173
248	0x4173cad7	15.237021
249	0x4171ab49	15.104318
250	0x4175f5ff	15.372558
251	0x41741df3	15.257312
252	0x417440fe	15.265867
253	0x41732bb4	15.19817
254	0x416fdef4	14.991932
255	0x4171b81f	15.107451

fc2.bias f4 [128]
0	0x416b2208	14.695808
1	0x416b20a2	14.695467
2	0x416a895f	14.658538
3	0x416bed2e	14.745405
4	0x416c359e	14.76309
5	0x416af7b7	14.685477
6	0x416ba0b6	14.726736
7	0x416cec5e	14.807707
8	0x416ca0f0	14.789291
9	0x416c1df1	14.75731
10	0x416b7e2c	14.718304
11	0x416c7576	14.778677
12	0x416b9758	14.724449
13	0x416b99ee	14.7250805
14	0x416bdcea	14.741434
15	0x416ba47b	14.727656
16	0x416ab154	14.668293
17	0xbda67622	-0.08128001
18	0x416ce029	14.804727
19	0x3b35ffe2	0.0027770926
20	0x416bd330	14.739059
21	0x416ce649	14.806222
22	0x416b83d1	14.719682
23	0x416bceb8	14.737968
24	0x416b73b1	14.715745
25	0xbd766c3e	-0.06016182
26	0x416cc374	14.797718
27	0x416c3b35	14.764455
28	0xbd87b5bc	-0.0662646
29	0x416bd04c	14.738354
30	0x416bdf04	14.741947
31	0x416cbe20	14.796417
32	0x41692b97	14.573142
33	0x416bfe90	14.749649
34	0x416c379d	14.763577
35	0x416cb740	14.794739
36	0x416c7589	14.778695
37	0x416b52cd	14.707715
38	0x416a0c50	14.628006
39	0x416b7dc3	14.718204
40	0xbd749faa	-0.05972258
41	0x416c6d2b	14.776652
42	0x416bdd0e	14.741468
43	0x416cdaa7	14.803382
44	0x416b8d09	14.721932
45	0x416b5848	14.709053
46	0x416bda86	14.74085
47	0x416c118f	14.754287
48	0x416c15f6	14.755362
49	0x416af3c2	14.684511
50	0x416bb5bd	14.73187
51	0x416c97c1	14.787049
52	0xbd7065e4	-0.05869092
53	0x416c26d2	14.759478
54	0x416b9a86	14.725225
55	0x416c88f3	14.783435
56	0x416b042e	14.68852
57	0x416bf874	14.7481575
58	0xbd7738ea	-0.06035701
59	0x416b81b7	14.719169
60	0x416b2c0f	14.6982565
61	0x416c09bb	14.752376
62	0x416b81fd	14.719235
63	0x416bf5cb	14.747508
64	0x416c7114	14.777607
65	0x416c5d2f	14.77275
66	0x416a8fd4	14.660114
67	0xbdd75520	-0.10514283
68	0x416c19d4	14.756306
69	0xbdaecc09	-0.0853501
70	0x416af44b	14.684642
71	0x416ad39c	14.676662
72	0x416aef50	14.683426
73	0x416c0ed8	14.753624
74	0x416cbc2a	14.7959385
75	0x416c5c1d	14.772489
76	0xbd779f52	-0.060454674
77	0x416c5680	14.771118
78	0x416be28e	14.742811
79	0x416bc7fa	14.736322
80	0x416cd846	14.802801
81	0x416b8e6d	14.722272
82	0x416d35de	14.825651
83	0xbd14a8a6	-0.03629365
84	0x416c85f6	14.782705
85	0x416adc5c	14.678799
86	0x416c84f6	14.782461
87	0x416c69b4	14.775806
88	0xbd8a5a8d	-0.067555524
89	0x416c9fcf	14.789016
90	0x416bad88	14.729866
91	0xbd32decc	-0.043669507
92	0x416cb42a	14.793985
93	0x416bcaab	14.7369795
94	0x416c544c	14.77058
95	0x416b6e7f	14.714477
96	0xbc60be86	-0.013717299
97	0x3a259a56	0.00063172483
98	0x416a89a4	14.658604
99	0x416b2e58	14.698814
100	0x416cc160	14.797211
101	0x416c0e58	14.753502
102	0x416b02cf	14.688186
103	0xbd41c9f7	-0.04731175
104	0x416ca5ae	14.790449
105	0x416b23a3	14.6962
106	0x416c90c6	14.785345
107	0xbddf04e4	-0.10889605
108	0x416ccf0b	14.800548
109	0x416b0b0c	14.690197
110	0x416c71e4	14.777805
111	0x416b24a3	14.6964445
112	0x416c4b79	14.768426
113	0x416bb573	14.731799
114	0x416c6342	14.774233
115	0x416cf554	14.809895
116	0x416c25ce	14.75923
117	0xbd563325	-0.05229487
118	0x416c9ce9	14.788308
119	0x416b6cb5	14.71404
120	0x416b5bf2	14.709948
121	0x416b1f2c	14.69511
122	0xbcfd2dcc	-0.030905627
123	0x416b1ff3	14.6953
124	0x416b5561	14.708344
125	0xbc8d132d	-0.017221058
126	0x416c1508	14.755135
127	0xbb5dd742	-0.0033850227

fc3.weight f4 [64, 128]
0	0x3bae5a51	0.005320825
1	0x3d1d2315	0.038363535
2	0xbd42cd3e	-0.047559015
3	0xbdcda1e5	-0.100406446
4	0xbd5550bb	-0.052078944
5	0x3d1d6129	0.038422737
6	0xbdb5897b	-0.08864113
7	0xbd366739	-0.044532035
8	0xbcd24591	-0.025667937
9	0xbd9790db	-0.07400676
10	0x3d4e3a7e	0.05034875
11	0xbd65e4e2	-0.056126483
12	0xbc500265	-0.012695883
13	0xbd9492d2	-0.07254566
14	0xbd61133a	-0.054949977
15	0xbceb6106	-0.028732788
16	0xbd84e88e	-0.06489669
17	0xbd65241d	-0.055942643
18	0xbb0a2d61	-0.0021084177
19	0x3bbec57e	0.0058218827
20	0xbc510300	-0.012757063
21	0xbd009359	-0.03139052
22	0x3d6310fd	0.055436123
23	0x3d00cf4f	0.031447705
24	0xbcf3140a	-0.029672641
25	0xbc978887	-0.018497718
26	0xbd4d97b3	-0.0501935
27	0xbd2a1202	-0.04152108
28	0x3d54cd3a	0.05195353
29	0xbdeee23a	-0.11664243
30	0x3d8124f7	0.063058786
31	0x3d53a588	0.051671535
32	0x3c203c02	0.009779932
33	0x3d4199a3	0.04726566
34	0xbd18b0bd	-0.037277926
35	0x3c82056a	0.015871722
36	0xbce60277	-0.028077347
37	0xbb9d383f	-0.004797965
38	0x3c5aa4c6	0.013344949
39	0x3c9c6e35	0.01909552
40	0xbd87783b	-0.06614729
41	0x3cec6346	0.028855931
42	0x3ca4b21a	0.020104457
43	0xbd9cdd3f	-0.07659387
44	0x3d6c9daa	0.057767548
45	0xbd815684	-0.0631533
46	0xbac48341	-0.001499273
47	0xbd95cb0d	-0.073141195
48	0x3cc41b0b	0.023938676
49	0xbd9a55d2	-0.075359
50	0x3d843561	0.06455494
51	0x3cb058d7	0.021526737
52	0xbd475e27	-0.048673775
53	0x3c77e9f4	0.015131462
54	0xbdf443af	-0.11926972
55	0xbc88aca0	-0.016683877
56	0x3cf88f1f	0.030341683
57	0x3d09aaec	0.03361027
58	0xbbe3c040	-0.006950408
59	0xbdf8f402	-0.12155916
60	0x3d98ac9f	0.074548
61	0xbdc052c8	-0.09390789
62	0xbd4b2686	-0.049597286
63	0xbd97febb	-0.07421633
64	0xbcd022fe	-0.02540731
65	0x3b96c024	0.0046005417
66	0x3d68ac58	0.056804985
67	0x3d0a764c	0.033804223
68	0xbb8bbfc9	-0.004264806
69	0x3c0b70da	0.008510793
70	0x3d300ab3	0.042978954
71	0x3d58a73a	0.052893855
72	0xbdfb9f68	-0.12286264
73	0xbdfa1b3e	-0.12212227
74	0xbdbe333a	-0.092871144
75	0xbd877c94	-0.06615558
76	0x3b478715	0.0030445505
77	0x3d1de693	0.03854997
78	0x3d9255b0	0.0714525
79	0xbd9e12ee	-0.07718454
80	0xbdbc118c	-0.09183034
81	0x3dc44b02	0.09584619
82	0xbde8480d	-0.113418676
83	0x3db29fef	0.08721911
84	0x3d8c0a1d	0.068378665
85	0xbd937283	-0.07199576
86	0xbcd706f2	-0.026248429
87	0xbdffbb95	-0.1248695
88	0x3d89a512	0.06720938
89	0x3cdf369d	0.027247721
90	0xbd34db8a	-0.04415468
91	0xbd0127f5	-0.031532247
92	0xbdc9aa75	-0.09846965
93	0xbd1c5935	-0.038171012
94	0xbcc80ea8	-0.024421051
95	0xbc8f73c7	-0.017511262
96	0xbdafd454	-0.0858542
97	0xbde1a53e	-0.110178456
98	0xbd9058f0	-0.070482135
99	0xbd149d72	-0.036282964
100	0x3cc51430	0.024057478
101	0xbddf0784	-0.10890105
102	0xbd69b5b9	-0.05705807
103	0xbd65707f	-0.056015488
104	0x3c967b73	0.018369412
105	0xbe05a76a	-0.13052145
106	0xbd1525d5	-0.036413033
107	0xbd320c77	-0.04346892
108	0xbb2e6304	-0.002660931
109	0xbdd7ce7f	-0.10537433
110	0xbcc654e0	-0.024210393
111	0xbdd1f024	-0.10250881
112	0x3d01dd58	0.03170523
113	0x3b933feb	0.0044937036
114	0x3c1585b3	0.009126115
115	0xbc1b05cc	-0.009461831
116	0xbcbc6279	-0.022996174
117	0x3d01c864	0.031685248
118	0xbdbc7165	-0.09201316
119	0x3d5f9fc1	0.054595713
120	0x3cb9e526	0.022692274
121	0xbdd2ebd1	-0.10298885
122	0x3d7048e5	0.058663268
123	0xbc903ba4	-0.017606564
124	0xbd5cb785	-0.053885955
125	0x3c389f87	0.011268503
126	0x3d53223e	0.051546328
127	0xbca308c3	-0.019901639
128	0xbd09a075	-0.03360029
129	0x3c20fe28	0.009826221
130	0xbd93f17e	-0.07223795
131	0x3c8a9138	0.016914949
132	0xb9c561ca	-0.00037647627
133	0xbd9c8ef7	-0.07644456
134	0x3cf91309	0.030404584
135	0xbd1e5a9e	-0.038660638
136	0xbd94fd50	-0.07274878
137	0x3c5a7fae	0.013336105
138	0x3ca25a04	0.019818313
139	0xbdaf9fc2	-0.08575393
140	0xbca3c98c	-0.019993566
141	0xbcf75f47	-0.030196799
142	0xbda67b7c	-0.081290215
143	0xbd263c32	-0.04058475
144	0x3cc24c84	0.023718126
145	0xbd5b8a6e	-0.053598814
146	0x3d946307	0.072454505
147	0x3d6dc1f5	0.0580463
148	0x3bc7b943	0.006095083
149	0xbced0b38	-0.028936014
150	0x3d10cf44	0.035353914
151	0x3b82cc40	0.0039916337
152	0x3d430cbe	0.047619574
153	0xbd1986eb	-0.037482183
154	0xbd3c42cc	-0.04596214
155	0xbc9a7699	-0.01885538
156	0x3d8f7a2b	0.070057236
157	0xbdb4c0ef	-0.08825862
158	0x3d8e5989	0.06950671
159	0x3ca6f8a0	0.020382226
160	0xbdd25d40	-0.10271692
161	0x3d182aa2	0.037150033
162	0x3d634c3a	0.055492617
163	0xbd9a7477	-0.07541745
164	0x3d60d0b2	0.054886527
165	0xbd926f4b	-0.07150134
166	0x3b106a83	0.0022036142
167	0x3d84621f	0.064640276
168	0xbdaf1f6e	-0.085509166
169	0xbd1acd78	-0.037793607
170	0xbd0db8d2	-0.034600087
171	0xbd86b951	-0.06578315
172	0x3d197f4b	0.03747491
173	0x3aa2a9c0	0.0012410209
174	0xbd958e7d	-0.07302568
175	0x3cf67b1c	0.030088
176	0xbc520b48	-0.0128200725
177	0xbc330333	-0.010926056
178	0x3cd299fd	0.025708193
179	0x3ce38ba0	0.02777654
180	0xbd2b3cd2	-0.04180605
181	0x3c1ab47b	0.009442444
182	0xbdaae457	-0.083443336
183	0x3db4684d	0.08808956
184	0xbd1c3ba3	-0.03814281
185	0xbd0b7ad8	-0.0340527
186	0xbd041a00	-0.032251358
187	0xbdad78c9	-0.084703036
188	0x3bb224c0	0.00543651
189	0xbd6c23e2	-0.057651408
190	0x3d389f26	0.04507365
191	0x3b514560	0.003193222
192	0x3c201d00	0.009772539
193	0xbda6a06d	-0.081360675
194	0xbd073587	-0.033010032
195	0xbc88206c	-0.016617022
196	0x3d340c16	0.04395684
197	0x3cc270e8	0.023735479
198	0xbc0e0df0	-0.008670315
199	0xbcebd07b	-0.028785935
200	0x3dafb127	0.08578711
201	0xbd3668cd	-0.04453354
202	0xbdab1385	-0.083533324
203	0x3d664fc6	0.05622842
204	0xbbc815f7	-0.006106134
205	0xbd342403	-0.043979656
206	0x3d1c2a22	0.03812612
207	0x3d9b631b	0.07587262
208	0x3d05a34c	0.032626435
209	0x3d046b78	0.032329053
210	0xbc9144f4	-0.017733075
211	0x3bd58ed0	0.0065172687
212	0xbd3f94f8	-0.046772927
213	0x3d0f89a7	0.035043385
214	0xbccc79c8	-0.024960414
215	0x3b3c8a00	0.0028768778
216	0x3c12ccd0	0.008959964
217	0x3d702566	0.058629416
218	0xbd9dc95d	-0.077044226
219	0xbc1a5320	-0.009419233
220	0x3cc62074	0.024185397
221	0xbd453f8e	-0.048156314
222	0x3d07011a	0.032960035
223	0xbdbd3745	-0.092390575
224	0xba847927	-0.0010106907
225	0x3d31def5	0.04342552
226	0xbd853040	-0.065033436
227	0xbd3a9c1d	-0.045559037
228	0xbd79ef8a	-0.061019458
229	0x3ca8f230	0.020623296
230	0x3d62bd3a	0.05535624
231	0xbdaeb621	-0.08530832
232	0x3d969f49	0.073546
233	0xba1e8e00	-0.00060483813
234	0x3ca7fe54	0.020507015
235	0x3ab7ad63	0.0014013465
236	0xbd11dc47	-0.035610463
237	0x3d00f8f6	0.031487428
238	0x3d587b76	0.052852117
239	0x3b5c7360	0.0033638105
240	0xbda0db00	-0.07854271
241	0xbd296ab9	-0.041361544
242	0x3c87c1dc	0.016571932
243	0xbd09d40e	-0.033649497
244	0xbda44dc0	-0.08022642
245	0xbd88f609	-0.066875525
246	0xbd4f6145	-0.050629873
247	0x3cbf0319	0.023316907
248	0xbcab25f6	-0.020892125
249	0xbda00e15	-0.07815186
250	0x3d4d6fe0	0.05015552
251	0xbc07bca8	-0.008284725
252	0xbda7d111	-0.08194173
253	0x3d43117e	0.047624104
254	0x3d676aca	0.056498326
255	0x3d4b999e	0.049707048

fc3.bias f4 [64]
0	0xbcf73ffe	-0.030181881
1	0xbdbdd32f	-0.09268796
2	0xbd7e3eb3	-0.062071513
3	0x415f36c3	13.95087
4	0x415ea25f	13.914641
5	0xbdc3281c	-0.09529135
6	0x416020c3	14.007998
7	0xbd1a166b	-0.037619036
8	0x415ad49a	13.676905
9	0x3de64e86	0.11245446
10	0x415fb6c4	13.9821205
11	0x41608f76	14.035025
12	0x415e63d7	13.899375
13	0xbdcb7afb	-0.09935566
14	0xbd76cbfb	-0.060253125
15	0x415f73ff	13.965819
16	0x415efeac	13.937176
17	0x4160b29b	14.043605
18	0x415e69cd	13.90083
19	0x415e3a90	13.8892975
20	0xbdd1f161	-0.102511175
21	0xbdceac88	-0.100915015
22	0x3d9fb930	0.077989936
23	0x415e9359	13.910974
24	0x415e171f	13.880645
25	0xbdba0865	-0.090836324
26	0x41600e22	14.00345
27	0x415d4b5f	13.830901
28	0x415eaf6a	13.917826
29	0xbdd27f18	-0.102781475
30	0x415f5f73	13.960803
31	0x415db29b	13.856105
32	0x41600375	14.000844
33	0x415fa8e9	13.978738
34	0x416066f7	14.025138
35	0x415f5e34	13.960499
36	0xbd3a535c	-0.045489654
37	0xbdaba4dc	-0.08381054
38	0x415edc41	13.928773
39	0x415ca156	13.789389
40	0x415ed4d8	13.926964
41	0x415f62d7	13.961631
42	0x415ff99d	13.998441
43	0x4160c04f	14.04695
44	0x415ec272	13.922472
45	0x415f0c22	13.940462
46	0x415efc7f	13.936645
47	0x415fe765	13.993993
48	0x415fb747	13.982245
49	0xbd60d7c0	-0.054893255
50	0x415f7228	13.96537
51	0x415bcbf2	13.737291
52	0x415ef088	13.933723
53	0x415ff78e	13.997938
54	0x415e9aca	13.91279
55	0x415d3988	13.826546
56	0x415f8789	13.97059
57	0x415f9912	13.974871
58	0x415ec210	13.922379
59	0xbdf34cca	-0.11879881
60	0xbcf87178	-0.030327544
61	0x415fc073	13.984485
62	0xbd878485	-0.06617073
63	0x415f35dd	13.95065

fc4.weight f4 [49, 64]
0	0x3e115e42	0.14196113
1	0x3deb52e4	0.114904195
2	0x3d8d7d00	0.069086075
3	0x4000edef	2.0145223
4	0x400b9b3a	2.1813493
5	0xbdb23148	-0.08700806
6	0x400439d4	2.0660295
7	0xbdee17bc	-0.11625621
8	0x3ffef925	1.9919783
9	0xbe1f60e6	-0.15564308
10	0x3fce2376	1.6104572
11	0x400402e4	2.0626764
12	0x400c26ef	2.1898763
13	0xbdec1b19	-0.11528606
14	0xbbabe720	-0.005246058
15	0x400776e6	2.116632
16	0x3ffee267	1.9912843
17	0x40070069	2.1094
18	0x4007c528	2.1214085
19	0x400a06e4	2.1566706
20	0x3da1a0f2	0.07892026
21	0xbc436560	-0.011926025
22	0x3e064a3d	0.13114257
23	0x3fff5960	1.994915
24	0x3fe5c31b	1.7950166
25	0xbd9135a2	-0.07090308
26	0x400b358a	2.1751428
27	0x400a0b9d	2.1569588
28	0x3fddb856	1.732188
29	0xbcd7adb8	-0.026327953
30	0x400ab032	2.167004
31	0x400a6857	2.1626184
32	0x400aec6f	2.1706808
33	0x3fd41ccc	1.6571288
34	0x40089e35	2.1346562
35	0x3fe0929c	1.7544742
36	0x3d8c88c4	0.068620235
37	0x3d942ff9	0.072357126
38	0x400896de	2.1342082
39	0x3ffc542d	1.9713188
40	0x3ffe181e	1.985111
41	0x3ffb5420	1.9635048
42	0x40012fc5	2.0185406
43	0x3fff3aa8	1.9939775
44	0x40050715	2.0785573
45	0x4009db0e	2.153995
46	0x3ffc77e8	1.9724092
47	0x40070a32	2.1099973
48	0x40008d4b	2.0086238
49	0xbd0cefe6	-0.034408472
50	0x3ff8130a	1.938081
51	0x40081816	2.12647
52	0x40052bc2	2.0807958
53	0x4002bbeb	2.0427196
54	0x400929a1	2.1431658
55	0x40023169	2.0342658
56	0x3ffdff03	1.9843448
57	0x4003e725	2.060983
58	0x400b5e69	2.1776373
59	0x3d363900	0.044487953
60	0x3be46840	0.0069704354
61	0x40023d96	2.035009
62	0xbd9cdc16	-0.076591656
63	0x40021deb	2.033076
64	0xba0e14f1	-0.00054199906
65	0x3d94e9fa	0.0727119
66	0xbd1afcb4	-0.037838653
67	0x41604f62	14.019381
68	0x415f76f3	13.96654
69	0xbb31010c	-0.002700868
70	0x41614212	14.07863
71	0xbd48f230	-0.049059093
72	0x415e48ce	13.892775
73	0x3e1b3672	0.15157488
74	0x415f2a81	13.947877
75	0x415fd8f6	13.990469
76	0x4162107a	14.129023
77	0x3d9397f7	0.07206719
78	0x3d93cb8e	0.07216559
79	0x4162f52c	14.184856
80	0x415f844d	13.9698
81	0x41610325	14.063268
82	0x41613ebe	14.077818
83	0x41612a15	14.072774
84	0x3b541840	0.0032363087
85	0x3d491384	0.049090877
86	0xbd11b415	-0.03557213
87	0x4162db4e	14.178541
88	0x415f2d61	13.948579
89	0x3d3b8ffe	0.04579162
90	0x41624196	14.141012
91	0x416165f8	14.087395
92	0x415cf7a2	13.810457
93	0xbdf08b16	-0.117452785
94	0x4162e36c	14.180523
95	0x415f4042	13.953188
96	0x415f7f4b	13.968577
97	0x415e4c81	13.893678
98	0x4161ce53	14.112872
99	0x415f3ff9	13.953118
100	0x3dd7883a	0.1052403
101	0xbac24b6a	-0.00148235
102	0x4161aae4	14.104221
103	0x415eeed6	13.93331
104	0x41628dec	14.159649
105	0x415ff225	13.996617
106	0x416067a8	14.025307
107	0x4162bbef	14.170882
108	0x415fb9e7	13.982886
109	0x41612e82	14.073854
110	0x41609a6e	14.037703
111	0x416159ab	14.084392
112	0x415fe0b9	13.992364
113	0xbd7ad1e4	-0.061235324
114	0x4160cd22	14.050081
115	0x41614a89	14.080697
116	0x41619e19	14.101098
117	0x4160e0f8	14.054924
118	0x41620f4b	14.128734
119	0x41622c16	14.135763
120	0x415f447e	13.954222
121	0x4160d7b0	14.052658
122	0x416011ef	14.004378
123	0x3d9fbffe	0.078002915
124	0x3d3ce428	0.046116024
125	0x41618dcf	14.097121
126	0x3d3ebc2c	0.046566173
127	0x415f1904	13.943607
128	0x3d8f62b5	0.07001249
129	0xbd845626	-0.06461744
130	0xbd2faf58	-0.04289183
131	0x410937a2	8.576082
132	0x41098598	8.595116
133	0xbd97a25c	-0.074040145
134	0x4109d433	8.614306
135	0xbdf88e16	-0.12136476
136	0x41058af7	8.346427
137	0xbd639a35	-0.055566985
138	0x4106ecb7	8.432792
139	0x4109d5fd	8.614743
140	0x410b68d3	8.713092
141	0xbde5c324	-0.11218861
142	0x3c7daed0	0.015483573
143	0x410ad5a0	8.677155
144	0x410a648a	8.649546
145	0x410b6284	8.711552
146	0x410b8c00	8.72168
147	0x4108ec8b	8.55775
148	0xbded9e1e	-0.11602424
149	0xbd83deba	-0.06438966
150	0x3da8ab28	0.082357705
151	0x410b4590	8.704483
152	0x41080933	8.502246
153	0x3c466b60	0.012110561
154	0x410aac5d	8.667081
155	0x41088830	8.533249
156	0x4108fef7	8.562247
157	0x3db0e05c	0.08636543
158	0x41097b0e	8.592543
159	0x4106d9fb	8.428218
160	0x410b74d8	8.716026
161	0x4106c143	8.422183
162	0x4109c317	8.610129
163	0x4105e4c9	8.368356
164	0xbd1703c0	-0.03686881
165	0x3dcbb311	0.099462636
166	0x410a8915	8.658467
167	0x4105ee3e	8.370665
168	0x410bfa81	8.748658
169	0x4109d355	8.614095
170	0x4108a9c4	8.541447
171	0x410c07f2	8.75194
172	0x410b25cc	8.696728
173	0x410a7aea	8.655008
174	0x410bb594	8.731831
175	0x410ad0fa	8.67602
176	0x4109f5de	8.622526
177	0xbcacef90	-0.021110326
178	0x410a5f25	8.648229
179	0x4108c9d0	8.549271
180	0x41069077	8.41027
181	0x410c5a30	8.772018
182	0x41097f9f	8.5936575
183	0x41090304	8.563236
184	0x410b23a8	8.696205
185	0x410b4373	8.703967
186	0x41093a34	8.57671
187	0x3d85eba4	0.065390855
188	0xbd602e6c	-0.05473177
189	0x410bfbb1	8.748948
190	0x3d615298	0.05501041
191	0x410af2fb	8.684321
192	0x3d28ef6d	0.04124396
193	0xbd0a9638	-0.033834666
194	0xbca8f5c8	-0.02062501
195	0x411d46ae	9.829756
196	0x411fad1b	9.979762
197	0x3bc1c7be	0.0059137037
198	0x411c893b	9.783504
199	0xbddd8962	-0.10817219
200	0x411bf73b	9.747859
201	0x3d6a2259	0.057161663
202	0x411e2a40	9.885315
203	0x411eb634	9.919483
204	0x411f14c9	9.9425745
205	0xbdb422c1	-0.08795691
206	0xbd8b7a56	-0.06810443
207	0x411cc90c	9.799084
208	0x411dc01c	9.859402
209	0x411fd91f	9.990508
210	0x411e2f91	9.886613
211	0x411e8850	9.908279
212	0x3da3f0ca	0.08004911
213	0x3da59a8a	0.080861166
214	0xbc9564f1	-0.01823661
215	0x411de6cd	9.868848
216	0x41201faf	10.007735
217	0x3c6431ba	0.013927871
218	0x411cb3cc	9.793896
219	0x411f0efc	9.941158
220	0x411df181	9.871461
221	0xbd57d040	-0.052688837
222	0x411df2ff	9.871825
223	0x411e245e	9.883879
224	0x411f79cc	9.967236
225	0x411e90d9	9.910363
226	0x411e1dda	9.882288
227	0x411db5f0	9.856918
228	0xbd587894	-0.052849367
229	0x3ddb849d	0.10718653
230	0x411d2726	9.822058
231	0x411ebc87	9.921027
232	0x411f4bff	9.956054
233	0x411e4add	9.893277
234	0x411ff04d	9.996167
235	0x411c6dcd	9.776807
236	0x411c7aa0	9.779938
237	0x411f5d1e	9.960234
238	0x411e9918	9.912376
239	0x411fed8d	9.995496
240	0x411dacab	9.854655
241	0x3cc26b90	0.02373293
242	0x411e8889	9.908334
243	0x411dc9a3	9.861728
244	0x411fa6b1	9.978196
245	0x411fb2f5	9.981191
246	0x411fca22	9.986849
247	0x411e8a65	9.908788
248	0x411e3a0d	9.889173
249	0x411e46b5	9.892262
250	0x411c8cb9	9.784356
251	0xbd3df8c0	-0.046379805
252	0x3d94b3f0	0.07260883
253	0x411f5670	9.958603
254	0xbdc85c88	-0.09783274
255	0x411f95c6	9.974066

fc4.bias f4 [49]
0	0x3fb33474	1.4000382
1	0x41429141	12.160462
2	0x411d482e	9.830122
3	0x410f1628	8.942909
4	0x41203d1d	10.01492
5	0x40666505	3.5999157
6	0x410b29bd	8.69769
7	0x40777f93	3.8671615
8	0x413faef0	11.980209
9	0x40bd83d0	5.9223404
10	0x40fcc77b	7.8993506
11	0x4135aacb	11.3541975
12	0x40a5ea80	5.1848755
13	0xbdd53408	-0.10410315
14	0x413f3e7c	11.952755
15	0x4112e2a3	9.180331
16	0x40b3d4d9	5.6197324
17	0x40853fd3	4.164041
18	0x41292744	10.572086
19	0xbde7d49e	-0.113198504
20	0x3db70a76	0.08937542
21	0x40bef98f	5.9679637
22	0x413fac18	11.979515
23	0x41453733	12.325976
24	0x40e2ebb0	7.0912704
25	0x38a87800	8.033216e-05
26	0xbdad0ada	-0.084493354
27	0x3d6045ec	0.054754183
28	0x40c5ecc0	6.18515
29	0x40c2fa65	6.0930657
30	0x4137762f	11.466353
31	0x3d9a5dfa	0.07537456
32	0x3c959160	0.018257797
33	0x3c1397a0	0.009008318
34	0xbce387f8	-0.027774796
35	0x411bf312	9.746843
36	0x4096551f	4.6978908
37	0xbd252098	-0.040314287
38	0xbc0904f0	-0.008362994
39	0xbcaf05b0	-0.021365017
40	0x3cc59288	0.024117723
41	0xbda89fc6	-0.08233599
42	0x401f28f1	2.4868739
43	0x3db87134	0.09005967
44	0x3cd53538	0.026026353
45	0xbd6a8208	-0.057252914
46	0x3d37d5a4	0.044881478
47	0x3de2fa0a	0.110828474
48	0x3d86de30	0.06585348
