trike2/models/DQN_Advanced_1000ep.pt/DQN_Main.pt (torch, 333068 bytes, 8 tensors)

fc1.weight f4 [256, 148]
0	0x410479f3	8.279773
1	0x41506b5e	13.026213
2	0x416c2e7e	14.761351
3	0x41554d66	13.331396
4	0x41359652	11.349199
5	0x4157472d	13.454877
6	0x415c9a50	13.787674
7	0x4146ce7b	12.42541
8	0x4167bdbf	14.483825
9	0x413f89f8	11.971184
10	0x414faab2	12.979174
11	0x41540847	13.252021
12	0x4178054c	15.501293
13	0xbd069146	-0.032853387
14	0x416e62c9	14.899117
15	0x4145f2a9	12.371743
16	0x416e23dd	14.883756
17	0x416fb53b	14.981746
18	0x41311ec5	11.070012
19	0x3d6c2882	0.05765582
20	0x3d6d023a	0.05786345
21	0x4171ce09	15.112802
22	0x41333db3	11.202563
23	0x418231fd	16.274408
24	0x4139fef8	11.624748
25	0xbd3838f1	-0.04497618
26	0x3d946f23	0.0724776
27	0xbca6ddbe	-0.020369407
28	0x416d4189	14.8285
29	0x4123cd32	10.2375965
30	0x415902b7	13.563163
31	0xbd931f2c	-0.0718368
32	0x3b04a5a0	0.0020240322
33	0x3d8ebd6d	0.06969724
34	0x3d49bc32	0.049251743
35	0x41327b8e	11.155165
36	0x415fd9ac	13.990643
37	0x3c5d5b30	0.01351051
38	0xbb413200	-0.0029479265
39	0xbd9c473d	-0.07630775
40	0xbda146fb	-0.078748666
41	0x3a113400	0.00055390596
42	0x41349591	11.286515
43	0xbb4f3300	-0.0031616092
44	0xbd8c1013	-0.068390034
45	0x3cf90ae8	0.030400708
46	0x3d2016f8	0.039084405
47	0xbb79b540	-0.0038102418
48	0xbb16af60	-0.0022992715
49	0x41300039	11.000054
50	0x410e793c	8.904598
51	0x4179457d	15.579465
52	0x416ec95e	14.924162
53	0x412b109d	10.691556
54	0x4158bee4	13.546604
55	0x4164ebcc	14.307568
56	0x4120ecd1	10.0578165
57	0x41654aa3	14.330722
58	0x41354918	11.330345
59	0x413fad7e	11.9798565
60	0x41524901	13.142823
61	0x4162f8b7	14.185721
62	0xbd850326	-0.06494741
63	0x41750411	15.313493
64	0x4134399e	11.264067
65	0x416c2937	14.760062
66	0x415397bc	13.224545
67	0x41411243	12.066958
68	0x3da7f125	0.082002915
69	0x3c8d9a34	0.017285444
70	0x416ffa25	14.99857
71	0x413900d6	11.562704
72	0x415e5014	13.89455
73	0x412a6311	10.649186
74	0xbd217e34	-0.039426997
75	0x3b8fb8d0	0.004386045
76	0xbcaf036e	-0.02136394
77	0x415ad87b	13.677852
78	0x41587471	13.528428
79	0x41523026	13.136755
80	0xbcd9019a	-0.026490021
81	0x3d9c02c9	0.07617719
82	0x3d25de72	0.040495344
83	0x3d76f1e6	0.060289286
84	0x412e2628	10.8843155
85	0x416d0061	14.8125925
86	0xbcbd337a	-0.023095835
87	0x3d6c210e	0.05764871
88	0xbd686d85	-0.05674507
89	0x3d8254c7	0.06363826
90	0x3c8384f4	0.016054608
91	0x413c045e	11.751066
92	0x3c64dc60	0.013968557
93	0xbd9b5215	-0.07584015
94	0x3d7ff3e2	0.062488444
95	0x3da28c37	0.079369
96	0x3c451748	0.012029476
97	0xbd16aa92	-0.036783762
98	0x40fe74dc	7.951765
99	0x411e53bc	9.895443
100	0x415e34df	13.887908
101	0x414bc668	12.735939
102	0x411fc4d4	9.985554
103	0x412c1893	10.756
104	0x414422ed	12.258527
105	0x40ccb715	6.397349
106	0x41562f61	13.386567
107	0x41258e14	10.347187
108	0x412773b8	10.465752
109	0x414356e1	12.208711
110	0x4150bc42	13.045961
111	0xbd9833c8	-0.074317515
112	0x4151db33	13.116015
113	0x41235911	10.209245
114	0x41493136	12.574514
115	0x415449ac	13.267986
116	0x41276eb6	10.464529
117	0x3d1d10ce	0.038346104
118	0x3d67cf8a	0.05659441
119	0x41633da3	14.202548
120	0x410f9dcd	8.976026
121	0x415e7b68	13.9051285
122	0x410d6fd7	8.839805
123	0xbd974e24	-0.07387951
124	0xbc2a8cc0	-0.010409534
125	0xbd021f78	-0.031768292
126	0x414c6a25	12.775914
127	0x414c67aa	12.775309
128	0x4151ea5b	13.119716
129	0x3d2b79e0	0.041864276
130	0xbd974b71	-0.07387436
131	0x3d40ae5e	0.04704129
132	0x3a221c00	0.0006183982
133	0x40bc7b96	5.890086
134	0x4154769b	13.278956
135	0xbd00a2cd	-0.03140526
136	0x3bdface0	0.006826028
137	0xbc916ba8	-0.01775153
138	0xbc885400	-0.016641617
139	0x3d3cd016	0.046096884
140	0x411b3825	9.701207
141	0x3c224fe0	0.009906739
142	0xbb16c5e0	-0.0023006126
143	0xbd8f401f	-0.06994652
144	0x3d197bec	0.037471697
145	0x3c2c1e20	0.010505229
146	0xbda077dc	-0.07835361
147	0x3da233d3	0.07920041
148	0x4104555e	8.270842
149	0x41516cdc	13.089077
150	0x416bbfb7	14.734305
151	0x41543d2a	13.264933
152	0x4135aff1	11.355454
153	0x4156c462	13.422945
154	0x415cacc9	13.792184
155	0x4145d33f	12.364074
156	0x4169958d	14.599011
157	0x413ef94c	11.9358635
158	0x415181c3	13.09418
159	0x4153a94d	13.228833
160	0x4177d2ce	15.488966
161	0xbd9b3e26	-0.07580213
162	0x416ccf53	14.800616
163	0x4148073a	12.501764
164	0x416d9fa8	14.851479
165	0x41702d33	15.011035
166	0x4132470e	11.142347
167	0x3da29e2d	0.07940326
168	0xbd269419	-0.04066858
169	0x4172df23	15.179477
170	0x4131938c	11.098522
171	0x41813c65	16.15449
172	0x41393f5f	11.577971
173	0xbda38feb	-0.079864345
174	0xbd579dc0	-0.052640676
175	0xbc1e0240	-0.009644091
176	0x416bd983	14.740603
177	0x4125d535	10.3645525
178	0x4158bb20	13.545685
179	0x3cb352a8	0.02189
180	0x3d8256af	0.0636419
181	0xbc8c2790	-0.017108709
182	0x3d9457e5	0.07243327
183	0x4131cec8	11.112984
184	0x41619927	14.099891
185	0xbcb6dbd4	-0.02232162
186	0x3cdf829c	0.02728396
187	0x3c129110	0.008945718
188	0x3da0401b	0.07824727
189	0x3ac02a00	0.0014660954
190	0x4134b8aa	11.295084
191	0x3c98c528	0.018648699
192	0xbd3b8217	-0.04577836
193	0x3d39384a	0.045219697
194	0x3be3c250	0.006950654
195	0xbd88230b	-0.06647309
196	0x3bdd6530	0.0067564473
197	0x4130dcf1	11.053941
198	0x410e2b42	8.885561
199	0x417ac095	15.672017
200	0x416fb683	14.982059
201	0x4129d009	10.61329
202	0x415670a0	13.402496
203	0x4164df72	14.304552
204	0x411ed7a9	9.927651
205	0x41662ba6	14.385656
206	0x4136dd4e	11.429029
207	0x413f87f7	11.970695
208	0x414ffa9b	12.998683
209	0x416387b4	14.220631
210	0xbccd8e20	-0.025092185
211	0x4174d861	15.302827
212	0x41341b4e	11.256666
213	0x416bdf59	14.742028
214	0x4153c8c3	13.236514
215	0x41404e72	12.019152
216	0xbda67fb0	-0.08129823
217	0x3da6c2ab	0.08142599
218	0x416f6279	14.961541
219	0x41388094	11.531391
220	0x4160d3b2	14.051683
221	0x412a11c5	10.629338
222	0x3d970f3b	0.07375952
223	0xbce5bb84	-0.028043516
224	0xbd6f39f8	-0.058404893
225	0x415a7b90	13.655167
226	0x4159c54e	13.61067
227	0x41547cf2	13.280504
228	0x3d80ffe5	0.06298808
229	0xbb90ed10	-0.0044227913
230	0xbda7c9d8	-0.081927955
231	0x3cde4d68	0.02713652
232	0x412ffb63	10.998874
233	0x416e6eab	14.902019
234	0xbb9b0080	-0.004730284
235	0xbd27dcbc	-0.040981993
236	0xbd94c359	-0.07263822
237	0xbc781800	-0.015142441
238	0xbd6bf9de	-0.05761134
239	0x413bbba2	11.733309
240	0xbd9c3afd	-0.076284386
241	0xbd4cf625	-0.05003943
242	0xbd39f77b	-0.04540203
243	0x3d5b1826	0.053489827
244	0x3d184008	0.03717044
245	0x3d0050ca	0.031327046
246	0x410286b6	8.157888
247	0x411e6724	9.900181
248	0x415cdde4	13.8041725
249	0x414d643b	12.83697
250	0x411eaf87	9.917853
251	0x412a56ce	10.646193
252	0x41440d67	12.253272
253	0x40cb9814	6.362314
254	0x415519c9	13.318795
255	0x4124b335	10.293752

fc1.bias f4 [256]
0	0x4184ec36	16.615337
1	0x4183d665	16.479685
2	0x41840822	16.503971
3	0x418472fc	16.556145
4	0x4184361f	16.526426
5	0x4183979a	16.449024
6	0x4184fcee	16.6235
7	0x41841bbb	16.51354
8	0x4184ded5	16.608805
9	0x4184a52c	16.58065
10	0x4183a2ca	16.454487
11	0x41848565	16.565134
12	0x4184abe9	16.58394
13	0x4184a90d	16.582544
14	0x4184e34f	16.61099
15	0x41842ebe	16.522823
16	0x4183ec99	16.490526
17	0x4184b3b7	16.587751
18	0x4184ce22	16.60065
19	0x41837d66	16.43623
20	0x4183d3cf	16.478422
21	0x41844e7d	16.538324
22	0x418493be	16.57214
23	0x4184819d	16.563288
24	0x41837ee7	16.436964
25	0x4184c28f	16.595
26	0x4184cd0e	16.600124
27	0x41840a9d	16.505182
28	0x41846ea2	16.55402
29	0x41842660	16.518738
30	0x4184c29e	16.595028
31	0x418404c0	16.50232
32	0x4184adc1	16.58484
33	0x418472e6	16.556103
34	0x4183b19e	16.461727
35	0x4184261c	16.518608
36	0x4184a0e3	16.578558
37	0x418485fb	16.56542
38	0x41843df1	16.530245
39	0x4184a045	16.578257
40	0x4184c34a	16.595356
41	0x4183abca	16.458881
42	0x418458ab	16.543295
43	0x41844a7e	16.536373
44	0x4184cd9e	16.600399
45	0x4183e285	16.485605
46	0x418480f2	16.562962
47	0x41839afb	16.450674
48	0x4183ad68	16.459671
49	0x418464fe	16.549313
50	0x41843a82	16.528568
51	0x418480c3	16.562872
52	0x4184b3d3	16.587805
53	0x4184deb3	16.60874
54	0x4183bb69	16.466509
55	0x4183e226	16.485424
56	0x4184a419	16.580126
57	0x4184a975	16.582743
58	0x4184e17e	16.610104
59	0x4183d9b0	16.481293
60	0x4183a91a	16.45757
61	0x4183ccb1	16.474947
62	0x41848fe0	16.570251
63	0x4183c389	16.470476
64	0x41838de1	16.444277
65	0x4184a207	16.579115
66	0x41847edb	16.561941
67	0x41841c43	16.5138
68	0x418437ce	16.527248
69	0x4183e158	16.485031
70	0x4184a8a6	16.582348
71	0x4183cc53	16.474768
72	0x4183fc72	16.498264
73	0x41843a63	16.52851
74	0x41849ac7	16.575575
75	0x41841807	16.511732
76	0x41846912	16.551304
77	0x41846fce	16.554592
78	0x41832b30	16.396088
79	0x418402d1	16.501375
80	0x4184f8e1	16.621523
81	0x4184be7b	16.593008
82	0x4184530a	16.540546
83	0x41849c97	16.57646
84	0x41841a72	16.512913
85	0x4184bb23	16.591375
86	0x4184687b	16.551016
87	0x4184de41	16.608522
88	0x4184a7b3	16.581884
89	0x41849670	16.573456
90	0x418441ba	16.532093
91	0x41845a9b	16.54424
92	0x4183bdc6	16.467663
93	0x41843a10	16.52835
94	0x4183eedf	16.491636
95	0x41848aa2	16.567692
96	0x41839183	16.44605
97	0x41844d7c	16.537834
98	0x41840eea	16.507282
99	0x418409b9	16.504747
100	0x41848bd7	16.568281
101	0x41835594	16.416786
102	0x41839c6c	16.451378
103	0x41847a2f	16.55966
104	0x418408e9	16.50435
105	0x418478ec	16.559044
106	0x4183f0eb	16.492636
107	0x4184a84f	16.582182
108	0x41847d87	16.561293
109	0x4183aa6e	16.458218
110	0x41842eb6	16.522808
111	0x41849940	16.57483
112	0x418459fb	16.543936
113	0x418433c3	16.525274
114	0x41845611	16.542025
115	0x4184a18a	16.578876
116	0x4183c87f	16.472898
117	0x41841bb9	16.513536
118	0x41840ac9	16.505266
119	0x418438c6	16.527721
120	0x4183dee1	16.483828
121	0x41836340	16.423462
122	0x4184d1fc	16.602531
123	0x418485f1	16.565401
124	0x41843a0e	16.528347
125	0x4183f461	16.494326
126	0x4183d1f3	16.477514
127	0x4184b22c	16.586998
128	0x4183e06c	16.484581
129	0x41843d87	16.530043
130	0x4183e64e	16.487453
131	0x4184e1eb	16.610312
132	0x41839c47	16.451307
133	0x4184e2e7	16.610792
134	0x41845c5d	16.5451
135	0x4184df44	16.609016
136	0x4184e293	16.610632
137	0x4183c2a6	16.470043
138	0x41842137	16.516218
139	0x4184b627	16.588942
140	0x418447eb	16.535116
141	0x41837c79	16.435778
142	0x41839394	16.44706
143	0x4183f8d0	16.49649
144	0x41836124	16.422432
145	0x4183b122	16.46149
146	0x41847d72	16.561253
147	0x41845343	16.540655
148	0x4184a30b	16.57961
149	0x4183f5bf	16.494993
150	0x4184a5c5	16.580942
151	0x41841db1	16.514498
152	0x4183ca4f	16.473783
153	0x4184699a	16.551563
154	0x41842a33	16.520605
155	0x4183d738	16.480087
156	0x41843047	16.523573
157	0x418426de	16.518978
158	0x41846d60	16.553406
159	0x4183a60f	16.456083
160	0x41842172	16.51633
161	0x4183876b	16.441122
162	0x4183d5ba	16.479359
163	0x41849300	16.571777
164	0x41843eec	16.530724
165	0x418427d0	16.51944
166	0x4184af25	16.58552
167	0x4184ed6e	16.615932
168	0x41841c25	16.513742
169	0x4184d6b4	16.604836
170	0x41844ffd	16.539057
171	0x4184b3a9	16.587725
172	0x41846c09	16.552752
173	0x4184b5a6	16.588696
174	0x4184212e	16.516201
175	0x41838226	16.438549
176	0x4184da3c	16.60656
177	0x41841739	16.51134
178	0x4184d5a2	16.604313
179	0x4183a386	16.454845
180	0x4183ef78	16.491928
181	0x4183ec10	16.490265
182	0x4184c979	16.598375
183	0x41841bd8	16.513596
184	0x41843a6c	16.528526
185	0x41847338	16.55626
186	0x41843dc4	16.530159
187	0x4183f4df	16.494566
188	0x418397f5	16.449198
189	0x418401f6	16.500957
190	0x4184cf3b	16.601187
191	0x4184c664	16.59687
192	0x4184e38a	16.611103
193	0x4183b712	16.46439
194	0x41847276	16.55589
195	0x41840794	16.5037
196	0x4183f9bd	16.496943
197	0x41844235	16.532328
198	0x418452e7	16.54048
199	0x418437d0	16.527252
200	0x4184d71c	16.605034
201	0x4183db57	16.4821
202	0x41844d55	16.53776
203	0x4183579c	16.417778
204	0x41842a1a	16.520557
205	0x41849f2f	16.577726
206	0x41848b32	16.567966
207	0x4184d599	16.604296
208	0x4184673c	16.550407
209	0x4183ff91	16.499788
210	0x4183f6bb	16.495474
211	0x4183b57b	16.463614
212	0x4184fa81	16.622316
213	0x4184e5fa	16.612293
214	0x4183a734	16.456642
215	0x4184911b	16.570852
216	0x41849951	16.574862
217	0x41849493	16.572546
218	0x4183b631	16.46396
219	0x41840463	16.502142
220	0x41846858	16.55095
221	0x4184063e	16.503048
222	0x41850ab2	16.630222
223	0x4184057c	16.502678
224	0x4183f96a	16.496784
225	0x41836913	16.426306
226	0x41845a64	16.544136
227	0x4184dbdf	16.607359
228	0x4184dc0f	16.60745
229	0x41844b00	16.536621
230	0x41843ceb	16.529745
231	0x4183b6d1	16.464266
232	0x4183b968	16.46553
233	0x4184d029	16.60164
234	0x4184c9f9	16.59862
235	0x4184332c	16.524986
236	0x4184381a	16.527393
237	0x418470a7	16.555006
238	0x4184e9a8	16.61409
239	0x4184cd03	16.600103
240	0x41845837	16.543074
241	0x4183d3f1	16.478487
242	0x4184900d	16.570337
243	0x41844040	16.531372
244	0x418494e4	16.5727
245	0x41838ef6	16.444805
246	0x418424e2	16.51801
247	0x4183dd58	16.483078
248	0x41843554	16.52604
249	0x4183c30a	16.470234
250	0x4184c3a9	16.595537
251	0x4184b78c	16.589622
252	0x418487d5	16.566324
253	0x4183de0f	16.483427
254	0x418484af	16.564787
255	0x41846bdf	16.552671

fc2.weight f4 [128, 256]
0	0x418233de	16.275326
1	0x41817136	16.180279
2	0x41822de3	16.272406
3	0x41827d2a	16.311115
4	0x4181d6d5	16.229898
5	0x41829bbb	16.32604
6	0x4182c6ae	16.347012
7	0x41829d9a	16.326954
8	0x4181d7dd	16.230402
9	0x4182d5b4	16.354347
10	0x4181741f	16.1817
11	0x4182303f	16.273558
12	0x41828508	16.314957
13	0x4181f8eb	16.246542
14	0x41829182	16.321049
15	0x41824280	16.28247
16	0x41823956	16.277996
17	0x41821114	16.258339
18	0x4181db37	16.232038
19	0x41808beb	16.06832
20	0x41822c66	16.271679
21	0x4182774e	16.308254
22	0x418215f2	16.260715
23	0x41814313	16.157751
24	0x41823201	16.274416
25	0x418273b9	16.306505
26	0x418275c3	16.3075
27	0x41828007	16.312513
28	0x4182148d	16.260035
29	0x4181d4ab	16.228842
30	0x41819168	16.196
31	0x41830b0d	16.380396
32	0x4182177d	16.261469
33	0x418243c8	16.283096
34	0x4181efcb	16.242086
35	0x4183e428	16.486404
36	0x4182b7c8	16.339737
37	0x4182ef0f	16.366728
38	0x4181ce89	16.225847
39	0x4182f7d0	16.371002
40	0x41825a35	16.294046
41	0x4181cf18	16.22612
42	0x418257dc	16.2929
43	0x41824f32	16.28867
44	0x4182d86b	16.355673
45	0x41827827	16.308668
46	0x4181ead7	16.239668
47	0x41815990	16.168732
48	0x4180da34	16.106544
49	0x41825367	16.290724
50	0x417f5e64	15.960545
51	0x41824f6b	16.288778
52	0x418235a5	16.276194
53	0x41825189	16.289812
54	0x4182e896	16.363567
55	0x4181d2cc	16.227928
56	0x4181e4af	16.236662
57	0x4181fcf3	16.24851
58	0x4182a5ee	16.33102
59	0x418170a4	16.18
60	0x4182695a	16.301441
61	0x418221cb	16.2665
62	0x4182c09b	16.344046
63	0x418245a6	16.284008
64	0x4181a144	16.203743
65	0x41823f20	16.280823
66	0x41823494	16.275673
67	0x418180cc	16.18789
68	0x4182460a	16.284199
69	0x4183371d	16.40191
70	0x4181e46f	16.23654
71	0x418209f6	16.254864
72	0x4181d657	16.229658
73	0x4182904e	16.320461
74	0x41823e29	16.280352
75	0x41817dfd	16.186518
76	0x4182997b	16.324942
77	0x41825fc6	16.296764
78	0x41821332	16.259373
79	0x418240c6	16.281628
80	0x41825c5a	16.295094
81	0x41821bf9	16.263659
82	0x41835859	16.418139
83	0x41821dbc	16.264519
84	0x418180d0	16.187897
85	0x4181f427	16.244215
86	0x4181f21f	16.243223
87	0x41819c9a	16.201466
88	0x418207c8	16.2538
89	0x4183062e	16.378017
90	0x4181c48c	16.22097
91	0x41829d70	16.326874
92	0x4181e7f4	16.238258
93	0x41833c2d	16.404383
94	0x41828273	16.313696
95	0x4182293c	16.270134
96	0x41820519	16.25249
97	0x4181a461	16.205263
98	0x4181f553	16.244787
99	0x41825879	16.2932
100	0x41822c9d	16.271784
101	0x4183ca97	16.47392
102	0x41819cb1	16.20151
103	0x41824d70	16.287811
104	0x41822b05	16.271006
105	0x41824f6a	16.288776
106	0x41825278	16.290268
107	0x4182dc5c	16.357597
108	0x41818396	16.18925
109	0x41826fdc	16.304619
110	0x4182301c	16.27349
111	0x41827040	16.30481
112	0x41821761	16.261415
113	0x4182ea33	16.364355
114	0x4181b2b5	16.21226
115	0x418297d1	16.32413
116	0x4181b7b1	16.214693
117	0x41823f43	16.28089
118	0x41821611	16.260775
119	0x4181e2ea	16.235798
120	0x418252bd	16.2904
121	0x4182ee56	16.366375
122	0x418258b3	16.29331
123	0x41823286	16.27467
124	0x4181bd35	16.217386
125	0x4180cbe1	16.09955
126	0x41829a2e	16.325283
127	0x4181741f	16.1817
128	0x4181e06e	16.234585
129	0x4182c058	16.343918
130	0x41833bcb	16.404196
131	0x4182caa1	16.34894
132	0x4182628f	16.298124
133	0x418257b9	16.292833
134	0x4181f404	16.244148
135	0x41821cf5	16.26414
136	0x418269c6	16.301647
137	0x41827c65	16.31074
138	0x4182563c	16.292107
139	0x4181849e	16.189754
140	0x41817f46	16.187145
141	0x418183a0	16.18927
142	0x41821421	16.259829
143	0x4182e1b9	16.360216
144	0x418258dd	16.29339
145	0x4182be21	16.342836
146	0x41825160	16.289734
147	0x418248a5	16.285471
148	0x41829c27	16.326246
149	0x4181d94d	16.231104
150	0x4182c65a	16.346851
151	0x41829baa	16.326008
152	0x4182c97c	16.348381
153	0x4181b409	16.212908
154	0x41824280	16.28247
155	0x418161b0	16.172699
156	0x418239aa	16.278156
157	0x4181a3f2	16.205051
158	0x41821f69	16.265337
159	0x418226be	16.268917
160	0x41829f97	16.327925
161	0x41831c4d	16.388819
162	0x41825ea2	16.296207
163	0x4182d7e0	16.355408
164	0x41828472	16.31467
165	0x4183240c	16.392601
166	0x41826e07	16.303724
167	0x41822a19	16.270555
168	0x418223d4	16.267494
169	0x4181b984	16.215584
170	0x4181fb3f	16.247679
171	0x41824c62	16.287296
172	0x418293c8	16.322159
173	0x418187a9	16.19124
174	0x418145bf	16.159056
175	0x4180fffb	16.12499
176	0x418192de	16.196712
177	0x41824473	16.283422
178	0x4181aacc	16.208397
179	0x41810568	16.12764
180	0x418203ef	16.25192
181	0x4182407c	16.281487
182	0x41821666	16.260937
183	0x41811201	16.133791
184	0x41819b10	16.200714
185	0x4181ab01	16.208498
186	0x41824930	16.285736
187	0x41832e15	16.397501
188	0x41825f5c	16.296562
189	0x418226c0	16.26892
190	0x418257ed	16.292933
191	0x41827ec0	16.31189
192	0x4181d670	16.229706
193	0x4180eda2	16.116032
194	0x4181fa58	16.247238
195	0x41823c6e	16.279507
196	0x418277ab	16.308432
197	0x4183051f	16.3775
198	0x41818f59	16.194994
199	0x4182fa84	16.372322
200	0x41829f2e	16.327724
201	0x4181d286	16.227795
202	0x41820e60	16.257019
203	0x4182c599	16.346483
204	0x41825a49	16.294085
205	0x41828ef0	16.319794
206	0x418219bd	16.262568
207	0x4181b3e3	16.212835
208	0x4182a134	16.328712
209	0x4181be77	16.218
210	0x4181cf1c	16.226128
211	0x418210b8	16.258163
212	0x4181cba9	16.224443
213	0x418202b4	16.25132
214	0x4181ae72	16.210178
215	0x41822db3	16.272314
216	0x418292b6	16.321636
217	0x4181ae81	16.210207
218	0x41823795	16.27714
219	0x41828127	16.313063
220	0x4182c242	16.344852
221	0x41827a68	16.309769
222	0x4181fd23	16.248602
223	0x418264de	16.299252
224	0x41822671	16.26877
225	0x4182d442	16.353642
226	0x4182b0a8	16.336258
227	0x418193b9	16.19713
228	0x418227ca	16.269428
229	0x41819f14	16.202675
230	0x41827cc9	16.31093
231	0x418259d9	16.29387
232	0x4182efef	16.367155
233	0x4182a9b3	16.33286
234	0x4181e88c	16.238548
235	0x41822005	16.265635
236	0x4181ecf1	16.240694
237	0x4181d895	16.230753
238	0x41822e56	16.272625
239	0x41821a5f	16.262877
240	0x41823143	16.274054
241	0x4181aa64	16.208199
242	0x4181e260	16.235535
243	0x41827e21	16.311586
244	0x41813cbf	16.154661
245	0x4181d0f1	16.227022
246	0x4181be22	16.217838
247	0x418185c7	16.190321
248	0x4183a7a8	16.456863
249	0x4181be39	16.217882
250	0x41828fc8	16.320206
251	0x41827171	16.305391
252	0x41824af5	16.2866
253	0x41825203	16.290045
254	0x418259f6	16.293926
255	0x4182cd31	16.350191

fc2.bias f4 [128]
0	0x417d7e68	15.843361
1	0x417bb8ec	15.732647
2	0x417cf836	15.810598
3	0x417bc4b6	15.735525
4	0x417c704b	15.777415
5	0x417cfd2f	15.811812
6	0x417c5d28	15.772743
7	0x417c6a03	15.775882
8	0x417cb5dc	15.794399
9	0x417d2d68	15.8235855
10	0x417bf589	15.747445
11	0x417cecca	15.80781
12	0x417d30ca	15.824411
13	0x417c434b	15.766429
14	0x417c290b	15.76002
15	0xbca52f18	-0.020164058
16	0x417c8a79	15.783807
17	0x417d0628	15.814003
18	0x417d87a9	15.84562
19	0x417d09cd	15.814893
20	0x417d5547	15.83332
21	0x417c34b9	15.762872
22	0xbc91c4b5	-0.017793993
23	0x3d858f4b	0.065214716
24	0x417c4709	15.767343
25	0x417c3c0d	15.764661
26	0x417d3b26	15.826941
27	0xbd785634	-0.060629085
28	0xbce61f2e	-0.02809104
29	0x417d08ab	15.814616
30	0xbd89a9df	-0.067218535
31	0x417cc960	15.799164
32	0x417bb521	15.731721
33	0x417cdd01	15.803956
34	0x417bccc8	15.737495
35	0x417b0b22	15.690218
36	0x417c050a	15.75123
37	0x417bf80b	15.748057
38	0x3c95d5df	0.018290458
39	0x3c23de6c	0.01000176
40	0x417c7237	15.7778845
41	0xbd38c376	-0.04510828
42	0x417a0453	15.626056
43	0x417bcc42	15.737368
44	0x417d1303	15.817142
45	0xbd616372	-0.05502648
46	0x417c6eac	15.7770195
47	0xbca40338	-0.020021066
48	0x417c6052	15.773516
49	0x417c2897	15.75991
50	0xbd64b47d	-0.05583619
51	0x3c829299	0.015939044
52	0x417d0c82	15.815554
53	0x417c4727	15.767371
54	0x417c6b8d	15.7762575
55	0x417c064f	15.75154
56	0x417d4bcb	15.831004
57	0x417be42c	15.743206
58	0x417b1737	15.693168
59	0x417cf30c	15.809338
60	0xbd350dda	-0.044202663
61	0x417c6839	15.775445
62	0x417d1c96	15.819479
63	0xbca6efd0	-0.020378023
64	0x417bbee0	15.7341
65	0x417ca2f8	15.789787
66	0x417c6abc	15.776058
67	0x417b7548	15.716133
68	0x417d1db7	15.819755
69	0x417ab133	15.668262
70	0x417c0fa8	15.753822
71	0x417c715b	15.777675
72	0x417a5083	15.644656
73	0x417d3a12	15.826677
74	0x417c6848	15.775459
75	0x417c688a	15.775522
76	0x417bec38	15.745171
77	0x417c945f	15.786223
78	0xbc9ffacd	-0.01952877
79	0x417b348b	15.700328
80	0x417cd192	15.801165
81	0x417cef2b	15.808391
82	0x417bab13	15.729266
83	0x417d113c	15.816708
84	0xbd9ac511	-0.07557119
85	0x417c664d	15.774976
86	0x417b4427	15.704139
87	0x417b35bc	15.700619
88	0x417d3fb2	15.828051
89	0x417b383d	15.70123
90	0x417cdbec	15.803692
91	0x417c51bb	15.769954
92	0x3ccd039f	0.02502614
93	0x417aa565	15.66538
94	0x417baf77	15.730338
95	0x417b821a	15.719263
96	0x417ba285	15.727178
97	0x417c1303	15.754642
98	0x417ce1df	15.805144
99	0x417abb71	15.670762
100	0x417bfcb9	15.7492
101	0x417b97be	15.724546
102	0x417c22fb	15.75854
103	0x417cd3f5	15.801747
104	0x417b2ad4	15.697956
105	0x417c2531	15.75908
106	0x417caf10	15.79274
107	0x417cce6f	15.800399
108	0x417d0a09	15.81495
109	0x417ba0ad	15.7267275
110	0x417b8839	15.7207575
111	0x417ce626	15.806189
112	0x417d1f2f	15.820113
113	0x417c20f7	15.758048
114	0x417c53c4	15.770451
115	0x417c4a2b	15.768107
116	0xbd61a7a4	-0.055091515
117	0x417c5258	15.770103
118	0x417ce198	15.805077
119	0x417d2391	15.821183
120	0x417b55fa	15.70849
121	0x417be20b	15.742686
122	0x417be123	15.742465
123	0x417cf303	15.809329
124	0x417d3679	15.825799
125	0x417c0e34	15.753468
126	0x417c594f	15.771804
127	0x417c5fe0	15.773407

fc3.weight f4 [64, 128]
0	0x4181ac8c	16.209251
1	0x4182af89	16.33571
2	0x418240f5	16.281717
3	0x4182162f	16.260832
4	0x4181af74	16.21067
5	0x4182c3eb	16.345663
6	0x418158fd	16.168451
7	0x4182d850	16.355621
8	0x41816138	16.17247
9	0x4181dcc3	16.232794
10	0x41829ca3	16.326483
11	0x418235d5	16.276285
12	0x41817883	16.183844
13	0x41820c0a	16.255878
14	0x4182cf1b	16.351126
15	0xbd8aa86a	-0.06770404
16	0x4182872c	16.316002
17	0x4181c976	16.22337
18	0x4181b030	16.21103
19	0x4181bcd5	16.217203
20	0x4182c79b	16.347464
21	0x41824d65	16.28779
22	0x3d346aac	0.044047043
23	0xbdb5ffcf	-0.08886682
24	0x41824cd8	16.287521
25	0x4182d2a1	16.352846
26	0x4181eb76	16.239971
27	0xbcce82dc	-0.025208883
28	0x3cf696a4	0.030101128
29	0x4181e439	16.236437
30	0xbd9a63a7	-0.075385384
31	0x4181e41c	16.236382
32	0x41815872	16.168186
33	0x418225af	16.2684
34	0x4181c68e	16.22195
35	0x418240f2	16.281712
36	0x418211b6	16.258648
37	0x41817056	16.179852
38	0xbd8fd823	-0.07023647
39	0xbd3dc608	-0.046331435
40	0x418203e6	16.251904
41	0x3d8b6904	0.068071395
42	0x4181e210	16.235382
43	0x4182bd76	16.34251
44	0x41823c7c	16.279533
45	0x3d6ce437	0.05783483
46	0x4182527b	16.290274
47	0xbd97d809	-0.07414252
48	0x418211a2	16.25861
49	0x4182b3f8	16.337875
50	0xbd48c625	-0.04901709
51	0x3ce1eb33	0.027577972
52	0x41819c48	16.20131
53	0x41820bca	16.255756
54	0x4181ea61	16.239443
55	0x418268f8	16.301254
56	0x41818ce0	16.193787
57	0x4181f43a	16.244251
58	0x418198ca	16.199604
59	0x4181b498	16.21318
60	0xbb044e06	-0.0020188107
61	0x41823202	16.274418
62	0x418281cd	16.31338
63	0xbc782400	-0.015145302
64	0x4181f217	16.243208
65	0x4182b53f	16.3385
66	0x41822205	16.266611
67	0x41816121	16.172426
68	0x41827bc9	16.310442
69	0x41810102	16.125492
70	0x418297aa	16.324055
71	0x4181bd1a	16.217335
72	0x41813609	16.151384
73	0x41818040	16.187622
74	0x41815426	16.166088
75	0x4181a8d5	16.207438
76	0x41823d1c	16.279839
77	0x418170f4	16.180153
78	0x3d9e048f	0.07715713
79	0x4181ff11	16.249544
80	0x41828afd	16.317865
81	0x41826465	16.29902
82	0x41828799	16.31621
83	0x4182b1dd	16.336847
84	0x3bae8da5	0.005326944
85	0x4181c484	16.220955
86	0x4182c939	16.348253
87	0x41829451	16.32242
88	0x41816b74	16.177467
89	0x41825454	16.291176
90	0x4181b14b	16.211569
91	0x41829f2e	16.327724
92	0xbd9172fe	-0.07102011
93	0x4181f261	16.24335
94	0x41824ee9	16.28853
95	0x4182739d	16.306452
96	0x41812371	16.142305
97	0x41821e3e	16.264767
98	0x41826757	16.300459
99	0x41818f5e	16.195004
100	0x4180dff3	16.10935
101	0x418210bf	16.258177
102	0x4181c26d	16.219934
103	0x418180d7	16.18791
104	0x4182d427	16.35359
105	0x41818b91	16.193148
106	0x41828a83	16.317633
107	0x4181b572	16.213596
108	0x418174a5	16.181955
109	0x418257f1	16.29294
110	0x41822c86	16.27174
111	0x418218bc	16.262077
112	0x4181a871	16.207247
113	0x418269fd	16.301752
114	0x418223af	16.267424
115	0x4182bb03	16.341314
116	0x3da97ce3	0.082757734
117	0x41823d11	16.279818
118	0x4181b722	16.21442
119	0x4182854d	16.315088
120	0x4181ca9f	16.223936
121	0x4182199f	16.26251
122	0x4181b74a	16.214497
123	0x41823515	16.275919
124	0x4181697b	16.176504
125	0x4181a09f	16.203428
126	0x41829628	16.323318
127	0x4181b10b	16.211447
128	0xbd9d8607	-0.07691579
129	0x3d428816	0.047493063
130	0x3cda87e9	0.026676135
131	0x3d224128	0.03961292
132	0xbc6cd830	-0.01445584
133	0xbd8f94fb	-0.07010838
134	0xbce60490	-0.028078347
135	0xbd401798	-0.0468975
136	0xbda29b59	-0.079397865
137	0xbcec5976	-0.028851252
138	0xbd8e2835	-0.06941263
139	0xba8ef5c8	-0.0010906989
140	0xbc9c4d74	-0.019079901
141	0x3ce50c88	0.027960077
142	0xbd9c9ade	-0.07646726
143	0x38783fc5	5.9187198e-05
144	0x3ccc2260	0.024918735
145	0xbd770696	-0.060309015
146	0xbd5b21dd	-0.05349909
147	0xbd88bd75	-0.06676761
148	0xbdb83237	-0.08993953
149	0x3c432409	0.011910447
150	0x3d96242f	0.0733112
151	0xbd6226bb	-0.055212718
152	0xbd8f78d7	-0.0700547
153	0xbd99d6a4	-0.075116426
154	0x3d5d0cfa	0.053967454
155	0x3cdf2dd8	0.02724354
156	0xbdaaa36e	-0.08331953
157	0x3cdd0aa8	0.02698262
158	0x3b85f7d8	0.004088383
159	0x3d50efba	0.05100987
160	0xbc4ea51e	-0.012612609
161	0xbd013264	-0.031542197
162	0x3d943ad1	0.07237781
163	0xbc7e3211	-0.015514866
164	0x3d8d8aa5	0.0691121
165	0xbd85fbe2	-0.065421835
166	0xbd0e79a9	-0.034783993
167	0x3c689b7d	0.014197228
168	0xbd6e176e	-0.058127813
169	0x3d2d87a1	0.042365674
170	0x3d9bc81d	0.07606528
171	0xbd214b67	-0.03937855
172	0xbcf7f030	-0.030265898
173	0x3cead7fa	0.028667439
174	0xbbe52f91	-0.0069941957
175	0x3d6a2d2e	0.057171993
176	0x3d46bd6d	0.048520494
177	0xbd001f7f	-0.031280037
178	0xbdb47981	-0.088122375
179	0x3cb96f00	0.022635937
180	0x3d8c03fe	0.06836699
181	0x3d2af97a	0.041741826
182	0xbd353557	-0.044240322
183	0xbd00fc85	-0.03149082
184	0xbd08c9f2	-0.033395715
185	0x3d1fedef	0.03904527
186	0xbd13d01f	-0.03608715
187	0xbd9ff3a2	-0.07810141
188	0x3cc7a87c	0.024372332
189	0x3d8f3a0a	0.06993492
190	0x3d74a992	0.059732027
191	0x3d5cd246	0.05391147
192	0x3ce6d586	0.028177988
193	0xbcc1f79a	-0.023677636
194	0x3bf19749	0.007372771
195	0xbcfddb36	-0.030988317
196	0xbda713ce	-0.08158074
197	0xbdb854f4	-0.090005785
198	0x3c9a31b5	0.01882253
199	0xbdc382c7	-0.09546428
200	0x3d4acdfa	0.04951284
201	0x3cba1f82	0.022720102
202	0xbb1f8430	-0.0024340264
203	0xbcf5a064	-0.029983707
204	0xbc7ade77	-0.015311829
205	0xbd858fd0	-0.06521571
206	0x3d96ed62	0.07369496
207	0x3c6d2e25	0.014476334
208	0x3d8e8c81	0.06960393
209	0x3d80b8b5	0.0628523
210	0xbc60ade0	-0.01371333
211	0x3d7341c3	0.059388887
212	0x3bc18f7e	0.005906998
213	0xbcec9cae	-0.028883304
214	0x3c5044f2	0.01271175
215	0xbd87d275	-0.06631938
216	0xbdc2cc3e	-0.09511612
217	0xbb8f4492	-0.004372188
218	0x3d612051	0.05496246
219	0xbd86e53a	-0.0658669
220	0x3c24b59f	0.0100530675
221	0x3db98b97	0.09059828
222	0xbca12d18	-0.019674823
223	0xbd325579	-0.043538544
224	0x3d40b67f	0.04704904
225	0x3d6ff317	0.058581438
226	0x3d882dd7	0.06649368
227	0x3d36ed96	0.044660173
228	0xbdc09256	-0.09402911
229	0xbdc5d575	-0.09659854
230	0xbdc244d5	-0.09485785
231	0x3d61de12	0.055143423
232	0x3d070b3e	0.032969706
233	0x3c8582a9	0.016297655
234	0xbda7e41f	-0.081978075
235	0xba607ab7	-0.0008563208
236	0xbd447102	-0.047959335
237	0xbcacd35c	-0.021096878
238	0xbc354500	-0.011063814
239	0xbd914234	-0.07092705
240	0xbda73563	-0.081644796
241	0x3c764337	0.015030674
242	0xbd5a9eef	-0.053374227
243	0x3db840c8	0.08996731
244	0xbdaa3031	-0.08309973
245	0x3a8d7784	0.0010793065
246	0xbd232276	-0.039827786
247	0xbda416c1	-0.080121525
248	0xbda25a29	-0.07927353
249	0x3d709fe0	0.05874622
250	0x3d69f2d6	0.057116352
251	0xbd09cba0	-0.033641458
252	0x3d8ae729	0.067823716
253	0x3d4cd08f	0.050003584
254	0xbd316298	-0.043306917
255	0x3c7aa8cf	0.015299036

fc3.bias f4 [64]
0	0x416f4cc6	14.9562435
1	0x3d35ef04	0.044417396
2	0x416e099a	14.877344
3	0x416d66a1	14.837556
4	0x416d2150	14.820633
5	0x416eed3e	14.93292
6	0x416fb916	14.982687
7	0x416d5fa6	14.835852
8	0x416ef470	14.934677
9	0x416fa117	14.976829
10	0x416d64a0	14.837067
11	0x416e1ebb	14.882503
12	0xbd962108	-0.07330519
13	0x416f0d60	14.940765
14	0x3d2ebca1	0.04266036
15	0xbdd01d7b	-0.10161873
16	0x416cf273	14.809192
17	0x416b86ec	14.72044
18	0x416f83a6	14.969641
19	0x416fda89	14.990853
20	0xbdc29e4e	-0.095028505
21	0x416f0063	14.937594
22	0x416ca476	14.790152
23	0xbd41744a	-0.047230043
24	0x41703dcb	15.015086
25	0x41718da8	15.097084
26	0x416ea32b	14.914836
27	0xbcfb062a	-0.030642588
28	0x416f2752	14.9471
29	0x416e8ef8	14.9099045
30	0x416dd742	14.865053
31	0x416c05f8	14.751457
32	0xbdae2ff0	-0.08505237
33	0x41709478	15.036247
34	0xbdacb0c9	-0.084321566
35	0x3bb6f4e6	0.0055833934
36	0x416f6a41	14.963441
37	0x416ef2d8	14.934288
38	0x4170c198	15.047264
39	0x416e9e64	14.91367
40	0x416f170f	14.94313
41	0xbdaefb4f	-0.08544027
42	0x416f5f4c	14.960766
43	0x3cee5080	0.02909112
44	0x41702835	15.009816
45	0x416d78c5	14.841985
46	0x3cc487fb	0.023990622
47	0x416edede	14.929411
48	0x416d8f7e	14.847532
49	0x41703e4a	15.015207
50	0x416ddc22	14.866243
51	0x41702a30	15.0103
52	0x416e11c9	14.879342
53	0xbdb1183f	-0.08647203
54	0xbd5532ca	-0.05205039
55	0x416e3272	14.887316
56	0x416c2a09	14.7602625
57	0x416f9e4e	14.976149
58	0xbd92229b	-0.07135507
59	0x416ecab4	14.924488
60	0x4170a5d2	15.040483
61	0xbdb4a783	-0.08821013
62	0x3d1ba8c5	0.038002748
63	0x3d826930	0.06367719

fc4.weight f4 [49, 64]
0	0x3ff9840d	1.9493424
1	0x3d07dc1a	0.03316889
2	0x3fd9d3de	1.7017782
3	0x3fe0ae7b	1.7553247
4	0x3fe6640a	1.799928
5	0x3fed4da8	1.8539324
6	0x3ff69741	1.9264909
7	0x3ff3877e	1.9025724
8	0x3ff5cb75	1.9202715
9	0x3fe3eab8	1.7806005
10	0x3fea0dc3	1.828545
11	0x3ff73f33	1.9316162
12	0x3dad6f9a	0.08468552
13	0x3fea9b69	1.8328677
14	0x3df5fadc	0.12010738
15	0x3cc28d5b	0.023749044
16	0x3ff0af14	1.880343
17	0x3ff144aa	1.884908
18	0x3fe1ac36	1.763068
19	0x3fdc8fb2	1.7231352
20	0xbd9de25c	-0.0770919
21	0x3ffaeb90	1.9603138
22	0x3fe27233	1.7691101
23	0xbdf59594	-0.119914204
24	0x3fd95a7f	1.6980742
25	0x3fda9b32	1.7078612
26	0x3fed7962	1.8552668
27	0x3ded4dd6	0.11587112
28	0x3ff4901c	1.9106479
29	0x3ff0241c	1.876102
30	0x3fe613e6	1.7974823
31	0x3fe454d6	1.783839
32	0x3d4d14cf	0.050068673
33	0x3fe4a399	1.7862426
34	0xbdb5fde4	-0.088863164
35	0xbd5bc58b	-0.05365519
36	0x3fdebf41	1.7402116
37	0x3ff1f748	1.8903589
38	0x3fe02467	1.7511109
39	0x3fefd655	1.8737284
40	0x3ff7edcc	1.9369445
41	0x3b088e80	0.002083689
42	0x3ff7106f	1.930189
43	0xbde61e76	-0.11236279
44	0x3feaf33d	1.835548
45	0x3ffb1edf	1.9618796
46	0x3d104bbc	0.035228476
47	0x3ff58b08	1.9183054
48	0x3ff3454e	1.9005525
49	0x3ff426c9	1.9074336
50	0x3fd98fb1	1.6996976
51	0x3feb4048	1.8378992
52	0x3ff6d824	1.9284711
53	0xbdbaab00	-0.09114647
54	0xbd498b0c	-0.04920487
55	0x3ff1093e	1.8830945
56	0x3fe0f02e	1.7573297
57	0x3ff146a9	1.8849689
58	0xbd9de12d	-0.077089645
59	0x3fda21b6	1.7041538
60	0x3feb4368	1.8379946
61	0x3cabd428	0.020975187
62	0xbceb473c	-0.02872049
63	0xbdc8f66e	-0.09812628
64	0x40c04731	6.0086904
65	0xbd0723fe	-0.03299331
66	0x40bb6956	5.8566084
67	0x40bdf957	5.936687
68	0x40bc8280	5.89093
69	0x40c00292	6.0003138
70	0x40bc0776	5.8759108
71	0x40c12726	6.036029
72	0x40c05684	6.010561
73	0x40bf6ad6	5.9817915
74	0x40bc2339	5.8792996
75	0x40bb5d9a	5.855176
76	0x3de8ee14	0.11373535
77	0x40b9db69	5.8080335
78	0x3df06ebc	0.11739871
79	0x3da4732e	0.08029781
80	0x40ba840d	5.8286195
81	0x40bcdcfc	5.9019756
82	0x40bb90f1	5.861443
83	0x40c32376	6.0980787
84	0xbd8b98b6	-0.06816237
85	0x40bd6fc3	5.919893
86	0x40bfd368	5.9945564
87	0x3c93d958	0.018047974
88	0x40c41a72	6.128228
89	0x40c08a8f	6.016914
90	0x40bfa5d7	5.988994
91	0x3d5ab6e8	0.05339709
92	0x40b9544f	5.7915416
93	0x40bbcf15	5.8690286
94	0x40be664a	5.9499865
95	0x40b4c151	5.648598
96	0x3df78b48	0.12087113
97	0x40c1907c	6.0488873
98	0x3cef64b0	0.029222816
99	0x3d9ef7f8	0.0776214
100	0x40c1db81	6.058045
101	0x40b975b1	5.7956166
102	0x40bb367a	5.8504
103	0x40c00326	6.0003843
104	0x40bfcb30	5.993553
105	0xbd3cb26c	-0.046068594
106	0x40c0d243	6.0256667
107	0xbced03ea	-0.02893253
108	0x40bac465	5.836474
109	0x40b9a4fe	5.8013906
110	0xbde0262c	-0.10944781
111	0x40bdd304	5.9320087
112	0x40bfe627	5.996845
113	0x40c2f4db	6.0923896
114	0x40c08582	6.0162973
115	0x40bd2779	5.9110684
116	0x40bcd010	5.9003983
117	0xbdf60b16	-0.12013833
118	0x3d163388	0.036670238
119	0x40bca01f	5.894546
120	0x40bdf0f8	5.935665
121	0x40be9a91	5.956368
122	0xbc7bfc5b	-0.01537999
123	0x40bf1dce	5.9723883
124	0x40b9d951	5.807778
125	0x3dbb2db8	0.091395795
126	0x3cb1271d	0.021625096
127	0x3dd2ab66	0.10286598
128	0x41668d16	14.409445
129	0xbd1d5fd6	-0.038421474
130	0x416543f4	14.32909
131	0x416518c5	14.318547
132	0x416691c0	14.4105835
133	0x41671317	14.442161
134	0x4164b2cc	14.293652
135	0x4164a257	14.289634
136	0x4165a894	14.353657
137	0x416679f1	14.404771
138	0x4165f7c0	14.372986
139	0x41657e2b	14.343303
140	0xbb628ec0	-0.003456995
141	0x41642fec	14.2617
142	0x3dfd4eee	0.1236857
143	0x3d6e6b34	0.058207706
144	0x41650b14	14.315205
145	0x4164f408	14.309578
146	0x41663641	14.388246
147	0x41668a7a	14.408808
148	0x3d821ae4	0.06352785
149	0x416494e8	14.286354
150	0x41645e77	14.273063
151	0xbddb50d8	-0.10708779
152	0x41657b09	14.342538
153	0x416778e8	14.467018
154	0x41671270	14.442001
155	0xbd642fbc	-0.055709586
156	0x41655838	14.334038
157	0x4164c904	14.299076
158	0x41672b6d	14.448102
159	0x416743c7	14.454047
160	0xbd77b0eb	-0.060471456
161	0x416705db	14.43893
162	0xbd6c8ec0	-0.057753325
163	0x3c8584b5	0.016298631
164	0x41654291	14.328752
165	0x41646f18	14.2771225
166	0x4165ee44	14.37067
167	0x4165b3f4	14.356434
168	0x4163ee24	14.24564
169	0x3c608f70	0.013706073
170	0x41674517	14.454368
171	0x3d2db8cd	0.042412568
172	0x41645d37	14.272758
173	0x4165d0df	14.363494
174	0x3dedd297	0.116124325
175	0x4164815d	14.281583
176	0x41666063	14.398532
177	0x41659f86	14.351446
178	0x4163c104	14.234623
179	0x41660e28	14.378456
180	0x4162c353	14.172687
181	0x3db61e90	0.08892548
182	0x3ddd8496	0.108163044
183	0x416633ad	14.387616
184	0x4163bd4b	14.233714
185	0x416729f0	14.447739
186	0x3d1ab905	0.037774105
187	0x4167631f	14.4616995
188	0x4167c98d	14.486707
189	0x3d9c642c	0.07636294
190	0x3dc337ad	0.09532104
191	0x3d941bbf	0.07231855
192	0x413d9d07	11.850837
193	0x3d848ed2	0.06472553
194	0x413ce982	11.807009
195	0x413cf617	11.810081
196	0x413c9bce	11.788038
197	0x413bf420	11.747101
198	0x413d7de8	11.843239
199	0x413a635b	11.649257
200	0x413b119a	11.691797
201	0x413c5cef	11.772689
202	0x413d4bd1	11.83101
203	0x413bb22b	11.730998
204	0x3d6d73f4	0.05797191
205	0x413d471f	11.829864
206	0xbdb26e17	-0.08712404
207	0xbd6e0f0e	-0.058119826
208	0x413b14a1	11.692536
209	0x413a17e8	11.6308365
210	0x413cc947	11.79914
211	0x413a1c59	11.631921
212	0xbd46fd70	-0.04858154
213	0x413a7579	11.65368
214	0x413c32ae	11.762373
215	0xbb801920	-0.003909245
216	0x413a31e8	11.637184
217	0x413da604	11.853031
218	0x413bf36b	11.746928
219	0xbcb08d70	-0.021551818
220	0x413d189f	11.818511
221	0x413c6301	11.774171
222	0x413a14e4	11.6301
223	0x41399105	11.597905
224	0x3d7bed50	0.061505616
225	0x413ce5a1	11.806062
226	0x3d8d5a28	0.069019616
227	0xbd46e2be	-0.048556082
228	0x413bee2d	11.745648
229	0x413a1b0e	11.631605
230	0x413dcbc9	11.862252
231	0x413b4abd	11.705747
232	0x413cc087	11.797004
233	0x3de3c9c6	0.111224696
234	0x413d3b8c	11.827038
235	0xbddaf37d	-0.10690973
236	0x413d86ae	11.845381
237	0x413c1975	11.756215
238	0x3de4a2df	0.11163878
239	0x413b489d	11.705228
240	0x413a1c0f	11.63185
241	0x413d01ad	11.812909
242	0x413d8e42	11.847231
243	0x413d0737	11.814261
244	0x413b20bd	11.695493
245	0xbdfdaa1c	-0.123859614
246	0xbcaa69e8	-0.020802453
247	0x413d5555	11.833333
248	0x413c4717	11.767356
249	0x413b8a38	11.721245
250	0xbd11a9a9	-0.03556219
251	0x413deaf6	11.8698635
252	0x413dd57b	11.864619
253	0x3dc927cc	0.09822044
254	0x3c26b65d	0.010175315
255	0x3cdd5630	0.027018636

fc4.bias f4 [49]
0	0x404d0c24	3.203866
1	0x40e13caf	7.0386577
2	0x4149727e	12.590452
3	0x412e562b	10.896037
4	0x40b5666d	5.668753
5	0x412dc278	10.859978
6	0x40fa834a	7.8285265
7	0x40fd64f7	7.918575
8	0x41358e2f	11.347213
9	0x40e17fd8	7.046856
10	0x411d00d2	9.8127
11	0x412724a7	10.446448
12	0x414c3da6	12.765051
13	0x3db39ebc	0.087705106
14	0x412e97a3	10.912021
15	0x4125193d	10.318662
16	0x41343154	11.262043
17	0x41442cec	12.260967
18	0x40f09f9e	7.5194845
19	0xbd2ea1bc	-0.04263471
20	0x3da800d6	0.082032844
21	0x413e3e06	11.890142
22	0x40bfae62	5.990037
23	0x414b187c	12.693478
24	0x407be4c3	3.9358375
25	0x3d0e4ee8	0.03474322
26	0xbd1eabfc	-0.038738236
27	0xbd7cb870	-0.06169933
28	0x4132f38d	11.184461
29	0x41186791	9.525285
30	0x4128cab0	10.549484
31	0x3ddc4f40	0.10757303
32	0xbd82dc5a	-0.06389685
33	0xbd9a22e6	-0.075261876
34	0x3cf074c0	0.029352546
35	0x40f5617a	7.668149
36	0x4137db88	11.4910965
37	0x3cb190f0	0.021675557
38	0xbc865f60	-0.0164029
39	0xbc4ee5a0	-0.012627989
40	0x3dd86350	0.10565817
41	0x3d9c6d14	0.076379925
42	0x408dffd4	4.437479
43	0x3d808438	0.06275219
44	0x3df96750	0.121779084
45	0xbc2ccad0	-0.010546401
46	0xbd51be10	-0.05120665
47	0xbd0dbbec	-0.034603044
48	0xbdf7ff84	-0.121092826
