trike2/models/trainied against random/DQN_Agent_1000ep.pt/DQN_Agent.pt (torch, 333080 bytes, 8 tensors)

fc1.weight f4 [256, 148]
11.576102 13.555094 13.285784 14.602475 12.454289 12.363518 12.920253 15.521174
14.458961 13.128592 14.355908 13.913705 13.695037 0.05497656 13.634104 16.094122
13.876105 13.480803 14.99363 -0.03463498 0.06820499 14.149161 13.289415 13.429237
13.33661 0.055331983 0.0040157214 0.0809608 12.921915 13.36533 15.197058 -0.041737165
0.03717141 0.03044504 -0.019014888 12.615802 12.079706 -0.032682396 0.07186773 0.03324736
0.04652179 0.047807284 12.626167 0.018875845 0.07108723 -0.012420379 -0.043485407 0.066818066
0.07926928 12.844804 13.4455385 12.126366 14.054704 12.175095 12.653666 12.197748
15.210932 14.110006 13.518431 14.616398 13.215832 12.77822 0.0011380464 12.700561
15.260357 11.791521 11.3883295 15.393268 0.018393785 0.05633203 12.973215 11.451086
14.285668 13.470064 -0.06093111 0.04149177 -0.018826328 14.1962185 13.5005245 14.265533
0.045952655 -0.04456822 0.0809532 -0.032882795 10.559489 12.744773 0.022507846 -0.048092633
0.059460856 -0.051780194 -0.0708731 11.891936 -0.055547982 -0.010001928 -0.06926125 0.043886326
-0.06589427 -0.016736157 11.327962 10.52804 11.616458 11.965031 12.034995 11.255649
10.572854 9.696624 11.787511 10.977204 12.408634 13.462756 11.667003 -0.042721264
10.989758 8.43404 12.328111 11.849562 11.289394 -0.07971502 -0.024522237 11.031232
13.011857 11.424143 12.539785 0.043094568 -0.049151108 -0.01446183 12.203307 11.693603
11.550208 -0.060369514 0.047507696 -0.049656212 0.02851794 8.320981 10.137288 -0.043944467
0.051331602 -0.024293285 0.06988066 0.00047232956 10.305713 0.055251263 -0.028178763 0.07218052
0.019658819 -0.04987017 0.07483802 -0.05975074 11.827382 13.501805 13.038778 14.601683
12.590199 12.173167 12.936205 15.592407 14.381471 13.25822 14.192328 13.805875
13.700083 0.059219964 13.631447 15.89965 13.610147 13.261938 14.98779 -0.052345414
0.04432819 14.060648 13.555113 13.329523 13.230595 0.0637052 -0.045582086 0.012539826
12.547881 13.270891 15.03323 0.07222245 -0.049278308 -0.010298364 0.0470298 12.69131
11.921318 -0.07763935 0.004946977 0.07638181 0.057688944 -0.06271544 12.679112 -0.019569144
0.021336727 -0.056114715 -0.07915546 -0.057075903 -0.07003241 12.940908 13.510768 12.248636
14.078483 12.129645 12.516768 12.049402 14.9959135 13.778426 13.236442 14.555171
13.1878 12.788362 -0.031182207 12.616603 15.378729 11.97851 11.01583 15.345202
-0.012699783 -0.057552945 12.978854 11.185582 14.31017 13.508742 0.023154922 -0.053864807
0.019049421 14.133231 13.333886 14.114385 0.07512913 -0.05820471 -0.08208894 -0.011473477
10.677229 12.952838 0.061440162 -0.0028065369 0.024472177 0.017492592 0.07432542 11.812918
0.014936157 0.07990805 0.06518114 0.071552314 -0.012976997 -0.028782219 11.528551 10.1092415
11.621522 11.985228 12.005815 11.105898 10.803625 9.823333 11.791805 10.820434
00000000: b737 3941 aae1 5841 9292 5441 bda3 6941
00000010: c544 4741 f8d0 4541 5bb9 4e41 bb56 7841
00000020: e757 6741 b60e 5241 cdb1 6541 899e 5e41
00000030: df1e 5b41 1a2f 613d 4a25 5a41 c3c0 8041
00000040: 8704 5e41 5eb1 5741 e9e5 6f41 69dd 0dbd
00000050: 0faf 8b3d f762 6241 72a1 5441 28de 5641
00000060: c162 5541 caa3 623d 5096 833b c7ce a53d
00000070: 2ac0 4e41 64d8 5541 2627 7341 97f4 2abd
00000080: 0c41 183d e067 f93c 1cc5 9bbc 53da 4941
00000090: 7a46 4141 fadd 05bd 632f 933d 622e 083d
000000a0: a28d 3e3d 92d1 433d c804 4a41 84a1 9a3c
000000b0: 2f96 913d d87e 4bbc c11d 32bd e9d7 883d
000000c0: ef57 a23d 5184 4d41 ed20 5741 9805 4241
000000d0: 11e0 6041 30cd 4241 6a75 4a41 fa29 4341
000000e0: fa5f 7341 96c2 6141 7e4b 5841 c4dc 6941
000000f0: 0c74 5341 9773 4c41 802a 953a 7f35 4b41
00000100: 6c2a 7441 12aa 3c41 9936 3641 d34a 7641
00000110: 90ae 963c 6abc 663d 4a92 4f41 a637 3741
00000120: 1992 6441 6285 5741 e692 79bd 46f3 293d
00000130: ac39 9abc b623 6341 2602 5841 a03f 6441
00000140: da38 3c3d 2a8d 36bd cbca a53d 1cb0 06bd
00000150: abf3 2841 97ea 4b41 6062 b83c c8fc 44bd
00000160: 3a8d 733d 7817 54bd ea25 91bd 5f45 3e41
00000170: 4886 63bd 20df 23bc d8d8 8dbd 26c2 333d
00000180: 93f3 86bd 441a 89bc 553f 3541 da72 2841
00000190: 03dd 3941 c470 3f41 578f 4041 2317 3441
000001a0: 692a 2941 5f25 1b41 a599 3c41 a1a2 2f41
000001b0: c489 4641 7367 5741 0bac 3a41 7efc 2ebd
000001c0: 0cd6 2f41 d4f1 0641 f13f 4541 ce97 3d41
000001d0: 5ca1 3441 a141 a3bd dce2 c8bc ed7f 3041
000001e0: 9130 5041 4ac9 3641 f6a2 4841 ee83 303d
000001f0: ac52 49bd 50f1 6cbc bf40 4341 ff18 3b41
00000200: a7cd 3841 0646 77bd 6e97 423d 5064 4bbd
00000210: 749e e93c bd22 0541 5532 2241 1dff 33bd
00000220: 1641 523d b602 c7bc 971d 8f3d 00a3 f739
00000230: 33e4 2441 264f 623d 26d7 e6bc 61d3 933d
00000240: 880b a13c aa44 4cbd ad44 993d 31bd 74bd
00000250: f53c 3d41 6507 5841 d69e 5041 7ea0 6941
00000260: 7571 4941 4bc5 4241 b2fa 4e41 807a 7941
00000270: 811a 6641 ab21 5441 c713 6341 dde4 5c41
00000280: 8a33 5b41 a290 723d 681a 5a41 f764 7e41
00000290: 2ac3 5941 e630 5441 fdcd 6f41 2568 56bd
000002a0: 7a91 353d 6af8 6041 bee1 5841 ba45 5541
000002b0: 84b0 5341 df77 823d 48b4 3abd d873 4d3c
000002c0: 1fc4 4841 9255 5441 1c88 7041 5de9 933d
000002d0: 0dd8 49bd 78ba 28bc 52a2 403d 9b0f 4b41
000002e0: b8bd 3e41 6101 9fbd 401a a23b 116e 9c3d
000002f0: 3e4b 6c3d f470 80bd a5dd 4a41 784f a0bc
00000300: 5cca ae3c 8bd8 65bd 421c a2bd 6cc8 69bd
00000310: 276d 8fbd f60d 4f41 1b2c 5841 6afa 4341
00000320: 7741 6141 0713 4241 af44 4841 5aca 4041
00000330: 43ef 6f41 6f74 5c41 77c8 5341 fbe1 6841
00000340: 3b01 5341 219d 4c41 d471 ffbc 9bdd 4941
00000350: 460f 7641 faa7 3f41 d740 3041 f385 7541
00000360: c012 50bc a3bc 6bbd 63a9 4f41 25f8 3241
00000370: 75f6 6441 cf23 5841 64af bd3c 58a1 5cbd
00000380: 880d 9c3c b721 6241 9957 5541 85d4 6141
00000390: 4ddd 993d 1068 6ebd 3f1e a8bd 40fb 3bbc
000003a0: eed5 2a41 d33e 4f41 aea8 7b3d e0ed 37bb
000003b0: e079 c83c a04c 8f3c ed37 983d b601 3d41
000003c0: c8b6 743c d5a6 a33d b17d 853d 058a 923d
000003d0: 789d 54bc b0c8 ebbc f274 3841 74bf 2141
000003e0: c1f1 3941 7ec3 3f41 d117 4041 c2b1 3141
000003f0: a6db 2c41 5f2c 1d41 3cab 3c41 7f20 2d41

fc1.bias f4 [256]
16.279577 16.452578 16.416113 16.46803 16.45795 16.427101 16.457436 16.40389
16.501467 16.48847 16.458134 16.443983 16.373379 16.459822 16.493797 16.376848
16.392027 16.47031 16.311058 16.259192 16.424253 16.394503 16.497116 16.394829
16.320217 16.468172 -2.0463114 16.420269 16.399847 16.432114 16.426588 16.50718
16.37503 16.489714 16.488493 16.492825 16.454721 16.446695 16.4651 16.300148
16.462566 16.45343 16.467419 16.365335 16.403261 -1.8140587 16.383549 16.499908
16.460482 16.486406 16.48282 16.448793 16.44107 16.430565 16.284626 16.401005
16.3762 16.471779 16.4774 16.367302 16.287888 16.477884 16.39058 16.397955
16.402132 16.344574 16.436842 16.400446 16.413795 16.430273 16.249302 16.472256
16.311726 16.38372 16.43939 16.459791 16.456818 16.47882 16.417368 16.43398
16.44612 16.442633 16.412338 16.473686 16.484152 16.459526 16.411074 16.191254
16.440998 16.301315 16.354488 16.485653 16.437252 16.424316 16.474804 16.445728
16.399426 16.46157 16.449661 -2.0653265 16.432348 16.402222 16.426594 16.478117
16.484797 16.456982 16.44708 16.474669 16.230179 16.294281 -2.0358865 16.427721
16.416815 16.342539 16.4758 16.418922 16.40345 16.4286 16.344284 16.424652
16.331491 16.253893 16.39299 16.482803 16.50544 16.395039 16.329897 16.475288
16.478197 16.423176 16.416594 16.428028 16.45736 16.383747 16.423384 16.327961
16.362856 16.419653 16.487226 16.420645 16.50465 16.467495 -2.11199 16.400352
16.333748 16.444094 16.377857 16.497017 16.448195 16.494833 16.319613 16.435541
16.414139 16.285822 16.439323 16.284124 16.260977 16.408112 16.44541 -2.030476
16.49943 16.447475 16.42144 16.473871 16.346525 16.474745 16.356138 16.442879
16.392544 16.460571 16.434198 16.403984 16.368614 16.376282 16.4906 16.313078
16.408245 16.466396 16.409061 16.422392 16.45649 16.440601 16.394377 -2.1026356
16.480995 16.401348 -2.077353 16.409689 16.382746 16.394718 16.28496 16.510551
16.439589 16.385836 16.47697 16.384926 16.29521 16.49611 16.423712 16.342901
16.320353 16.449743 16.436295 16.32881 16.406437 16.402859 16.429806 16.463583
16.340267 16.463882 16.483522 16.44617 16.474222 -2.0574548 16.293102 16.46661
16.432587 16.346865 16.479929 16.2069 16.442215 16.356535 16.39648 16.417976
-2.0691693 16.41554 -2.0548913 16.43009 16.424728 16.420614 16.38496 16.450182
16.376148 16.41957 16.39879 16.440275 16.355467 16.358536 16.480198 16.503117
16.447294 16.393295 16.428732 16.464895 16.311914 16.450146 16.49864 16.470907
16.3978 16.437487 16.454765 16.480621 16.471561 16.432333 16.417513 16.386282
00000000: 933c 8241 e19e 8341 3354 8341 87be 8341
00000010: e2a9 8341 b46a 8341 d4a8 8341 2b3b 8341
00000020: 0103 8441 63e8 8341 42aa 8341 478d 8341
00000030: aefc 8241 b7ad 8341 4cf3 8341 c903 8341
00000040: df22 8341 32c3 8341 0c7d 8241 d312 8241
00000050: df64 8341 f127 8341 18fa 8341 9c28 8341
00000060: ce8f 8241 d1be 8341 c4f6 02c0 b65c 8341
00000070: e332 8341 f874 8341 a769 8341 b40e 8441
00000080: 1000 8341 efea 8341 6fe8 8341 4ef1 8341
00000090: 45a3 8341 d592 8341 86b8 8341 b466 8241
000000a0: 56b3 8341 a0a0 8341 46bd 8341 35ec 8241
000000b0: e139 8341 1333 e8bf 8211 8341 d0ff 8341
000000c0: 11af 8341 29e4 8341 d1dc 8341 2197 8341
000000d0: 5087 8341 cc71 8341 ea46 8241 4235 8341
000000e0: 7502 8341 34c6 8341 b7d1 8341 3cf0 8241
000000f0: 984d 8241 b5d2 8341 e81f 8341 032f 8341
00000100: 9137 8341 b0c1 8241 a77e 8341 1d34 8341
00000110: 744f 8341 3371 8341 92fe 8141 2ec7 8341
00000120: 6a7e 8241 dc11 8341 df83 8341 a7ad 8341
00000130: 90a7 8341 a0d4 8341 c556 8341 cb78 8341
00000140: a791 8341 838a 8341 784c 8341 1cca 8341
00000150: 8bdf 8341 1cad 8341 e149 8341 b087 8141
00000160: 2a87 8341 1869 8241 fed5 8241 9ee2 8341
00000170: 7e7f 8341 0065 8341 66cc 8341 da90 8341
00000180: 0632 8341 4cb1 8341 e898 8341 4f2e 04c0
00000190: 7375 8341 c037 8341 aa69 8341 2fd3 8341
000001a0: dde0 8341 e6a7 8341 9f93 8341 1fcc 8341
000001b0: 68d7 8141 b05a 8241 f74b 02c0 f96b 8341
000001c0: a355 8341 85bd 8241 70ce 8341 f459 8341
000001d0: 443a 8341 c66d 8341 18c1 8241 b065 8341
000001e0: e5a6 8241 f907 8241 d824 8341 c8dc 8341
000001f0: 240b 8441 0a29 8341 a1a3 8241 64cd 8341
00000200: 59d3 8341 aa62 8341 2f55 8341 9a6c 8341
00000210: aca8 8341 ea11 8341 1763 8341 aa9f 8241
00000220: 21e7 8241 735b 8341 d7e5 8341 7b5d 8341
00000230: 8609 8441 6ebd 8341 d82a 07c0 ec33 8341
00000240: 84ab 8241 818d 8341 da05 8341 e4f9 8341
00000250: e795 8341 6bf5 8341 918e 8241 fd7b 8341
00000260: 2850 8341 5d49 8241 bc83 8341 e345 8241
00000270: 7b16 8241 d043 8341 3390 8341 52f3 01c0
00000280: d5fe 8341 6e94 8341 1c5f 8341 7dca 8341
00000290: afc5 8241 47cc 8341 5fd9 8241 048b 8341
000002a0: ee23 8341 40af 8341 3d79 8341 5c3b 8341
000002b0: ecf2 8241 a002 8341 c0ec 8341 2f81 8241
000002c0: 1644 8341 2ebb 8341 c245 8341 0f61 8341
000002d0: e4a6 8341 5a86 8341 af27 8341 9591 06c0
000002e0: 14d9 8341 f635 8341 5af3 04c0 0b47 8341
000002f0: dd0f 8341 6228 8341 9947 8241 9c15 8441
00000300: 4784 8341 3116 8341 d6d0 8341 5414 8341
00000310: 975c 8241 09f8 8341 c363 8341 43be 8241
00000320: 1590 8241 1399 8341 887d 8341 67a1 8241
00000330: 6240 8341 0e39 8341 3e70 8341 6bb5 8341
00000340: deb8 8241 08b6 8341 41de 8341 c291 8341
00000350: 35cb 8341 57ad 03c0 4658 8241 9ebb 8341
00000360: f075 8341 61c6 8241 e5d6 8341 bba7 8141
00000370: a889 8341 2fda 8241 fe2b 8341 0458 8341
00000380: 456d 04c0 0753 8341 5783 03c0 d370 8341
00000390: d865 8341 6b5d 8341 6614 8341 f999 8341
000003a0: 5a02 8341 485b 8341 b930 8341 af85 8341
000003b0: ffd7 8241 48de 8241 72d7 8341 6206 8441
000003c0: 0f94 8341 7825 8341 0b6e 8341 1bb8 8341
000003d0: cd7e 8241 e699 8341 37fd 8341 6bc4 8341
000003e0: b22e 8341 f97f 8341 5ca3 8341 50d8 8341
000003f0: c2c5 8341 6b75 8341 1157 8341 1b17 8341

fc2.weight f4 [128, 256]
15.835272 16.112959 16.032637 16.137398 16.290297 16.069105 16.124353 16.133219
16.241844 16.155912 16.246653 16.17395 16.158758 16.11549 16.076738 16.032093
16.013004 16.180809 16.012318 16.065279 16.175016 16.10971 16.218567 15.919279
16.186058 16.20807 -5.606725 16.217138 16.155163 16.122911 16.061134 16.126314
16.171005 16.219797 16.2192 16.229187 16.321224 16.072973 16.093967 16.062677
16.273165 16.016314 16.103043 16.01962 16.192942 -4.1706657 16.038937 16.13786
16.101395 16.122606 16.16119 16.075058 16.126177 16.000963 16.003094 15.895192
16.18363 16.224276 16.132809 16.200436 16.125084 16.258749 15.945944 16.117706
16.19873 16.031645 16.288427 16.13587 16.10339 16.18222 16.015934 16.172592
16.07737 16.117882 16.186314 16.209406 16.081137 16.10811 16.139032 16.123556
16.108786 16.1518 16.218422 16.167461 16.10216 16.15027 16.150177 16.05118
16.214228 16.138449 16.033371 16.16391 16.20125 16.07381 16.120325 16.185017
16.081453 16.147621 16.194382 -5.5853424 16.046522 16.154892 16.241213 16.326765
16.25174 16.193476 16.009037 16.101147 16.000135 15.984457 -5.6031556 16.189669
16.073511 16.221548 16.078577 16.110327 15.992719 16.019987 16.08784 16.152481
16.043446 15.904204 16.099546 16.18208 16.230742 16.139263 16.17112 16.18502
16.02334 16.10039 16.236883 16.172617 16.180117 16.162458 16.157883 16.031408
16.13168 16.066158 16.126703 16.020489 16.198381 16.094448 -5.756328 16.10434
16.054035 16.228142 16.205317 16.198088 16.347813 16.311989 16.156845 16.277735
16.174944 16.068857 16.207151 15.99994 16.056295 16.137188 16.16726 -5.6442666
16.056858 15.959434 16.196999 16.142363 16.02011 16.157227 16.11611 16.164051
16.260735 16.05377 16.072933 16.000633 16.00897 16.187769 16.20886 15.886844
16.093575 16.146515 16.136 16.120935 16.182625 16.23783 16.196709 -5.6301274
16.230894 16.092436 -5.6110063 16.20737 16.02327 16.012323 16.051533 16.26006
16.12209 16.077969 16.261068 16.202475 15.877652 16.097242 16.12259 16.027203
16.15015 16.00949 16.146046 16.114698 16.147865 16.007181 16.162174 16.223135
16.101727 16.119688 16.086653 16.04204 16.15101 -5.678709 16.018412 16.1523
16.157331 16.092892 16.1671 15.833376 16.096199 15.947769 16.19753 16.132448
-5.554438 16.166307 -5.726678 16.124714 16.113901 15.953383 16.102905 16.115612
16.16141 15.969038 15.979081 16.103 16.093641 15.945889 16.092592 16.108063
16.015978 15.991796 16.055216 16.2424 16.092344 16.014795 16.198278 16.229164
15.920117 16.125332 16.146282 16.130663 16.14522 16.249233 16.123142 16.196169
00000000: 465d 7d41 57e7 8041 d742 8041 6419 8141
00000010: 8752 8241 878d 8041 adfe 8041 d510 8141
00000020: 4cef 8141 4f3f 8141 25f9 8141 4064 8141
00000030: 2345 8141 86ec 8041 299d 8041 ba41 8041
00000040: a21a 8041 4c72 8141 3a19 8041 b185 8041
00000050: 6f66 8141 b0e0 8041 a0bf 8141 5eb5 7e41
00000060: 0c7d 8141 21aa 8141 4b6a b3c0 b3bc 8141
00000070: c63d 8141 b9fb 8041 347d 8041 b102 8141
00000080: 385e 8141 25c2 8141 ecc0 8141 60d5 8141
00000090: de91 8241 7395 8041 72c0 8041 5d80 8041
000000a0: 712f 8241 6921 8041 08d3 8041 2f28 8041
000000b0: 258b 8141 1876 85c0 be4f 8041 561a 8141
000000c0: a8cf 8041 19fb 8041 1e4a 8141 b899 8041
000000d0: 6902 8141 f901 8041 5606 8041 b552 7e41
000000e0: 1378 8141 51cb 8141 fe0f 8141 7e9a 8141
000000f0: 2c00 8141 eb11 8241 9622 7f41 10f1 8041
00000100: 0097 8141 cf40 8041 b34e 8241 4316 8141
00000110: bed3 8041 3075 8141 a220 8041 7861 8141
00000120: 749e 8041 6cf1 8041 927d 8141 ddac 8141
00000130: 2ba6 8041 69dd 8041 bd1c 8141 0bfd 8041
00000140: cbde 8041 e336 8141 54bf 8141 f656 8141
00000150: 39d1 8041 c133 8141 9033 8141 d168 8041
00000160: bdb6 8141 8b1b 8141 5844 8041 b04f 8141
00000170: 299c 8141 2a97 8041 6df6 8041 ea7a 8141
00000180: d1a6 8041 542e 8141 188e 8141 20bb b2c0
00000190: 475f 8041 383d 8141 01ee 8141 379d 8241
000001a0: 9003 8241 3d8c 8141 8212 8041 26cf 8041
000001b0: 4700 8041 56c0 7f41 0d4d b3c0 7184 8141
000001c0: 8d96 8041 bbc5 8141 eda0 8041 f3e1 8041
000001d0: 2de2 7f41 ef28 8041 e5b3 8041 4838 8141
000001e0: fa58 8041 9f77 7e41 dfcb 8041 e674 8141
000001f0: 8fd8 8141 361d 8141 745e 8141 ec7a 8141
00000200: cd2f 8041 99cd 8041 23e5 8141 8561 8141
00000210: e170 8141 b74c 8141 5843 8141 5340 8041
00000220: ae0d 8141 7e87 8041 7d03 8141 f629 8041
00000230: 4996 8141 6ec1 8041 d733 b8c0 b0d5 8041
00000240: aa6e 8041 3cd3 8141 7da4 8141 af95 8141
00000250: 52c8 8241 f47e 8241 3841 8141 cd38 8241
00000260: 4966 8141 058d 8041 3fa8 8141 c1ff 7f41
00000270: 4b73 8041 f618 8141 8c56 8141 d59d b4c0
00000280: 7274 8041 d759 7f41 7493 8141 8f23 8141
00000290: 2f29 8041 0042 8141 cbed 8041 fa4f 8141
000002a0: fc15 8241 1f6e 8041 5e95 8041 4c01 8041
000002b0: 5f12 8041 8d80 8141 bfab 8141 8330 7e41
000002c0: a4bf 8041 102c 8141 8716 8141 adf7 8041
000002d0: 0476 8141 13e7 8141 dc92 8141 012a b4c0
000002e0: dfd8 8141 4fbd 8041 5d8d b3c0 b2a8 8141
000002f0: a82f 8041 3d19 8041 8a69 8041 9a14 8241
00000300: 0afa 8041 ae9f 8041 ab16 8241 ab9e 8141
00000310: dd0a 7e41 27c7 8041 10fb 8041 b637 8041
00000320: 8233 8141 6f13 8041 1a2b 8141 e7ea 8041
00000330: d42e 8141 b50e 8041 224c 8141 fbc8 8141
00000340: 56d0 8041 1ff5 8041 77b1 8041 1956 8041
00000350: 4535 8141 fcb7 b5c0 b525 8041 e937 8141
00000360: 3742 8141 3ebe 8041 3956 8141 8255 7d41
00000370: 04c5 8041 102a 7f41 8b94 8141 410f 8141
00000380: f5bd b1c0 9954 8141 f240 b7c0 6aff 8041
00000390: 45e9 8041 0f41 7f41 c0d2 8041 c6ec 8041
000003a0: 914a 8141 2e81 7f41 51aa 7f41 f2d2 8041
000003b0: c7bf 8041 5d22 7f41 a1bd 8041 50dd 8041
000003c0: b920 8041 65de 7f41 1571 8041 6ff0 8141
000003d0: 1fbd 8041 4d1e 8041 1396 8141 54d5 8141
000003e0: cdb8 7e41 ae00 8141 962b 8141 990b 8141
000003f0: 6929 8141 6efe 8141 32fc 8041 c191 8141

fc2.bias f4 [128]
15.54785 15.623896 15.601392 -0.057977986 15.618925 15.586424 15.652713 15.611537
15.565826 15.472247 15.636486 15.533315 15.597006 15.619257 -0.05928677 15.569182
15.59566 15.63853 15.6901455 15.622469 15.637251 15.65886 15.569987 15.678521
15.592768 15.530637 15.689138 15.625741 15.522597 15.6388855 15.648443 15.654875
15.5955925 15.498774 15.662589 -0.08054943 15.605717 15.608812 15.660815 15.671029
15.666064 15.634402 15.634487 15.595185 -0.0062094135 15.604269 15.55905 15.600335
15.603402 0.001989268 15.611212 15.464365 15.683017 15.658183 15.618864 15.647471
15.480727 15.5932865 15.507732 15.581382 0.014519007 15.598664 15.632123 15.6907215
15.669006 15.620965 15.533556 -0.0063956683 15.617107 15.540798 15.573095 15.66606
15.657325 15.637851 15.658858 15.571288 15.629189 15.642617 15.535146 -0.021114152
15.610281 15.632976 15.613277 15.637537 15.640481 15.516891 15.6495075 15.631965
15.626346 15.654193 15.62262 15.584238 15.661551 15.613961 -0.09618589 15.668508
15.5773325 15.56188 15.69515 15.636986 15.641074 15.529411 15.574575 15.608116
15.594464 15.649986 15.672176 -0.047310192 0.013025145 15.6419 15.6044855 15.679436
15.615474 15.66871 15.684375 15.571798 15.586047 15.621632 15.507293 15.659876
15.613824 15.535309 15.622606 15.586307 15.634845 -0.012350689 15.657524 15.599607
00000000: fec3 7841 7afb 7941 4d9f 7941 537a 6dbd
00000010: 1ee7 7941 fe61 7941 8371 7a41 dbc8 7941
00000020: a00d 7941 538e 7741 0c2f 7a41 7588 7841
00000030: 568d 7941 7ae8 7941 afd6 72bd 5f1b 7941
00000040: d387 7941 6b37 7a41 d60a 7b41 a2f5 7941
00000050: 2e32 7a41 b18a 7a41 ab1e 7941 39db 7a41
00000060: fa7b 7941 7d7d 7841 b606 7b41 0903 7a41
00000070: 8f5c 7841 e038 7a41 0660 7a41 5e7a 7a41
00000080: 8c87 7941 fafa 7741 f799 7a41 19f7 a4bd
00000090: 04b1 7941 b2bd 7941 b392 7a41 89bc 7a41
000000a0: 33a8 7a41 8326 7a41 dc26 7a41 e185 7941
000000b0: 5678 cbbb 16ab 7941 def1 7841 f99a 7941
000000c0: 89a7 7941 615e 023b 86c7 7941 0a6e 7741
000000d0: a3ed 7a41 eb87 7a41 dee6 7941 0b5c 7a41
000000e0: 0fb1 7741 1a7e 7941 ac1f 7841 574d 7941
000000f0: 21e1 6d3c 2194 7941 2d1d 7a41 320d 7b41
00000100: 40b4 7a41 79ef 7941 7289 7841 c192 d1bb
00000110: acdf 7941 1ca7 7841 662b 7941 2fa8 7a41
00000120: 6784 7a41 a334 7a41 af8a 7a41 ff23 7941
00000130: 2811 7a41 2948 7a41 f58f 7841 96f7 acbc
00000140: b6c3 7941 ab20 7a41 fccf 7941 5a33 7a41
00000150: 693f 7a41 2f45 7841 6264 7a41 871c 7a41
00000160: 8305 7a41 9377 7a41 40f6 7941 0a59 7941
00000170: b795 7a41 c9d2 7941 1cfd c4bd 35b2 7a41
00000180: c13c 7941 76fd 7841 561f 7b41 1831 7a41
00000190: d741 7a41 7878 7841 7631 7941 d8ba 7941
000001a0: ed82 7941 5866 7a41 3cc1 7a41 55c8 41bd
000001b0: 6b67 553c 3945 7a41 f9ab 7941 f8de 7a41
000001c0: fbd8 7941 09b3 7a41 33f3 7a41 1626 7941
000001d0: 7360 7941 34f2 7941 df1d 7841 da8e 7a41
000001e0: 39d2 7941 a090 7841 32f6 7941 8361 7941
000001f0: 5328 7a41 8b5a 4abc 3885 7a41 fe97 7941

fc3.weight f4 [64, 128]
16.165157 15.975753 16.15983 -0.05254393 16.1591 16.059137 16.252907 16.053295
16.174015 15.951136 16.095823 15.947841 16.134043 16.150814 -0.04184394 16.198868
16.100115 16.211933 16.142551 16.069624 16.026875 16.05704 16.038876 16.053503
16.133707 16.205666 16.15132 16.16997 16.054129 16.026373 16.063591 16.233614
16.115974 16.07566 16.12844 0.09739889 16.049068 16.180866 16.20731 16.072832
16.09286 16.12883 16.102427 16.220612 0.087016284 16.170315 16.154415 16.189178
16.109581 0.044951342 16.086933 15.993072 16.2194 16.13549 16.235184 16.14808
16.216862 16.14253 16.178205 16.150375 0.079088874 16.234581 16.202751 16.09165
16.115887 16.18667 16.215467 -0.15264328 16.193853 16.11897 16.197092 16.203835
16.20001 16.105413 16.115887 16.222624 16.144783 16.21513 16.011984 0.033465628
16.14869 16.236284 16.113094 16.127811 16.19193 16.112728 16.25225 16.166107
16.253662 16.255888 16.219646 16.07164 16.25927 16.126942 -0.97954226 16.214134
16.062359 16.205942 16.173485 16.215488 16.051268 16.128323 16.257023 16.242134
16.20298 16.203924 16.059431 0.07615801 0.06286187 16.270473 16.258898 16.146528
16.17303 16.108568 16.149014 16.157822 16.312296 16.2064 16.129755 16.15945
16.159319 16.229248 16.079218 16.060934 16.029886 0.08682857 16.235441 16.09674
0.018714778 0.003468338 0.041516576 0.012622401 0.06475768 0.044343285 -0.08348408 -0.038776197
-0.03435225 -0.011985123 -0.070931494 0.068045266 0.08775445 0.018616958 -0.07953068 -0.078641824
0.012388328 -0.061168842 -0.064416096 -0.05869559 0.009970161 0.06428964 0.020896932 0.023213794
0.040703423 0.07806281 -0.0104868235 -0.05051675 0.055058796 -0.09446995 0.047967173 -0.054900818
-0.007096506 -0.009823196 -0.03273533 -0.08073584 0.045828782 -0.06315252 0.027523102 -0.051730104
0.015621086 0.05342208 -0.08385979 -0.027647695 -0.076844916 -0.036036883 -0.059752412 -0.043246016
0.039943404 0.07113924 0.05517066 0.07660439 -0.044400353 0.008895017 0.053213127 0.0100250635
-0.019943722 -0.07318624 0.017186577 -0.024315124 0.0073894784 -0.019362012 0.07234599 0.0639994
-0.08576215 -0.048525266 0.05915747 0.005677104 0.019563079 0.014089694 -0.021497324 0.017086726
-0.05924377 0.032072835 0.005136303 -0.0033634678 -0.0063448106 -0.038810346 0.043199115 0.06570005
-0.057189077 -0.052318506 -0.01584969 0.002432932 0.04395043 0.0011624917 -0.057272397 -0.06284977
0.025126547 0.024124881 -0.05912928 0.022881316 0.07755744 -0.003056556 0.07282103 0.04864089
-0.041437138 0.036665 0.036699176 -0.090165466 -0.04405136 -0.07036861 0.0647248 -0.07629219
-0.05030287 0.06679643 -0.0062142084 -0.05856217 0.0831769 0.08390608 0.044436418 -0.009710292
0.01652294 0.057333216 -0.008623733 -0.030264635 0.05445846 0.024518415 -0.08637498 -0.08526095
-0.09513697 -0.04740694 -0.052464616 -0.07726093 0.07550898 -0.048071545 -0.045073558 0.023814626
00000000: 3e52 8141 af9c 7f41 5547 8141 4e38 57bd
00000010: d645 8141 1d79 8041 f405 8241 266d 8041
00000020: 6264 8141 da37 7f41 3fc4 8041 5b2a 7f41
00000030: 8512 8141 de34 8141 8d64 2bbd 4897 8141
00000040: 09cd 8041 0ab2 8141 f223 8141 978e 8041
00000050: 0a37 8041 d174 8041 9e4f 8041 936d 8041
00000060: d511 8141 34a5 8141 e735 8141 195c 8141
00000070: db6e 8041 0336 8041 3c82 8041 71de 8141
00000080: 84ed 8041 f49a 8041 0c07 8141 1279 c73d
00000090: 7e64 8041 6a72 8141 92a8 8141 2995 8041
000000a0: 2dbe 8041 d807 8141 c5d1 8041 d0c3 8141
000000b0: 9835 b23d ce5c 8141 3e3c 8141 7083 8141
000000c0: 6ce0 8041 e61e 383d 0ab2 8041 9fe3 7f41
000000d0: 55c1 8141 7c15 8141 a8e1 8141 452f 8141
000000e0: 22bc 8141 e723 8141 f76c 8141 f833 8141
000000f0: 59f9 a13d 6ce0 8141 3c9f 8141 b3bb 8041
00000100: 56ed 8041 4d7e 8141 47b9 8141 854e 1cbe
00000110: 038d 8141 a7f3 8041 a593 8141 74a1 8141
00000120: 9f99 8141 e3d7 8041 56ed 8041 efc7 8141
00000130: 8428 8141 96b8 8141 8b18 8041 4113 093d
00000140: 8430 8141 e9e3 8141 9ee7 8041 c205 8141
00000150: 1389 8141 dee6 8041 9c04 8241 3054 8141
00000160: 8007 8241 0f0c 8241 d6c1 8141 b892 8041
00000170: fc12 8241 fa03 8141 48c3 7abf 8cb6 8141
00000180: b67f 8041 c5a5 8141 4c63 8141 52b9 8141
00000190: ff68 8041 ce06 8141 620e 8241 e4ef 8141
000001a0: b49f 8141 a3a1 8141 b779 8041 bbf8 9b3d
000001b0: b9bd 803d ee29 8241 3912 8241 172c 8141
000001c0: 5e62 8141 59de 8041 2e31 8141 3843 8141
000001d0: 957f 8241 b5a6 8141 bd09 8141 8e46 8141
000001e0: 4946 8141 80d5 8141 3da2 8041 cb7c 8041
000001f0: 353d 8041 2dd3 b13d 2fe2 8141 20c6 8041
00000200: bc4f 993c 0e4d 633b 490d 2a3d 30ce 4e3c
00000210: ad9f 843d 4ea1 353d b4f9 aabd cad3 1ebd
00000220: f2b4 0cbd 405d 44bc 8844 91bd 515b 8b3d
00000230: 9bb8 b33d 9782 983c fbe0 a2bd f70e a1bd
00000240: 6af8 4a3c 2e8c 7abd 96ec 83bd c96a 70bd
00000250: e359 233c 49aa 833d 0b30 ab3c db2a be3c
00000260: a2b8 263d 65df 9f3d edd0 2bbc a7ea 4ebd
00000270: 5585 613d 7679 c1bd 3a79 443d aedf 60bd
00000280: cf89 e8bb 78f1 20bc 7b15 06bd d558 a5bd
00000290: f6b6 3b3d 1c56 81bd 2178 e13c f2e2 53bd
000002a0: 95ef 7f3c 1cd1 5a3d aebe abbd 6b7d e2bc
000002b0: de60 9dbd 699b 13bd f2be 74bd bc22 31bd
000002c0: b29b 233d 73b1 913d a1fa 613d c3e2 9c3d
000002d0: 25dd 35bd 68bc 113c 02f6 593d 2a40 243c
000002e0: 0461 a3bc abe2 95bd ddca 8c3c 8330 c7bc
000002f0: 7023 f23b 159d 9ebc 222a 943d 1e12 833d
00000300: 11a4 afbd 6ec2 46bd 1a4f 723d 0007 ba3b
00000310: c042 a03c 76d8 663c 281b b0bc 76f9 8b3c
00000320: 98a9 72bd ce5e 033d 6f4e a83b a06d 5cbb
00000330: 21e8 cfbb 99f7 1ebd 8ef1 303d bf8d 863d
00000340: 183f 6abd ee4b 56bd 36d7 81bc d371 1f3b
00000350: 5e05 343d c05e 983a 7696 6abd 61b7 80bd
00000360: 30d6 cd3c 8ba1 c53c 8b31 72bd 9971 bb3c
00000370: 6fd6 9e3d 8050 48bb 3123 953d ab3b 473d
00000380: fdb9 29bd 0a2e 163d e051 163d aca8 b8bd
00000390: 336f 34bd 6b1d 90bd 708e 843d 143f 9cbd
000003a0: 620a 4ebd 91cc 883d 8fa0 cbbb e3de 6fbd
000003b0: a758 aa3d f3d6 ab3d f602 363d eb17 1fbc
000003c0: 1e5b 873c 3cd6 6a3d 8f4a 0dbc 8aed f7bc
000003d0: d60f 5f3d d8da c83c 5ee5 b0bd 4b9d aebd
000003e0: 2cd7 c2bd c82d 42bd 23e5 56bd fa3a 9ebd
000003f0: 74a4 9a3d abe6 44bd 0d9f 38bd e416 c33c

fc3.bias f4 [64]
14.694075 -0.083817184 14.625535 -0.020642089 14.71633 14.562064 14.771787 -0.063746914
14.873895 14.784172 -0.034391105 0.066150814 14.886242 14.634206 14.606303 14.670683
14.643297 0.061727267 14.675344 14.810602 14.825703 -0.094957 14.835108 14.730471
14.784898 14.729532 14.709265 14.689726 14.867766 14.776032 14.83902 14.742595
14.740769 14.778588 14.706224 14.782948 14.74167 14.753366 14.753424 14.729178
14.819698 -0.0713197 14.932812 14.616931 -0.09318416 -0.018355582 -0.035949796 -0.008942019
14.597343 14.805323 14.679371 14.762703 -0.049969155 14.859264 -0.070807524 14.795396
14.740568 14.756704 14.805341 14.812529 -0.05543284 14.809475 -0.113107346 14.858385
00000000: ee1a 6b41 58a8 abbd 3102 6a41 9919 a9bc
00000010: 1676 6b41 37fe 6841 3d59 6c41 be8d 82bd
00000020: 79fb 6d41 f88b 6c41 b0dd 0cbd 147a 873d
00000030: 0c2e 6e41 b525 6a41 6bb3 6941 1ebb 6a41
00000040: f24a 6a41 bbd5 7c3d 36ce 6a41 3af8 6c41
00000050: 1436 6d41 d178 c2bd 9a5c 6d41 02b0 6b41
00000060: f18e 6c41 2aac 6b41 2659 6b41 1e09 6b41
00000070: 5fe2 6d41 a16a 6c41 a06c 6d41 abe1 6b41
00000080: 31da 6b41 1975 6c41 b24c 6b41 f486 6c41
00000090: e1dd 6b41 ca0d 6c41 060e 6c41 b7aa 6b41
000000a0: 7c1d 6d41 1010 92bd ccec 6e41 f3de 6941
000000b0: 56d7 bebd 725e 96bc 1840 13bd 8c81 12bc
000000c0: b88e 6941 9ae2 6c41 b4de 6a41 0834 6c41
000000d0: 75ac 4cbd 8cbf 6d41 8903 91bd f1b9 6c41
000000e0: 5ed9 6b41 761b 6c41 ade2 6c41 1e00 6d41
000000f0: 8c0d 63bd 9cf3 6c41 d3a4 e7bd f2bb 6d41

fc4.weight f4 [49, 64]
1.0388498 0.0054086745 0.98920804 -0.021092739 1.2230492 0.6985627 1.2716337 0.043225214
1.3254774 1.2660694 0.09711464 -0.042258084 1.2451795 0.8660304 1.1183828 0.8884998
0.9359223 0.020462243 1.0341691 1.3674884 1.0821702 0.12436657 1.2766988 1.0548133
1.1932539 1.0750848 0.94426507 0.9860073 1.2399476 0.91077447 1.2499734 1.3438039
1.0483184 1.3318223 1.1516534 1.2990236 1.1317298 1.223962 1.221136 1.2059838
1.3103696 -0.084542975 1.1266018 1.1419748 -0.002447188 0.0882556 -0.032479294 -0.10994327
1.0151285 1.3433918 0.95492774 1.1536716 0.021730512 1.3203392 0.07784412 0.9558004
0.92315376 0.8078791 1.0828918 1.417234 -0.01609458 1.2371882 0.09003569 1.3314095
4.7903934 -0.019186854 4.82238 0.054649536 4.8684688 4.7342925 4.8335075 0.058808997
4.8949547 4.903801 -0.021268604 0.09895673 4.7759523 4.7923265 4.6682405 4.7649946
4.698488 -0.08305417 4.8894057 4.8720455 4.923547 0.02736865 4.909821 4.8318086
4.812776 4.766541 4.870821 4.8237805 4.8141074 4.70387 4.746328 4.8448715
4.7697816 4.703329 4.730452 4.8680015 4.769561 4.725817 4.7924824 4.7940006
4.8997006 0.054208055 4.790087 4.686127 0.12301296 -0.020395279 -0.11020516 0.10053988
4.710296 4.932439 4.7492394 4.766378 0.03826551 4.7745605 0.0728939 4.8728695
4.714244 4.8481975 4.819501 4.765968 -0.015424982 4.9138675 0.02555573 4.7996364
8.396563 0.07645598 8.289453 0.06556284 8.388394 8.471006 8.295632 -0.06530662
8.423988 8.469457 0.0070496723 0.04348779 8.316995 8.411353 8.255556 8.424179
8.4901495 0.12121617 8.334112 8.427145 8.331324 0.07868232 8.48304 8.42961
8.301934 8.345669 8.382527 8.342482 8.271949 8.428247 8.451618 8.460166
8.486414 8.316327 8.394446 8.4330635 8.480033 8.325261 8.317753 8.330869
8.354735 -0.0151774585 8.445195 8.464996 -0.08475517 -0.06907211 0.13568285 -0.097853005
8.339217 8.356457 8.256967 8.3529 -0.032135785 8.387536 -0.0114877075 8.378376
8.450304 8.331009 8.459957 8.410392 0.090804055 8.419115 -0.066380344 8.309716
11.538619 0.03255652 11.474118 -0.014414082 11.528881 11.45801 11.597311 0.04514098
11.548874 11.422952 -0.04564959 -0.10219127 11.305052 11.135683 11.202283 11.457729
11.549446 -0.10704301 11.362672 11.462334 11.481547 -0.06204854 11.460032 11.598253
11.5934725 11.329952 11.537474 11.351194 11.428219 11.414177 11.390809 11.384339
11.571451 11.317557 11.326377 11.511826 11.381313 11.499302 11.591277 11.39256
11.364834 0.05928132 11.406263 11.566124 0.0779663 0.020046175 0.06034341 -0.09805678
11.41285 11.475113 11.189749 11.356107 -0.093447015 11.452918 -0.07745625 11.404322
11.508408 11.525862 11.485441 11.409759 -0.057366 11.573752 -0.0041260123 11.255207
00000000: 08f9 843f 403b b13b bd3c 7d3f aeca acbc
00000010: e08c 9c3f 01d5 323f e5c4 a23f ec0c 313d
00000020: 3ea9 a93f 900e a23f 0ae4 c63d d016 2dbd
00000030: 0b62 9f3f 2bb4 5d3f 2b27 8f3f b974 633f
00000040: 9b98 6f3f 6fa0 a73c a75f 843f dc09 af3f
00000050: 8e84 8a3f e6b3 fe3d de6a a33f 1f04 873f
00000060: 8bbc 983f 619c 893f 5bbb 713f f96a 7c3f
00000070: 9ab6 9e3f 8428 693f 21ff 9f3f c401 ac3f
00000080: 4c2f 863f 2779 aa3f 6169 933f 6846 a63f
00000090: 86dc 903f c9aa 9c3f 2f4e 9c3f ad5d 9a3f
000000a0: 31ba a73f de24 adbd 7d34 903f 3b2c 923f
000000b0: 0061 20bb 5abf b43d 0209 05bd f029 e1bd
000000c0: bbef 813f 43f4 ab3f 2576 743f 83ab 933f
000000d0: 3004 b23c e000 a93f bd6c 9f3d 56af 743f
000000e0: ce53 6c3f 2ad1 4e3f 339c 8a3f ec67 b53f
000000f0: c8d8 83bc 2f5c 9e3f a264 b83d a06b aa3f
00000100: e74a 9940 c02d 9dbc f050 9a40 31d8 5f3d
00000110: 7fca 9b40 537f 9740 18ac 9a40 b4e1 703d
00000120: 78a3 9c40 f0eb 9c40 7f3b aebc d3a9 ca3d
00000130: 9ad4 9840 bd5a 9940 3a62 9540 d67a 9840
00000140: 045a 9640 4e18 aabd 0376 9c40 cce7 9b40
00000150: b28d 9d40 3834 e03c 411d 9d40 2d9e 9a40
00000160: 4302 9a40 8187 9840 c4dd 9b40 695c 9a40
00000170: 2b0d 9a40 1a86 9640 ebe1 9740 3009 9b40
00000180: 0da2 9840 ac81 9640 dd5f 9740 abc6 9b40
00000190: 3ea0 9840 e539 9740 045c 9940 7468 9940
000001a0: 59ca 9c40 4409 5e3d 6548 9940 c1f4 9540
000001b0: 38ee fb3d 0014 a7bc 3eb3 e1bd dae7 cd3d
000001c0: bfba 9640 8ad6 9d40 c5f9 9740 2b86 9840
000001d0: 4cbc 1c3d 33c9 9840 6649 953d 8cee 9b40
000001e0: 16db 9640 6f24 9b40 5a39 9a40 cf82 9840
000001f0: 10b9 7cbc 673e 9d40 405a d13c 9f96 9940
00000200: 5258 0641 f494 9c3d 99a1 0441 cf45 863d
00000210: dd36 0641 3e89 0741 e9ba 0441 7abf 85bd
00000220: a8c8 0641 e582 0741 f000 e73b 4120 323d
00000230: 6912 0541 e794 0641 c216 0441 70c9 0641
00000240: a7d7 0741 2f40 f83d 8658 0541 96d5 0641
00000250: 1a4d 0541 3224 a13d 88ba 0741 afdf 0641
00000260: b9d4 0441 dc87 0541 d51e 0641 ce7a 0541
00000270: e759 0441 1ada 0641 d439 0741 d75c 0741
00000280: 5ac8 0741 ad0f 0541 a74f 0641 d4ed 0641
00000290: 37ae 0741 4534 0541 8415 0541 3d4b 0541
000002a0: ffac 0541 e0aa 78bc 851f 0741 a070 0741
000002b0: 1e94 adbd ae75 8dbd 72f0 0a3e 2867 c8bd
000002c0: 6f6d 0541 0cb4 0541 891c 0441 7aa5 0541
000002d0: d0a0 03bd 5933 0641 f036 3cbc d40d 0641
000002e0: 7234 0741 d04b 0541 fc5b 0741 f790 0641
000002f0: 7af7 b93d b2b4 0641 6bf2 87bd 99f4 0441
00000300: 2f9e 3841 fc59 053d fd95 3741 0b29 6cbc
00000310: 4c76 3841 0254 3741 968e 3941 c0e5 383d
00000320: 30c8 3841 69c4 3641 11fb 3abd a849 d1bd
00000330: 7ee1 3441 c22b 3241 8d3c 3341 dc52 3741
00000340: 88ca 3841 5e39 dbbd 81cd 3541 b865 3741
00000350: 6bb4 3741 9c26 7ebd 4b5c 3741 7292 3941
00000360: dd7e 3941 7c47 3541 7e99 3841 7e9e 3541
00000370: fcd9 3641 78a0 3641 c140 3641 4126 3641
00000380: aa24 3941 b714 3541 d738 3541 7030 3841
00000390: dc19 3641 24fd 3741 df75 3941 ed47 3641
000003a0: 5cd6 3541 f8d0 723d 0e80 3641 d80e 3941
000003b0: ccac 9f3d e037 a43c a72a 773d fed1 c8bd
000003c0: 099b 3641 109a 3741 3609 3341 9db2 3541
000003d0: 2661 bfbd 273f 3741 62a1 9ebd 1a78 3641
000003e0: 7022 3841 ee69 3841 5ec4 3741 5f8e 3641
000003f0: 9cf8 6abd 172e 3941 8033 87bb 5415 3441

fc4.bias f4 [49]
3.2533553 5.1328564 8.210475 11.462808 2.698923 9.498168 2.2954497 12.972206
11.804431 4.088355 12.326505 10.35048 6.936456 0.063793555 3.8316252 13.361004
8.2735815 6.056245 12.951529 -0.10701452 -0.108802676 6.559735 6.578574 12.471434
3.2444265 0.069845825 -0.077116966 0.11628334 11.779913 9.362729 12.374222 0.1001261
0.057656795 0.022673815 -0.11888981 5.529775 8.147643 0.09879975 -0.06672661 -0.029653281
-0.10995205 0.0856815 2.8286936 0.017595395 -0.042501405 -0.055622026 0.04340005 0.019322485
-0.047856882
00000000: f936 5040 5c40 a440 1b5e 0341 a967 3741
00000010: 28bb 2c40 7ff8 1741 a6e8 1240 288e 4f41
00000020: f3de 3c41 ced3 8240 5d39 4541 919b 2541
00000030: 73f7 dd40 32a6 823d 5939 7540 acc6 5541
00000040: 9760 0441 c2cc c140 7639 4f41 6e2a dbbd
00000050: f0d3 debd 59e9 d140 ae83 d240 fe8a 4741
00000060: afa4 4f40 540b 8f3d 80ef 9dbd f625 ee3d
00000070: 867a 3c41 bdcd 1541 d0fc 4541 ea0e cd3d
00000080: 8829 6c3d 70be b93c 807c f3bd ebf3 b040
00000090: bf5c 0241 8657 ca3d f6a7 88bd 70eb f2bc
000000a0: 8a2e e1bd c879 af3d 5109 3540 3824 903c
000000b0: f415 2ebd ecd3 63bd 40c4 313d 304a 9e3c
000000c0: 9405 44bd
