trike2/models/DQN_Agent_4000ep.pt/DQN_Agent.pt (torch, 333080 bytes, 8 tensors)

fc1.weight f4 [256, 148]
00000000: 4c5d 1942 cda8 fe41 13c7 1f42 17fd fa41
00000010: 4bf1 b441 f150 0942 42e1 1e42 b4d5 b641
00000020: 2dde c441 b4cd ce41 599b 0042 9d7f b541
00000030: c3fe df41 2214 283d 2217 e641 2581 b041
00000040: 74a8 c441 70f6 d341 e546 c241 e2d1 693d
00000050: 415e 87bd 2985 d041 9c54 cb41 d814 0d42
00000060: 122a dd41 3909 a53d 1cf4 ddbc 2a4e 7ebd
00000070: df60 0142 5372 c741 3b15 0b42 00a0 dc39
00000080: 90c9 1a3d 1e66 1dbd 156f a13d ea87 0842
00000090: dc2f fe41 2a23 293d 1ed9 5bbd 24a7 babc
000000a0: 64d1 4ebd faa1 e1bc b624 fb41 c76c 8fbd
000000b0: 7098 bdbc c0f6 883b 79b9 6dbd 637f a63d
000000c0: 923f 70bd e642 1c42 344c 0642 3ed4 f541
000000d0: 77b4 c041 7c00 ba41 e6e5 d941 30d3 1e42
000000e0: 5eca ac41 4ebb 0f42 bd3e d341 839c f741
000000f0: 012d ba41 7c36 c541 6bfd 8e3d 08d6 ea41
00000100: 0ae3 ac41 cb80 e341 3634 be41 ffda be41
00000110: 29c0 973d 7433 36bd a820 0442 7115 cc41
00000120: 1123 c241 f790 0242 5686 e7bc b5d3 92bd
00000130: 60b2 553b ebd5 bd41 f813 f341 8647 d741
00000140: 521c 4e3d e5c1 3cbd e338 80bd 8896 2e3d
00000150: 8ed4 f741 55af f441 7a47 c0bc 2c31 d43c
00000160: f8d7 3dbc 6cd5 8fbd ed4b 873d 4706 1742
00000170: fa29 453d 22a9 3e3d 0eef 013d 7303 39bd
00000180: 0a89 7cbd f6b5 6c3d ebbc e441 5a54 0042
00000190: 5c41 1442 aeb1 1942 7497 1542 5957 ea41
000001a0: b1fc f841 fd5a fa41 f3f3 1642 b607 1142
000001b0: dc52 1542 7260 2142 fb50 1642 0d84 a03d
000001c0: 5ff7 1442 b708 ce41 da7f 2942 dce7 1542
000001d0: c133 0e42 3ac7 2ebd 7545 923d 4625 0e42
000001e0: f346 0d42 7e9f 0642 4db9 0d42 110c 8e3d
000001f0: d9d8 1dbd a3f3 a13d 6759 2042 fdc1 1142
00000200: 9848 1842 c018 eaba f4f3 8fbd f9d4 863d
00000210: 7648 733d c21d f441 7755 0e42 aecf efbc
00000220: 001e 06bd ef21 813d 028b 6f3d 0bf6 823d
00000230: b5c3 1142 4087 d2bc a478 7abd 20fb f03b
00000240: 0019 563b 4d6e 853d 2e82 6f3d 55c2 a63d
00000250: 795f 1942 837b fd41 2b6c 1f42 f187 f841
00000260: eeea b541 d309 0942 a098 1e42 1cee b541
00000270: fdef c541 3047 cd41 8984 0042 4f1c b441
00000280: 13e1 e041 75b1 943d a9cf e141 2655 b141
00000290: d7b4 c241 46af d341 c56a c241 3c3b 3bbd
000002a0: d0f3 10bc bc3c d141 b85e cb41 29af 0c42
000002b0: ceac dc41 70f0 723c 405a d33b 3c40 fa3c
000002c0: 6634 0142 864f c541 be26 0b42 fab4 7e3d
000002d0: a023 b9bb d82c c33c 1a36 0a3d b1ce 0842
000002e0: a84b fc41 6691 a2bd 32df 503d c0bb 053d
000002f0: aa77 f5bc cf3f 8cbd c27b fa41 fea7 31bd
00000300: f6fd 783d cbc8 a23d d01c 34bc 1f7c 64bd
00000310: fa87 7d3d f07b 1c42 2269 0542 418e f541
00000320: 809e c041 50f3 b841 6a12 d841 a04d 1f42
00000330: bef5 ad41 add9 0e42 9467 d341 bc4c f741
00000340: a9ca ba41 2c2a c441 c26a d7bc 2bb1 e941
00000350: ec25 ae41 d1b7 e341 645d bb41 8168 bd41
00000360: 2800 87bc 90a4 5cbc 9b76 0342 5825 cb41
00000370: 39d8 c041 2a00 0242 36a3 7a3d f64d 23bd
00000380: a042 293c cf50 bd41 4b5a f241 00ab d641
00000390: 36ae 7abd 24e1 dc3c 6071 873b cabc 5fbd
000003a0: 9bf0 f541 d68b f441 65f8 a3bd 6771 3fbd
000003b0: 6da3 8f3d 3a79 5f3d 1bf5 a43d c8e3 1642
000003c0: 1eae 1bbd e052 fabb 006c a7bd 90dc 54bd
000003d0: 9ec0 413d 834d a43d 8f48 e341 94a2 ff41
000003e0: ee63 1342 2fca 1942 e74e 1542 3a8a ea41
000003f0: 1a82 f841 8d6a fb41 fd97 1642 8248 1142
38.34111 31.832422 39.94441 31.373579 22.617819 34.329044 39.71998 22.854347
24.608484 25.850441 32.151707 22.687311 27.999395 0.041034825 28.761295 22.063059
24.582253 26.49533 24.284616 0.057084925 -0.066097744 26.06502 25.416313 35.270355
27.645542 0.080584 -0.02709394 -0.06208626 32.3446 24.930822 34.770733 0.0004208088
0.03778988 -0.038427465 0.07882515 34.13273 31.773369 0.0412933 -0.053673856 -0.022784777
-0.05049266 -0.027543057 31.392925 -0.070031695 -0.023143977 0.0041798055 -0.05803821 0.08129766
-0.058654375 39.06533 33.574417 30.728634 24.088118 23.250237 27.237255 39.706238
21.598812 35.932915 26.405634 30.951422 23.271975 24.651604 0.069819294 29.354507
21.610859 28.437887 23.775494 23.856932 0.074096985 -0.044482663 33.03189 25.51047
24.267122 32.641567 -0.028262299 -0.07169286 0.003260754 23.729452 30.38475 26.909924
0.050319977 -0.04608335 -0.0626085 0.042624027 30.978786 30.585611 -0.023471583 0.025902353
-0.0115871355 -0.07023129 0.066062786 37.75613 0.048135735 0.046548016 0.03172212 -0.045169305
-0.061654128 0.05779072 28.592245 32.082375 37.063828 38.423515 37.397903 29.29265
31.123384 31.294428 37.73823 36.25753 37.330917 40.344185 37.579082 0.07837687
37.241573 25.754255 42.374855 37.476425 35.55054 -0.042670466 0.07142154 35.5364
35.319286 33.655754 35.430958 0.06935895 -0.03853688 0.07907798 40.087307 36.43944
38.070892 -0.0017860159 -0.07028952 0.0658359 0.059395276 30.51453 35.58346 -0.029273834
-0.032743454 0.063053004 0.058482178 0.06394585 36.44112 -0.025699258 -0.061150208 0.007354155
0.003266871 0.06515179 0.05847376 0.08142535 38.343235 31.685308 39.855633 31.066378
22.739712 34.259594 39.649048 22.741264 24.742182 25.65976 32.12943 22.513823
28.1099 0.0726041 28.226397 22.166576 24.3383 26.460583 24.302134 -0.045710787
-0.008847192 26.154655 25.42125 35.171055 27.584377 0.014827833 0.0064499676 0.030548207
32.30117 24.66383 34.787834 0.06218431 -0.005649999 0.023825094 0.033743 34.201847
31.536942 -0.07937889 0.050994106 0.032649755 -0.029964287 -0.06848108 31.310429 -0.0433731
0.06078907 0.079484545 -0.010993198 -0.055782434 0.061897255 39.121033 33.35267 30.69446
24.077393 23.118805 27.008991 39.825806 21.744991 35.712574 26.425575 30.912468
23.348955 24.520592 -0.026296023 29.211508 21.768517 28.464754 23.4206 23.676027
-0.016479567 -0.013466969 32.865826 25.393234 24.105577 32.50016 0.061190806 -0.03986927
0.010330826 23.664457 30.294088 26.833496 -0.061201297 0.026962824 0.0041333884 -0.054623403
30.742483 30.56828 -0.08006362 -0.04673901 0.07013593 0.05455897 0.08054563 37.722443
-0.038007848 -0.007639274 -0.08174896 -0.051968157 0.047302835 0.08022597 28.410429 31.954384
36.847588 38.447445 37.327053 29.317493 31.063526 31.427027 37.648426 36.32081

fc1.bias f4 [256]
00000000: 371c a541 e73a a541 e172 a541 0e3e a541
00000010: 989f a541 15e6 a441 7ef4 a441 a3ab a441
00000020: 3503 a541 147e a541 4356 a541 65e7 a441
00000030: 9944 a541 c1a3 a541 24aa a541 a260 a541
00000040: ecb7 a441 9afc a441 60cc a541 a193 a541
00000050: 6506 a541 4209 a541 f766 a541 809e a541
00000060: 27f1 a441 dfd6 a441 5675 a541 fabf a541
00000070: ef17 a541 ba7b a541 d8fa a441 3975 a541
00000080: b0f6 a441 8572 a541 0116 a541 05a7 a541
00000090: 5ac4 a441 688d a541 6a18 a541 28ff a441
000000a0: 8330 a541 9499 a441 3fe1 8dc0 46c9 a441
000000b0: 57de a541 e499 a441 b839 a541 2272 a541
000000c0: 8d0f a541 b313 a541 1df3 a441 5845 a541
000000d0: 3919 a541 d5f4 a441 a854 a541 ba73 a541
000000e0: 549a a541 272f a541 00f4 a441 afa2 a541
000000f0: fa3a a541 7bdf a441 6703 a541 437f a441
00000100: d93e a541 ec4f a541 0cf4 a441 650d a541
00000110: 1f38 a541 74c4 a541 eb9e a441 a630 a541
00000120: f05f a541 ca15 a541 9f69 8dc0 1573 a541
00000130: 3f88 a441 b1cb 8dc0 0c1f 91c0 6b5a a441
00000140: 8bf7 a441 5959 a541 7031 a541 4791 a541
00000150: 5e5a a441 c3f8 a441 3893 a541 7df5 a441
00000160: c8a7 a541 35e3 a441 ca38 a541 0e4e a541
00000170: aab0 a541 f874 a541 e274 a541 2a73 a541
00000180: bd82 a441 3240 a541 6989 a541 728a 8ec0
00000190: 7d8d a541 0a50 a541 0bb8 a541 9d2a a441
000001a0: 7d79 a541 f5ed a441 f3a3 a541 12e6 a441
000001b0: 7068 a541 b3e3 a441 f469 a541 446b a541
000001c0: f311 a541 4602 a441 192b a541 3c9c a441
000001d0: 2755 a541 284f a541 84f1 a441 bf4d a541
000001e0: 45b2 a541 bf7a a441 a40f a541 301c a441
000001f0: c8db a541 cb5f a541 b998 a441 e905 a541
00000200: d728 a541 208d a441 fd42 a541 bf85 91c0
00000210: 6394 a441 51a7 a541 3bae a541 0672 a541
00000220: ee6b a541 f6fc 8dc0 c890 a441 aace a441
00000230: 19ce a541 6a24 a541 5c2c 91c0 228f a541
00000240: c7d2 a541 2f95 a441 75a7 a541 3998 a541
00000250: 38fc a441 e11a a541 131f a541 0d65 a441
00000260: 8b6e a541 b58b a541 2bf4 a441 6a63 a541
00000270: 52e7 a441 9cc2 a541 bbc0 a441 0261 a541
00000280: 98a6 a541 9a1b a541 c6a5 a441 7c4a a541
00000290: d3e5 a441 b693 a441 4fe9 a441 070d a541
000002a0: afab a541 00d2 a441 d6af a441 015f a541
000002b0: d09d a541 50f5 a441 beac a541 555f a541
000002c0: f769 8fc0 0d93 91c0 f327 a441 fbb9 a441
000002d0: 1ad5 8fc0 6dbf a541 a03d a441 fba0 a441
000002e0: a838 a541 42ad a541 b41d a541 c654 a541
000002f0: 1c7b a541 1207 a541 4c1f a541 a883 a541
00000300: c8b9 a541 a5c5 a441 964a a541 3b7a a541
00000310: c0f2 a441 b327 a541 3e34 a541 0fee a441
00000320: 9b74 a541 2f90 a541 1f56 a541 61db a441
00000330: 5fe7 8ec0 3681 a541 d059 a541 e9f7 a441
00000340: c578 a441 d739 a541 dfac a441 ea49 a541
00000350: 3132 a541 bb96 a541 3614 a541 df77 a541
00000360: 7a52 a541 baac a541 1312 a541 0667 a541
00000370: 114b a441 7087 a541 c4b4 a441 e10f 90c0
00000380: a3cd a441 34cc a541 91d9 a441 1b4c a541
00000390: ea63 a441 acf0 a441 8b6f a441 0528 91c0
000003a0: e27d a541 af04 a541 154e a541 9ec3 a441
000003b0: 65b2 a441 7d54 a541 f7ca a441 dc88 a541
000003c0: dfbd a541 a90b a541 08ef a441 d907 a541
000003d0: 2fa2 a441 2100 a541 396f a541 cbf7 a441
000003e0: 0a74 a541 a97c a541 2ef1 a341 7213 a541
000003f0: 8887 a541 0c20 8cc0 ba7b a541 cac7 a541
20.638777 20.65376 20.681093 20.6553 20.702927 20.612345 20.61938 20.583807
20.626566 20.686562 20.66712 20.612986 20.658495 20.704958 20.708076 20.672184
20.589806 20.62334 20.724792 20.697084 20.628122 20.62952 20.675276 20.702393
20.61775 20.604918 20.682293 20.718739 20.636686 20.685413 20.622482 20.682238
20.620453 20.680918 20.635744 20.706553 20.595875 20.694046 20.63692 20.624588
20.648687 20.57499 -4.433746 20.598278 20.733564 20.575142 20.653183 20.680729
20.632593 20.634619 20.618708 20.65886 20.637316 20.619547 20.666336 20.681507
20.700356 20.648024 20.61914 20.704435 20.653797 20.609121 20.626661 20.56214
20.655687 20.664024 20.619164 20.63154 20.652403 20.720924 20.577597 20.648754
20.671844 20.63564 -4.419143 20.681192 20.566526 -4.4311147 -4.53504 20.54415
20.62087 20.668627 20.64914 20.695936 20.544125 20.621466 20.696884 20.619867
20.706924 20.61094 20.652729 20.663113 20.711262 20.682114 20.682072 20.681232
20.563837 20.656345 20.692095 -4.4544 20.694086 20.664082 20.714865 20.520807
20.68432 20.61619 20.705053 20.612339 20.675995 20.611181 20.676735 20.677376
20.633764 20.50111 20.646044 20.576286 20.666578 20.66365 20.617928 20.662962
20.712046 20.559935 20.632637 20.513763 20.732315 20.671774 20.574572 20.627886
20.644941 20.568909 20.65771 -4.5475764 20.572454 20.706697 20.710073 20.680676
20.6777 -4.437129 20.570694 20.60091 20.725634 20.64278 -4.536665 20.69489
20.727919 20.572844 20.706766 20.699327 20.623154 20.638124 20.640173 20.549341
20.678976 20.693216 20.619223 20.673542 20.61295 20.720024 20.594107 20.672367
20.706345 20.638477 20.580944 20.66137 20.612219 20.572124 20.61392 20.631361
20.70883 20.60254 20.585857 20.671389 20.702057 20.619781 20.709347 20.671549
-4.481685 -4.5492005 20.519506 20.59081 -4.4947634 20.71847 20.53009 20.578604
20.652664 20.709599 20.639503 20.666393 20.685112 20.628452 20.640282 20.689285
20.715714 20.596506 20.661419 20.684683 20.61853 20.644384 20.650509 20.61624
20.681936 20.695402 20.667051 20.607119 -4.4657435 20.688091 20.668854 20.62105
20.55897 20.653242 20.58441 20.66109 20.649508 20.698599 20.634869 20.68353
20.665272 20.70934 20.633825 20.675304 20.536654 20.691132 20.588264 -4.5019383
20.600409 20.724709 20.606234 20.66216 20.548786 20.617516 20.554464 -4.536135
20.686466 20.627287 20.663126 20.595516 20.587107 20.666254 20.599104 20.691826
20.71771 20.630693 20.616714 20.628832 20.579191 20.625063 20.679308 20.620993
20.68166 20.68587 20.492764 20.634495 20.691177 -4.378912 20.685413 20.722553

fc2.weight f4 [128, 256]
00000000: 6a26 4642 bb3b 4642 4839 4642 753f 4642
00000010: 585f 4642 a97a 4642 5aa7 4642 a7b4 4642
00000020: 381f 4642 bc5c 4642 57de 4542 839d 4642
00000030: 7d05 4642 1434 4642 0678 4642 10b6 4642
00000040: ed4c 4642 0756 4642 5114 4642 a642 4642
00000050: 1efa 4542 1d23 4642 842d 4642 8ece 4542
00000060: 5c6b 4642 ba30 4642 a9d5 4542 1d6e 4642
00000070: 67b4 4542 aaac 4642 2c20 4642 6e27 4642
00000080: e366 4642 4e0f 4642 452f 4642 1655 4642
00000090: 4963 4642 b75e 4642 0234 4642 904f 4642
000000a0: 2453 4642 f634 4642 1b38 6bc1 08a8 4642
000000b0: 65df 4542 5e20 4642 0990 4642 a87f 4642
000000c0: ab28 4642 aa55 4642 21b9 4642 0253 4642
000000d0: 5cce 4642 3c49 4642 9bb4 4642 37f6 4542
000000e0: f09a 4642 731a 4642 5b5c 4642 809c 4642
000000f0: b84a 4642 9c6f 4542 a082 4642 76cc 4642
00000100: 83ec 4542 e6a7 4542 0260 4642 c634 4642
00000110: f4a1 4542 5226 4642 a068 4642 ab4f 4642
00000120: 4937 4642 3641 4642 9487 58c1 639d 4642
00000130: 2b11 4642 1f36 64c1 27f9 62c1 d2a7 4642
00000140: 41ea 4542 f682 4642 2ef2 4542 e996 4642
00000150: 180c 4642 8087 4642 81df 4542 8420 4642
00000160: da65 4642 00cf 4542 c52d 4642 b43d 4642
00000170: 1598 4642 c16e 4542 ca2d 4642 411f 4642
00000180: 3f33 4642 e1b9 4542 371e 4642 2b1e 63c1
00000190: 13b5 4642 02ac 4642 3659 4642 99a5 4442
000001a0: 2195 4642 0e73 4642 b00e 4642 8799 4642
000001b0: 3350 4642 3c19 4642 f8f3 4542 2f5b 4642
000001c0: 2d5f 4642 006a 4642 c84d 4642 1579 4642
000001d0: a218 4642 b07c 4642 0576 4542 812b 4642
000001e0: 57fd 4542 8415 4642 c538 4642 5982 4642
000001f0: 4f21 4642 8a58 4642 0bc5 4542 8392 4642
00000200: cb7d 4642 2d62 4642 8947 4642 3bb4 5bc1
00000210: 4348 4642 9405 4642 e19f 4642 62a9 4642
00000220: 7550 4642 62c7 5fc1 ec94 4642 81e3 4542
00000230: 7a16 4642 bda0 4642 2d81 60c1 80b5 4642
00000240: 81da 4542 d9b6 4642 aaa3 4642 6a30 4642
00000250: 78af 4642 ca5e 4642 9862 4642 0766 4542
00000260: 8847 4642 d980 4642 d3d3 4542 77bd 4642
00000270: 6d1e 4642 743a 4642 8268 4642 3f01 4642
00000280: b8e5 4542 aed9 4542 6e42 4642 6075 4642
00000290: 3bf8 4542 94d2 4542 034e 4642 8964 4642
000002a0: 1b8f 4642 e196 4542 f345 4642 b946 4642
000002b0: 6c72 4642 4340 4642 dc12 4642 8ee6 4542
000002c0: 15b9 63c1 1449 5dc1 eca2 4642 3a59 4642
000002d0: 4c49 61c1 4ce9 4542 d88b 4642 2bef 4542
000002e0: 0bc4 4542 8e30 4642 8242 4542 4a4a 4642
000002f0: 2bb9 4542 d1e6 4542 435a 4642 16ca 4642
00000300: 9540 4642 24fa 4542 fb1e 4642 ce77 4642
00000310: ea18 4642 adb9 4642 a8af 4542 a36e 4642
00000320: d520 4642 d965 4642 d65e 4642 1b7f 4642
00000330: 623c 66c1 781e 4642 1efe 4542 a83b 4642
00000340: 1307 4642 4da9 4642 dd4a 4642 3a5d 4642
00000350: c6d4 4642 5582 4642 c409 4642 9cb6 4642
00000360: 4210 4642 0c8f 4642 5227 4642 ee25 4642
00000370: 11b3 4542 6008 4642 ad25 4642 d84c 5fc1
00000380: 8f63 4642 5b4a 4642 742c 4642 5249 4642
00000390: 1ba1 4642 715c 4642 d383 4642 83a1 5dc1
000003a0: be40 4642 a850 4642 454c 4642 e034 4642
000003b0: 6eb8 4542 1355 4642 72bd 4542 12e5 4642
000003c0: f140 4642 556f 4642 5233 4542 e714 4642
000003d0: 8843 4642 0562 4642 e1b0 4642 a24d 4642
000003e0: 6eaa 4642 3045 4642 9081 4642 0e89 4642
000003f0: a16d 4642 e8f4 62c1 e647 4642 f23f 4642
49.537514 49.55833 49.55594 49.56197 49.59311 49.619785 49.66343 49.67642
49.530487 49.59056 49.46713 49.65382 49.50536 49.550858 49.61721 49.677795
49.575123 49.58401 49.51984 49.565086 49.494255 49.53429 49.54445 49.451714
49.604843 49.547585 49.458652 49.607533 49.426174 49.668617 49.531418 49.538506
49.600475 49.514946 49.54616 49.58309 49.59696 49.592495 49.55079 49.577698
49.581192 49.55172 -14.701198 49.664093 49.46816 49.53161 49.64066 49.624664
49.539715 49.583656 49.68079 49.581062 49.701523 49.571518 49.676373 49.490444
49.651306 49.52583 49.59019 49.652832 49.572968 49.358994 49.627563 49.69967
49.48097 49.413963 49.593758 49.551537 49.408157 49.537422 49.602173 49.5778
49.55399 49.563683 -13.5331 49.653698 49.516766 -14.263213 -14.185828 49.663887
49.478764 49.62789 49.486504 49.647373 49.51181 49.632324 49.468266 49.531754
49.599464 49.45215 49.544697 49.560257 49.648518 49.35816 49.544716 49.53052
49.550045 49.431522 49.529507 -14.194865 49.67683 49.667976 49.58712 49.161716
49.645634 49.61236 49.514343 49.64993 49.57832 49.524643 49.48825 49.589046
49.592945 49.603516 49.57596 49.618244 49.524055 49.621765 49.365253 49.542484
49.497402 49.52101 49.55544 49.627293 49.532528 49.586464 49.442425 49.643078
49.622845 49.595875 49.56986 -13.731502 49.570568 49.505447 49.65613 49.665413
49.57857 -13.986177 49.64543 49.47217 49.52195 49.65697 -14.031537 49.677246
49.463383 49.678562 49.65983 49.54728 49.671356 49.592567 49.596283 49.349636
49.569855 49.625828 49.45686 49.685024 49.529713 49.557083 49.60206 49.501217
49.474335 49.462578 49.564873 49.614624 49.492413 49.455643 49.576183 49.59818
49.63975 49.397343 49.56831 49.569065 49.61174 49.562756 49.518417 49.47515
-14.232686 -13.830341 49.659103 49.587135 -14.080395 49.47783 49.636566 49.483562
49.44145 49.547417 49.31495 49.572548 49.43083 49.475407 49.588146 49.69735
49.56307 49.494278 49.530254 49.616997 49.52433 49.681324 49.42154 49.608044
49.532063 49.59946 49.592613 49.624126 -14.389742 49.529755 49.49816 49.558258
49.50691 49.665333 49.57311 49.59104 49.707787 49.627277 49.509537 49.67833
49.515877 49.639694 49.5384 49.53704 49.42487 49.50818 49.536793 -13.956261
49.597225 49.572613 49.54341 49.5716 49.65733 49.590275 49.628735 -13.851932
49.563225 49.578766 49.574482 49.551636 49.430107 49.58308 49.435005 49.7237
49.56342 49.608723 49.300117 49.520412 49.56595 49.595722 49.672733 49.575813
49.666435 49.567566 49.626526 49.633842 49.60706 -14.184792 49.570213 49.562447

fc2.bias f4 [128]
00000000: 712f 4342 e008 4342 b945 4342 a1a3 4242
00000010: 7c5b 4342 a872 4342 576a 4342 f9d2 4242
00000020: 837b 4342 b7f9 89bf c13a 4342 073f 4342
00000030: 74fa 4242 8a3d 4342 964a 4342 262e 4342
00000040: b022 4342 7b24 4342 9bc3 4242 2701 4342
00000050: 198d 4342 723e 4342 785f 4342 d864 4342
00000060: 0a57 4342 6042 4242 f135 4342 9116 4342
00000070: 6804 4342 333d 4342 d127 4342 e256 4342
00000080: 8e5e 4342 47e0 4242 be7b 6ebc 125c 4342
00000090: cfb2 68bd 914a 4342 2048 4342 eae9 4242
000000a0: c173 4342 2d17 4342 7a05 4342 fd0e 4342
000000b0: 5928 4342 24ff 4242 7aee 4242 0c48 4342
000000c0: 4d3a 4342 0268 4342 d34c 4342 3504 4342
000000d0: 1e09 4342 8660 4242 4606 4342 ee11 4342
000000e0: 9820 4342 bf1d 36bd 7149 4342 e76f 4342
000000f0: 2d08 4342 8a3d 4342 5179 4342 6b52 92bf
00000100: 2648 4342 b948 4342 6e4b 4342 567e 4242
00000110: 6953 4342 994b 4342 c62e 4342 b7fe 4242
00000120: a3ae 4242 f5fb 4242 497b 4342 8f60 4342
00000130: 4cc6 4242 f861 4342 c98b 6fbd 3db1 86bd
00000140: bdf2 4242 6602 4342 64af 5bbd 35e3 4242
00000150: e191 85bd 892d 4342 1383 01bc 91cc 4142
00000160: 6602 4342 412c 4342 d126 16bd 6e58 4242
00000170: 65fb 4242 5787 4242 136f 4342 3a0f 4342
00000180: d24d 89bf 6428 4342 0426 4342 3679 4242
00000190: 410b 4342 5b3a 7dbf d273 4342 1763 4342
000001a0: f1d9 4242 a344 4342 d857 4342 2efe 4242
000001b0: 200d 4342 e561 4342 3260 4342 031b 4342
000001c0: 40a1 4242 d027 4342 4750 4342 425e 4342
000001d0: b920 4342 7a7e 4342 2e96 4242 c812 4342
000001e0: 0156 4342 6152 4342 2d2e 4342 fceb 4142
000001f0: db2a 4342 1254 4342 44f3 4242 6501 4342
48.79633 48.758667 48.81809 48.659794 48.83934 48.86197 48.853848 48.706028
48.870617 -1.0779332 48.807377 48.81155 48.744583 48.810097 48.822838 48.795067
48.783875 48.785625 48.69102 48.751125 48.88779 48.81098 48.84323 48.84848
48.835 48.56482 48.802677 48.772038 48.754303 48.809765 48.788883 48.834846
48.84234 48.71902 -0.01455587 48.839912 -0.05681115 48.82282 48.820435 48.72843
48.86304 48.772633 48.75535 48.764637 48.789402 48.74916 48.732887 48.82036
48.806934 48.85157 48.825024 48.75411 48.758904 48.59426 48.756126 48.76751
48.78183 -0.04446196 48.82172 48.85928 48.757984 48.810097 48.868473 -1.1431402
48.820457 48.82102 48.82366 48.623375 48.831455 48.823826 48.795677 48.748745
48.670544 48.74605 48.870396 48.844296 48.69365 48.845673 -0.05848292 -0.06576774
48.73705 48.752342 -0.053634062 48.72188 -0.06521965 48.794468 -0.007904786 48.44977
48.752342 48.793217 -0.036658112 48.586357 48.745502 48.632168 48.85847 48.76487
-1.0726874 48.789444 48.787125 48.61837 48.76099 -0.9891717 48.863106 48.846767
48.712833 48.817028 48.835785 48.748222 48.762817 48.8456 48.84394 48.77638
48.65747 48.78888 48.828396 48.84205 48.781956 48.873512 48.64666 48.76834
48.83399 48.83045 48.795094 48.480453 48.79185 48.8321 48.737564 48.75136

fc3.weight f4 [64, 128]
00000000: a700 b941 c37f b841 cc25 b941 1d86 b841
00000010: ac50 b941 a889 ba41 a971 b941 c343 b941
00000020: bca7 ba41 fefd 89c0 91d3 b841 dc16 ba41
00000030: 0581 b741 1170 b941 43eb b941 c761 b841
00000040: 83d4 b941 ffd8 b941 b4b0 b941 5f0f b841
00000050: 76ab ba41 86c2 b941 5746 b941 c098 b941
00000060: 3e25 ba41 4abb b641 9fd3 b841 034e b741
00000070: 5c0f b941 0e8a b941 7e02 ba41 3da2 b841
00000080: 62c4 ba41 dcd1 b841 4eb9 80bc f470 b941
00000090: 9a7e 7cbb b755 ba41 ad0c b941 995e b941
000000a0: ca19 ba41 f781 ba41 1a60 b941 48d5 b841
000000b0: b1df b941 8797 b941 dcdf b741 67a8 b941
000000c0: 4539 ba41 ad20 b941 afbb b741 030b ba41
000000d0: eb1f b841 83ae b641 4ef0 b941 d6cc b941
000000e0: 6147 ba41 26c2 793d 5793 b841 8516 b941
000000f0: 84a8 b941 f7b4 b941 256d ba41 a2d9 9bc0
00000100: 45bf b841 02e1 b941 7c1f b941 3a16 b941
00000110: c43e ba41 a315 ba41 f360 b941 a493 b941
00000120: d60a b841 9029 b941 d298 ba41 9026 ba41
00000130: 0afa b741 449d b941 4e0f 8cbd 12e9 573d
00000140: 0ac4 b941 284b b941 918b bdbd e745 b841
00000150: fc5a 94bc 5b21 b741 7090 67bd 0ac8 b741
00000160: dbab b941 fcfc b841 8a61 8dbd f339 b641
00000170: cf8c b841 03dc b841 6ce8 b941 4c7f b941
00000180: 04d6 84c0 11fe b841 3646 b941 1651 b641
00000190: 5bb6 b841 1c56 80c0 57a8 b941 a56f b941
000001a0: 9a5c b841 5406 ba41 63b2 b941 6d0e b941
000001b0: 4c0f b941 93aa b941 3415 ba41 70bc b741
000001c0: f6e9 b641 5fb4 b841 f83c b941 15dc b941
000001d0: abd4 b941 4301 ba41 2918 b641 5b3e b941
000001e0: f3df b841 c66c b941 dc3a ba41 5048 b641
000001f0: 00be b941 2325 b841 85b1 b841 3b52 b941
00000200: a4f7 b841 b7b7 b941 7b47 b941 783f ba41
00000210: f676 b941 453a b941 712c b941 7b39 b941
00000220: af93 b841 6328 87c0 65a4 b841 c685 b841
00000230: 89f5 b941 8c88 b941 047b b841 7c8f b941
00000240: c5f4 b841 c367 ba41 896f b941 9621 ba41
00000250: 80ab b841 22e8 b841 775b b941 55aa b841
00000260: 495a b941 f5b1 b941 f0e5 b841 4b78 b841
00000270: 29c5 b941 9e40 b941 ef57 b941 f3e5 b841
00000280: 9c07 b941 a8c3 b941 2c91 9cbd 78ba b941
00000290: 369d 98bd 4bb6 b841 bb80 b841 ca24 b941
000002a0: 7b46 b941 6c8c b841 4ebf b841 100a ba41
000002b0: cfb7 b941 ac49 b941 b968 b941 1533 b941
000002c0: 1b89 b841 3fc9 b941 7856 b941 5130 b941
000002d0: 1fbe b941 c9c6 b941 9ccc b941 dbbd b941
000002e0: af8a b841 27af 3f3d 379f b841 1f04 b941
000002f0: ca43 b941 baaf b941 75c6 b841 8e4d 8ec0
00000300: 653e b941 6cce b841 8166 b941 0593 b841
00000310: 4979 b841 9a01 ba41 39c9 b941 e5cb b841
00000320: fa00 ba41 6ced b941 2716 b841 11a9 b841
00000330: 6c4b ba41 f02f b941 90eb d43c df1d 483c
00000340: 6389 b841 153e ba41 2706 07bb c624 ba41
00000350: 049b 85bd 62f1 b841 2cb1 66bd d4b2 b841
00000360: 8226 ba41 7858 b941 c3c8 6e3d 2b50 b941
00000370: 3d28 b941 074d b841 b6ee b841 f28e b841
00000380: d8f6 7fc0 6fce b941 f124 b941 3e84 b941
00000390: bc01 ba41 6c47 74c0 a019 b941 16fd b841
000003a0: ecba b841 15fe b941 9d85 b841 e3a7 b841
000003b0: 3485 b941 1255 b941 0bfb b841 ef3b b941
000003c0: 591c ba41 7fa5 b941 7555 b941 c35e b941
000003d0: 71fc b841 a17b b941 3cfa b841 0e6d b841
000003e0: b861 b941 c996 b841 d2b8 b941 92d0 b841
000003f0: ea05 b941 a310 ba41 af63 b941 6453 b841
23.125319 23.062384 23.143456 23.065485 23.16439 23.317215 23.180498 23.158087
23.331902 -4.312255 23.103304 23.261162 22.937998 23.17972 23.239874 23.047743
23.228765 23.230955 23.21128 23.007505 23.333721 23.219982 23.159346 23.199585
23.268185 22.84145 23.10333 22.913092 23.1325 23.19241 23.251217 23.079218
23.34589 23.10247 -0.01571336 23.180153 -0.003852761 23.291853 23.13119 23.17119
23.262592 23.31346 23.171925 23.104141 23.234224 23.198988 22.984306 23.207228
23.277964 23.140955 22.966642 23.255377 23.015585 22.83521 23.242336 23.225018
23.284853 0.06097617 23.071943 23.135996 23.207283 23.213362 23.303293 -4.8703165
23.093393 23.234867 23.140373 23.135853 23.280647 23.260565 23.172338 23.19709
23.005291 23.145294 23.32462 23.26883 22.99709 23.20179 -0.06838857 0.052712508
23.220722 23.161697 -0.09255136 23.034132 -0.018109791 22.891287 -0.05653423 22.972675
23.208914 23.123528 -0.0690337 22.778296 23.068754 23.107428 23.238487 23.187157
-4.151125 23.124056 23.159283 22.789593 23.08904 -4.0105114 23.207197 23.179514
23.045216 23.25309 23.212103 23.132044 23.13247 23.208288 23.260353 22.96701
22.864239 23.088072 23.15477 23.232462 23.228842 23.250616 22.761797 23.155447
23.10935 23.178112 23.27874 22.785309 23.217773 23.018133 23.08668 23.165152
23.120918 23.214705 23.159903 23.28099 23.183086 23.153452 23.1467 23.153067
23.072111 -4.22368 23.08027 23.06532 23.24489 23.191673 23.060066 23.19506
23.119516 23.300665 23.17946 23.2664 23.08374 23.113346 23.16966 23.08317
23.169085 23.211893 23.112274 23.058737 23.22127 23.156551 23.167936 23.11228
23.128716 23.220535 -0.07644877 23.21605 -0.074518606 23.08901 23.062857 23.142963
23.159414 23.068565 23.09341 23.254913 23.21475 23.160973 23.176134 23.149942
23.066946 23.223265 23.167221 23.148592 23.217833 23.222063 23.224907 23.217703
23.067717 0.046797898 23.077742 23.127012 23.1581 23.210804 23.096903 -4.446967
23.155466 23.100792 23.17505 23.071787 23.059221 23.250782 23.223253 23.099558
23.250477 23.240929 23.010817 23.082552 23.286827 23.148407 0.025991231 0.012214153
23.067083 23.280313 -0.0020603032 23.267956 -0.065237075 23.117863 -0.056321308 23.087318
23.268803 23.168198 0.05829693 23.164145 23.144648 23.037611 23.116558 23.069798
-3.9994411 23.225798 23.143038 23.189571 23.250847 -3.8168592 23.137512 23.123577
23.09127 23.249063 23.06524 23.081976 23.19004 23.166538 23.12258 23.154264
23.263842 23.205809 23.166727 23.17127 23.123262 23.185366 23.122185 23.05325
23.172714 23.073626 23.215244 23.101841 23.127888 23.258123 23.173674 23.040718

fc3.bias f4 [64]
00000000: cdf5 3e42 b68e 3e42 8a93 3e42 58f6 78bd
00000010: b2f9 77bd f98f 3e42 72a3 3e42 46fc 3e42
00000020: 349a c7bd ef89 3e42 118d 3e42 0d1d 3e42
00000030: 095b d73c ef66 c6bd e482 4dbd 8511 3e42
00000040: df7f 92bd 3890 9dbd 8c31 3e42 00d2 3e42
00000050: ed1f d7bd 4a87 143d c4a3 3e42 8003 3f42
00000060: 20b5 3e42 3f4e 3e42 4bbe 3e42 dd0a 3e42
00000070: 0176 3e42 1bab b7bd 618f 4bbd 60f7 3e42
00000080: 9226 3e42 63de 3e42 91b4 dabd 66fe 3e42
00000090: 636c 3e42 e296 0cbd b3c9 3e42 39f5 3e42
000000a0: 57ce 3e42 75c4 83bd 591b 88bd ea21 3abd
000000b0: 08dc 3e42 4928 3e42 4a9f 3e42 e3de 3d42
000000c0: ffba 3e42 b18c 3e42 7704 bdbc 2893 3e42
000000d0: 9e65 3e42 4289 3e42 7216 3e42 41b1 3d42
000000e0: ceba 3e42 9479 3e42 12b8 3e42 f08d 3e42
000000f0: 8c2c 96bd f4c1 4f3d 5b67 3e42 4696 3e42
47.74004 47.639366 47.64408 -0.060781807 -0.060540862 47.6406 47.659615 47.74636
-0.09746209 47.6347 47.63776 47.52837 0.026288526 -0.09687602 -0.050173655 47.51711
-0.07153296 -0.07693523 47.548386 47.70508 -0.10504136 0.036261834 47.659927 47.753418
47.67688 47.576412 47.685833 47.51061 47.61524 -0.08968183 -0.049697284 47.741577
47.537666 47.717175 -0.106789716 47.748436 47.605846 -0.03432358 47.69697 47.739475
47.701504 -0.064339556 -0.06645841 -0.0454425 47.714874 47.53934 47.655556 47.467663
47.682613 47.637394 -0.023073418 47.643707 47.599236 47.63404 47.52192 47.4231
47.682426 47.61873 47.679756 47.63861 -0.073327154 0.050722077 47.600933 47.64675

fc4.weight f4 [49, 64]
00000000: f36e 8e40 f1e3 8840 e682 9040 2b08 1dbd
00000010: ae14 c33d 2f69 8b40 1343 9040 0990 8e40
00000020: e07c e63b b7ba 9340 8453 9140 924f 8b40
00000030: 38c2 b4bd 9ec4 a13d 78ed e83c ad57 8540
00000040: b803 3cbd 4029 f0bb 33a5 8540 6054 8d40
00000050: 347b 8cbd e05e ab3c 74dd 8b40 4c3d 8d40
00000060: 4dce 9040 0c1c 8c40 2fb3 8b40 a93b 8c40
00000070: 97f1 8b40 001e 8d3c 1142 8f3c 6686 8840
00000080: 4af7 8f40 810b 8a40 ea8d c23d d7bd 8c40
00000090: e818 8e40 56f5 de3d a080 8f40 f5a7 8c40
000000a0: a3af 8940 c010 23bd b443 8a3d 745a 3abd
000000b0: d69c 9040 f5b9 8d40 ed8c 8840 f9a8 9340
000000c0: 5cf5 8c40 53a4 9240 1685 e3bb 733d 8a40
000000d0: 68ca 9240 0cc8 8940 1d72 8240 794a 8940
000000e0: 2b60 8d40 54cb 8b40 8069 8e40 2b9e 8840
000000f0: 4c0b a0bd cae2 e5bd 179e 8d40 6286 9140
00000100: 336b ca40 480d cf40 6a1f ce40 c02e 5dbd
00000110: 6672 8bbd 5e9d cf40 3eb7 d040 7369 ca40
00000120: 00d0 483b f308 cd40 ca39 cb40 5460 cd40
00000130: fa3f b53d b4b5 d2bd d851 fd3d 930a cc40
00000140: 78f4 6a3d e83a 20bd 7149 cc40 e5e7 cf40
00000150: ecaa 203d 18c1 323d 2fee ce40 afc5 ca40
00000160: 9b39 d040 0cba ca40 5c74 cd40 619d cd40
00000170: 88da cf40 602c 09bc 1000 d2bc 6ca6 ca40
00000180: 5828 ca40 a8bf cb40 b492 61bd 60be cb40
00000190: 2fe1 cb40 f0dc 1fbd bf9c cd40 1e85 cd40
000001a0: cd8c ca40 b5e2 a0bc 0c3c e2bd c430 993d
000001b0: 7bc3 d040 0ca0 ca40 4dcb c840 c2c7 cb40
000001c0: 3ec1 cc40 d17b c940 def8 a33d d57d c940
000001d0: f54a cb40 eba1 cd40 5ce4 cc40 809a c940
000001e0: b823 ca40 8c08 d040 d101 cb40 83ea cd40
000001f0: 40ff 84bb f87d d0bd 0952 ca40 d8a8 ca40
00000200: edda 0541 2112 0641 50c4 0641 0888 2fbd
00000210: 687e b3bd 8a5a 0641 d447 0541 3b9d 0641
00000220: 10c6 60bd 70fd 0641 02c9 0541 c995 0641
00000230: f659 cb3d d713 bbbd 643e e2bd cd35 0541
00000240: 5653 b0bd fc06 463d 9e70 0441 7971 0641
00000250: f8b0 8f3d 3f5e 2c3d 952b 0541 6fe1 0441
00000260: df18 0741 46a0 0641 7bf4 0741 81d6 0341
00000270: 653e 0641 7025 95bd a950 aa3d f668 0541
00000280: 3302 0441 7602 0541 b8d1 a63c 2f41 0441
00000290: eb28 0641 cac1 903d 06dd 0441 f1ac 0741
000002a0: 6b8b 0441 f216 7cbd 1c25 2f3d 801f 8bba
000002b0: b291 0441 b03c 0541 a112 0641 d515 0641
000002c0: aafd 0641 47bd 0641 9e21 a1bd e8c3 0641
000002d0: faee 0641 7693 0341 547a 0141 0edd 0141
000002e0: 3e92 0741 3baa 0341 2f3f 0441 510c 0341
000002f0: 8014 103b 53de b5bc 7d34 0541 830e 0741
00000300: 6944 cb40 dda1 d040 55c1 cb40 8085 34bc
00000310: 80f8 36bd 6781 cd40 da58 cd40 d0e3 ca40
00000320: 89de 403d 254f c840 9648 c940 4c4d cf40
00000330: b871 f8bb a016 33bd d294 c3bd 1ab2 cb40
00000340: b019 433c ecee 93bd 98a7 d040 03c9 cb40
00000350: c469 c5bd a590 c8bd 0f0f cf40 78a8 cf40
00000360: 3843 c940 efc3 c940 3ec7 c840 75cb cc40
00000370: 4d8f cf40 ae4c ebbd fea1 8cbd 257b ca40
00000380: ba82 c940 9893 cc40 6c10 b0bd f15f cc40
00000390: d750 cc40 2475 6f3d 8af7 c840 020f cf40
000003a0: dd8b cc40 db9c 63bd f866 883c 20a5 9e3d
000003b0: 228f c840 d550 cc40 03de cf40 7481 cb40
000003c0: 3d9c cd40 6c45 c740 cce1 debd eac4 c840
000003d0: 3552 c940 385d c940 9ef0 c940 f99a ca40
000003e0: 4c88 cd40 4cc9 cb40 44b2 ca40 2cb7 ce40
000003f0: bef2 af3d f461 e13d bfe2 ca40 0216 c940
4.4510436 4.277825 4.515979 -0.038337868 0.09525429 4.35659 4.508188 4.4550824
0.007033929 4.6165423 4.541445 4.353463 -0.08826107 0.0789883 0.028433546 4.1669526
-0.045901984 -0.007329136 4.176416 4.4165497 -0.06859437 0.020919263 4.370783 4.4137325
4.525183 4.3784237 4.365623 4.3822827 4.373241 0.01722622 0.017487558 4.266406
4.4989367 4.3139043 0.09499724 4.398174 4.4405403 0.10886638 4.4844513 4.3955026
4.30269 -0.039810896 0.067511946 -0.04549642 4.519145 4.42895 4.267203 4.6143765
4.404951 4.582559 -0.0069433553 4.320001 4.587208 4.30567 4.07643 4.290341
4.4179893 4.3685703 4.4503784 4.2693076 -0.07814655 -0.11224897 4.425548 4.547654
6.325586 6.4703712 6.4413347 -0.053999662 -0.06808929 6.48796 6.5223684 6.325372
0.0030641556 6.4073424 6.3508043 6.418009 0.08850093 -0.10288563 0.12369126 6.376291
0.05736205 -0.039118677 6.383965 6.4970574 0.039225504 0.04364118 6.466575 6.3366313
6.507032 6.335211 6.420454 6.4254613 6.495426 -0.008372396 -0.025634795 6.332815
6.317425 6.3671455 -0.055071548 6.366989 6.371238 -0.03902906 6.425384 6.4224997
6.3296876 -0.019639352 -0.11046609 0.074800044 6.5238624 6.332037 6.274817 6.3681345
6.398589 6.2963643 0.08006452 6.2966104 6.3529 6.4260154 6.402876 6.30011
6.31686 6.5010433 6.3439717 6.434877 -0.0040587485 -0.10180277 6.322514 6.333111
8.365949 8.379426 8.422928 -0.04285434 -0.087643445 8.397104 8.330036 8.413386
-0.054876387 8.436874 8.361574 8.411569 0.09929268 -0.091346435 -0.11047056 8.325635
-0.08609645 0.048346505 8.277494 8.402703 0.07016176 0.042082068 8.32314 8.3050375
8.443572 8.414129 8.497188 8.239869 8.390233 -0.07282531 0.08316166 8.338125
8.250537 8.313101 0.020363674 8.265914 8.38499 0.07068212 8.303961 8.479722
8.284038 -0.06154532 0.04276 -0.0010614246 8.28557 8.327316 8.379548 8.38033
8.43693 8.42121 -0.0786774 8.422829 8.433344 8.223501 8.092365 8.116468
8.473204 8.22906 8.265426 8.190507 0.0021984875 -0.022200739 8.3253145 8.441043
6.352101 6.5197587 6.36735 -0.011018157 -0.04467058 6.422046 6.417096 6.340309
0.047087226 6.259661 6.2901106 6.4781857 -0.0075819157 -0.04372275 -0.095498696 6.365491
0.01190798 -0.07223305 6.520458 6.3682876 -0.09639314 -0.09793214 6.470588 6.489315
6.2894554 6.3051677 6.2743216 6.399836 6.486243 -0.11489235 -0.06866835 6.3275323
6.297208 6.393017 -0.08596882 6.3867116 6.384868 0.058461323 6.280217 6.470582
6.392073 -0.05556951 0.016650662 0.07746339 6.2674723 6.384867 6.495851 6.3595524
6.425322 6.2272243 -0.10882911 6.2740374 6.291285 6.2926292 6.310622 6.3314176
6.422888 6.3683224 6.334261 6.45986 0.08591221 0.11005011 6.340179 6.2839365

fc4.bias f4 [49]
00000000: b844 1541 1ddd c341 acc2 f941 fe74 a841
00000010: f467 2742 f942 0542 d54c 9d41 e6d4 2a42
00000020: b3f8 0a42 f4b1 1a42 f361 cb41 50e1 2642
00000030: c6b3 8b41 9ccf 55bd ac5b 9b41 81c6 2c42
00000040: ce53 0342 0e9f 0242 6358 2942 e223 e2bd
00000050: 969e a8bd 552d 9b41 d36e 2342 27af 9541
00000060: 68c4 fa41 1442 54bd fa8f e53d d672 a8bd
00000070: 27bf ff41 d34b 1b42 b439 9b41 0894 b63d
00000080: b050 e03c 72df a03d 3433 a8bd ad65 a441
00000090: f14f 1642 00c5 333a f21d afbd 4a18 cd3d
000000a0: 6462 a23d 587c 3fbd f47d b641 18fb 903c
000000b0: b6d8 b0bd c0b2 46bc 128a db3d 5caa cd3d
000000c0: fac0 963d
9.329277 24.482965 31.220055 21.057125 41.851517 33.315403 19.662516 42.70791
34.74287 38.673782 25.422827 41.72003 17.46278 -0.052199945 19.419762 43.19385
32.83184 32.655327 42.336315 -0.11042 -0.08233373 19.397135 40.858227 18.710524
31.345901 -0.05182083 0.11209102 -0.08225028 31.968336 38.824047 19.403175 0.089149535
0.027382225 0.07855119 -0.08212891 20.549646 37.578068 0.00068576634 -0.085506335 0.100143984
0.07928923 -0.046749443 22.8115 0.017697856 -0.08635084 -0.012127578 0.10719694 0.10042259
0.07361026
