trike2/models/DQN_Agent_self_play_500.pt/DQN_Agent.pt (torch, 333080 bytes, 8 tensors)

fc1.weight f4 [256, 148]
00000000: f826 e240 db32 fd40 f307 e840 44f8 e940
00000010: 1f61 cf40 80d7 e440 ba4c c540 4437 0341
00000020: 2bba f240 587e b740 dbbe e440 9c62 0441
00000030: d460 e540 4033 963b 0b2e 0d41 66ad fa40
00000040: bdf7 ff40 91be f640 46d5 e640 9aea 0d3d
00000050: 39f2 803d 6038 e840 02e8 b840 5964 fe40
00000060: 7b20 f440 b83c 143d a617 203d e269 5a3d
00000070: f9ba 0d41 0004 a940 942a e540 0a4d 393d
00000080: 3ec0 6a3d 2ae1 6d3d d819 6dbd e02b f040
00000090: 1d8d e640 be9c 5abd aa28 81bd 3302 6fbd
000000a0: 480e 8ebc 28f1 093d e5be 0041 6d6d 933d
000000b0: c32d 2abd 66ee 4b3d 182d 71bc da4f b7bc
000000c0: d870 65bc c1c9 e340 c9fd f940 a636 bd40
000000d0: 2acb f440 8012 e840 2708 b840 fcc4 e140
000000e0: cf27 0a41 0c62 e140 a1d1 e540 bfff e740
000000f0: 497b c940 63ea d140 345a ac3c 8cf1 fe40
00000100: 9f36 cb40 7dfa e440 8202 f740 59ec 0241
00000110: 67ea 79bd fca5 94bd 3e67 e440 fd59 f440
00000120: a3e5 b040 b22f ed40 620b 41bd 0db6 94bd
00000130: 6c77 163d 04eb f440 d61a e740 90b3 ca40
00000140: d0ae d6bb 500d b7bc 8872 63bc 2240 1abd
00000150: f1dc fc40 4122 ce40 1c7f 113d 717d 8d3d
00000160: f98a 953d 30db eabb 2297 423d f4c8 e140
00000170: ac45 52bd 66ac 573d f8c1 7bbd d423 263d
00000180: 0b93 9a3d 687e 36bc e60e a840 2d8e e140
00000190: e715 e740 2d23 ca40 5610 e740 2506 9d40
000001a0: 28b0 e340 0644 bc40 8c90 ce40 ea2a 9940
000001b0: 6f4a e040 4553 c740 60ff a640 404c 5c3b
000001c0: 5efb e140 5ff5 e340 14b5 9a40 dad5 e440
000001d0: dd33 c940 f567 10bd 75e3 a13d 85ea d740
000001e0: 42a7 eb40 f7bf cb40 64b5 dd40 34ad 66bd
000001f0: 34b9 98bd 490a 85bd 86b9 e240 d959 e040
00000200: ecb7 e340 f515 4dbd 80e1 293a 41a0 9a3d
00000210: 1215 133d 2e81 b440 0332 a040 8052 5aba
00000220: 46c1 3a3d 8669 cbbc a870 7e3c 20e2 34bb
00000230: c286 e140 848f 2cbd 001f a8bb b0a3 5a3c
00000240: aef5 713d de95 95bd 9cf9 9ebc bf28 93bd
00000250: 2b05 dc40 17fb f940 2f3a ed40 2543 f040
00000260: 5669 c940 ae73 e440 f2a8 c740 c785 0541
00000270: 7515 f240 6fe8 b940 7de4 dc40 7291 0841
00000280: 741a e240 93fa 48bd 5394 0b41 d9de f240
00000290: f4b1 0041 ff44 f940 5ad3 e940 3838 f73c
000002a0: d2fe 2f3d a0aa e840 c847 ba40 532f fc40
000002b0: 2489 fa40 38bf a83c 8bbc a63d fb73 04bd
000002c0: 7d2a 0d41 a9c8 af40 afa6 e840 4ec3 f7bc
000002d0: a8bb 4abc 5f79 9b3d 2017 5d3c d6f6 eb40
000002e0: de6c e240 1a4d 613d caa6 713d 48a0 3c3c
000002f0: 7070 693c c2e1 32bd b15b f840 8ae3 6f3d
00000300: 04d9 31bd c29a afbc aae4 a7bd 48c6 6a3c
00000310: 60b8 233b ef3b e540 ef0b f640 615a c440
00000320: d3c0 ec40 3f07 ec40 1c05 b440 89b5 dd40
00000330: 5879 0841 079b dd40 7ee0 e440 47cb ef40
00000340: f515 c640 ca2c d340 7e3b b3bc ca25 0241
00000350: f9e1 d240 25b3 e040 2858 f840 e0ec 0041
00000360: b49d b03c 603f 49bd da4d e640 b9c4 f740
00000370: 49ec b540 2b51 ef40 1b32 823d 1411 8bbd
00000380: 0a31 753d ea14 f740 0cef e540 48a5 c740
00000390: 32b5 04bd 40d1 29bc fdf6 4bbd 406c 5ebc
000003a0: 4f73 fb40 b15b ca40 3cc2 3dbd 14aa ae3c
000003b0: 88d9 033c 4a5a 293d 20b8 73bc 692a e440
000003c0: d408 9fbd 0850 34bc 6652 463d 78f5 78bc
000003d0: 790d 9f3d 4ca3 88bc c597 aa40 4c11 dd40
000003e0: ee71 e840 a422 c340 798d e840 3d24 9c40
000003f0: 9301 e540 e169 c040 f302 cd40 c3b0 9040
7.067257 7.912458 7.2509704 7.311556 6.4806056 7.151306 6.165616 8.200993
7.5852256 5.734173 7.148298 8.274075 7.16807 0.004583746 8.823741 7.833667
7.9989915 7.7107625 7.2135344 0.03464756 0.062962 7.2568817 5.7783213 7.9497495
7.628965 0.03619072 0.039085053 0.053323634 8.858148 5.2817383 7.1614475 0.045239486
0.057312243 0.05807606 -0.057885975 7.505356 7.2047257 -0.053372137 -0.06306584 -0.058351707
-0.017340794 0.03367725 8.046605 0.07198606 -0.041547548 0.0497879 -0.014720224 -0.022376943
-0.014003955 7.118378 7.8122296 5.912921 7.6498003 7.2522583 5.750995 7.055296
8.634719 7.0432186 7.1818395 7.249969 6.2962995 6.5598617 0.021039106 7.9669857
6.3504176 7.155577 7.719056 8.182702 -0.06101456 -0.072582215 7.137603 7.635985
5.528032 7.412072 -0.047129996 -0.07261286 0.036734983 7.6536884 7.222026 6.3344193
-0.006551601 -0.022345215 -0.013882287 -0.037658818 7.9019704 6.4416814 0.03552161 0.06908692
0.073018976 -0.0071672425 0.047507413 7.0557804 -0.051335976 0.052654646 -0.06146428 0.040561512
0.075475775 -0.011138536 5.2518187 7.0486054 7.2214236 6.316794 7.220744 4.907
7.1152534 5.8833036 6.455145 4.7864885 7.009086 6.2289147 5.2186737 0.0033614784
7.0619345 7.1237025 4.8346043 7.151105 6.287581 -0.03525539 0.07904712 6.747378
7.364167 6.367183 6.9283924 -0.056317523 -0.074572 -0.06496102 7.085147 7.0109677
7.1162014 -0.050069768 0.00064804405 0.07550097 0.035908766 5.640769 5.006105 -0.00083283335
0.045594476 -0.024830591 0.015529789 -0.0027600601 7.0477 -0.042129055 -0.0051306486 0.01334469
0.05907219 -0.073039755 -0.019406132 -0.07185506 6.875631 7.8119006 7.4133525 7.5081964
6.2941084 7.139121 6.239373 8.3451605 7.5651193 5.8096232 6.9028916 8.535509
7.065729 -0.04906709 8.723712 7.589703 8.043446 7.7896724 7.3070498 0.030178174
0.042967625 7.2708282 5.8212624 7.880777 7.829241 0.020598993 0.081414305 -0.03233717
8.822873 5.4932446 7.270347 -0.030244496 -0.012373842 0.07591509 0.013494283 7.3738813
7.0757895 0.05500517 0.058996953 0.011512823 0.014247999 -0.04367233 7.761193 0.058566608
-0.043419853 -0.021436099 -0.08197911 0.0143295005 0.0024981722 7.163566 7.6889567 6.1360326
7.398538 7.3758845 5.6256237 6.92841 8.529625 6.925174 7.152404 7.493564
6.1901803 6.5992174 -0.021878954 8.134226 6.5900846 7.021868 7.7607613 8.057831
0.021559574 -0.049132705 7.1970034 7.742764 5.6850934 7.478658 0.06357213 -0.06790367
0.05986122 7.721303 7.1854305 6.238926 -0.032399364 -0.0103648305 -0.049796093 -0.0135756135
7.8578258 6.323693 -0.046327814 0.021321334 0.008047469 0.041345872 -0.014875442 7.130177
-0.07765356 -0.011005409 0.048418425 -0.015195243 0.077662416 -0.016679429 5.3310266 6.9083614
7.2639074 6.0979786 7.2672696 4.8794236 7.156442 6.0129247 6.40661 4.5215774

fc1.bias f4 [256]
00000000: f774 1f41 0890 1e41 abd4 1d41 49d9 1e41
00000010: 343e 1e41 6657 1d41 3406 1f41 7987 1e41
00000020: b177 1e41 dfbc 18c0 6f1b 1f41 dc2e 1f41
00000030: 9ac3 1d41 49e7 1f41 5bc1 1f41 bf9c 1e41
00000040: f209 1f41 ba82 1c41 aaa6 1c41 16c9 1d41
00000050: 3966 1d41 5cf8 1d41 772e 1e41 fa05 1f41
00000060: 9b8a 1d41 bfff 1e41 2d72 1f41 ab84 1d41
00000070: c00c 1f41 36ca 1f41 61bc 1e41 e614 1d41
00000080: c14c 1d41 0bae 1e41 f49d 1f41 bf58 1d41
00000090: 57a5 1e41 3f10 1d41 b84f 1f41 c1bc 1e41
000000a0: d1ed 1e41 c892 1f41 d3b4 1f41 3a38 1f41
000000b0: 62f7 1e41 ce67 1f41 39c7 1c41 40a2 1e41
000000c0: 5856 1f41 07bc 1e41 b442 1f41 2781 1f41
000000d0: 771f 1f41 0786 1e41 b758 1f41 9246 1f41
000000e0: 3fc8 1e41 e714 1f41 24cd 1f41 d229 1f41
000000f0: b3da 1c41 6d78 1f41 1f0e 1f41 8a0b 1d41
00000100: 268a 1f41 491e 1d41 7bda 1e41 d98d 1e41
00000110: 3396 1e41 8de7 1f41 569a 1f41 f6ec 1c41
00000120: e41b 1f41 823c 1c41 2544 1b41 c45a 1e41
00000130: af22 1e41 ca73 1c41 4aa5 1e41 8287 1d41
00000140: 107c 1f41 0a18 1e41 65ff 1d41 5c8f 1c41
00000150: 7324 1f41 b016 1d41 32e6 1d41 e400 1f41
00000160: 73e9 1e41 1924 1e41 22f9 1e41 3722 1f41
00000170: 6238 1e41 d95f 1f41 bc94 1e41 8aca 1d41
00000180: fe42 1d41 7e97 1d41 cb0d 1e41 4802 1f41
00000190: 2980 1d41 6869 1e41 0ef9 1e41 8827 2041
000001a0: 6d23 1d41 801c 1f41 5f85 1e41 07a3 1f41
000001b0: ba27 1f41 69ac 1e41 1bca 1e41 f106 1f41
000001c0: 7b65 1e41 a237 1d41 e823 1f41 6534 1f41
000001d0: c297 1e41 8a27 1e41 51e2 1f41 13f5 1c41
000001e0: 019d 1f41 b498 1f41 5558 1f41 899c 1c41
000001f0: 389d 1e41 b691 1d41 bfe3 1c41 ffd4 1d41
00000200: 6abd 1e41 7214 1f41 bc62 1f41 5914 1f41
00000210: 9b8f 1f41 5f84 1f41 5669 1f41 5e08 1e41
00000220: fcd7 1d41 1369 1f41 5a67 1e41 1a1a 1f41
00000230: fc7b 1d41 0bfd 1e41 5296 1e41 a7f9 1e41
00000240: 2ad0 1e41 332e 1d41 d8e4 1d41 f226 1f41
00000250: 4a2c 1d41 184a 1d41 240e 1f41 d85c 1e41
00000260: 2233 1d41 d7e9 1f41 20d7 1e41 b658 1d41
00000270: 5db4 1d41 9ffa 1e41 1aa4 1f41 6dac 1f41
00000280: 74ba 1f41 19c0 1e41 a655 1f41 10c4 1f41
00000290: db5c 1f41 76cb 1d41 a26b 1c41 bb75 1e41
000002a0: 92bb 1f41 a994 1e41 573b 1d41 38c0 1e41
000002b0: 6bca 1d41 5285 1f41 e704 1e41 0720 1d41
000002c0: 93b2 1f41 b5f4 1e41 f773 1d41 c0bc 1e41
000002d0: 1871 1f41 ca56 1d41 1388 1e41 6db1 1c41
000002e0: 71a6 1e41 6a46 1f41 df48 14c0 2427 1e41
000002f0: 107d 1f41 4ec8 1e41 1853 1d41 7d01 1f41
00000300: 016c 1e41 2022 1f41 6df6 1c41 ba71 1f41
00000310: 6aa8 1f41 efcd 1e41 079c 1e41 8d88 1d41
00000320: c8ca 1d41 c302 1f41 91e2 1e41 6c60 1f41
00000330: c79e 1d41 3266 1e41 a171 1e41 f1fd 1c41
00000340: 0828 1d41 4990 1e41 4da9 1841 bbd2 1e41
00000350: cf52 1e41 d2ae 1e41 feab 1e41 5431 1e41
00000360: 9e6a 1f41 48dd 1d41 f4b0 1f41 a7dd 1e41
00000370: edbd 1e41 7191 1e41 7b6a 1f41 e678 1e41
00000380: ffe6 1b41 b4de 1d41 381f 1d41 ab24 1e41
00000390: a8f4 1e41 3277 1e41 0f6e 1e41 31a1 1e41
000003a0: 9047 1e41 2432 1f41 22a6 15c0 8932 1e41
000003b0: a039 1f41 4564 1e41 6fcf 1f41 8519 1f41
000003c0: e33f 1d41 6c92 1e41 c578 1f41 5d58 1d41
000003d0: 2308 1f41 766b 1f41 bbaf 1d41 75e1 1e41
000003e0: 0a0e 1d41 0473 1e41 2d09 2041 3d0e 1e41
000003f0: e3be 1f41 eda2 1c41 d223 1f41 4f03 1e41
9.966056 9.910164 9.864421 9.928048 9.890186 9.8338375 9.939014 9.908074
9.904222 -2.3865278 9.944198 9.94894 9.860254 9.993966 9.984706 9.913268
9.939928 9.781916 9.790689 9.861593 9.837457 9.873135 9.886344 9.938959
9.846339 9.937438 9.965375 9.84489 9.940613 9.986868 9.920991 9.817602
9.831239 9.917491 9.976063 9.834167 9.915366 9.816466 9.956963 9.9210825
9.933061 9.973335 9.981647 9.951227 9.935396 9.962843 9.798638 9.914612
9.95858 9.920905 9.953785 9.969031 9.945182 9.9077215 9.959159 9.954729
9.923888 9.942603 9.987583 9.94771 9.803393 9.966901 9.940948 9.815317
9.971228 9.819894 9.92834 9.909631 9.91167 9.994031 9.97518 9.807852
9.944309 9.764772 9.704137 9.89716 9.883468 9.778269 9.915354 9.845583
9.967789 9.880869 9.874852 9.785 9.946399 9.818039 9.8687 9.937717
9.931994 9.883813 9.935823 9.945853 9.888765 9.9609 9.911312 9.861948
9.8288555 9.849485 9.878367 9.938057 9.843789 9.900734 9.935804 10.009651
9.821149 9.944458 9.907561 9.977302 9.947199 9.917092 9.924342 9.939195
9.8997755 9.826082 9.946266 9.950292 9.91205 9.884653 9.992753 9.809833
9.975831 9.974781 9.959065 9.788217 9.9133835 9.848074 9.805602 9.864501
9.921244 9.942492 9.961605 9.942468 9.97256 9.969817 9.963217 9.877043
9.865231 9.963153 9.900232 9.943872 9.84277 9.936778 9.911699 9.93595
9.925821 9.823779 9.86837 9.947008 9.823313 9.830589 9.940952 9.897667
9.824984 9.99459 9.927521 9.834158 9.856534 9.936187 9.977564 9.979596
9.983021 9.921899 9.95841 9.985367 9.96017 9.862173 9.776278 9.903743
9.983294 9.911294 9.826987 9.921928 9.861918 9.970049 9.876197 9.820319
9.981097 9.934743 9.840812 9.921082 9.965111 9.833689 9.908221 9.793317
9.915635 9.954691 -2.3169477 9.884556 9.968033 9.9239025 9.832787 9.937863
9.901368 9.945831 9.810163 9.965265 9.978617 9.925277 9.913093 9.845838
9.862007 9.938174 9.930314 9.9610405 9.851264 9.89995 9.902741 9.811997
9.822273 9.910226 9.541333 9.926448 9.895217 9.917681 9.91699 9.887043
9.96353 9.866524 9.980701 9.929114 9.921369 9.910508 9.963496 9.904516
9.743896 9.866871 9.820122 9.883952 9.934731 9.9041 9.90187 9.914353
9.892471 9.949741 -2.338265 9.887338 9.951569 9.89948 9.988143 9.94373
9.828097 9.910748 9.966985 9.834073 9.9394865 9.963736 9.855403 9.930043
9.8159275 9.90308 10.00224 9.878476 9.984103 9.789777 9.946245 9.875808

fc2.weight f4 [128, 256]
00000000: 1b3b 1c41 87d0 1a41 93ea 1c41 4c01 1d41
00000010: 43cb 1c41 77b4 1a41 8fe9 1e41 c709 1b41
00000020: 82d8 1a41 7a44 77c0 26e1 1b41 67f7 1841
00000030: 82c7 1c41 e6c4 1b41 de0a 1b41 60ec 1b41
00000040: c82f 1b41 f248 1741 dbc1 1b41 2336 1d41
00000050: 2f10 1d41 40c4 1c41 7c0b 1941 128a 1a41
00000060: 7680 1641 f826 1a41 d09a 1841 2a88 1c41
00000070: 4924 1e41 e375 1b41 6b54 1c41 86f7 1b41
00000080: f03f 1a41 6a65 1c41 63e4 1941 ec29 1a41
00000090: 2e82 1b41 98ab 1d41 a786 1b41 3bb5 1c41
000000a0: 02cb 1d41 99aa 1b41 1023 1c41 95d4 1d41
000000b0: 5626 1e41 578f 1941 6da5 1541 c695 1e41
000000c0: d99e 1b41 40bc 1a41 ad9e 1c41 df3d 1a41
000000d0: 181a 1b41 81f4 1c41 f8d4 1d41 2ec5 1941
000000e0: 8c43 1a41 45f0 1841 d687 1b41 3c0d 1b41
000000f0: bc90 1a41 aa6c 1a41 8ae0 1c41 054a 1b41
00000100: f62d 1b41 0323 1a41 e21d 1c41 60ae 1c41
00000110: 34e3 1a41 c160 1c41 9465 1d41 6985 1541
00000120: 8909 1d41 4de4 1341 cd02 1941 054a 1f41
00000130: 7f04 1941 cf7f 1741 3cf9 1941 94bf 1841
00000140: e70e 1c41 4d6a 1b41 d414 1b41 5d69 1441
00000150: 46ff 1a41 a498 1c41 0578 1941 e0f1 1a41
00000160: c2e8 1941 1b4f 1b41 d9a2 1c41 9d7f 1c41
00000170: a4e4 1d41 e51e 1a41 08f4 1b41 ed72 1841
00000180: 1140 1841 c198 1841 57c1 1841 2005 1c41
00000190: 610a 1a41 12cc 1941 c9e4 1b41 79ae 1b41
000001a0: 9034 1d41 bee4 1e41 b2f9 1941 c711 1b41
000001b0: dd8e 1c41 194f 1a41 0cbb 1a41 82eb 1a41
000001c0: 199a 1941 cf27 1b41 64c8 1c41 7f30 1c41
000001d0: f414 1b41 2558 1a41 2c02 1941 31bd 1a41
000001e0: 1dfd 1b41 e02f 1c41 d966 1941 50b1 1741
000001f0: 8760 1a41 e722 1d41 2f7a 1a41 91fd 1841
00000200: c409 1f41 4d23 1941 77e0 1f41 9891 1b41
00000210: 1a88 1b41 377b 1a41 db00 1c41 5344 1c41
00000220: 1e6f 1c41 06c7 1a41 0198 1d41 1186 1c41
00000230: 7ad8 1c41 8c99 1d41 601a 1941 fa5a 1d41
00000240: b479 1a41 89b3 1b41 9d16 1c41 46e4 1d41
00000250: 2da5 1941 81a3 1c41 2a19 1941 1156 1a41
00000260: a04f 1b41 03d3 1941 5c86 1a41 b4bf 1b41
00000270: 35ae 1c41 0906 1b41 848b 1c41 80ca 1b41
00000280: 44ee 1941 4efa 1941 583d 1d41 0cd2 1a41
00000290: d794 1841 0fae 1d41 0294 1c41 8c96 1a41
000002a0: 335d 1a41 f629 1c41 50e7 1b41 aa57 2041
000002b0: 0b9c 1941 076b 1b41 ca78 1b41 e80d 1b41
000002c0: f189 1c41 5d30 1d41 56b2 1741 1c78 1b41
000002d0: 6577 1c41 daae 1a41 8a56 1a41 b811 1a41
000002e0: 4e06 1941 cdf7 1a41 0008 8dc0 a6d9 1b41
000002f0: d1e8 1b41 5e1d 1d41 0950 1c41 9193 1b41
00000300: abb5 1a41 344c 1b41 8e36 1641 fae5 1b41
00000310: 9caf 1c41 e54d 1a41 98ae 1b41 61fa 1741
00000320: 0d04 1c41 5862 1c41 33bf 1941 f5c0 1c41
00000330: aef8 1941 7ac1 1841 65da 1d41 d4fb 1a41
00000340: c608 1941 03ad 1841 743c 0f41 e49b 1941
00000350: 6fe9 1d41 8d36 1c41 35d7 1941 e0e6 1b41
00000360: 4c78 1a41 4b8c 1b41 5a66 1b41 5935 1b41
00000370: 6d0c 1e41 5db9 1d41 6e9b 1c41 3eaf 1a41
00000380: 3a74 1941 715d 1b41 6710 1b41 ff1d 1a41
00000390: 9fb8 1941 7bcb 1e41 30e7 1941 e7d7 1c41
000003a0: 67e0 1a41 e7ca 1c41 1538 80c0 1d9d 1a41
000003b0: b965 1b41 abc9 1b41 7c56 1a41 8d38 1c41
000003c0: 269a 1a41 6168 1a41 2a59 1d41 c540 1d41
000003d0: b6f0 1a41 7a69 1941 f1a9 1a41 5f7e 1b41
000003e0: f5a7 1841 365f 1b41 44a0 1d41 4bb0 1941
000003f0: a17c 1b41 b973 1b41 8ac9 1a41 ecea 1841
9.76443 9.67591 9.807269 9.812817 9.799624 9.669059 9.932021 9.689887
9.677858 -3.8635545 9.742468 9.560401 9.798708 9.735571 9.690153 9.745209
9.699165 9.455309 9.734828 9.825717 9.816451 9.797913 9.565304 9.658709
9.406363 9.634514 9.537796 9.783243 9.883859 9.716281 9.77061 9.747931
9.64061 9.774759 9.618258 9.635235 9.719282 9.854393 9.720374 9.794246
9.862062 9.72915 9.75856 9.8644 9.884359 9.597495 9.352887 9.911566
9.726281 9.670959 9.788739 9.640105 9.693871 9.809693 9.864494 9.61064
9.641491 9.55866 9.720663 9.690731 9.660336 9.651529 9.804819 9.705571
9.698721 9.633548 9.757296 9.792572 9.6804695 9.773622 9.837299 9.345071
9.814828 9.2432375 9.563184 9.955571 9.563598 9.468703 9.623348 9.546772
9.753638 9.713452 9.692585 9.275723 9.687323 9.787266 9.591802 9.6840515
9.619326 9.706813 9.789758 9.781156 9.86832 9.632543 9.747078 9.528058
9.515641 9.537293 9.547202 9.751251 9.627534 9.612322 9.743356 9.730096
9.825333 9.930845 9.623461 9.69184 9.784879 9.644311 9.670666 9.682497
9.6001215 9.697219 9.7989235 9.76184 9.6926155 9.64652 9.56303 9.671189
9.749295 9.761688 9.587609 9.480789 9.648566 9.821021 9.65483 9.561906
9.939884 9.571118 9.992301 9.723045 9.720728 9.655082 9.750209 9.766681
9.777128 9.67359 9.84961 9.782731 9.802851 9.849987 9.568939 9.834711
9.654713 9.731332 9.755521 9.868231 9.602826 9.789918 9.568644 9.646012
9.70694 9.614017 9.657803 9.7343025 9.792531 9.688973 9.784061 9.736938
9.62067 9.62361 9.8274765 9.676281 9.536338 9.854995 9.786135 9.661755
9.647754 9.760244 9.743973 10.021402 9.600596 9.71363 9.7169895 9.690895
9.783677 9.824307 9.481039 9.716824 9.779149 9.667688 9.646128 9.629326
9.564039 9.685498 -4.4072266 9.740637 9.74434 9.81967 9.76954 9.723527
9.669353 9.706104 9.388319 9.743647 9.792873 9.644017 9.730125 9.498628
9.750989 9.77401 9.6091795 9.797109 9.623213 9.5472355 9.865819 9.686481
9.564642 9.542239 8.952259 9.600559 9.869491 9.763318 9.615041 9.743866
9.654369 9.721751 9.712488 9.700524 9.878034 9.857755 9.787947 9.667784
9.590876 9.710313 9.6915045 9.632323 9.6075735 9.924678 9.618942 9.802711
9.679786 9.799537 -4.006846 9.663358 9.712335 9.736735 9.646114 9.763806
9.662634 9.650483 9.834269 9.828313 9.683767 9.588251 9.66649 9.718352
9.541005 9.710745 9.851627 9.60554 9.717927 9.715753 9.674204 9.557354

fc2.bias f4 [128]
00000000: a29d 1741 04c8 a8bd 4a71 1741 363e 40bd
00000010: 82be 1641 e256 78bb c413 1741 69d0 e2bc
00000020: 8750 1641 213b 1bbd ac9e 1641 7dc6 1441
00000030: ef9e cd3b c914 1741 5f20 0e41 2cff 1641
00000040: d806 1641 0f91 99bd 4ab2 1741 5fa8 1741
00000050: fc86 1741 e178 1641 2843 1741 2b71 1641
00000060: 0d94 1741 2183 93bd 32a4 1741 9bd8 1741
00000070: a8dd 1541 f6e7 1741 a775 1641 880b 1841
00000080: ccb8 29bd 661e 1641 513a 1741 6413 1641
00000090: 2ba9 1641 091e 1741 4fa1 1641 8d48 1641
000000a0: a9bd 1741 c87d 1741 f359 1641 0c9f 1741
000000b0: 3f3a 1741 d86f 1741 24d6 1741 cc73 1741
000000c0: 0b32 1641 9bb4 1741 49a6 1741 f908 1641
000000d0: 5f3a 1641 f1d1 1641 c6d1 1641 fa84 1641
000000e0: 350e 1641 ac54 1541 3f11 1741 aa8e 1741
000000f0: 6f9d 1741 2dd1 bf3c d9a8 1741 fb16 1741
00000100: 4ead 15bd 5a0d 1741 8878 1641 6c32 1741
00000110: d188 1341 4c01 1741 0c44 733a d7b3 1741
00000120: a06f 1641 99a7 df3c 286f 503d 14ad 1741
00000130: 5dc8 1541 7120 1841 e59d 1541 c4b6 1741
00000140: d949 1741 ab62 1641 d930 1741 0ccb 1641
00000150: 20ca 1641 ca69 1541 5356 1741 d32c 1641
00000160: 078b 1641 ce94 1641 60f1 fb3c e8f0 1641
00000170: fbd2 1741 756f 1641 978b 1641 0a23 1741
00000180: 3d22 1741 0817 1741 127d 1741 b962 1641
00000190: aae8 1641 2463 1741 55f6 1541 5bb4 1741
000001a0: 52fa 07bd b4fa 5ebd 8b99 1741 f995 1741
000001b0: c07c 1741 f9ad 1641 421b 1641 9026 1641
000001c0: df54 1641 ca7a 1641 f862 1641 1080 1641
000001d0: 5704 1741 7b89 1641 331a 1741 b2db 1641
000001e0: ece4 1641 6724 1641 f2a1 7d3c e35b 1541
000001f0: 4cb3 1741 87e0 1741 7049 1741 d5c6 1741
9.475985 -0.08241275 9.465158 -0.04693433 9.421511 -0.0037893583 9.442326 -0.027687268
9.39466 -0.037898187 9.413738 9.298459 0.00627505 9.4425745 8.882903 9.437298
9.376671 -0.07498371 9.481028 9.478606 9.470455 9.404511 9.453896 9.402629
9.473645 -0.07202745 9.477587 9.490382 9.366615 9.494131 9.403724 9.502815
-0.041436 9.3824215 9.451737 9.379734 9.416301 9.444833 9.414382 9.392713
9.483804 9.468208 9.39696 9.47633 9.45172 9.464806 9.48978 9.465771
9.3872175 9.481593 9.478097 9.377191 9.389251 9.426255 9.426214 9.407465
9.3784685 9.333172 9.44171 9.47233 9.475936 0.023415172 9.478723 9.44311
-0.03654223 9.44076 9.404427 9.44981 9.220902 9.437817 0.0009279854 9.481406
9.402252 0.027301596 0.050887257 9.479755 9.361417 9.50792 9.351048 9.4821205
9.455529 9.399089 9.449426 9.424572 9.424347 9.338327 9.458575 9.385943
9.408942 9.411329 0.030754745 9.433815 9.489009 9.402211 9.40908 9.446054
9.445859 9.443123 9.468035 9.399102 9.431803 9.461704 9.37264 9.481532
-0.03319771 -0.054438308 9.474986 9.474114 9.467957 9.417474 9.381655 9.384415
9.3957205 9.404978 9.399162 9.406265 9.43856 9.408565 9.443896 9.428637
9.430889 9.383887 0.015480505 9.334933 9.481274 9.492316 9.455429 9.486043

fc3.weight f4 [64, 128]
00000000: 4c19 e53c d9a9 a3bd 1e07 873d c648 14bd
00000010: 9541 9d3d 9b34 26bb bc39 8dbd d6ec 8fbd
00000020: f2ae 143d 5810 4abc 836a 86bc a079 853d
00000030: 608e 73bc fd34 1abd 17ae ad3d 85ad 933c
00000040: b66c 793d 26cf 21bd 64fd 993d 21fc abbc
00000050: 6a54 8f3d 8393 723d 62bb 473d 386f d63c
00000060: ee50 7abd 0093 a439 f778 c3bd 269e 4b3d
00000070: c5c2 983d 9d43 cfbc 3c9f afbc 37ff 6dbd
00000080: f66f 2fbc 2c30 36bd 49f4 e0bb d768 99bc
00000090: d22b 203d b396 4fba 460a 3a3d 26f2 d13c
000000a0: ad2a 2fbd 51bc a13c d4fb 2a3d e8c7 823d
000000b0: f725 c6bd 25a6 1dbd 08e9 b9bd a4c3 023d
000000c0: 35e3 aa3c 7c26 0c3c 2ca9 b2bd 22f5 b4bd
000000d0: 6b0f bdbd 24a3 35bd d163 4ebd 637d 6abd
000000e0: 86c3 d53c 3659 323d ccd0 e33c 310d 2f3d
000000f0: 4ea1 293c 7058 823d f3d8 b3bd bd7c a7bd
00000100: 3689 e0ba 2351 9e3d 50cf ff3c 7af7 913c
00000110: 3c59 063d 0d3b 45bd 0c81 46bd 5088 b6bd
00000120: 745c 953d 30b5 413d 1308 6fbd 3e36 44bd
00000130: 576a fa3c 6907 96bd f67b c93c 02a2 4abd
00000140: 3bed a73c 33b7 653d 12ab abbc 2c07 33bd
00000150: 8ff1 8fbd 1e7e a23d 713c 0fbc 8bfb c6bd
00000160: c330 d13c 661a 9abd 46a1 8cbd 06e2 fc3c
00000170: 8e60 5e3d 482c 2ebd 2655 493d ba12 8c3a
00000180: a360 b6bd e770 8abc 93f4 e43c ebf8 743d
00000190: f683 a8bd f537 c1bd d07e 9a3b 0354 78bd
000001a0: a3a6 9bbd 8ce9 3fbd b9b2 cb3b 1c93 8f3d
000001b0: bd9f 03bd 002c a3bd 6ea4 f53c edda 46bd
000001c0: cd2e b03c 7e8a 72bd e5f6 963d e163 84bc
000001d0: d70d e9bc d36f 613d 0be4 a7bd c882 0f3c
000001e0: 03f9 863d 6321 b93b 5cc3 f53c 3d8f 973d
000001f0: 5273 69bd 86d6 9d3c 2095 43bd 64b2 1ebd
00000200: 7345 1c41 e69a 553c 4ecc 1c41 d260 dcbc
00000210: 1da2 1a41 0ed3 97bd 9850 1b41 ac13 803b
00000220: 8b3a 1941 7494 253c 4339 1b41 e573 1b41
00000230: 1912 37bf 39f5 1a41 4448 1641 2c38 1a41
00000240: c179 1b41 7e48 b2bc a715 1c41 481c 1b41
00000250: 59cd 1c41 fcd4 1c41 ed5d 1b41 ab69 1b41
00000260: 9459 1c41 e437 93bd af9a 1d41 86e3 1a41
00000270: c5c4 1b41 dbc6 1b41 fcda 1b41 43fb 1a41
00000280: 781a 6c3c 91cf 1b41 20e2 1b41 47b6 1b41
00000290: ca38 1b41 e9a7 1b41 0c13 1c41 5794 1a41
000002a0: 12d8 1b41 7f4e 1b41 9af3 1b41 1d32 1b41
000002b0: 7384 1b41 3a21 1b41 d154 1c41 2f4e 1a41
000002c0: d927 1b41 c428 1d41 56b4 1c41 fc92 1b41
000002d0: a040 1a41 9646 1b41 0461 1b41 6373 1a41
000002e0: 4f37 1c41 0470 1a41 b691 1b41 795b 1d41
000002f0: a4b6 1b41 d623 60bd d1e1 1a41 3f88 1a41
00000300: ad57 e8be 296b 1d41 636d 1a41 9677 1a41
00000310: 4886 1b41 3b41 1b41 cc30 16bf 0eb5 1c41
00000320: ba0b 1d41 bb84 aabd 38d1 943d 244f 1c41
00000330: 41b3 1c41 1402 1b41 7001 1a41 41b0 1c41
00000340: c177 1c41 703b 1b41 f0d1 1b41 992f 1b41
00000350: 43ff 1c41 bf1f 1a41 9de9 1c41 5955 1c41
00000360: 0e60 1a41 983d 1b41 a870 9cbd 09c6 1b41
00000370: b130 1b41 ebcf 1b41 ef0a 1d41 1fef 1b41
00000380: 35ad 1c41 98ad 1c41 b228 1c41 2785 1b41
00000390: ad00 1941 773a 1b41 5f11 1b41 af75 1b41
000003a0: 15ed 933d f0b9 d73c d260 1c41 aae5 1c41
000003b0: 6a8b 1b41 ebb4 1c41 8cab 1b41 cca9 1a41
000003c0: 5531 1c41 9a1f 1a41 f8d3 1c41 a9af 1a41
000003d0: 41cb 1a41 6c07 1b41 5696 1c41 95fa 1b41
000003e0: 8195 1c41 6964 1c41 78ce a13d 17e1 1a41
000003f0: 5eee 1c41 d833 1b41 efe5 1b41 d2a5 1c41
0.027966164 -0.0799138 0.06593154 -0.036202215 0.076785244 -0.0025360945 -0.068957776 -0.07027595
0.036299653 -0.012332998 -0.01640821 0.06517339 -0.014865488 -0.03764819 0.08480471 0.018027076
0.06089469 -0.039504193 0.075190336 -0.020994248 0.069985226 0.05922271 0.048762687 0.02617608
-0.061112337 0.0003139004 -0.095445566 0.04971137 0.07459024 -0.025300795 -0.021438234 -0.05810472
-0.010707846 -0.044479534 -0.0068650586 -0.01872675 0.03910429 -0.0007918879 0.045419954 0.02562816
-0.04276531 0.019743117 0.04174407 0.06385785 -0.0967521 -0.038488526 -0.0907765 0.03192486
0.020860294 0.008554097 -0.08723673 -0.08835818 -0.09231456 -0.044345036 -0.05038816 -0.057248484
0.02609421 0.04354211 0.027809523 0.04273719 0.010353399 0.06364524 -0.08781614 -0.08178089
-0.0017130736 0.07730319 0.031226784 0.017818201 0.032799944 -0.04815202 -0.048462912 -0.08912718
0.07293025 0.047291934 -0.05835731 -0.047903292 0.030568285 -0.07325632 0.024595242 -0.04947091
0.020498862 0.056082916 -0.020955596 -0.04370801 -0.070284955 0.07934211 -0.008742438 -0.09715947
0.025535947 -0.07524566 -0.06866698 0.030869495 0.0542913 -0.0425227 0.04915347 0.0010686733
-0.08905151 -0.01689954 0.027948653 0.0598077 -0.082282946 -0.09434501 0.0047148243 -0.060626995
-0.07600143 -0.046853587 0.0062163738 0.07010481 -0.03213476 -0.07967377 0.029985633 -0.048548628
0.021506691 -0.059214108 0.0737131 -0.016160907 -0.028448982 0.055038285 -0.081977926 0.008759208
0.06590464 0.005649732 0.030000381 0.074003674 -0.056994744 0.019267332 -0.04774964 -0.038744345
9.766955 0.013037419 9.799879 -0.026901636 9.664578 -0.07413302 9.707176 0.003908595
9.576793 0.010106195 9.70148 9.715795 -0.7151199 9.684869 9.392643 9.638714
9.717225 -0.021763083 9.755286 9.694405 9.800134 9.801998 9.710431 9.713298
9.77187 -0.07188395 9.850265 9.680548 9.735539 9.736049 9.740963 9.686343
0.0144106075 9.738175 9.742706 9.732001 9.7013645 9.728494 9.75465 9.661216
9.740252 9.706664 9.746973 9.699735 9.719836 9.695612 9.770707 9.644088
9.697228 9.822453 9.794027 9.723385 9.640778 9.704733 9.711185 9.653171
9.763503 9.652348 9.723074 9.834832 9.73209 -0.054721676 9.680131 9.658263
-0.4537939 9.838662 9.651706 9.654196 9.7202835 9.703425 -0.5866821 9.794203
9.815363 -0.083260976 0.07266468 9.769321 9.793763 9.688007 9.625351 9.793031
9.779237 9.702011 9.738754 9.6991205 9.81232 9.6327505 9.8070345 9.770837
9.648451 9.702538 -0.07638675 9.735848 9.699388 9.738261 9.815169 9.745879
9.792287 9.792381 9.759935 9.720008 9.562665 9.701774 9.691741 9.716231
0.07222954 0.02633378 9.773638 9.80607 9.721537 9.794169 9.729382 9.666454
9.762044 9.632715 9.80175 9.667886 9.674623 9.689312 9.786703 9.748677
9.7865 9.774514 0.07900709 9.679954 9.808195 9.700157 9.743636 9.790483

fc3.bias f4 [64]
00000000: 7fa3 20bd 395e 1041 b1cb 0e41 56f6 0d41
00000010: bce2 0e41 c85a cabd b88a 33bd c18c 0e41
00000020: 8be8 56bd 27c4 29bd c599 82bd 4c15 0e41
00000030: f646 0b41 7133 0e41 b9d7 0d41 187c 1d3c
00000040: 650c 97bd fdd1 0d41 eabc 0f41 645a 0f41
00000050: e898 85bc 456b 5bbd f691 87bb 2803 0c41
00000060: 0152 96bd 5d13 01bd 9d85 0e41 295d 49bd
00000070: 321e 0d41 db0e 0f41 3375 0e41 312c 0e41
00000080: d7e6 0e41 35d1 0bbd d206 0d41 1028 c5bc
00000090: 2ec2 c0bd 6d53 0e41 050e 9cbd 8981 0f41
000000a0: 6721 26bd 207b 0f41 ed1b 1041 ad44 0d41
000000b0: 276b 0f41 f2c0 0e41 3d4d 0f41 3cce 0d41
000000c0: 171b 0f41 b158 0e41 2e33 0f41 c745 0f41
000000d0: 175e 1041 9e3d 3bbd 39d9 0c41 98a8 0f41
000000e0: b7c3 1041 8d91 9cbd db9a 0f41 9910 0e41
000000f0: 4c77 20bd 2014 0f41 916f 0d41 2cb5 0c41
-0.039218422 9.023004 8.924729 8.872641 8.930355 -0.098805964 -0.043833464 8.909364
-0.052467864 -0.04144683 -0.063769855 8.880199 8.704824 8.887559 8.865167 0.009612106
-0.07375411 8.863767 8.983622 8.959568 -0.016308263 -0.053569097 -0.004137273 8.750771
-0.0733986 -0.031512607 8.90762 -0.04916111 8.819872 8.941127 8.903613 8.885789
8.931357 -0.034135062 8.814165 -0.024066955 -0.09412037 8.895368 -0.076198615 8.969125
-0.0405592 8.96756 9.006818 8.829267 8.96366 8.922106 8.956357 8.86285
8.944114 8.896653 8.949995 8.9545355 9.022971 -0.04571306 8.803033 8.978661
9.047782 -0.07644949 8.9753065 8.879052 -0.03917627 8.942413 8.839738 8.794231

fc4.weight f4 [49, 64]
00000000: 1efe d1bd 76eb 0240 ad0d 0d40 5d3a 0c40
00000010: 448d 0940 4688 ac3d 3436 65bd 8a5f 0740
00000020: 4058 49bc 509c f8bd c007 fdbc a0b8 0440
00000030: efdc 0b40 679f 0640 ba7c 1040 2cda e9bd
00000040: ea10 b1bd 16a9 0440 eeea 0e40 20ae 1140
00000050: e8d7 893d 882b ba3d daf0 d93d efa8 fd3f
00000060: 9081 c6bd 6682 9e3d d0c2 0d40 e0c2 063c
00000070: 1b34 0640 69ae 0940 6208 1040 ed9f 0e40
00000080: a403 0f40 d6e1 903d 6beb 0940 0074 c63b
00000090: 2c2c 2e3d 2c5e 0340 5e46 ebbd 231d 0f40
000000a0: d826 5ebd fb91 0c40 b659 0840 99ab 0740
000000b0: 2c35 0640 5730 0340 a326 0640 1fdf 0140
000000c0: 80cf 0d40 4c66 0540 b31e 0b40 07ff 0340
000000d0: 78e4 0e40 4012 ed3b be46 0540 5be0 0840
000000e0: f568 0a40 06d6 d8bd c9c5 1140 a576 0e40
000000f0: b0e4 8dbc 5af9 0d40 c3b1 0a40 0b29 0d40
00000100: 5586 57bd ea15 d240 8d96 cd40 6c30 d340
00000110: 12dc cd40 b244 b43c b0df 4b3d 1c14 ce40
00000120: 781d b43d 885e 3a3d 9234 fabd 317c d440
00000130: dfa8 d240 72c0 ce40 3801 cc40 0069 abbc
00000140: f8d5 05bd 30bb d040 aff0 ce40 1d7e cc40
00000150: fab1 6c3d 2087 74bd 74eb f93c 9a29 d240
00000160: 6ab9 b53d dff1 673d ab7e d140 bade cb3d
00000170: 1445 d440 6ec9 ce40 f15b cd40 a7bf cd40
00000180: 1fed d340 0854 e43d 849f d240 367f 87bd
00000190: 2256 c63d 2987 cf40 6f29 943c b0cb cf40
000001a0: 1a79 e4bd e3db d240 a0a1 cf40 2cf3 d140
000001b0: 8da6 cc40 3b7b d240 f62f cb40 c400 ca40
000001c0: 15a6 d340 5644 ca40 9a71 d340 de80 c540
000001d0: 999b cb40 b8b6 203d 74fb c840 4e6a d040
000001e0: cbbc d040 8cd2 923d f364 ca40 ae3a c840
000001f0: 3a48 bf3d 8322 c640 4dd8 d540 5718 d340
00000200: 0087 fbbb 1c00 5640 b621 5540 02e5 5140
00000210: 9d5d 5e40 d8e8 37bd 43d3 883d 99a1 5940
00000220: 306c f33c b0b6 c3bc 5265 88bd 2418 5a40
00000230: 004f 4b40 e652 6640 d6dd 6a40 e033 bc3c
00000240: 6c18 483d 3fa0 5b40 9126 6940 dc2e 6340
00000250: f794 263d 8029 4abd 70f3 dbbd d913 6040
00000260: ecb1 00bd 2f31 513d ccab 5740 0c7a f1bd
00000270: 8237 4840 7fab 5440 32fe 5d40 756e 5c40
00000280: a47a 5840 d8ae 443d a9db 5c40 3409 65bd
00000290: c0f0 18bd 6188 6840 108a 12bd 262f 5b40
000002a0: a8bd 86bd 4c19 5840 626d 5940 b0cd 6140
000002b0: acc7 5d40 2cbb 6040 1b1b 6840 3476 5d40
000002c0: e8a9 5e40 6cfd 6940 fa7f 5540 cbb0 6d40
000002d0: 71ce 6b40 7e98 c7bd d100 6d40 fd4b 6740
000002e0: 8943 5a40 48e6 afbc f63a 6440 9074 6f40
000002f0: 406e 66bc 599c 6e40 da8b 5340 9d73 4f40
00000300: 8ff9 61bd bbb8 f540 764b f640 1a5d ef40
00000310: ac9b ef40 a4a2 f83d e5bf 8b3c 9ff7 f340
00000320: fce8 0dbd d45b b1bd a732 55bd 6d21 f340
00000330: 413d f440 6b64 f040 6bdc ef40 083c a03c
00000340: 627b af3d 9339 f540 15c8 f540 2b9b f140
00000350: 08a9 99bd 288f e93d 523e b73d 80cc ef40
00000360: 7a49 a43d 1099 7d3d 4e7b ef40 7022 ddbc
00000370: a64f f240 b82b f240 7cfa f440 cb3d ef40
00000380: 6508 f540 c4e9 82bd fac3 f340 d03b 7fbc
00000390: 8041 d03c a723 f140 2453 4f3d b545 f140
000003a0: 20f6 cebd f4dd f240 9b0b f440 7c90 f340
000003b0: b1f6 f540 c2f6 f040 5bed f140 4737 ee40
000003c0: d162 f140 dd38 f440 3f5a f540 bb8e ef40
000003d0: 8d41 f040 166e f63d 693e f040 ee8b f340
000003e0: 967f ef40 684b 38bd a690 f340 2224 f040
000003f0: 6291 d73d 8660 f140 90bb f040 b50f f240
-0.10253547 2.0456214 2.2039597 2.1910622 2.1492472 0.084244296 -0.055959895 2.1152062
-0.012289107 -0.12139189 -0.030887485 2.0737686 2.1853597 2.1034791 2.2576127 -0.11418566
-0.08645804 2.0728202 2.233089 2.2762527 0.06730634 0.09090334 0.10641642 1.981718
-0.09692681 0.07739715 2.2150154 0.008225173 2.0969303 2.1512702 2.2505116 2.228511
2.2345972 0.07074325 2.1549938 0.0060563087 0.042522594 2.0526228 -0.11488031 2.2361534
-0.054236263 2.19641 2.1304755 2.1198485 2.0969954 2.0498254 2.0961082 2.0292432
2.2157898 2.0843687 2.1737487 2.0624406 2.2326946 0.0072348416 2.0824428 2.1386936
2.162656 -0.10587697 2.2776968 2.2259915 -0.01732096 2.2183442 2.1670997 2.20563
-0.052618343 6.565175 6.424628 6.599661 6.433114 0.022005413 0.049773872 6.4399548
0.08794683 0.04550031 -0.12217058 6.64016 6.583114 6.460992 6.375149 -0.020924091
-0.03267476 6.52285 6.4668803 6.3903947 0.05778692 -0.059699178 0.03050778 6.5675783
0.088732556 0.05662715 6.5467124 0.09954591 6.6334324 6.4620886 6.4174733 6.429645
6.6226954 0.1114884 6.581972 -0.066160604 0.09684397 6.485249 0.018086163 6.493614
-0.11155911 6.5893416 6.4884796 6.560934 6.395331 6.577543 6.3496046 6.3125935
6.6140237 6.320842 6.6076174 6.171981 6.362744 0.039236754 6.280695 6.5129766
6.523046 0.07169065 6.324823 6.257163 0.09339948 6.191713 6.682654 6.596721
-0.0076760054 3.3437567 3.3301826 3.2796025 3.4744637 -0.04489979 0.0668092 3.4004881
0.029714674 -0.023890823 -0.0665995 3.4077234 3.1766968 3.5988097 3.6697898 0.022973955
0.048851416 3.4316556 3.642979 3.549735 0.040669408 -0.049355984 -0.107397914 3.5012114
-0.03141968 0.051072296 3.3698606 -0.11790857 3.128388 3.3229673 3.4686399 3.4442418
3.3824854 0.048018306 3.450907 -0.05591698 -0.037338972 3.633324 -0.035776198 3.4247527
-0.06579143 3.376544 3.3973012 3.5281792 3.465312 3.511424 3.6266544 3.4603395
3.4791203 3.6560926 3.335936 3.7139156 3.6844752 -0.097458825 3.7031748 3.614013
3.410372 -0.021472111 3.5660987 3.7414894 -0.014064372 3.7282927 3.3054109 3.2414315
-0.05516964 7.6788 7.6967115 7.480115 7.487753 0.12140396 0.017059276 7.623977
-0.03464602 -0.08660093 -0.05205026 7.5978303 7.6324773 7.512258 7.4956565 0.019559875
0.08568455 7.663278 7.680674 7.5501914 -0.07502943 0.11404258 0.089474335 7.4937134
0.08021827 0.06191355 7.483802 -0.02699396 7.5722227 7.5678368 7.6555767 7.476293
7.6572747 -0.063922435 7.617673 -0.015578225 0.025421858 7.535602 0.0506164 7.539759
-0.10105538 7.589594 7.6264167 7.6113873 7.6863637 7.530122 7.560224 7.4442477
7.5433125 7.6319413 7.6672664 7.486173 7.508002 0.12032716 7.5076184 7.6108313
7.4843245 -0.044993788 7.6114073 7.5044107 0.105257764 7.5430326 7.522896 7.5644174

fc4.bias f4 [49]
00000000: c20f 2840 7def ca40 e2bb 8940 f51b e740
00000010: 0699 7e40 d323 9940 fb9d 6f40 6204 d140
00000020: 0726 b040 64f3 9840 1f44 a440 0357 c340
00000030: ae4b 8d40 6a7a a73d b242 f840 f2fb 9540
00000040: c5ad e740 9b8b f140 9a22 a940 4c06 b0bd
00000050: 2040 55bc 6df7 8240 23ad b340 8cb5 a340
00000060: fae1 c740 9829 103d a011 b23d acb3 99bd
00000070: a715 eb40 6532 8a40 fe5b 8d40 f45b 8abd
00000080: f49e 863d 04a2 00bd b05c f93d acad 8b40
00000090: d74e b940 4279 ba3d 0005 c8bb f405 da3d
000000a0: ac84 30bd 905e ef3d feeb 9540 f88c eebc
000000b0: d03e edbc 60b0 febd ca58 d33d 0cf1 0a3d
000000c0: b8c5 873c
2.6259618 6.3417344 4.304185 7.2221627 3.9780898 4.785623 3.7440174 6.531785
5.504642 4.779711 5.1333156 6.1043715 4.4154882 0.081776455 7.7581415 4.687005
7.239962 7.5482917 5.285474 -0.08594951 -0.013015777 4.0927033 5.614885 5.1159115
6.246335 0.035195917 0.08694768 -0.07504973 7.346393 4.3186517 4.4174795 -0.0675582
0.06573287 -0.03140451 0.12175882 4.36495 5.790874 0.09105159 -0.0061041117 0.10645667
-0.043095276 0.11687958 4.6850576 -0.029119954 -0.028960615 -0.124359846 0.103196695 0.033921286
0.016573772
